checkpoints_anomalies/model-60.pt (torch, 819305 bytes, 45 tensors)

encoder.conv1.weight f4 [8, 1, 3, 3]
0	0xbe2e0209	-0.16992964
1	0x3f0a7c66	0.54096067
2	0xbf0cf0fc	-0.5505521
3	0xbf09f4e0	-0.53889275
4	0x3e57cf0f	0.2107508
5	0xbf56c226	-0.83889997
6	0xbd2f127f	-0.04274225
7	0xbdaafad4	-0.08348623
8	0xbe8c109c	-0.27356422
9	0x3e990919	0.29889753
10	0xbe8f9c58	-0.28048968
11	0x400e035a	2.2189546
12	0x3c9fd762	0.019511882
13	0xbe67e21d	-0.22644849
14	0x3e985d56	0.2975871
15	0x3e2c2547	0.16811095
16	0xbf0210db	-0.5080697
17	0x3ef8d699	0.48601225
18	0xbea802c4	-0.3281461
19	0xbf05ca22	-0.52261555
20	0xbf2e8251	-0.681676
21	0xbd3a9c49	-0.0455592
22	0xbce3defe	-0.027816292
23	0x3e8426e0	0.2581091
24	0x3f7798b0	0.9671736
25	0x3e5def61	0.21673347
26	0x3ebb7287	0.36610815
27	0xbe98b01c	-0.2982186
28	0xbf1b5206	-0.6067203
29	0xbe29d1e8	-0.16583979
30	0xbeb9ca01	-0.3628693
31	0xbed54a2f	-0.4165816
32	0xbd7eeabd	-0.062235583
33	0xbf3da322	-0.74077046
34	0xbf0ae70b	-0.54258794
35	0x3ec744eb	0.38919768
36	0x3ea92c08	0.33041406
37	0x3c185f0e	0.009300007
38	0xbf3be7e0	-0.7340069
39	0x3e92ec49	0.28695896
40	0x3ee1fc35	0.4413773
41	0xbf035fdb	-0.5131814
42	0x3f2bffd6	0.6718725
43	0x3bcafa20	0.006194368
44	0xbf03abbc	-0.5143392
45	0xbdee792e	-0.11644207
46	0x3f502c11	0.8131724
47	0xbef0ff36	-0.4706971
48	0xbe5756e4	-0.2102924
49	0x3f0d454a	0.5518385
50	0xbec9f3ed	-0.39443913
51	0x3ef3e1a4	0.47633088
52	0x3eff4dc5	0.4986402
53	0xbde8df40	-0.113707066
54	0x3fadff5d	1.3593556
55	0x3dc635d7	0.09678238
56	0xbd3f2e58	-0.046675056
57	0x3e373853	0.1789258
58	0x3e6089fd	0.21927638
59	0xbe8c779b	-0.27435002
60	0x3e1daacf	0.1539719
61	0xbde4e842	-0.11177112
62	0x3f493003	0.78588885
63	0x3e8e895f	0.2783918
64	0xbee77dde	-0.45213217
65	0x3f00eb81	0.5035935
66	0x3fa4311b	1.2827486
67	0x3e92c1b6	0.28663415
68	0x3e5dc248	0.21656144
69	0x3f97d1f9	1.1860954
70	0x3ea2dcc5	0.3180906
71	0xbe9944b6	-0.29935235

encoder.conv1.bias f4 [8]
0	0x3fb87f13	1.441378
1	0xbddec173	-0.10876741
2	0x3e45300c	0.1925661
3	0xbb76019b	-0.0037537578
4	0x3ea4169d	0.32048503
5	0x3e01bae0	0.12668943
6	0x3f4e9296	0.8069242
7	0x3d74342f	0.05962008

encoder.conv2.weight f4 [16, 8, 3, 3]
0	0xbde73f77	-0.11291402
1	0xbca15c1b	-0.01969724
2	0x3ef86cf1	0.48520616
3	0xbe98ae3e	-0.29820436
4	0xbe2ecba0	-0.17069864
5	0x3ecc7ab4	0.39937365
6	0xbd5f6930	-0.054543674
7	0x3cccd2ae	0.025002804
8	0x3ea8fcb4	0.33005297
9	0x3ddb0402	0.10694124
10	0xbef38750	-0.47564173
11	0xbf94e454	-1.163218
12	0x3ea8d9ff	0.32978818
13	0x3e160793	0.14651327
14	0xbf044e81	-0.5168229
15	0x3f43b40e	0.76446617
16	0x3ea25267	0.31703493
17	0xbe878dd7	-0.26475403
18	0x3e193564	0.14961773
19	0xbe27b6f9	-0.16378392
20	0x3e3053f1	0.17219521
21	0x3e342728	0.17593062
22	0xbf4f07a9	-0.80871063
23	0xbf103b02	-0.5634004
24	0x3f47f548	0.78108644
25	0xbece58bd	-0.40302077
26	0xbef955ff	-0.48698422
27	0xbee58bf6	-0.44833344
28	0x3d75fa3e	0.060053103
29	0x3f073a19	0.52823025
30	0xbf0411e3	-0.5158979
31	0xbc71d6d6	-0.014760694
32	0x3f136919	0.5758224
33	0xbf0000d8	-0.5000129
34	0xbea0547e	-0.31314462
35	0x3f030be5	0.51190025
36	0xbe82730b	-0.25478396
37	0x3d1c60b3	0.038178157
38	0x3f3fd9fd	0.74942
39	0xbe9c17a3	-0.30486783
40	0xbeb4f824	-0.35345566
41	0x3e39b08e	0.18133757
42	0xbe88825b	-0.26661953
43	0xbec3fd00	-0.3827896
44	0x3f1a6774	0.60314107
45	0xbf258d6f	-0.64668936
46	0xbec8ca6f	-0.39216945
47	0x3f815935	1.0105349
48	0xbdb49245	-0.08816961
49	0xbe1f789d	-0.15573354
50	0x3f3f31ca	0.7468535
51	0x3ef3b73f	0.47600743
52	0x3cb5de75	0.022200802
53	0x3e8880b6	0.266607
54	0x3e9f9596	0.31168813
55	0xbd96738a	-0.07346256
56	0xbe340ac4	-0.17582232
57	0x3e885839	0.2662981
58	0x3c7c6b79	0.015406483
59	0xbda82a1e	-0.08211158
60	0x3f28957d	0.658531
61	0xbd7ba0b7	-0.061432566
62	0xbeb697f9	-0.3566282
63	0x3f274e40	0.65353775
64	0xbdb2573c	-0.08708045
65	0xbeed44e6	-0.46341628
66	0x3f1e8d88	0.6193471
67	0x3b410f5a	0.0029458613
68	0xbe30bc9b	-0.17259447
69	0x3f83c542	1.0294573
70	0x3ea89d68	0.3293259
71	0x3ea2e5c3	0.3181592
72	0xbdb3ace4	-0.08773211
73	0xbd080215	-0.03320511
74	0x3bc3a469	0.005970527
75	0xbd56628c	-0.052340075
76	0x3da7aae3	0.08186891
77	0x3de0697b	0.10957619
78	0x3f085d7b	0.5326764
79	0x3e49f512	0.19722393
80	0x3e83120d	0.2559971
81	0x3ef72a8a	0.48274642
82	0x3f182900	0.5943756
83	0x3f9d8bc1	1.2308275
84	0x3f16759e	0.5877322
85	0x3e6e487f	0.23269843
86	0x3f6df940	0.9295845
87	0x3f06ac16	0.5260633
88	0xbe40ca61	-0.18827201
89	0x3f548ae0	0.83024406
90	0x3e3ccbf5	0.18437178
91	0xbf58da80	-0.84708405
92	0xbe90b101	-0.28260043
93	0x3e1d7f32	0.15380552
94	0x3e431cc9	0.1905395
95	0xbded1170	-0.115755916
96	0x3f1e2123	0.6176931
97	0x3e35befb	0.17748635
98	0x3ea9c583	0.33158502
99	0xbdf853d4	-0.12125364
100	0x3e3acefb	0.1824302
101	0x3df34b56	0.118796036
102	0x3e73fe60	0.23827505
103	0x3e88e0c7	0.26733992
104	0x3e8f8637	0.28032085
105	0x3e44eb3f	0.19230364
106	0x3e9630b0	0.2933402
107	0xbf06909a	-0.52564394
108	0xbe3e4d71	-0.18584229
109	0x3e627ea7	0.22118627
110	0x3ef5b4d5	0.47989526
111	0x3f07b72d	0.5301388
112	0x3ef392f5	0.47573057
113	0xbc1c5edc	-0.009544101
114	0x3e7eb51e	0.24873778
115	0x3dacd208	0.08438498
116	0x3e77db72	0.24204805
117	0xbef902d3	-0.48634967
118	0x3d8ee70f	0.06977665
119	0x3dbd7122	0.09250094
120	0xbf547d85	-0.8300403
121	0xbe4d6fd1	-0.20062186
122	0xbe5a6376	-0.21327004
123	0x3fabc98a	1.342088
124	0x3f062ab9	0.5240894
125	0xbe4fcf09	-0.20293821
126	0x3eed3b33	0.46334228
127	0xbe3a78ac	-0.18210095
128	0xbd0f1cbb	-0.03493951
129	0x3e93ec7e	0.28891367
130	0xbe8a396c	-0.26996934
131	0xbef1c5a9	-0.47221115
132	0x3f0c3326	0.54765546
133	0x3e25b878	0.1618365
134	0x3f16013b	0.5859563
135	0x3ebd02aa	0.36916095
136	0xbbdef8f1	-0.0068045785
137	0x3f8fb0ee	1.122587
138	0x3f17a05d	0.5922907
139	0x3eb2b97d	0.3490714
140	0x3f312c53	0.6920826
141	0x3f836b24	1.0267072
142	0x3f76671f	0.962511
143	0x3f985b31	1.190283
144	0xbea2bf15	-0.3178641
145	0x3e83870f	0.2568898
146	0x3f0142e2	0.5049268
147	0x3f09f6db	0.53892297
148	0x3efb78de	0.49115652
149	0x3ea99dde	0.33128256
150	0x3e4ab15b	0.19794218
151	0xbdd846d2	-0.10560383
152	0xbef6eba8	-0.48226666
153	0x3de02c58	0.10945958
154	0xbe46dfaf	-0.19421266
155	0xbfa39daa	-1.278249
156	0x3e9a420d	0.30128518
157	0xbe25bbe5	-0.16184957
158	0xbbf48242	-0.007461817
159	0xbe29ee99	-0.16594924
160	0x3e807eea	0.25096828
161	0x3f3cadd5	0.73702747
162	0xbec8c395	-0.39211717
163	0x3dc5718d	0.09640799
164	0x3ee82baf	0.45345828
165	0x3eda728c	0.42665517
166	0x3c23fbcd	0.010008764
167	0x3ecdd511	0.4020162
168	0x3d026651	0.031835858
169	0x3da36dae	0.07979904
170	0x3e4f3c3f	0.20237826
171	0xbefba30e	-0.49147838
172	0xbd194c4d	-0.03742628
173	0xbe8ad3bf	-0.27114674
174	0x3ed293ce	0.4112839
175	0x3f0266f8	0.5093837
176	0x3de8a713	0.11359992
177	0x3e5aacb7	0.21354948
178	0xbcacec8f	-0.021108894
179	0xbeef6a7b	-0.46760926
180	0x3cf86dc6	0.030325782
181	0xbe1bc5c2	-0.15212157
182	0x3cc9ac8e	0.024618413
183	0xbecbeeaa	-0.39830524
184	0xbf0a9828	-0.5413842
185	0xbf1bae63	-0.6081297
186	0xbec26cac	-0.37973535
187	0x3e05ee38	0.13079154
188	0xbee5c81a	-0.44879228
189	0xbe6ab7e5	-0.22921713
190	0xbeb78b3c	-0.35848415
191	0xbeeb1a15	-0.45918337
192	0xbf0fb357	-0.56133026
193	0xbc129e97	-0.008948944
194	0xbf8447da	-1.0334427
195	0xbdae7fd4	-0.08520475
196	0x3e874323	0.2641841
197	0x3f01fa61	0.5077267
198	0x3f1bc608	0.60849047
199	0xbdc5ac93	-0.096520565
200	0xbfc1eec5	-1.5150992
201	0xbf410839	-0.7540317
202	0xc0003566	-2.0032592
203	0xbf7070bc	-0.9392202
204	0xbf09729d	-0.5369051
205	0xbe24b6ed	-0.16085406
206	0x3e39dcd8	0.18150651
207	0x3eadff86	0.3398401
208	0x3e7faeb4	0.24968988
209	0xbefbe46c	-0.4919771
210	0x3e904a55	0.2818171
211	0x3e886b03	0.26644143
212	0xbe9a6d96	-0.30161732
213	0xbd006841	-0.031349424
214	0xbe05b5e3	-0.13057666
215	0x3ebc3c82	0.36764914
216	0x3f0016bd	0.50034696
217	0x3ece2f50	0.40270472
218	0x3ec2a31d	0.3801507
219	0x3f38cf5f	0.72191423
220	0x3f353ec8	0.7079892
221	0x3f2c8eb4	0.6740525
222	0x3da2fba9	0.079581566
223	0x3d753d61	0.05987299
224	0xbeaca338	-0.33718276
225	0xbea568ec	-0.32306612
226	0xbcdc0d39	-0.026861774
227	0x3dec9cc5	0.11553339
228	0x3e446756	0.19180045
229	0x3cb4ab83	0.02205444
230	0xbe2d6de0	-0.16936445
231	0xbeee6966	-0.46564788
232	0xbc86dfa1	-0.016464056
233	0x3f40cc0c	0.7531135
234	0x3dc8655a	0.09784956
235	0x3eb0197d	0.34394446
236	0xbe373c5c	-0.17894119
237	0x3f08349c	0.53205276
238	0x3eeebfa8	0.46630597
239	0x3e8f0ecc	0.27940977
240	0x3ecb34f6	0.39688843
241	0x3ea7ea7f	0.32796094
242	0xbe40bd57	-0.18822227
243	0x3ec077b3	0.37591323
244	0x3fa78782	1.3088229
245	0x3ebd9487	0.3702738
246	0x3e432757	0.19057976
247	0x3f4e927d	0.80692273
248	0x3ecc1304	0.39858258
249	0xbed103f5	-0.4082333
250	0x3e265126	0.16241893
251	0x3d479f5d	0.048735965
252	0xbea6ac73	-0.32553443
253	0xbe70cbf5	-0.23515303
254	0x3e8ff307	0.28115103
255	0xbef9d093	-0.48791942

encoder.conv2.bias f4 [16]
0	0xbdceab5e	-0.100912794
1	0x3eae72e3	0.34072027
2	0xbea1679c	-0.3152436
3	0x3f377046	0.7165569
4	0xbe83656c	-0.25663316
5	0x3e143ea2	0.14477018
6	0x3eff7757	0.49895737
7	0xbf2ab01a	-0.6667496
8	0x3ab158f9	0.0013530544
9	0xbf0235b3	-0.5086319
10	0x3f0cdf9a	0.5502869
11	0xbf053a7a	-0.52042353
12	0x3bb392f7	0.005480166
13	0x3d7d395b	0.061822277
14	0xbec50f56	-0.38488263
15	0xbc9b13e6	-0.018930387

encoder.conv3.weight f4 [32, 16, 3, 3]
0	0xbea36f08	-0.31920648
1	0xbeca1cea	-0.39475185
2	0xbe2af0c3	-0.16693406
3	0x3ded68bf	0.11592244
4	0xbea0bfdb	-0.31396374
5	0xbe9e0b9f	-0.3086824
6	0xbea4498e	-0.32087368
7	0xbe837bc2	-0.25680357
8	0x3de937bc	0.113875836
9	0x3ee89840	0.45428658
10	0xbed50571	-0.41605714
11	0xbf75228f	-0.9575586
12	0x3d37219c	0.044709787
13	0x3d777bd0	0.06042081
14	0x3c7b3470	0.015332326
15	0x3e993313	0.2992178
16	0x3c23953b	0.00998431
17	0x3ebc9073	0.36828956
18	0x3e6f0587	0.23341952
19	0x3e5c557c	0.21516985
20	0x3eb7d2ea	0.35903102
21	0xbe02b907	-0.12765895
22	0x3b403ccf	0.002933312
23	0x3d7ede7d	0.0622239
24	0xbfca728f	-1.581621
25	0x3e98019a	0.29688722
26	0xbe983a9f	-0.29732224
27	0x3de8cfac	0.11367735
28	0x3d9ea6a3	0.07746627
29	0x3e3f6173	0.18689518
30	0x3d0be39f	0.034152623
31	0x3dd40b16	0.10353677
32	0xbe61fdc7	-0.22069465
33	0xbfb388b5	-1.4026095
34	0x3d36f7f8	0.044670075
35	0xbf21a8d7	-0.63148254
36	0x3f268fe0	0.65063286
37	0x3f37624c	0.71634364
38	0x3e97def1	0.29662278
39	0x3e0c0e37	0.13677298
40	0xbd2bb0b5	-0.041916568
41	0xbdff6a1c	-0.12471411
42	0xbf41f0c9	-0.75758034
43	0xbe8b0593	-0.2715269
44	0xbf5de2b1	-0.8667403
45	0xbdffc8de	-0.12489484
46	0xbe4b86bb	-0.19875614
47	0xbecf0027	-0.40429804
48	0xbdd2ecdc	-0.102990836
49	0xbe072be2	-0.13200334
50	0x3e869bce	0.26290745
51	0xbfa82818	-1.3137236
52	0x3ee4074f	0.44536826
53	0x3f32371d	0.69615346
54	0x3cc46523	0.023974007
55	0xbe637c86	-0.2221547
56	0xbd953592	-0.07285608
57	0xbeb80a8d	-0.3594555
58	0x3f23372e	0.6375607
59	0x3edbf4d6	0.42960232
60	0x3ea55a4a	0.32295448
61	0x3edade71	0.42747834
62	0x3d8a5a76	0.06755535
63	0x3e2df003	0.16986088
64	0xbd4d0bba	-0.05006001
65	0xbcd506de	-0.026004251
66	0x3e529658	0.20565164
67	0x3f001bf6	0.50042665
68	0x3ed0155e	0.40641302
69	0xbf08e812	-0.5347911
70	0xbcafadf6	-0.021445256
71	0xbf84cdce	-1.0375307
72	0x3e519dec	0.20470399
73	0x3b510dd1	0.0031899104
74	0xbeef9e10	-0.4680028
75	0xbf126aae	-0.5719403
76	0xbf165652	-0.58725464
77	0xbe11596c	-0.14194268
78	0xbf33d5bd	-0.70248014
79	0x3e7bfbb7	0.2460774
80	0x3ec8f52b	0.39249548
81	0x3e30bdc7	0.17259894
82	0x3e81ae84	0.25328457
83	0x3db4b160	0.08822894
84	0xbf19b9e5	-0.6004928
85	0x3d04fabe	0.03246569
86	0xbc7f5d78	-0.0155862495
87	0xc00d7978	-2.2105389
88	0x3d0b9cc6	0.034085058
89	0xbded5542	-0.11588527
90	0xbe0cca46	-0.13749036
91	0xbececc25	-0.40390125
92	0xbe987f24	-0.297845
93	0xbf0530b2	-0.5202743
94	0xbf19f95b	-0.6014611
95	0x3d2dd4d5	0.0424393
96	0xbf424a9a	-0.7589508
97	0xbd36c98b	-0.0446258
98	0x3d55e2ac	0.052218124
99	0xbd565b87	-0.05233338
100	0x3c00c31d	0.007859019
101	0x3e79fae2	0.2441211
102	0x3dc81423	0.09769466
103	0x3f28ba58	0.6590934
104	0xbef59b6b	-0.47970137
105	0xbf382377	-0.71929115
106	0x3e4e587f	0.20150946
107	0xbf6b2f6f	-0.9186925
108	0xbd7fb782	-0.062430866
109	0x3dd5d033	0.104401015
110	0x3e6edc11	0.23326136
111	0x3e5f2389	0.217909
112	0xbe9f15f9	-0.3107145
113	0xbe2da79d	-0.1695847
114	0xbe8b3d61	-0.27195266
115	0xbe9d2846	-0.3069479
116	0xbbd2d1cf	-0.0064337025
117	0x3f050b03	0.5196993
118	0x3da1c7b3	0.07899418
119	0xbce7c3e0	-0.028291643
120	0x3f01df73	0.5073158
121	0xbea2bc7f	-0.31784436
122	0xbeda015f	-0.4257917
123	0xbd269695	-0.04067095
124	0xbf2e9dc4	-0.6820948
125	0xbf28c359	-0.65923077
126	0xbe0f7c0d	-0.14012165
127	0x3e1ede1e	0.15514418
128	0x3f010065	0.50391227
129	0xbf48581c	-0.78259444
130	0xbe037a82	-0.12839702
131	0x3e21dd27	0.15807019
132	0xbf569bd9	-0.83831555
133	0xbe09d06b	-0.13458411
134	0xbe5dc23f	-0.2165613
135	0x3f052a68	0.5201783
136	0x3d870cf3	0.06594267
137	0xbf2a94e1	-0.6663342
138	0xbe832129	-0.25611237
139	0xbeeca773	-0.46221504
140	0x3dd00d0f	0.10158741
141	0xbf1bedba	-0.60909617
142	0xbf327404	-0.69708276
143	0xbe6ec09e	-0.23315665
144	0xbf592009	-0.84814507
145	0xbeca25a9	-0.39481857
146	0xbeb6380e	-0.3558964
147	0xbf9a453a	-1.2052376
148	0xbefbe936	-0.49201363
149	0x3cd84e38	0.026404485
150	0xbf98cb9a	-1.1937134
151	0xbf3e25a4	-0.74276185
152	0xbe59a9a3	-0.21256118
153	0x3ea415c5	0.3204786
154	0xbf2bf2f0	-0.6716757
155	0x3dae89fe	0.08522414
156	0xbf1f3a90	-0.62198734
157	0x3edced34	0.43149722
158	0x3e817e54	0.25291693
159	0x3d0ceffa	0.034408547
160	0x3f3b0343	0.7305185
161	0xbedbcc93	-0.42929515
162	0x3e22e7cf	0.1590874
163	0x3f5a2218	0.8520827
164	0x3d846b3d	0.064657666
165	0x3f821a81	1.0164338
166	0x3f07cb38	0.5304446
167	0xbe1b95b5	-0.15193827
168	0x3eac4d20	0.33652592
169	0xbefb197f	-0.4904289
170	0xbf09c2ff	-0.53813165
171	0xbede56c6	-0.43425578
172	0x3e8f2a1a	0.27961808
173	0x3dd967f6	0.10615532
174	0x3ece34c7	0.4027464
175	0x3b076948	0.0020662118
176	0x3d950ec6	0.072782084
177	0xbe84e0d1	-0.2595277
178	0xbd8c300d	-0.068451025
179	0xbec9dd57	-0.3942668
180	0xbf4551fb	-0.7707822
181	0xbef6388d	-0.4809002
182	0x3e5a2bcd	0.21305771
183	0xbf2ade65	-0.667456
184	0xbf6bdd1b	-0.92134255
185	0xbf151904	-0.58241296
186	0xbee28d5c	-0.44248474
187	0xbf83f338	-1.03086
188	0xbf1e132c	-0.61748004
189	0x3e202a36	0.15641102
190	0x3e2244a6	0.158465
191	0x3e699325	0.22810037
192	0xbd79e385	-0.061007995
193	0x3dea4168	0.114382565
194	0x3edfba4f	0.4369683
195	0xbdc4a224	-0.09601238
196	0xbf882ad8	-1.0638075
197	0xbe2e393c	-0.1701402
198	0x3f3d86ba	0.740337
199	0x3f4d7c2c	0.80267596
200	0x3e1482d0	0.14503026
201	0x3ed2d24f	0.41176078
202	0x3ecd8913	0.40143642
203	0x3f047b3a	0.5175053
204	0x3e903361	0.281642
205	0x3d7e609b	0.06210385
206	0xbfa08c9c	-1.254291
207	0x3d866124	0.06561497
208	0xbe9c3010	-0.3050542
209	0x3ec6181b	0.38690266
210	0x3f1fead6	0.62467706
211	0x3ebacde5	0.3648521
212	0x3dddf0a7	0.108369164
213	0x3c99eb1d	0.018788869
214	0x3d4f20e6	0.050568484
215	0x3def3e0f	0.116817586
216	0x3dcbfad4	0.09959951
217	0x3edac758	0.42730212
218	0xbdc7015b	-0.097170554
219	0x3ee7e68b	0.45293078
220	0xbd9a4dd7	-0.07534378
221	0x3e593ee9	0.21215405
222	0x3ea9a245	0.33131614
223	0xbd752456	-0.059849106
224	0x3e86e2cc	0.26344907
225	0xbd8b6f79	-0.06808371
226	0x3ee6f83a	0.45111257
227	0x3d847b40	0.064688206
228	0x3e77f6fc	0.24215311
229	0xbc792392	-0.0152062345
230	0xbd7f59c4	-0.062341467
231	0xbdff417c	-0.12463662
232	0xbe8a488e	-0.2700848
233	0xbed4023c	-0.41407955
234	0x3eb9aa65	0.36262813
235	0xbdf506db	-0.11964198
236	0x3e2fd131	0.17169644
237	0x3ed35a6d	0.41279927
238	0x3df0a3d1	0.117499955
239	0xbecf3fa4	-0.4047824
240	0x3e097585	0.13423736
241	0x3ea92c17	0.3304145
242	0xbf16b9b3	-0.58877105
243	0xbf374247	-0.71585506
244	0x3dd7452e	0.10511242
245	0x3daa4958	0.083147705
246	0x3f160d2d	0.58613855
247	0xbe11d89e	-0.14242789
248	0xbf6cc8be	-0.9249381
249	0xbe3dd52b	-0.18538348
250	0xbf1dcd8c	-0.61641765
251	0xbbaf3ce1	-0.0053478335
252	0x3e91d151	0.28480008
253	0xbe8d3c4b	-0.27585062
254	0x3e951f9e	0.29125684
255	0x3eabd0a2	0.33557612

encoder.conv3.bias f4 [32]
0	0xbeb13092	-0.3460737
1	0xbd9b04fa	-0.075693086
2	0x3e0cee51	0.13762785
3	0x3e8e9d98	0.2785461
4	0xbf973e57	-1.18159
5	0xbe966200	-0.29371643
6	0x3eec8e85	0.46202484
7	0xbe43dcf2	-0.19127253
8	0x3e827201	0.25477603
9	0xbc6392a5	-0.013889943
10	0x3eff0a1b	0.49812397
11	0xbf34b87f	-0.7059402
12	0xbdfa9b25	-0.12236623
13	0x3f15498f	0.58315367
14	0x3e8ec10e	0.27881664
15	0x3e1320f4	0.1436804
16	0x3ec75309	0.38930538
17	0x3dcaabd0	0.09896052
18	0xbf9bde49	-1.2177211
19	0x3f4421f0	0.76614285
20	0x3f1480ef	0.5800924
21	0x3ede87a2	0.43462855
22	0xbe880f61	-0.26574233
23	0x3eba7f74	0.36425364
24	0x3e4d8f46	0.20074186
25	0xbcf087de	-0.029361662
26	0xbb3d4a3a	-0.0028883354
27	0xbe2f90fe	-0.17145154
28	0x3fb13681	1.3844758
29	0x3dab0c28	0.08351928
30	0x3dc1e294	0.094670445
31	0xbbc2b37e	-0.0059418073

encoder.batch_norm1.weight f4 [8]
0	0x3f2cdf71	0.67528445
1	0x40103f9a	2.253882
2	0x3eb397ef	0.35076854
3	0x3f632e19	0.88742214
4	0x3ed1bf9f	0.40966508
5	0x3f37d274	0.718055
6	0x3fd1def4	1.6396165
7	0x40130ced	2.297664

encoder.batch_norm1.bias f4 [8]
0	0x3e12819f	0.14307259
1	0xbefe65da	-0.49687082
2	0x3e1f5bcb	0.1556236
3	0x3e24172f	0.16024469
4	0x3dc93927	0.09825354
5	0x3d54fd1e	0.051999204
6	0xbe8c434a	-0.27395087
7	0xbed42609	-0.4143527

encoder.batch_norm1.running_mean f4 [8]
0	0xbdb50090	-0.08837998
1	0x400495cd	2.071643
2	0x3ebca04e	0.36841053
3	0xc01d6a39	-2.4596083
4	0x3e98644e	0.29764026
5	0x3f840108	1.0312815
6	0x4037f2db	2.8741977
7	0x403dba6f	2.964504

encoder.batch_norm1.running_var f4 [8]
0	0x3e2db808	0.16964734
1	0x3ec8a88b	0.39191088
2	0x3dc0168e	0.09379302
3	0x3efaa6d2	0.489554
4	0x3dcee0b0	0.101014495
5	0x3dc5b017	0.09652727
6	0x3e98e4d0	0.2986207
7	0x3f2fcd3b	0.6867253

encoder.batch_norm2.weight f4 [16]
0	0x3f95bfbb	1.1699136
1	0x3fda4ea1	1.7055246
2	0x3f5cdbab	0.86272687
3	0x3f9d4b72	1.2288649
4	0x3f800d3a	1.0004036
5	0x3f8f9a9f	1.1219062
6	0x3f5b5049	0.8566938
7	0x3f611b57	0.8793234
8	0x3fab0a48	1.3362513
9	0x3f901df6	1.1259143
10	0x3f3efcb5	0.7460435
11	0x3f47fcda	0.78120196
12	0x3f81038b	1.0079206
13	0x3f5982f3	0.8496544
14	0x3f7c7686	0.9861835
15	0x3f96d251	1.1782933

encoder.batch_norm2.bias f4 [16]
0	0x3e4234c4	0.18965441
1	0xbf267a7d	-0.6503065
2	0xbef355eb	-0.47526488
3	0x3f232ae4	0.6373732
4	0xbd66842d	-0.056278396
5	0xbe0951bf	-0.1341009
6	0xbed2cdf4	-0.41172755
7	0x3c37dd3a	0.011222178
8	0xbdda4008	-0.10656744
9	0x3ee7e121	0.45288947
10	0x3f0d408b	0.5517661
11	0x3e1a5907	0.15073024
12	0x3da35d45	0.07976774
13	0xbec7808b	-0.38965258
14	0xbdd15814	-0.10221878
15	0x3f184048	0.59473085

encoder.batch_norm2.running_mean f4 [16]
0	0x3f810747	1.0080346
1	0x40e7c1ab	7.242391
2	0xc0239923	-2.5562217
3	0x401f5b66	2.4899535
4	0xbf3d25af	-0.73885626
5	0xbf4e6fc3	-0.80639285
6	0xbfe859e3	-1.8152431
7	0x3f239938	0.6390567
8	0x3f21e0f0	0.6323385
9	0xbf2e2777	-0.6802897
10	0xc0550e41	-3.328995
11	0xbf74d66f	-0.956397
12	0xbf349ae1	-0.70548826
13	0x3d8746ee	0.06605326
14	0x3dd91129	0.10598976
15	0xc0133467	-2.3000734

encoder.batch_norm2.running_var f4 [16]
0	0x40cc7afc	6.3900127
1	0x40469ef7	3.1034524
2	0x40c3065d	6.094527
3	0x418e47cc	17.785057
4	0x4053c603	3.3089607
5	0x40a22655	5.067179
6	0x40a11e13	5.034921
7	0x40a16a10	5.044197
8	0x40a67106	5.201297
9	0x415b57fc	13.708981
10	0x40973507	4.725223
11	0x409251bf	4.572479
12	0x402bfc08	2.6872578
13	0x40a9cf79	5.3065763
14	0x40a3ee40	5.1228333
15	0x41613a7c	14.076778

encoder.batch_norm3.weight f4 [32]
0	0x3d91c886	0.07118325
1	0x3d72ad52	0.059247322
2	0x3d5ee263	0.054415118
3	0x3d3ea7da	0.046546794
4	0x3d55715d	0.052110065
5	0x3d89d07a	0.06729217
6	0x3d81871d	0.06324599
7	0x3dcf8c5d	0.10134194
8	0x3d33bf86	0.043883823
9	0x3db03c83	0.08605292
10	0x3dfeb774	0.12437335
11	0x3e0b348b	0.13594262
12	0x3d55fee9	0.052245054
13	0x3ddc80c5	0.10766748
14	0x3db8824e	0.09009229
15	0x3da128df	0.07869124
16	0x3e0ef3dc	0.13960212
17	0x3d8a4651	0.06751693
18	0x3d822d94	0.063563496
19	0x3d8361fa	0.06415172
20	0x3d71b958	0.05901465
21	0x3d92ce6a	0.071682766
22	0x3d34f8ca	0.044182576
23	0x3d8a4092	0.06750597
24	0x3d3d337f	0.04619169
25	0x3db00b79	0.08595938
26	0x3e04216e	0.12903377
27	0x3d577871	0.052605096
28	0x3d362562	0.044469245
29	0x3d7e2a27	0.06205192
30	0x3d872ebe	0.06600712
31	0x3ddb8979	0.1071958

encoder.batch_norm3.bias f4 [32]
0	0xbca7c85f	-0.020481287
1	0xbd161745	-0.036643285
2	0xbc19f16e	-0.00939594
3	0xba9fec17	-0.0012201098
4	0x3b0f6306	0.002187909
5	0x3d3b1e35	0.045683105
6	0xbca017ae	-0.019542541
7	0xbd8c9714	-0.06864753
8	0x3be43de0	0.006965384
9	0xbd7d750f	-0.061879214
10	0xbdaa24ce	-0.08307801
11	0xbdb45b18	-0.08806437
12	0x3cb48c0c	0.022039436
13	0xbd5a7ee8	-0.053343683
14	0xbd5fe03a	-0.0546572
15	0xbd0197fb	-0.03163908
16	0xbdc72ef4	-0.097257525
17	0x3d0d260f	0.034460124
18	0xbd0b27cb	-0.033973496
19	0xbcf29854	-0.029613651
20	0xbc07a732	-0.008279609
21	0xbce380c8	-0.027771369
22	0xbb36bac8	-0.0027882326
23	0xbd0cc0aa	-0.034363426
24	0xbabc8588	-0.0014383057
25	0xbd1a4907	-0.0376673
26	0xbd919984	-0.07109359
27	0xbbefac2b	-0.007314225
28	0xbc9de83f	-0.019275783
29	0x3cac5056	0.0210344
30	0xbd0e5150	-0.034745514
31	0xbd981629	-0.07426102

encoder.batch_norm3.running_mean f4 [32]
0	0xc110a54c	-9.040356
1	0xc010f0a8	-2.2646885
2	0x3f8e3513	1.1109947
3	0xbe958b4a	-0.29207832
4	0x40774bc7	3.864
5	0x405599e6	3.3375182
6	0xbea86cf0	-0.32895613
7	0xbfcd219e	-1.6025884
8	0xc0e261d8	-7.074444
9	0x404c4462	3.1916738
10	0xc1114d86	-9.081427
11	0xc0c1d249	-6.0569196
12	0xbfc62494	-1.5479913
13	0xbe074ec0	-0.13213634
14	0x3f75eff7	0.9606928
15	0x4092864d	4.578894
16	0x401d8b14	2.4616137
17	0x40486e56	3.1317344
18	0xc082b06e	-4.084037
19	0xc014ac4f	-2.323017
20	0xc0f06412	-7.5122156
21	0x3f1f0bc1	0.6212731
22	0x3fe55687	1.7917031
23	0xbf82b5eb	-1.0211767
24	0xbf76e9a1	-0.9645024
25	0x400c8242	2.1954503
26	0xc0ecfca3	-7.4058394
27	0x3faf530b	1.3697218
28	0xc002f053	-2.0459182
29	0xbf617353	-0.88066596
30	0xbfa79792	-1.309313
31	0xc0c43fc0	-6.132782

encoder.batch_norm3.running_var f4 [32]
0	0x41c4b187	24.586683
1	0x41ce3c66	25.779491
2	0x41e9ca55	29.223795
3	0x41895d68	17.170609
4	0x42043e1b	33.06065
5	0x4280eaa0	64.45825
6	0x41fa9cfb	31.32665
7	0x42681e3c	58.029526
8	0x415be38c	13.743053
9	0x419a48bd	19.285517
10	0x42430748	48.75711
11	0x4256000c	53.500046
12	0x41fe9e94	31.82743
13	0x421e6f44	39.608658
14	0x4286c370	67.381714
15	0x41dca9cc	27.582909
16	0x426175ae	56.36492
17	0x424c8d9e	51.138298
18	0x41d7b29e	26.962215
19	0x422c6ffb	43.109356
20	0x4198d7d2	19.105381
21	0x420d18f9	35.274387
22	0x417360b1	15.211106
23	0x41ef95af	29.948088
24	0x41c24553	24.28385
25	0x41b29ef8	22.327621
26	0x4276b458	61.676117
27	0x41c0c1f0	24.094696
28	0x4196508b	18.789328
29	0x4211e1dd	36.47057
30	0x42167a05	37.61916
31	0x423c2c9e	47.04357

encoder.linear1.weight f4 [128, 512]
0	0xbd99a363	-0.07501867
1	0xbcb9f9f0	-0.022702187
2	0xbcfc2a5d	-0.03078192
3	0xbab5147d	-0.001381531
4	0xbad966a3	-0.0016586374
5	0xbb68277d	-0.0035423927
6	0xbbce6900	-0.006299138
7	0xbd85c10f	-0.06530964
8	0xbcf36ebf	-0.029715894
9	0x3d21b95e	0.03948342
10	0x3d310907	0.0432215
11	0x3d32877f	0.04358625
12	0xbd67994a	-0.056542672
13	0xbcb90e47	-0.022589816
14	0xbceec358	-0.029145882
15	0x3ce2f25b	0.027703455
16	0xbdcb47e0	-0.099258184
17	0xbd60da66	-0.05489578
18	0xbd16ee88	-0.036848575
19	0xbbcdd26e	-0.0062811887
20	0xbd200182	-0.039063938
21	0x3c827901	0.01592684
22	0x3c733cd3	0.014846045
23	0x3d75840a	0.059940375
24	0xbc907420	-0.017633498
25	0x3bf2a7d3	0.00740526
26	0xbd842dbf	-0.06454038
27	0x3b1096b2	0.0022062478
28	0x3c54654b	0.012963603
29	0xbd86d703	-0.06583979
30	0xbc7d36e8	-0.015454985
31	0xbcd3a6d1	-0.02583638
32	0xbd89fc3f	-0.06737565
33	0x3cc8f942	0.024532918
34	0xbd592044	-0.053009287
35	0xbc712792	-0.014718907
36	0xbbccdc05	-0.0062518143
37	0xbb6b60cc	-0.003591585
38	0x3d763f06	0.060118698
39	0xbd1fdb93	-0.03902776
40	0x3d0023df	0.03128421
41	0xbc37ddf6	-0.011222353
42	0x3d317ba1	0.043330792
43	0xbd6bf8ce	-0.057610326
44	0xbcd3a66a	-0.025836188
45	0xbd9f7ee6	-0.07787876
46	0x3c9e2e77	0.019309266
47	0xbdc40988	-0.095721304
48	0x3d261dbf	0.04055571
49	0xbc574d4b	-0.013140987
50	0xbd8a10b1	-0.06741465
51	0xbcb25568	-0.02176924
52	0x36a2b142	4.8486118e-06
53	0xbc26703a	-0.010158593
54	0xbd005814	-0.031333998
55	0xbd2c5261	-0.04207075
56	0xbc4120df	-0.011787622
57	0xbb267a52	-0.0025402498
58	0xbcfad011	-0.030616792
59	0xbc87f594	-0.016596593
60	0xbd7229cf	-0.059121903
61	0xbd0834fc	-0.033253655
62	0x3d1eee8f	0.038801726
63	0xbdd4b0df	-0.10385298
64	0xbc2878ba	-0.01028269
65	0x3bb02311	0.005375274
66	0xbb611a82	-0.0034348075
67	0xbd229b64	-0.039698973
68	0x3c5ba11c	0.013405111
69	0xbd386443	-0.045017492
70	0xbd6d7579	-0.05797336
71	0xbd8fc7b6	-0.07020514
72	0xbd46b40e	-0.048511557
73	0xbdc56df8	-0.096401155
74	0x3c77cd1d	0.015124586
75	0xbc407d33	-0.0117486
76	0xbd87e10f	-0.066347234
77	0x3c60d478	0.0137225315
78	0xbde63369	-0.112402745
79	0x3c9269ef	0.017872779
80	0xbce4adf5	-0.02791498
81	0xbdcb5eec	-0.09930214
82	0xbd8fa49c	-0.070138186
83	0xbe016063	-0.12634425
84	0xbd898d30	-0.067163825
85	0xbc958129	-0.018250065
86	0xbd82c33b	-0.063848935
87	0x3c6f8a27	0.01462034
88	0xbd2e94e8	-0.042622477
89	0xbdd2f956	-0.10301463
90	0xbd214e83	-0.039381515
91	0x3a9fbfde	0.0012187918
92	0xbd5d41e0	-0.0540179
93	0xbc4b6723	-0.012414726
94	0xbd65e225	-0.05612387
95	0xbd231b5f	-0.039821025
96	0xbcc203fd	-0.023683542
97	0xbd977aee	-0.07396494
98	0xbd063889	-0.03276876
99	0x3cada50e	0.021196868
100	0xbd7cd2b1	-0.06172437
101	0x3d3139e7	0.04326811
102	0xbd35fa14	-0.044427946
103	0xbb39cd2f	-0.0028351059
104	0x3d087bea	0.0333213
105	0xbc8c21b8	-0.017105922
106	0xbc87f8fe	-0.01659822
107	0xbd13df1d	-0.03610145
108	0x3caaef95	0.020866195
109	0xbdbefb6d	-0.093252994
110	0x3d230017	0.039795008
111	0xbbea9034	-0.0071583036
112	0xbdb39bd0	-0.08769953
113	0xbddff64a	-0.10935648
114	0x3d098108	0.03357032
115	0xbdbb56ac	-0.09147391
116	0xbcaffca3	-0.021482771
117	0xbd235788	-0.0398784
118	0x3d5bbb05	0.053645153
119	0xbcd7cc0d	-0.026342416
120	0x3bfa6020	0.0076408535
121	0xbae43d14	-0.0017413222
122	0x3d4448c2	0.04792095
123	0xbd0dc45d	-0.034611095
124	0xbc03ada3	-0.008037004
125	0x3d9c27f1	0.07624806
126	0xbc60533d	-0.013691721
127	0xbd368877	-0.044563737
128	0xbcbfcc2a	-0.023412783
129	0xbd935387	-0.07193666
130	0xbb7efee1	-0.0038909244
131	0xbda88ce6	-0.08229999
132	0x3cf3c992	0.029759202
133	0xbdb765d2	-0.089549676
134	0xbd1e5c75	-0.038662393
135	0x3c9f5e69	0.019454198
136	0xbd39a723	-0.04532541
137	0xbd1aa6d1	-0.037756745
138	0x3d3ca249	0.046053205
139	0xb9a33834	-0.00031131657
140	0xbcc4d069	-0.024025159
141	0xbbec2788	-0.007206861
142	0xbd2430e4	-0.04008569
143	0x3d5602b0	0.052248657
144	0x3c248c3d	0.010043201
145	0x3d9d5049	0.07681329
146	0xbdafd60f	-0.0858575
147	0xbcd9dbb3	-0.026594019
148	0xbd97633c	-0.07391974
149	0x3d5b4b84	0.053538814
150	0xbd43632f	-0.04770201
151	0xbd9bb5c2	-0.07603027
152	0xbd46577a	-0.048423268
153	0x3d938757	0.072035484
154	0xbd7aafc4	-0.06120278
155	0xbcda3f16	-0.02664141
156	0xbcfe138f	-0.031015186
157	0xbd793c9d	-0.06084882
158	0xbc69d4c5	-0.01427192
159	0xbd8798be	-0.0662093
160	0xbdbf74d3	-0.09348454
161	0xbd909b43	-0.07060864
162	0xbd320c2f	-0.04346865
163	0xbc9976ae	-0.018733349
164	0xbdb06abf	-0.0861411
165	0x3d220a75	0.039560754
166	0x3bb30fdd	0.0054645375
167	0x3dcbb452	0.09946503
168	0xba878683	-0.001033977
169	0x3cb4f29a	0.022088338
170	0x3c45bbf8	0.012068741
171	0xbd243c23	-0.040096413
172	0xbc393aac	-0.011305492
173	0x3d08d0be	0.033402197
174	0x3d4901de	0.049074046
175	0x3d1b4f9c	0.03791772
176	0xbba2c9e6	-0.004967916
177	0xbce34913	-0.027744805
178	0xbd2f2357	-0.042758312
179	0xbd45b216	-0.04826554
180	0xbd0bfe9b	-0.034178358
181	0xbd230235	-0.039797027
182	0xbde364c3	-0.11103203
183	0xbd2bab3c	-0.04191135
184	0xbd1e2a43	-0.038614523
185	0xbbe179d0	-0.0068809763
186	0x3c61eb06	0.013788944
187	0xbd869b3c	-0.06572577
188	0xbcf6ace7	-0.030111743
189	0xbd317589	-0.04332498
190	0xbca47484	-0.02007509
191	0xbca55c15	-0.02018551
192	0x3d24a91b	0.040200334
193	0xbd1f66d5	-0.038916428
194	0xbd4339e1	-0.04766262
195	0xbdb4cab7	-0.08827727
196	0x3d03eb1a	0.032206632
197	0xbd7d5a47	-0.061853673
198	0xbd9500bf	-0.07275533
199	0x3c71344d	0.014721942
200	0xbd99fc84	-0.07518867
201	0xbda930e7	-0.082612805
202	0xbc5b77cc	-0.013395261
203	0x3be96ec9	0.0071238023
204	0xbdca31f1	-0.09872807
205	0xbcee0543	-0.029055243
206	0xbd79d371	-0.060992662
207	0x3d28fb72	0.041255422
208	0xbd68630f	-0.056735095
209	0x3cd400b3	0.02587924
210	0xbc297116	-0.010341903
211	0xbd802a2b	-0.06258043
212	0x3bb37ba5	0.005477386
213	0x3d92d967	0.071703725
214	0xbd35b5ab	-0.044362705
215	0xbd883e5e	-0.066525206
216	0x3cb8b13c	0.02254545
217	0xbcb1709f	-0.021660147
218	0xbc5c1453	-0.01343258
219	0xbd4c3794	-0.04985769
220	0xbd0d88a7	-0.03455415
221	0x3d9bc037	0.076050214
222	0xbcf08f29	-0.02936514
223	0xbd2cc54d	-0.04218035
224	0x3c81ae71	0.01583025
225	0xbd455093	-0.048172545
226	0xbc941cb8	-0.0180801
227	0xbdc075f0	-0.09397495
228	0xbca89b17	-0.020581765
229	0x399e093f	0.00030142997
230	0xbb7e723d	-0.0038825416
231	0x3c8d2191	0.01722792
232	0xbd35d6d8	-0.044394344
233	0x3d072f85	0.033004303
234	0xbc4ba039	-0.012428337
235	0xbd860ffe	-0.06546019
236	0xbd0101ec	-0.031495973
237	0x3ddadc43	0.10686543
238	0xbd118d20	-0.035534978
239	0x3bd2aa6b	0.006429007
240	0xbca74d5f	-0.020422636
241	0xbd73a236	-0.05948087
242	0xbd17b62f	-0.03703898
243	0xbd97cb06	-0.074117705
244	0xbd3a5da0	-0.045499444
245	0xbc9991b2	-0.01874623
246	0xbca317eb	-0.019908866
247	0xbd9423b6	-0.07233374
248	0x3d6a5bea	0.057216562
249	0x3d8b97e6	0.06816082
250	0xbd94f61d	-0.07273505
251	0x3cd14301	0.025544645
252	0x3d4e1775	0.05031534
253	0xbd51f5f4	-0.05125995
254	0xbc1b44fc	-0.009476896
255	0xbdbb50f6	-0.091463014

encoder.linear1.bias f4 [128]
0	0xbd0b91fa	-0.03407476
1	0xbd7d9eb7	-0.06191894
2	0xbbfd7407	-0.007734779
3	0x3c4fdfa7	0.0126876
4	0x3a445a9e	0.00074903097
5	0xbcae807a	-0.021301497
6	0x3ec50238	0.38478255
7	0xbd681e53	-0.056669544
8	0xbd4ac31e	-0.049502485
9	0xbd004fff	-0.03132629
10	0xbd522037	-0.051300254
11	0xbd7ebe0e	-0.06219297
12	0xbd592a28	-0.05301872
13	0xbd47fe64	-0.04882659
14	0xbd461765	-0.048362155
15	0xbd4be84b	-0.04978208
16	0xba5ded69	-0.0008465858
17	0xbd568116	-0.0523692
18	0xbc0bfa8d	-0.008543623
19	0xbd9c74f5	-0.07639495
20	0xbda35717	-0.079755954
21	0xbce9e476	-0.028551321
22	0xbd5d7c55	-0.05407365
23	0xbd06f7c8	-0.032951146
24	0x3c440cde	0.011965958
25	0xbcd04186	-0.025421869
26	0xbd0b1168	-0.033952147
27	0xba5513df	-0.0008128266
28	0x3eba004d	0.36328354
29	0xbd683777	-0.05669352
30	0xbd09971f	-0.033591386
31	0xbd06936a	-0.03285543
32	0xbd8e533c	-0.069494694
33	0xbc22346e	-0.0099001955
34	0xbd2ab8c3	-0.04168011
35	0xbc20474a	-0.009782622
36	0xbccb4a45	-0.024815688
37	0x3ec2d997	0.38056633
38	0x3be552bb	0.0069983876
39	0x3e6367d6	0.22207579
40	0xbc9d1aea	-0.019177873
41	0x3e16b3c7	0.14717017
42	0x3c24afb4	0.0100516565
43	0xbce88ce1	-0.028387489
44	0xbae4e746	-0.0017463944
45	0x3dde68c9	0.1085983
46	0xbca3f8b7	-0.020016057
47	0xbca36307	-0.01994468
48	0xbd863517	-0.06553095
49	0xbd8c2960	-0.06843829
50	0xbc76a3ee	-0.015053732
51	0xbca853f9	-0.020547854
52	0xbc8a13a0	-0.016855061
53	0xbc0f463a	-0.008744771
54	0xbce76107	-0.028244508
55	0xbca1f845	-0.019771704
56	0xbd1203c4	-0.035648122
57	0xbd748682	-0.05969859
58	0xbd8e037d	-0.06934259
59	0xbbfa7d57	-0.007644336
60	0x3f0ea58e	0.55721366
61	0xbd35a0a4	-0.044342652
62	0xbd41b930	-0.04729575
63	0xbd532839	-0.05155203
64	0x3ea51959	0.322459
65	0x3edce63e	0.4314441
66	0xbd853c0e	-0.06505595
67	0xbcfa7a19	-0.030575799
68	0x3ef59f98	0.47973323
69	0xbaad80d2	-0.0013237244
70	0xbcaf6e4c	-0.021414898
71	0xbcd858d1	-0.026409538
72	0xbcad5b7a	-0.021161783
73	0xbb3ae22e	-0.0028516161
74	0xbc07f7f3	-0.008298862
75	0x3c3cee9b	0.011531497
76	0xbcdae7bb	-0.026721826
77	0x3f18119a	0.5940186
78	0x3b1308b5	0.002243561
79	0x3c143161	0.009044976
80	0xbda13ac0	-0.07872534
81	0x3e7c2294	0.24622566
82	0xbd07c30f	-0.033145007
83	0x3c3e8395	0.011628051
84	0xbd3bf904	-0.045891777
85	0xbd057b43	-0.032588255
86	0x3e316c03	0.1732636
87	0xbd40417d	-0.046937454
88	0xbd0d437c	-0.034488186
89	0xbce516c0	-0.02796495
90	0xbd350cc8	-0.044201642
91	0xbd70bb24	-0.05877222
92	0x3cb64584	0.022249945
93	0x3e9697aa	0.29412585
94	0xbcfa6c88	-0.03056933
95	0xbd19ec74	-0.037579015
96	0x3b45119c	0.003007031
97	0xbc9d48a7	-0.019199682
98	0xbdab4b34	-0.08363953
99	0xbc535980	-0.012899756
100	0x3efb2b83	0.49056634
101	0xbc0bd2a1	-0.008534105
102	0xbbc7542c	-0.006083032
103	0xbc4fe372	-0.0126885045
104	0x3c058145	0.008148496
105	0xbbed6e4e	-0.0072458154
106	0xbd3f7ccf	-0.046749886
107	0x3eaf061e	0.34184355
108	0xbca14754	-0.019687332
109	0xbc398c56	-0.011324963
110	0xbca6d8a8	-0.020366982
111	0xbd60c6e4	-0.054877177
112	0xbd07fd57	-0.033200588
113	0xbd1649e3	-0.036691558
114	0xbb5cbc8a	-0.0033681714
115	0xbcfb37d6	-0.030666273
116	0xbd267396	-0.040637575
117	0xbbd99e66	-0.006641197
118	0x3e9402c4	0.2890836
119	0xbd013237	-0.03154203
120	0x3e9cfb46	0.30660456
121	0xbc2ccd6c	-0.010547023
122	0x3c93e996	0.018055718
123	0xbbd0c268	-0.0063708313
124	0xbc22df00	-0.009940863
125	0xbcf157bc	-0.02946078
126	0xbc9a2bb6	-0.018819671
127	0x3e7aebc3	0.24503998

encoder.linear_mu.weight f4 [128, 128]
0	0x3dc7cf69	0.09756357
1	0x3c2f54ad	0.010701341
2	0xbd9e7771	-0.077376254
3	0x3d9010d0	0.07034457
4	0x3d9e14e6	0.0771883
5	0x3d186878	0.037209004
6	0xbbc68a3d	-0.0060589598
7	0x3d654711	0.055975977
8	0xbd724e16	-0.0591565
9	0xbad38996	-0.0016139026
10	0xbd849173	-0.06473055
11	0x3d89675f	0.067091696
12	0xbcf1b317	-0.029504342
13	0xbd59ee02	-0.053205498
14	0x3c1545d2	0.009110885
15	0x3c331c89	0.010932096
16	0xbd1b54d7	-0.037922706
17	0x3c57d60c	0.013173591
18	0xbdb3b371	-0.0877446
19	0x3c1e9405	0.009678845
20	0x3d7a06f8	0.061041802
21	0xbdc6aebf	-0.09701299
22	0xbd939a03	-0.0720711
23	0x3d4856ab	0.048910778
24	0x3d82cc6d	0.063866474
25	0xbd4de6a2	-0.050268777
26	0x3d6e0fc2	0.058120497
27	0xbda402d1	-0.0800835
28	0xbbb7dfcb	-0.005611395
29	0xbd83fa7b	-0.0644426
30	0xbd889f03	-0.06670954
31	0x3d51017e	0.051026814
32	0x3c83770a	0.016047973
33	0xbded55f7	-0.11588662
34	0x3d8a80eb	0.067628704
35	0xbd16adec	-0.03678696
36	0xbd8b8a4c	-0.068134874
37	0x3b965598	0.0045878403
38	0xbd0485e6	-0.032354258
39	0x3c2aabda	0.010416949
40	0xbd8fe491	-0.070260175
41	0x3b57dc6f	0.0032937785
42	0xbc7372ca	-0.014858911
43	0x3d4cf5d7	0.05003914
44	0x3d3cd12f	0.04609793
45	0x3c733eac	0.014846485
46	0xbd04ac2a	-0.03239075
47	0xbd22fb33	-0.039790343
48	0x3d53f82c	0.051750347
49	0x3b471603	0.003037811
50	0x3b909bd4	0.0044131074
51	0x3caf4e61	0.021399679
52	0xbbf20a8c	-0.007386511
53	0x3c0a7430	0.008450553
54	0x3cad2d23	0.021139687
55	0xbd37cee7	-0.04487505
56	0xb978ac71	-0.00023715362
57	0x3d5d5234	0.054033473
58	0x3d6ede86	0.058317684
59	0xbc37fb90	-0.011229411
60	0xbc6a8a87	-0.014315254
61	0x3d5437af	0.051810917
62	0x3d22f461	0.03978384
63	0x3d752a77	0.05985495
64	0xbaeaa0e2	-0.001790073
65	0xbc0852cf	-0.008320524
66	0xbdcf4bf9	-0.101219125
67	0x3d5eef9c	0.054427728
68	0xbae342fc	-0.0017338688
69	0x3d25131d	0.04030143
70	0xbd116df9	-0.03550527
71	0x3d281d92	0.041043825
72	0x3c4e75f9	0.012601369
73	0x3d9997f7	0.07499688
74	0xbcf209dc	-0.029545717
75	0xbd660cd7	-0.05616459
76	0x3d7459e4	0.05965604
77	0xbaeaae66	-0.0017904758
78	0x3cc19e4a	0.023635048
79	0xbdb3d881	-0.08781529
80	0x3c897c68	0.016782954
81	0xbc410ea1	-0.011783273
82	0xbd31c098	-0.043396562
83	0xbd5000e9	-0.050782118
84	0x3db5c2e3	0.08875062
85	0xbdab289f	-0.08357357
86	0x3bf11341	0.0073570316
87	0x3d23e8dd	0.040016998
88	0xbd2c9994	-0.04213865
89	0x3d0be447	0.03415325
90	0x3ca7e3a0	0.020494282
91	0xbbdbed8c	-0.0067116674
92	0x3d7defa1	0.061996106
93	0x3b5bce6d	0.0033539787
94	0x3d136e84	0.035994068
95	0xbd16aea3	-0.03678764
96	0x3d4ab21a	0.049486257
97	0xbd800dc6	-0.06252627
98	0xbe0ac032	-0.13549879
99	0xbcf99d1d	-0.030470425
100	0xbb17cc5e	-0.0023162584
101	0x3beb2ff3	0.007177347
102	0x3d6fcb45	0.058543462
103	0x3db8e32e	0.09027706
104	0xba82a181	-0.0009966345
105	0xbcef5301	-0.029214384
106	0xbd9c164d	-0.07621441
107	0x3c02c2f0	0.007981047
108	0xbd0c7ef2	-0.034300752
109	0xbd2fdc04	-0.042934433
110	0xbaddec19	-0.0016931324
111	0xbd9ca85a	-0.07649298
112	0x3daa091f	0.08302521
113	0xbc442757	-0.01197227
114	0x3d891a67	0.06694489
115	0x3d1c8642	0.038213976
116	0xbb641a7e	-0.003480583
117	0xbc855008	-0.016273513
118	0x3aa0d293	0.0012269787
119	0xbcb79760	-0.022411048
120	0x3c1c61df	0.009544819
121	0x3c10fe36	0.008849671
122	0x3d7b92a7	0.061419155
123	0x3d78d565	0.060750384
124	0x3be5bcd8	0.0070110373
125	0xbd94bcbe	-0.07262562
126	0x3daec334	0.08533326
127	0x3c0cd962	0.00859675
128	0xbc3810fb	-0.011234517
129	0xbca172a0	-0.019707978
130	0xbcb99d12	-0.022657905
131	0x3bad0efb	0.005281327
132	0x3d9d4d94	0.076808125
133	0x3b320e50	0.0027169175
134	0x3b31ac2a	0.0027110674
135	0xbd21fa4f	-0.039545354
136	0xbce82b98	-0.0283411
137	0x3d82b608	0.06382376
138	0x3a199983	0.0005859362
139	0xbd38bf77	-0.04510447
140	0xbced244f	-0.028947977
141	0xbca886a7	-0.02057202
142	0x3c896326	0.01677091
143	0xbca02b4d	-0.019551897
144	0xbd7f7f7b	-0.062377434
145	0xbd3b462e	-0.045721225
146	0x3d09f5ce	0.033681683
147	0xbd142104	-0.0361643
148	0x3d17acc6	0.037030004
149	0x3cc89346	0.024484288
150	0xbca51e31	-0.020155998
151	0x3bb58469	0.005539466
152	0x3cbc420c	0.022980712
153	0x3abdd788	0.0014483789
154	0x3d2c88e4	0.042122737
155	0x3848223f	4.771561e-05
156	0xbba4404e	-0.0050125485
157	0xbcc4c6e4	-0.02402062
158	0x3d42d21d	0.04756366
159	0xbd433a83	-0.047663223
160	0x3c8ff488	0.017572656
161	0xbcda5f4a	-0.026656765
162	0x3d111e93	0.03542955
163	0xbd151f9b	-0.036407094
164	0x3d1229e2	0.035684474
165	0xbb963a59	-0.0045845923
166	0x3daa6290	0.083195806
167	0xbb9082d1	-0.004410126
168	0x3b009970	0.0019622706
169	0xbb1defff	-0.0024099348
170	0x3d46631e	0.04843437
171	0xbd4a369b	-0.049368482
172	0xbd5066ba	-0.050879218
173	0xbcdf89f3	-0.027287459
174	0x3d0fa777	0.035071816
175	0x3d16d48e	0.0368238
176	0xb7b496a2	-2.1527816e-05
177	0x3b7e4bbf	0.0038802472
178	0xbd4fd828	-0.050743252
179	0xbdc953a6	-0.09830408
180	0x3d2fbad2	0.042902775
181	0xbce0b193	-0.027428424
182	0xbb4caa61	-0.0031229483
183	0x3d36e992	0.044656344
184	0x3b9151ac	0.004434785
185	0xbcdb6505	-0.026781568
186	0x3cbc65e2	0.0229978
187	0xbd52d297	-0.051470365
188	0xbc12d14a	-0.008961031
189	0xbc24f3cd	-0.010067892
190	0xbdc7b56f	-0.097514026
191	0xbd751b53	-0.05984051
192	0x3a06eb18	0.0005146726
193	0x3ab87a4a	0.0014074531
194	0xbd479126	-0.04872241
195	0x3d23c347	0.039981153
196	0x3be28d53	0.00691382
197	0x3c8a09e0	0.016850412
198	0x3cdb0083	0.026733642
199	0x3c6b8a50	0.014376238
200	0x3b76a4a5	0.0037634757
201	0x3d32f913	0.043694567
202	0xbd39b277	-0.045336213
203	0x3d1cbc2b	0.03826539
204	0xbca94891	-0.020664485
205	0xba4bf5d6	-0.0007780468
206	0x3cb7f479	0.02245544
207	0x3d93f760	0.072249174
208	0xbd81bd4b	-0.06334933
209	0x3ba24fdd	0.004953368
210	0xbb8f83fc	-0.0043797474
211	0xbc7ac036	-0.015304616
212	0x3ce42a67	0.02785225
213	0x3d102a84	0.035196796
214	0xbba0d75c	-0.0049084853
215	0xbd212065	-0.039337534
216	0x3d6cfeae	0.05786007
217	0x3d123011	0.03569037
218	0x3d934063	0.07190015
219	0x3e23dbca	0.16001812
220	0xbd041e1c	-0.032255277
221	0xba57fe96	-0.00082395354
222	0x3c8797db	0.016551903
223	0xbd2df861	-0.0424732
224	0x3d8e5eea	0.06951697
225	0xbd60a6b8	-0.054846495
226	0xbe1af7c1	-0.15133573
227	0x3c4accc4	0.0123779215
228	0x3b241c66	0.002504134
229	0xbd3a87f4	-0.04553981
230	0x3cc4c12f	0.024017898
231	0xbd5b2443	-0.05350138
232	0x3d1c0400	0.038089752
233	0x3a75cbe2	0.0009376389
234	0xbc357bc2	-0.011076869
235	0x3bda73de	0.0066666445
236	0x3d40f37c	0.047107205
237	0x3d797309	0.06090072
238	0x3dc37dc3	0.095454715
239	0x3d508989	0.050912414
240	0x3daed5f2	0.085369006
241	0xbd21a9dd	-0.039468635
242	0xbd5ee124	-0.05441393
243	0x3c67d931	0.014150904
244	0xbc8df92d	-0.01733073
245	0xbc1e82b1	-0.009674714
246	0x3b9156ef	0.004435412
247	0xbb8fdc15	-0.0043902495
248	0x3be72633	0.0070541142
249	0xbbbe2271	-0.0058024456
250	0x3db53101	0.088472374
251	0x3d93db55	0.07219569
252	0xbda789fb	-0.081806146
253	0x3d971117	0.073763065
254	0x3c5c95e3	0.01346347
255	0x3a82a781	0.0009968133

encoder.linear_mu.bias f4 [128]
0	0xbc082d32	-0.008311557
1	0x3a81522b	0.0009866407
2	0x3c05530f	0.0081374785
3	0x3b87dff2	0.0041465694
4	0x3c55aab2	0.013041185
5	0xbbeb1a1b	-0.007174743
6	0x389463c0	7.07577e-05
7	0xbdc8c4b7	-0.098031454
8	0x3b22c3ea	0.0024836012
9	0xbb3c51a7	-0.0028735192
10	0xbb890d34	-0.004182482
11	0x3a1741ee	0.0005770017
12	0x39030261	0.0001249402
13	0xb956157c	-0.00020416634
14	0xbc15cbd7	-0.0091428375
15	0xbc8cc3c9	-0.017183201
16	0xbbcea52e	-0.006306312
17	0x3b95ff74	0.0045775715
18	0xbdb1c430	-0.08679998
19	0xbb4c7029	-0.0031194782
20	0xbc4030f4	-0.011730421
21	0x3be91e1e	0.007114186
22	0x3bc8a67e	0.006123363
23	0x3aee0a03	0.0018160943
24	0x3d1b53fd	0.037921894
25	0x3c6eeea0	0.01458326
26	0xbc01b212	-0.00791599
27	0x3b200235	0.0024415378
28	0xbd901a2b	-0.07036241
29	0xbc4f5bcf	-0.012656166
30	0xb8e118a6	-0.00010733427
31	0x3c25de12	0.0101237465
32	0xb9dd66d8	-0.0004222903
33	0xb9c40f42	-0.000373954
34	0xbb851342	-0.0040611336
35	0x3bd74f9c	0.0065707695
36	0x3b6edeb0	0.003644865
37	0xba9cc9ac	-0.0011961958
38	0x3c115d6f	0.008872374
39	0xbb34c47b	-0.0027582932
40	0x3b02d4f5	0.0019963358
41	0x3ba28e57	0.004960816
42	0x3ac2c477	0.0014859576
43	0x3b1471e4	0.0022650892
44	0xbc37ab0e	-0.011210216
45	0x3bbb72d6	0.0057204766
46	0x3bbd8ec7	0.0057848427
47	0x3c296a2c	0.010340255
48	0x39ec0c52	0.00045022607
49	0xbbcdaebf	-0.006276935
50	0xbc0759f6	-0.008261194
51	0x3cd8a7f6	0.026447278
52	0xbaa16a07	-0.0012314924
53	0x3bbc71e5	0.005750882
54	0xbbcc5d41	-0.0062367027
55	0xba4a3390	-0.0007713372
56	0x3a8286c6	0.0009958379
57	0x3be199b9	0.0068847802
58	0xbc7ac355	-0.01530536
59	0x3c4e600d	0.0125961425
60	0xba983eff	-0.0011615454
61	0x3c09eb9e	0.008417992
62	0x3a8cc362	0.0010739381
63	0x3b956ba9	0.004559953
64	0xbb8fd6d6	-0.004389624
65	0xbaba0dc2	-0.0014194774
66	0xbbcd58e6	-0.006266701
67	0x3d46e32d	0.048556495
68	0x3b297e91	0.0025862793
69	0xbbbd6abb	-0.0057805455
70	0xbb9b182e	-0.004733107
71	0xbc1fc6c1	-0.0097519765
72	0xbc4f52f8	-0.012654059
73	0x3a4a57ca	0.000771877
74	0xbc6af911	-0.014341609
75	0xbdf1aba0	-0.11800313
76	0x3c69e036	0.014274647
77	0xbb73d806	-0.0037207617
78	0x3c4548c5	0.012041275
79	0x3ef7b645	0.48381248
80	0x3b102c5d	0.0021999099
81	0xba4e9ad6	-0.0007881349
82	0xba3e5c88	-0.0007261713
83	0xbc864c2b	-0.016393742
84	0x3b107c5c	0.002204678
85	0xbc15aabd	-0.009134945
86	0xba6c2e02	-0.0009009541
87	0x3b2cc8be	0.002636477
88	0xbc32bb07	-0.010908849
89	0x3babcf7a	0.005243239
90	0x3bdd0fda	0.0067462744
91	0xbe0c86d2	-0.13723305
92	0xbbc14731	-0.0058983793
93	0xbbeacf05	-0.007165792
94	0x3bd441d1	0.0064775725
95	0x3be2265f	0.006901547
96	0xbc59ab47	-0.013285465
97	0xbbb10277	-0.005401905
98	0x39453954	0.0001880874
99	0xbcb5931b	-0.022164872
100	0x3c35c6a4	0.011094723
101	0xbb971e34	-0.004611755
102	0x3d22f7e9	0.039787207
103	0x3b2badbf	0.002619609
104	0x3b0e587c	0.0021720221
105	0x3eeef3fc	0.4667052
106	0xbb80e87f	-0.0039339657
107	0x3dcf8ec2	0.10134651
108	0xbb17b0c6	-0.0023146137
109	0x3c1b9e38	0.0094981715
110	0x3cc0b7b9	0.023525106
111	0x3bfd2dd8	0.0077264123
112	0xbb74fd12	-0.0037382287
113	0x3c3bac32	0.011454629
114	0xbb196822	-0.0023408015
115	0x3e2d7df5	0.1694258
116	0x3d6f4759	0.05841765
117	0x3cad4d70	0.02115509
118	0xb945b25c	-0.00018853828
119	0xbc7c9d02	-0.015418293
120	0x3b921716	0.0044583185
121	0xbb576882	-0.0032868688
122	0x3c05b0a5	0.008159791
123	0xb99a2716	-0.0002940229
124	0xbc3c1906	-0.011480575
125	0xbdf9524e	-0.121739015
126	0xbbd19d18	-0.006396901
127	0xba723d50	-0.00092407037

encoder.linear_sigma.weight f4 [128, 128]
0	0x3cd14964	0.02554769
1	0x3d90db20	0.07073045
2	0xbd8b0d4e	-0.06789647
3	0xbd13501a	-0.035965063
4	0x3a9547b8	0.0011389172
5	0xbcd14fc8	-0.025550738
6	0x3ae02426	0.0017100617
7	0xbd5be5fd	-0.05368613
8	0x3d36dafd	0.044642437
9	0xbd606601	-0.05478478
10	0x3c0eda45	0.008719032
11	0xbdc6a17c	-0.096987695
12	0x3c728d1d	0.014804152
13	0x3d098475	0.033573586
14	0xbc9c149f	-0.019052802
15	0x3da98097	0.0827648
16	0x3cde1fd0	0.027114779
17	0x3d8d3db3	0.06896534
18	0xbdc4a48c	-0.09601697
19	0x3cf354d9	0.029703544
20	0x3ce29bbd	0.027662152
21	0xbcac9fba	-0.021072257
22	0x3d91186b	0.070847355
23	0x3ce98172	0.028504107
24	0x3d617552	0.055043526
25	0x3ca470ef	0.020073382
26	0x3d963d3a	0.07335897
27	0xbb7ee563	-0.003889405
28	0xb9bf816c	-0.00036526786
29	0xb8ae875d	-8.32218e-05
30	0xbd228f88	-0.039687663
31	0x3d08e7b7	0.033424105
32	0xbd490ce2	-0.04908455
33	0xbbab691a	-0.005231035
34	0x3d7c5d26	0.06161227
35	0x3c9e2d09	0.019308584
36	0xbd94023e	-0.0722699
37	0x3a6f41c0	0.0009126924
38	0x3d796272	0.0608849
39	0xbaf9225f	-0.0019007436
40	0x3d2a308f	0.041550215
41	0x3a12914a	0.0005591108
42	0xbc90c1d2	-0.017670546
43	0xbbaf6c8d	-0.0053535164
44	0x3d0696a8	0.03285852
45	0x3b5bcb8d	0.0033538074
46	0xbd86561f	-0.06559395
47	0xbd66ea83	-0.05637599
48	0xbccdeba8	-0.025136784
49	0x3c50e7c0	0.012750566
50	0xbc74f5e4	-0.014951203
51	0xbc040123	-0.008056912
52	0xbd1e2a0f	-0.03861433
53	0x3d3f073e	0.046637766
54	0x3ca594b3	0.020212507
55	0xbcea3680	-0.02859044
56	0xbcbdba26	-0.023160052
57	0xbc24063d	-0.010011253
58	0x3d701626	0.058614872
59	0xbdad9022	-0.08474757
60	0xba27fd20	-0.0006408263
61	0xbd8d60b9	-0.06903214
62	0x3b800010	0.0039062575
63	0x3d567c2b	0.05236451
64	0xbb02c5d9	-0.0019954352
65	0x3a39b763	0.00070845167
66	0x3d30e00f	0.04318243
67	0x3d7deab7	0.06199142
68	0xba6fc0b1	-0.000914584
69	0xbcbd0176	-0.023071986
70	0xbcce8885	-0.025211582
71	0x3b66e7be	0.0035233344
72	0xbd000acb	-0.031260293
73	0xbcf8d5b6	-0.030375343
74	0xbd455278	-0.04817435
75	0x3ccf0e45	0.025275359
76	0x3c1de841	0.009637893
77	0xb90fa91b	-0.0001370054
78	0xbc59ff88	-0.013305552
79	0x3cb3d425	0.021951744
80	0xbc43e19a	-0.011955643
81	0xba7b91e6	-0.00095966307
82	0x3d81d7aa	0.06339963
83	0x3c9ba6c4	0.019000418
84	0x3c8bfb0c	0.017087482
85	0x3d86c069	0.06579668
86	0xbaafdb5e	-0.0013416817
87	0xbd4459f4	-0.04793735
88	0x3be2df7a	0.006923613
89	0xbd82c85a	-0.0638587
90	0xbde84bf5	-0.11342613
91	0xbce05a34	-0.027386762
92	0xbd92cb3b	-0.071676694
93	0xba900339	-0.0010987289
94	0xbc80276f	-0.015643803
95	0xbd3da13e	-0.04629635
96	0x3b999944	0.00468746
97	0xbd62534e	-0.055255227
98	0xbd9ba4a2	-0.075997606
99	0xbd9c384a	-0.07627924
100	0xbb0beeda	-0.0021352083
101	0x3d5afa24	0.05346121
102	0x3d7318c1	0.05934978
103	0xbce7434c	-0.028230332
104	0x3da2118d	0.07913504
105	0x3d9ef980	0.07762432
106	0x3c80e26d	0.015732968
107	0x396095a0	0.00021418044
108	0xbcb3887a	-0.021915663
109	0xbd8d34e7	-0.06894856
110	0xbd17d6cf	-0.03707009
111	0x3d7367d5	0.059425194
112	0xbd275039	-0.04084799
113	0xbd5dcfe5	-0.05415334
114	0xba35d2ff	-0.0006936043
115	0xbd42dd2f	-0.04757422
116	0xbd957476	-0.07297604
117	0x3d109546	0.03529861
118	0xbaf31c81	-0.0018547924
119	0xbe044764	-0.12917858
120	0x3a9cde7c	0.0011968161
121	0x3d8c4bf4	0.068504244
122	0xbd03fb2c	-0.032221958
123	0xbd43a381	-0.04776335
124	0xba839b9a	-0.001004088
125	0x3d867364	0.06564978
126	0xbcd7c8c1	-0.026340844
127	0xb9c2f623	-0.0003718595
128	0x3c9d5523	0.019205635
129	0xbc4f69e4	-0.012659524
130	0xbc96c86f	-0.018406121
131	0xbc515695	-0.01277699
132	0xbd6d8e1b	-0.05799685
133	0x3bc24c26	0.0059294878
134	0xbabf6209	-0.001460136
135	0xbc654a42	-0.013994755
136	0xbd38cb85	-0.045115966
137	0xbcb80343	-0.022462493
138	0x3d879de2	0.06621911
139	0x3d98ca99	0.074605174
140	0xbdd87600	-0.10569382
141	0x3d87b6fb	0.06626698
142	0x3ccd30ff	0.025047777
143	0xbc149254	-0.0090680905
144	0xbd552606	-0.052038215
145	0xbdacc3c8	-0.0843578
146	0x3d35faf4	0.04442878
147	0x398d1216	0.0002690709
148	0xbd02e997	-0.03196105
149	0xbbf1d146	-0.0073796837
150	0x3c8755db	0.016520431
151	0x3d2e4c4d	0.042553235
152	0x3d65aba6	0.0560719
153	0xbd5e6e0e	-0.054304175
154	0xbd215fee	-0.039398126
155	0xbd58db8f	-0.052943762
156	0x3a4b5fa1	0.0007758085
157	0x3d497b1c	0.049189672
158	0x3bb6a350	0.0055736676
159	0x3d90f43d	0.07077835
160	0x3d307600	0.043081284
161	0xbdecc306	-0.11560635
162	0xbd916c91	-0.071007855
163	0xbd928f66	-0.07156257
164	0xbc42a4c7	-0.011880106
165	0xbab23948	-0.0013597393
166	0xbdabb346	-0.08383803
167	0x3ace6e26	0.001574938
168	0x3d9facfc	0.07796666
169	0x3a9f7e25	0.0012168331
170	0x3c88f8c8	0.01672019
171	0xbd6f3499	-0.05839977
172	0x3da743e2	0.081672445
173	0xbbacf4ad	-0.005278191
174	0x3d961bb7	0.07329505
175	0xbda87d83	-0.082270645
176	0xbda61f4a	-0.08111437
177	0x3d2d4724	0.042304173
178	0x3bce46c3	0.0062950565
179	0x3d8b6e57	0.06808155
180	0x3b961688	0.0045803227
181	0x3cea4332	0.028596494
182	0xbcb7d1c7	-0.022438897
183	0x3ca12c40	0.01967442
184	0xbbff9d21	-0.0078007136
185	0x3ca3294a	0.01991715
186	0xbd8628c5	-0.06550745
187	0x3d37332d	0.04472654
188	0x3a0f5829	0.0005468154
189	0xbc994a46	-0.018712174
190	0xbcf24757	-0.029575033
191	0x3cd2d853	0.025737917
192	0x3a763e25	0.00093934155
193	0x3ad5734b	0.001628497
194	0xbc3e20d0	-0.011604503
195	0x3d56c348	0.05243233
196	0x3a2d3d9f	0.00066086085
197	0xbd51638d	-0.05112033
198	0x3c55b741	0.013044179
199	0x3cdbfd49	0.026854174
200	0xbd9c1b0c	-0.07622346
201	0x3d7ffcde	0.062497012
202	0xbd464c3e	-0.048412554
203	0xba104609	-0.00055036
204	0x3cb3130c	0.021859668
205	0xba7a6426	-0.00095516664
206	0x3d8a026f	0.067387454
207	0xbd6cac0d	-0.057781268
208	0x3cc5c430	0.024141401
209	0xba4d270f	-0.00078259496
210	0xbdaa51e8	-0.083164036
211	0xbd9c8bf5	-0.07643882
212	0xbdc49d5d	-0.09600327
213	0x3bd061c9	0.006359313
214	0xba8120a8	-0.0009851651
215	0x3d574322	0.052554257
216	0x3c276ec6	0.010219282
217	0xbd85e709	-0.06538207
218	0x3c38c1f8	0.0112767145
219	0xbc24ecb9	-0.010066205
220	0x3c786db3	0.015162873
221	0x3ac3ee36	0.0014948312
222	0xbd1b3e69	-0.037901316
223	0x3c4040be	0.011734186
224	0xbad7ff93	-0.0016479365
225	0xbd9fffc8	-0.07812458
226	0xbd6dd2cf	-0.05806237
227	0xbc39f36c	-0.01134954
228	0x3a4334e2	0.000744654
229	0x3d108da5	0.035291333
230	0x3c778116	0.01510646
231	0xbda53d28	-0.08068305
232	0x3da0e93e	0.078569874
233	0xbc3fa9af	-0.011698171
234	0x3d4098c6	0.047020696
235	0x39b0e83c	0.00033742364
236	0xbdc6392f	-0.09678876
237	0xbcf0fd62	-0.029417697
238	0xbd8fd20a	-0.07022484
239	0xbd8cfc5e	-0.06884073
240	0x3bfc47ee	0.0076990044
241	0xbdc4809c	-0.09594843
242	0x3d9711fa	0.07376476
243	0xbc841f79	-0.016128289
244	0xbd8a9cb2	-0.067681685
245	0x3c552905	0.013010268
246	0xba3aa6cf	-0.00071201933
247	0x3d7d3397	0.061816778
248	0xb7d626f0	-2.552892e-05
249	0x3d29da91	0.041468207
250	0xbca7f2c6	-0.020501506
251	0x3d2f3b7c	0.042781338
252	0xbd8719ab	-0.06596693
253	0xbbf4f115	-0.0074750283
254	0x3d45bf69	0.048278246
255	0x39a80c50	0.0003205263
