checkpoints_anomalies/model-50.pt (torch, 814353 bytes, 45 tensors)

encoder.conv1.weight f4 [8, 1, 3, 3]
-0.13920677 0.47987586 -0.541191 -0.50023 0.08724977 -0.78631604 -0.018876163 -0.115858175
-0.25870994 0.24505736 -0.24245872 2.0668807 -0.025592353 -0.18159899 0.25470468 0.17542747
-0.4528538 0.4503256 -0.30400908 -0.526579 -0.60411334 0.020219224 -0.047219567 0.22077255
0.9508038 0.13126762 0.30375338 -0.28218758 -0.5372369 -0.12737903 -0.3601288 -0.38387686
-0.050277047 -0.6753011 -0.51981115 0.37856513 0.29089847 0.05490691 -0.7178933 0.2644875
0.4468123 -0.4938314 0.5856885 -0.033199992 -0.44534084 -0.084036544 0.7765211 -0.4360415
-0.19550851 0.51160526 -0.33932474 0.404046 0.47707766 -0.090953685 1.1919614 0.07604104
-0.013268663 0.21084923 0.19464841 -0.2656212 0.12182339 -0.14038582 0.7490542 0.2429456
-0.4380647 0.46269986 1.332788 0.29925245 0.20571509 0.99137485 0.23439315 -0.3007662
00000000: 388c 0ebe 4ab2 f53e 7e8b 0abf 130f 00bf
00000010: 02b0 b23d 024c 49bf 2fa2 9abc 0d47 edbd
00000020: a175 84be 51f0 7a3e 1947 78be c647 0440
00000030: 0ea7 d1bc 16f5 39be a768 823e 42a3 333e
00000040: 74dc e7be 1491 e63e 14a7 9bbe e2cd 06bf
00000050: 2ca7 1abf c9a2 a53c 4e69 41bd 3312 623e
00000060: e167 733f 056b 063e 9085 9b3e e47a 90be
00000070: 5c88 09bf a66f 02be cd62 b8be 828b c4be
00000080: 4eef 4dbd 88e0 2cbf 5812 05bf 4ad3 c13e
00000090: a5f0 943e 11e6 603d dbc7 37bf e86a 873e
000000a0: 95c4 e43e 78d7 fcbe aeef 153f b7fc 07bd
000000b0: b703 e4be 5a1b acbd 16ca 463f d540 dfbe
000000c0: 6233 48be 90f8 023f f9bb adbe 1edf ce3e
000000d0: 8643 f43e ed45 babd 3192 983f 68bb 9b3d
000000e0: ce64 59bc dce8 573e ea51 473e 80ff 87be
000000f0: 8b7e f93d 4dc1 0fbe 04c2 3f3f bbc6 783e
00000100: 044a e0be ffe6 ec3e cc98 aa3f 9e37 993e
00000110: faa6 523e beca 7d3f c204 703e 07fe 99be

encoder.conv1.bias f4 [8]
1.1093845 -0.06480303 0.24779902 0.066864595 0.18269713 0.28956017 0.6539715 0.091725715
00000000: 5000 8e3f 73b7 84bd 07bf 7d3e 4ef0 883d
00000010: f514 3b3e 3b41 943e ad6a 273f b1da bb3d

encoder.conv2.weight f4 [16, 8, 3, 3]
-0.09987115 -0.030185236 0.4501515 -0.27812168 -0.2020804 0.35145214 -0.09929831 0.025538342
0.30792585 0.070757695 -0.42194518 -1.1156826 0.28138718 0.15152095 -0.6107615 0.65477157
0.32180804 -0.32130966 0.16237192 -0.07353089 0.14215507 0.29751176 -0.6325633 -0.4468531
0.79584837 -0.29749548 -0.38688776 -0.4347136 0.040319417 0.43817368 -0.5025136 -0.065686464
0.5196952 -0.4334179 -0.34163076 0.454261 -0.24098535 0.06999345 0.7168567 -0.20297393
-0.30732152 0.17564526 -0.3183719 -0.31522998 0.53283125 -0.57540166 -0.32825163 0.8662131
-0.11883965 -0.16788846 0.6983195 0.39414972 0.085745886 0.21482255 0.23203412 -0.024318093
-0.12400683 0.20599285 0.0507743 -0.13666943 0.546914 -0.11201711 -0.3881431 0.6144181
-0.07854223 -0.4264997 0.55219287 -0.0075321123 -0.15563641 0.95656836 0.33251572 0.23024105
-0.10674232 0.069039114 -0.011051763 -0.06453004 0.11489482 0.017476916 0.4304561 0.1969139
0.21539101 0.39938632 0.6351106 1.1738373 0.3490749 0.16690974 0.8497091 0.6134856
-0.13593283 0.74862456 0.19795565 -0.71738905 -0.34152773 0.2387647 0.28333184 -0.022397064
0.6280963 0.16661659 0.22350463 -0.1712592 0.16464712 0.16753866 0.21575609 0.20675051
0.27057925 0.15770556 0.1645624 -0.54354966 -0.1278543 0.29627782 0.26442617 0.41375113
0.4048025 -0.252682 0.15305273 0.08550029 0.27010635 -0.35393342 0.018811233 0.13342825
-0.7618286 -0.22174989 -0.18616264 1.25841 0.6172778 -0.16866796 0.38766173 -0.17740004
-0.056540385 0.24872862 -0.31388047 -0.38256392 0.5504264 0.2460778 0.46532336 0.2982409
-0.019042665 0.88376194 0.53987885 0.3803452 0.56579155 1.050745 0.9048746 1.0562148
-0.31542718 0.24338582 0.4750255 0.4226824 0.5755302 0.32399446 0.120953314 -0.09078256
-0.4438833 0.20080315 -0.11997097 -1.1917939 0.23990141 -0.122622445 0.0072983312 -0.102810234
0.2458521 0.76841515 -0.30086568 -0.058003616 0.3448887 0.41334808 0.012724781 0.33487985
0.04609575 0.092727125 0.21557263 -0.45313606 0.033272896 -0.27451903 0.39459693 0.48837596
0.06256665 0.19259389 0.021864366 -0.3852583 -0.029729616 -0.1106135 -0.0052933283 -0.37299475
-0.42739934 -0.52955294 -0.35607547 0.10209971 -0.48998064 -0.25518906 -0.33989313 -0.4147271
-0.58223677 -0.02273223 -0.9289602 -0.10801097 0.24447021 0.5256242 0.45811275 0.038165536
-1.3034441 -0.7094873 -1.7202691 -0.8219287 -0.4997824 -0.13077828 0.2090522 0.24839011
0.17611289 -0.38227662 0.26411816 0.23471816 -0.2392405 0.027702127 -0.09330721 0.3387695
0.39575058 0.45804572 0.37118566 0.56919384 0.7656496 0.64964694 0.0565897 0.04813333
-0.2948111 -0.27137196 0.010760139 0.10721331 0.14066833 -0.051807847 -0.23525842 -0.3744945
-0.004760856 0.6595723 0.05541964 0.21012251 -0.21832278 0.53808594 0.45143795 0.25832593
0.38991663 0.33064517 -0.22842558 0.31806484 1.1863924 0.27285796 0.18627815 0.71273726
0.32984072 -0.37236884 0.1540372 0.08015502 -0.2524408 -0.14758389 0.26335493 -0.38573787
00000000: 3f89 ccbd 0747 f7bc 427a e63e f765 8ebe
00000010: 2aee 4ebe 89f1 b33e ea5c cbbd c935 d13c
00000020: 75a8 9d3e 69e9 903d 3309 d8be b0ce 8ebf
00000030: fb11 903e 4f28 1b3e de5a 1cbf 1c9f 273f
00000040: 06c4 a43e b382 a4be d344 263e 5d97 96bd
00000050: 1991 113e 7653 983e abef 21bf eec9 e4be
00000060: b8bc 4b3f 5451 98be 2716 c6be c892 debe
00000070: f925 253d 4d58 e03e bba4 00bf a086 86bd
00000080: bf0a 053f f3e8 ddbe 3aea aebe e694 e83e
00000090: ddc4 76be ba58 8f3d ec83 373f 66d8 4fbe
000000a0: 3f59 9dbe 5adc 333e a401 a3be d365 a1be
000000b0: a167 083f 864d 13bf 9910 a8be 24c0 5d3f
000000c0: 3462 f3bd f4ea 2bbe 11c5 323f fecd c93e
000000d0: 8a9b af3d 71fa 5b3e 5a9a 6d3e bd36 c7bc
000000e0: 4bf7 fdbd caef 523e b6f8 4f3d 12f3 0bbe
000000f0: 8e02 0c3f 3a69 e5bd b1ba c6be 814a 1d3f
00000100: c0da a0bd 2b5e dabe 835c 0d3f f0cf f6bb
00000110: 275f 1fbe aae1 743f 803f aa3e 4fc4 6b3e
00000120: b89b dabd 6164 8d3d 7412 35bc 5328 84bd
00000130: fa4d eb3d c02b 8f3c be64 dc3e cca3 493e
00000140: 768f 5c3e 5d7c cc3e 9c96 223f 4d40 963f
00000150: f2b9 b23e 63ea 2a3e 8986 593f 640d 1d3f
00000160: fa31 0bbe dca5 3f3f e3b4 4a3e cfa6 37bf
00000170: b9dc aebe bc7e 743e df10 913e 0c7a b7bc
00000180: ebca 203f 8a9d 2a3e 66de 643e 925e 2fbe
00000190: 4199 283e 418f 2b3e 2aef 5c3e 68b6 533e
000001a0: 5d89 8a3e 917d 213e 0c83 283e 1226 0bbf
000001b0: 3dec 02be bab1 973e de62 873e 30d7 d33e
000001c0: 4642 cf3e 895f 81be dbb9 1c3e c71a af3d
000001d0: 614b 8a3e c336 b5be 041a 9a3c 6aa1 083e
000001e0: 3307 43bf 6712 63be 6ba1 3ebe 9413 a13f
000001f0: eb05 1e3f 4bb7 2cbe 997b c63e 5ba8 35be
00000200: e496 67bd b7b2 7e3e f1b4 a0be 6bdf c3be
00000210: bfe8 0c3f d2fb 7b3e dd3e ee3e 08b3 983e
00000220: 5dff 9bbc 393e 623f 8035 0a3f 9bbc c23e
00000230: b7d7 103f d07e 863f dda5 673f 0c32 873f
00000240: ac7f a1be 223a 793e 8b36 f33e d469 d83e
00000250: f255 133f 9ae2 a53e 5fb6 f73d 35ec b9bd
00000260: ac44 e3be 579f 4d3e 57b3 f5bd b48c 98bf
00000270: b7a8 753e 7a21 fbbd d726 ef3b 2c8e d2bd
00000280: a7c0 7b3e dbb6 443f 110b 9abe 3395 6dbd
00000290: 4095 b03e 5ca2 d33e 9a7b 503c 5f75 ab3e
000002a0: e6ce 3c3d b8e7 bd3d 12bf 5c3e 7301 e8be
000002b0: 2949 083d c28d 8cbe 9c08 ca3e 6a0c fa3e
000002c0: f222 803d 5537 453e e61c b33c 9340 c5be
000002d0: 868b f3bc 5589 e2bd a873 adbb 2bf9 bebe
000002e0: 16d4 dabe c890 07bf 864f b6be a719 d13d
000002f0: bede fabe 24a8 82be 7906 aebe 1c57 d4be
00000300: 780d 15bf f138 babc 56d0 6dbf db34 ddbd
00000310: 6656 7a3e 4f8f 063f c18d ea3e 7753 1c3d
00000320: 42d7 a6bf f6a0 35bf c731 dcbf eb69 52bf
00000330: 7be3 ffbe beea 05be c811 563e fa59 7e3e
00000340: f056 343e c3b9 c3be 7f3a 873e f559 703e
00000350: 76fb 74be 92ef e23c da17 bfbd 3273 ad3e
00000360: d29f ca3e f884 ea3e 0c0c be3e b0b6 113f
00000370: 9d01 443f 434f 263f 9aca 673d 7427 453d
00000380: 7bf1 96be 44f1 8abe 4b4b 303c a792 db3d
00000390: 5c0b 103e 7734 54bd 95e7 70be bebd bfbe
000003a0: f400 9cbb bbd9 283f b4ff 623d 5b2a 573e
000003b0: 0290 5fbe 00c0 093f e022 e73e 4c43 843e
000003c0: 27a3 c73e 534a a93e 65e8 69be 65d9 a23e
000003d0: b5db 973f 0ab4 8b3e b3bf 3e3e f375 363f
000003e0: e2e0 a83e 21a7 bebe eebb 1d3e 5128 a43d
000003f0: ec3f 81be 3b20 17be 75d6 863e 6f7f c5be

encoder.conv2.bias f4 [16]
-0.10532865 0.48512423 0.20010401 0.6707505 -0.12669018 0.20475952 0.65479296 -0.49540502
0.29904988 -0.2573183 0.49549732 -0.7117196 0.03660656 -0.104134284 -0.30338547 -0.1641698
00000000: 8cb6 d7bd 3462 f83e 11e8 4c3e 4eb6 2b3f
00000010: 12bb 01be 7bac 513e 83a0 273f baa5 fdbe
00000020: 111d 993e 39bf 83be d3b1 fd3e 4133 36bf
00000030: c3f0 153d 5b44 d5bd 5755 9bbe 211c 28be

encoder.conv3.weight f4 [32, 16, 3, 3]
-0.2956144 -0.35673714 -0.12513185 0.0936085 -0.2853744 -0.27789968 -0.2823489 -0.2437678
0.096272506 0.39258912 -0.37686238 -0.91876185 -0.030819688 0.029200504 0.062227737 0.2401815
-0.048727408 0.28402135 0.22738421 0.18896534 0.28998077 -0.09541707 0.059378065 -0.00158951
-1.4546658 0.1598404 -0.320772 0.07657561 0.06618369 0.22948071 -0.05517148 0.062161356
-0.16079685 -1.3000139 0.010046851 -0.5933064 0.60126764 0.62934333 0.24708283 -0.014020315
-0.1824486 -0.19528797 -0.67818695 -0.24096902 -0.7254941 -0.10811652 -0.19583453 -0.3506259
-0.052280933 -0.10450889 0.23653202 -1.1653218 0.4066047 0.64148754 0.020607986 -0.27955374
-0.07939711 -0.36494797 0.6415627 0.41116846 0.28912753 0.36361265 0.04620261 0.15415962
-0.028220551 0.05455833 0.18744315 0.4017179 0.35332882 -0.52420145 -0.042760447 -0.8967292
0.150186 -0.07927789 -0.47792855 -0.4919456 -0.552535 -0.15562747 -0.54403853 0.23371981
0.32827768 0.13073996 0.26704162 0.12247587 -0.6039941 0.023448642 0.027583536 -1.9692602
0.031173732 -0.07152979 -0.19926286 -0.3383011 -0.29911843 -0.47233513 -0.4925075 0.097274974
-0.7576274 0.007952154 0.107299715 -0.06659152 0.04965468 0.21209726 0.10162117 0.57886964
-0.47641304 -0.5962051 0.19633141 -0.74610466 -0.05931656 0.13992925 0.17746916 0.1639693
-0.27965418 -0.15898934 -0.28299978 -0.3149993 0.006036643 0.524626 0.094175175 -0.018457742
0.5249741 -0.33349568 -0.4171606 -0.030130956 -0.6525991 -0.708723 -0.05358848 0.19921859
0.47604382 -0.78448546 -0.1015101 0.08552251 -0.81398875 -0.13978873 -0.20937166 0.47187522
0.022229046 -0.65489393 -0.2211967 -0.3982188 0.15135247 -0.53411645 -0.6108079 -0.099814
-0.76867384 -0.26763216 -0.28098398 -1.0841055 -0.36485845 0.104228586 -1.1896197 -0.65969646
-0.26735944 0.35896045 -0.6186233 0.055919465 -0.5301897 0.42648432 0.24266504 0.0021819398
0.67640835 -0.43872407 0.18141162 0.765636 0.06163032 0.895358 0.48778063 -0.19420886
0.38768896 -0.30820212 -0.45369515 -0.42215446 0.27043197 0.13117173 0.30999276 -0.009152784
0.10200098 -0.26276472 -0.09616039 -0.3171286 -0.6201056 -0.4184846 0.2594107 -0.6583681
-0.8327661 -0.5040989 -0.33398357 -0.89103484 -0.5792188 0.17538202 0.15391411 0.17009516
-0.013549594 0.057844497 0.39219967 -0.09493728 -0.9932134 -0.24903524 0.6211157 0.751311
0.14944461 0.35286912 0.38640592 0.5088816 0.23935154 0.061771244 -1.1070825 0.030285604
-0.20910035 0.41163886 0.55108845 0.27886865 0.114754826 0.11436554 0.04614176 0.13553946
-0.04183409 0.38076302 -0.13386151 0.39322934 -0.079755165 0.27890742 0.3249213 -0.11213913
0.18556874 -0.085969485 0.4348604 0.1272851 0.27976128 0.04272069 -0.052282233 -0.10906152
-0.21045679 -0.32802472 0.37310225 -0.03284325 0.113133736 0.43458557 0.108226314 -0.32620978
0.14151175 0.34300616 -0.3757568 -0.66327435 0.21065159 0.063745566 0.5816747 -0.21353471
-0.74911547 -0.097405046 -0.563717 -0.047439616 0.2657801 -0.19039889 0.19673488 0.39468226
00000000: c55a 97be 40a6 b6be 9022 00be d0b5 bf3d
00000010: 981c 92be de48 8ebe 0990 90be 449e 79be
00000020: 852a c53d 7101 c93e 1bf4 c0be fa33 6bbf
00000030: 9279 fcbc e535 ef3c 83e2 7e3d 24f2 753e
00000040: 6496 47bd 3f6b 913e 68d7 683e 2180 413e
00000050: 5c78 943e 066a c3bd 6a36 733d 1b57 d0ba
00000060: 7d32 babf 34ad 233e 3a3c a4be acd3 9c3d
00000070: 518b 873d fefc 6a3e 7dfb 61bd e89c 7e3d
00000080: eea7 24be db66 a6bf 8c9b 243c eee2 17bf
00000090: adec 193f a51c 213f 4803 7d3e 77b5 65bc
000000a0: ced3 3abe 92f9 47be a99d 2dbf 95c0 76be
000000b0: fbb9 39bf 326c ddbd d988 48be 3d85 b3be
000000c0: 8824 56bd c208 d6bd 7335 723e 4429 95bf
000000d0: 7e2e d03e 8738 243f 14d2 a83c ab21 8fbe
000000e0: f49a a2bd 76da babe 743d 243f ac84 d23e
000000f0: 8608 943e 702b ba3e f33e 3d3d 05dc 1d3e
00000100: c92e e7bc 8e78 5f3d 19f1 3f3e f8ad cd3e
00000110: 84e7 b43e 1132 06bf 9425 2fbd 0b90 65bf
00000120: 5cca 193e 725c a2bd 0db3 f4be 4be0 fbbe
00000130: ef72 0dbf cf5c 1fbe 1c46 0bbf 3f54 6f3e
00000140: 0314 a83e b2e0 053e aeb9 883e a1d4 fa3d
00000150: 5b9f 1abf 5e17 c03c def6 e13c b810 fcbf
00000160: 0e60 ff3c 367e 92bd 900b 4cbe cd35 adbe
00000170: 0d26 99be e9d5 f1be f129 fcbe 1a38 c73d
00000180: dff3 41bf c049 023c f4bf db3d 2361 88bd
00000190: b562 4b3d 0630 593e c31e d03d cd30 143f
000001a0: 69ec f3be e6a0 18bf 1a0b 493e b700 3fbf
000001b0: ecf5 72bd 9d49 0f3e 7aba 353e 91e7 273e
000001c0: d52e 8fbe 1ace 22be 59e5 90be 9747 a1be
000001d0: 08cf c53b e44d 063f eade c03d b134 97bc
000001e0: b464 063f f2bf aabe 1396 d5be 32d5 f6bc
000001f0: bc10 27bf df6e 35bf 987f 5bbd f5ff 4b3e
00000200: 04bc f33e 0ad4 48bf 87e4 cfbd 6d26 af3d
00000210: 9161 50bf c724 0fbe 8665 56be a199 f13e
00000220: b019 b63c 21a7 27bf 6381 62be 56e3 cbbe
00000230: 24fc 1a3e dbbb 08bf e85d 1cbf 486b ccbd
00000240: cfc7 44bf 1507 89be 22dd 8fbe f8c3 8abf
00000250: bace babe cc75 d53d 7545 98bf dee1 28bf
00000260: 56e3 88be aac9 b73e 195e 1ebf cf0b 653d
00000270: 83ba 07bf 275c da3e 2f7d 783e e0fe 0e3b
00000280: 1929 2d3f 71a0 e0be f8c3 393e b900 443f
00000290: 1370 7c3d 2f36 653f 62be f93e b0de 46be
000002a0: 2b7f c63e abcc 9dbe bb4a e8be a124 d8be
000002b0: 0f76 8a3e e251 063e 5fb7 9e3e 8ff5 15bc
000002c0: e4e5 d03d 1989 86be bdef c4bd ae5e a2be
000002d0: 3ebf 1ebf 9d43 d6be 7bd1 843e d08a 28bf
000002e0: 2930 55bf a00c 01bf e5ff aabe dc1a 64bf
000002f0: af47 14bf 5897 333e a99b 1d3e 6d2d 2e3e
00000300: 1eff 5dbc 5aee 6c3d 65ce c83e 7a6e c2bd
00000310: 3c43 7ebf 1803 7fbe 7001 1f3f eb55 403f
00000320: 0208 193e 43ab b43e ffd6 c53e 1146 023f
00000330: 9218 753e d803 7d3d e1b4 8dbf 8419 f83c
00000340: 671e 56be 54c2 d23e 2214 0d3f dfc7 8e3e
00000350: 9404 eb3d 7b38 ea3d 24ff 3c3d dbca 0a3e
00000360: 395a 2bbd 5ff3 c23e fe12 09be 5b55 c93e
00000370: ad56 a3bd f4cc 8e3e 165c a63e 33a9 e5bd
00000380: bb05 3e3e c510 b0bd 06a6 de3e 0657 023e
00000390: df3c 8f3e e4fb 2e3d e525 56bd a55b dfbd
000003a0: fc81 57be dbf2 a7be 4207 bf3e a586 06bd
000003b0: a9b2 e73d 0082 de3e c2a5 dd3d f804 a7be
000003c0: 75e8 103e 819e af3e 3263 c0be 59cc 29bf
000003d0: 0db5 573e 098d 823d a2e8 143f d8a8 5abe
000003e0: 08c6 3fbf 4c7c c7bd c24f 10bf 0b50 42bd
000003f0: 5414 883e edf7 42be de74 493e cb13 ca3e

encoder.conv3.bias f4 [32]
-0.19615152 -0.039146848 0.241245 0.37808844 -0.9129605 -0.45839238 0.21387087 -0.13916928
-0.11441117 -0.0117978575 0.39462057 -0.45546255 -0.21526466 0.5038548 0.15353496 -0.09191578
0.20249933 0.38025555 -1.2959266 0.6742293 0.56583077 0.38303977 0.09653672 0.4773973
0.29353735 0.10340308 -0.0027751261 0.09259922 1.104242 0.103463314 0.1303441 0.004935298
00000000: f2db 48be 7258 20bd ee08 773e cf94 c13e
00000010: c8b7 69bf 68b2 eabe f700 5b3e 6482 0ebe
00000020: 6750 eabd cd4b 41bc b50b ca3e 6332 e9be
00000030: 576e 5cbe a1fc 003f 4538 1d3e 573e bcbd
00000040: fc5b 4f3e dbb0 c23e ece0 a5bf 4b9a 2c3f
00000050: 49da 103f ca1d c43e 0bb5 c53d 6b6d f43e
00000060: 874a 963e fec4 d33d e4de 35bb a9a4 bd3d
00000070: cd57 8d3f 93e4 d33d ec78 053e 48b8 a13b

encoder.batch_norm1.weight f4 [8]
0.6728243 2.202651 0.35466483 0.8707159 0.41227219 0.747806 1.5971193 2.2400186
00000000: 373e 2c3f 3cf8 0c40 a196 b53e 3de7 5e3f
00000010: 5715 d33e 3770 3f3f 686e cc3f 775c 0f40

encoder.batch_norm1.bias f4 [8]
0.14198075 -0.46781933 0.1390245 0.13417584 0.118708044 0.049608387 -0.23331958 -0.40005058
00000000: 6763 113e 0486 efbe 705c 0e3e 6465 093e
00000010: 341d f33d 2a32 4b3d 54eb 6ebe 6ed3 ccbe

encoder.batch_norm1.running_mean f4 [8]
-0.467847 1.955367 0.3740946 -2.1770341 0.13522123 1.1871449 2.5150194 2.7493663
00000000: a489 efbe 7749 fa3f 5489 bf3e 8754 0bc0
00000010: 6f77 0a3e 5df4 973f 14f6 2040 9ef5 2f40

encoder.batch_norm1.running_var f4 [8]
0.17592981 0.3272001 0.07495156 0.39987713 0.08454297 0.08685681 0.23194894 0.56413144
00000000: f226 343e c686 a73e 3480 993d b2bc cc3e
00000010: dd24 ad3d fce1 b13d 0684 6d3e eb6a 103f

encoder.batch_norm2.weight f4 [16]
1.176281 1.6260487 0.8317339 1.1797142 0.9927871 1.1186059 0.85963756 0.8412077
1.3025489 1.0950025 0.7105855 0.77545124 1.0139749 0.8606974 0.987657 1.1644975
00000000: 6090 963f 5d22 d03f 83ec 543f e000 973f
00000010: 4c27 7e3f 7a2e 8f3f 3511 5c3f 6359 573f
00000020: ecb9 a63f 0b29 8c3f eee8 353f f983 463f
00000030: eec9 813f aa56 5c3f 17d7 7c3f 410e 953f

encoder.batch_norm2.bias f4 [16]
0.19514745 -0.55148745 -0.46932155 0.62619114 -0.09603577 -0.11834575 -0.36458993 0.03841646
-0.13151616 0.3941047 0.58586913 0.15880889 0.081455685 -0.4425702 -0.11555303 0.5454902
00000000: bcd4 473e 482e 0dbf ea4a f0be 104e 203f
00000010: 67ae c4bd 425f f2bd 88ab babe 945a 1d3d
00000020: 2cac 06be 17c8 c93e 85fb 153f cc9e 223e
00000030: 3dd2 a63d 9098 e2be 11a7 ecbd 3fa5 0b3f

encoder.batch_norm2.running_mean f4 [16]
0.69589937 6.600821 -1.6888788 2.4521337 -0.66289926 -0.6105608 -1.5239823 0.39439878
0.54821706 -0.933545 -3.4436696 -1.3920379 -0.72359467 0.14163226 -0.073567785 -2.0349522
00000000: 7626 323f ed39 d340 2e2d d8bf c2ef 1c40
00000010: c4b3 29bf b64d 1cbf da11 c3bf a3ee c93e
00000020: f457 0c3f cefc 6ebf 1565 5cc0 4c2e b2bf
00000030: 803d 39bf 0c08 113e b5aa 96bd a83c 02c0

encoder.batch_norm2.running_var f4 [16]
5.303246 2.6820087 4.9789805 13.914845 2.972594 4.1767354 3.7320008 4.0269914
4.510499 11.864424 3.936792 4.089516 2.5308821 4.0264435 4.403129 10.999905
00000000: 31b4 a940 08a6 2b40 cf53 9f40 35a3 5e41
00000010: fb3e 3e40 d1a7 8540 1ad9 6e40 1ddd 8040
00000020: 0256 9040 aed4 3d41 66f4 7b40 51dd 8240
00000030: f9f9 2140 a0d8 8040 6fe6 8c40 9cff 2f41

encoder.batch_norm3.weight f4 [32]
0.082079634 0.063014425 0.06264509 0.05073897 0.057431124 0.075592786 0.06764114 0.10420029
0.048184052 0.09541804 0.13042092 0.13756065 0.056220867 0.12046434 0.093022324 0.08516418
0.15510333 0.075612284 0.069337845 0.080049016 0.06896238 0.08189207 0.044566542 0.075102136
0.04731133 0.09337179 0.14181389 0.06460459 0.04683283 0.064075604 0.07033045 0.11830843
00000000: 5e19 a83d b50d 813d 124c 803d abd3 4f3d
00000010: e63c 6b3d 64d0 9a3d 7087 8a3d f666 d53d
00000020: a45c 453d 896a c33d 108d 053e b3dc 0c3e
00000030: da47 663d 02b6 f63d 7d82 be3d 8f6a ae3d
00000040: 68d3 1e3e 9dda 9a3d 0001 8e3d bdf0 a33d
00000050: 263c 8d3d 08b7 a73d 688b 363d 26cf 993d
00000060: 86c9 413d b639 bf3d a937 113e 694f 843d
00000070: c8d3 3f3d 123a 833d 6909 903d b14b f23d

encoder.batch_norm3.bias f4 [32]
-0.021037227 -0.038075417 -0.013532609 -0.0024322986 -0.0002879153 0.049056202 -0.024270803 -0.072587855
0.019353997 -0.066357076 -0.08349344 -0.09034846 0.02901829 -0.071602345 -0.057799947 -0.036831252
-0.1101689 0.038742192 -0.031558856 -0.038553745 -0.0059422357 -0.023093564 -0.004342908 -0.03814806
-0.0023365335 -0.046287097 -0.082731 -0.006590666 -0.02161733 0.024174849 -0.03455606 -0.08810069
00000000: 4356 acbc f8f4 1bbd e0b7 5dbc 3367 1fbb
00000010: 56f3 96b9 28ef 483d 90d3 c6bc f1a8 94bd
00000020: 468c 9e3c 38e6 87bd 9cfe aabd 9d08 b9bd
00000030: c4b7 ed3c 40a4 92bd a3bf 6cbd 5edc 16bd
00000040: 3ba0 e1bd 22b0 1e3d dc43 01bd 88ea 1dbd
00000050: 16b7 c2bb b72e bdbc f44e 8ebb 2441 1cbd
00000060: 8720 19bb 8a97 3dbd df6e a9bd 83f6 d7bb
00000070: d416 b1bc 550a c63c a88a 0dbd 226e b4bd

encoder.batch_norm3.running_mean f4 [32]
-7.8610487 -1.2493474 1.0646298 -0.37134403 3.7036052 2.3860593 -0.39686674 -1.2110932
-6.893995 3.1023676 -8.354675 -5.4229474 -1.6373059 -0.10645901 1.5351939 3.8704693
2.0293598 2.799431 -3.8243294 -2.3363595 -7.639855 0.49493074 1.6805491 -1.0790963
-0.58086854 1.8679197 -6.8559623 1.3335834 -1.788381 -0.8118014 -1.2111969 -5.4035306
00000000: b68d fbc0 9eea 9fbf ca45 883f ce20 bebe
00000010: de07 6d40 32b5 1840 1e32 cbbe 1a05 9bbf
00000020: 9b9b dcc0 318d 4640 c0ac 05c1 c988 adc0
00000030: 3d93 d1bf 2e07 dabd 3c81 c43f c5b5 7740
00000040: 08e1 0140 e129 3340 d0c1 74c0 ea86 15c0
00000050: b179 f4c0 9067 fd3e 3c1c d73f d41f 8abf
00000060: cdb3 14bf fe17 ef3f 0b64 dbc0 dcb2 aa3f
00000070: abe9 e4bf 37d2 4fbf 8008 9bbf b9e9 acc0

encoder.batch_norm3.running_var f4 [32]
21.225666 21.728895 25.503141 13.503873 28.751978 53.161137 25.259346 46.528774
12.075367 15.413874 40.22933 42.331745 26.583578 31.926264 48.648792 21.225117
48.450024 40.395496 22.51135 35.26341 16.361755 30.58715 12.219314 25.452282
21.2948 18.474335 50.69877 21.024055 14.075086 30.380543 33.169193 38.04646
00000000: 2ace a941 c7d4 ad41 6f06 cc41 dd0f 5841
00000010: 0d04 e641 01a5 5442 2413 ca41 771d 3a42
00000020: b434 4141 3a9f 7641 d5ea 2042 b553 2942
00000030: 2bab d441 fd68 ff41 5d98 4242 0acd a941
00000040: d3cc 4142 fd94 2142 3f17 b441 bb0d 0d42
00000050: e0e4 8241 7cb2 f441 4f82 4341 469e cb41
00000060: c05b aa41 70cb 9341 8acb 4a42 4431 a841
00000070: 8d33 6141 5a0b f341 41ad 0442 932f 1842

encoder.linear1.weight f4 [128, 512]
-0.07501867 -0.022702187 -0.03078192 -0.001381531 -0.0016586374 -0.0035423927 -0.006299138 -0.06530964
-0.029715894 0.03948342 0.0432215 0.04358625 -0.056542672 -0.022589816 -0.029145882 0.027703455
-0.099258184 -0.05489578 -0.036848575 -0.0062811887 -0.039063938 0.01592684 0.014846045 0.059940375
-0.017633498 0.00740526 -0.06454038 0.0022062478 0.012963603 -0.06583979 -0.015454985 -0.02583638
-0.06737565 0.024532918 -0.053009287 -0.014718907 -0.0062518143 -0.003591585 0.060118698 -0.03902776
0.03128421 -0.011222353 0.043330792 -0.057610326 -0.025836188 -0.07787876 0.019309266 -0.095721304
0.04055571 -0.013140987 -0.06741465 -0.02176924 4.8486118e-06 -0.010158593 -0.031333998 -0.04207075
-0.011787622 -0.0025402498 -0.030616792 -0.016596593 -0.059121903 -0.033253655 0.038801726 -0.10385298
-0.01028269 0.005375274 -0.0034348075 -0.039698973 0.013405111 -0.045017492 -0.05797336 -0.07020514
-0.048511557 -0.096401155 0.015124586 -0.0117486 -0.066347234 0.0137225315 -0.112402745 0.017872779
-0.02791498 -0.09930214 -0.070138186 -0.12634425 -0.067163825 -0.018250065 -0.063848935 0.01462034
-0.042622477 -0.10301463 -0.039381515 0.0012187918 -0.0540179 -0.012414726 -0.05612387 -0.039821025
-0.023683542 -0.07396494 -0.03276876 0.021196868 -0.06172437 0.04326811 -0.044427946 -0.0028351059
0.0333213 -0.017105922 -0.01659822 -0.03610145 0.020866195 -0.093252994 0.039795008 -0.0071583036
-0.08769953 -0.10935648 0.03357032 -0.09147391 -0.021482771 -0.0398784 0.053645153 -0.026342416
0.0076408535 -0.0017413222 0.04792095 -0.034611095 -0.008037004 0.07624806 -0.013691721 -0.044563737
-0.023412783 -0.07193666 -0.0038909244 -0.08229999 0.029759202 -0.089549676 -0.038662393 0.019454198
-0.04532541 -0.037756745 0.046053205 -0.00031131657 -0.024025159 -0.007206861 -0.04008569 0.052248657
0.010043201 0.07681329 -0.0858575 -0.026594019 -0.07391974 0.053538814 -0.04770201 -0.07603027
-0.048423268 0.072035484 -0.06120278 -0.02664141 -0.031015186 -0.06084882 -0.01427192 -0.0662093
-0.09348454 -0.07060864 -0.04346865 -0.018733349 -0.0861411 0.039560754 0.0054645375 0.09946503
-0.001033977 0.022088338 0.012068741 -0.040096413 -0.011305492 0.033402197 0.049074046 0.03791772
-0.004967916 -0.027744805 -0.042758312 -0.04826554 -0.034178358 -0.039797027 -0.11103203 -0.04191135
-0.038614523 -0.0068809763 0.013788944 -0.06572577 -0.030111743 -0.04332498 -0.02007509 -0.02018551
0.040200334 -0.038916428 -0.04766262 -0.08827727 0.032206632 -0.061853673 -0.07275533 0.014721942
-0.07518867 -0.082612805 -0.013395261 0.0071238023 -0.09872807 -0.029055243 -0.060992662 0.041255422
-0.056735095 0.02587924 -0.010341903 -0.06258043 0.005477386 0.071703725 -0.044362705 -0.066525206
0.02254545 -0.021660147 -0.01343258 -0.04985769 -0.03455415 0.076050214 -0.02936514 -0.04218035
0.01583025 -0.048172545 -0.0180801 -0.09397495 -0.020581765 0.00030142997 -0.0038825416 0.01722792
-0.044394344 0.033004303 -0.012428337 -0.06546019 -0.031495973 0.10686543 -0.035534978 0.006429007
-0.020422636 -0.05948087 -0.03703898 -0.074117705 -0.045499444 -0.01874623 -0.019908866 -0.07233374
0.057216562 0.06816082 -0.07273505 0.025544645 0.05031534 -0.05125995 -0.009476896 -0.091463014
00000000: 63a3 99bd f0f9 b9bc 5d2a fcbc 7d14 b5ba
00000010: a366 d9ba 7d27 68bb 0069 cebb 0fc1 85bd
00000020: bf6e f3bc 5eb9 213d 0709 313d 7f87 323d
00000030: 4a99 67bd 470e b9bc 58c3 eebc 5bf2 e23c
00000040: e047 cbbd 66da 60bd 88ee 16bd 6ed2 cdbb
00000050: 8201 20bd 0179 823c d33c 733c 0a84 753d
00000060: 2074 90bc d3a7 f23b bf2d 84bd b296 103b
00000070: 4b65 543c 03d7 86bd e836 7dbc d1a6 d3bc
00000080: 3ffc 89bd 42f9 c83c 4420 59bd 9227 71bc
00000090: 05dc ccbb cc60 6bbb 063f 763d 93db 1fbd
000000a0: df23 003d f6dd 37bc a17b 313d cef8 6bbd
000000b0: 6aa6 d3bc e67e 9fbd 772e 9e3c 8809 c4bd
000000c0: bf1d 263d 4b4d 57bc b110 8abd 6855 b2bc
000000d0: 42b1 a236 3a70 26bc 1458 00bd 6152 2cbd
000000e0: df20 41bc 527a 26bb 11d0 fabc 94f5 87bc
000000f0: cf29 72bd fc34 08bd 8fee 1e3d dfb0 d4bd
00000100: ba78 28bc 1123 b03b 821a 61bb 649b 22bd
00000110: 1ca1 5b3c 4364 38bd 7975 6dbd b6c7 8fbd
00000120: 0eb4 46bd f86d c5bd 1dcd 773c 337d 40bc
00000130: 0fe1 87bd 78d4 603c 6933 e6bd ef69 923c
00000140: f5ad e4bc ec5e cbbd 9ca4 8fbd 6360 01be
00000150: 308d 89bd 2981 95bc 3bc3 82bd 278a 6f3c
00000160: e894 2ebd 56f9 d2bd 834e 21bd debf 9f3a
00000170: e041 5dbd 2367 4bbc 25e2 65bd 5f1b 23bd
00000180: fd03 c2bc ee7a 97bd 8938 06bd 0ea5 ad3c
00000190: b1d2 7cbd e739 313d 14fa 35bd 2fcd 39bb
000001a0: ea7b 083d b821 8cbc fef8 87bc 1ddf 13bd
000001b0: 95ef aa3c 6dfb bebd 1700 233d 3490 eabb
000001c0: d09b b3bd 4af6 dfbd 0881 093d ac56 bbbd
000001d0: a3fc afbc 8857 23bd 05bb 5b3d 0dcc d7bc
000001e0: 2060 fa3b 143d e4ba c248 443d 5dc4 0dbd
000001f0: a3ad 03bc f127 9c3d 3d53 60bc 7788 36bd
00000200: 2acc bfbc 8753 93bd e1fe 7ebb e68c a8bd
00000210: 92c9 f33c d265 b7bd 755c 1ebd 695e 9f3c
00000220: 23a7 39bd d1a6 1abd 49a2 3c3d 3438 a3b9
00000230: 69d0 c4bc 8827 ecbb e430 24bd b002 563d
00000240: 3d8c 243c 4950 9d3d 0fd6 afbd b3db d9bc
00000250: 3c63 97bd 844b 5b3d 2f63 43bd c2b5 9bbd
00000260: 7a57 46bd 5787 933d c4af 7abd 163f dabc
00000270: 8f13 febc 9d3c 79bd c5d4 69bc be98 87bd
00000280: d374 bfbd 439b 90bd 2f0c 32bd ae76 99bc
00000290: bf6a b0bd 750a 223d dd0f b33b 52b4 cb3d
000002a0: 8386 87ba 9af2 b43c f8bb 453c 233c 24bd
000002b0: ac3a 39bc bed0 083d de01 493d 9c4f 1b3d
000002c0: e6c9 a2bb 1349 e3bc 5723 2fbd 16b2 45bd
000002d0: 9bfe 0bbd 3502 23bd c364 e3bd 3cab 2bbd
000002e0: 432a 1ebd d079 e1bb 06eb 613c 3c9b 86bd
000002f0: e7ac f6bc 8975 31bd 8474 a4bc 155c a5bc
00000300: 1ba9 243d d566 1fbd e139 43bd b7ca b4bd
00000310: 1aeb 033d 475a 7dbd bf00 95bd 4d34 713c
00000320: 84fc 99bd e730 a9bd cc77 5bbc c96e e93b
00000330: f131 cabd 4305 eebc 71d3 79bd 72fb 283d
00000340: 0f63 68bd b300 d43c 1671 29bc 2b2a 80bd
00000350: a57b b33b 67d9 923d abb5 35bd 5e3e 88bd
00000360: 3cb1 b83c 9f70 b1bc 5314 5cbc 9437 4cbd
00000370: a788 0dbd 37c0 9b3d 298f f0bc 4dc5 2cbd
00000380: 71ae 813c 9350 45bd b81c 94bc f075 c0bd
00000390: 179b a8bc 3f09 9e39 3d72 7ebb 9121 8d3c
000003a0: d8d6 35bd 852f 073d 39a0 4bbc fe0f 86bd
000003b0: ec01 01bd 43dc da3d 208d 11bd 6baa d23b
000003c0: 5f4d a7bc 36a2 73bd 2fb6 17bd 06cb 97bd
000003d0: a05d 3abd b291 99bc eb17 a3bc b623 94bd
000003e0: ea5b 6a3d e697 8b3d 1df6 94bd 0143 d13c
000003f0: 7517 4e3d f4f5 51bd fc44 1bbc f650 bbbd

encoder.linear1.bias f4 [128]
-0.03407476 -0.06191894 -0.007734779 0.0126876 0.00074903097 -0.021301497 0.37732503 -0.056669544
-0.049502485 -0.03132629 -0.051300254 -0.06219297 -0.05301872 -0.04882659 -0.048362155 -0.04978208
-0.0008465858 -0.0523692 -0.008543623 -0.07639495 -0.079755954 -0.028551321 -0.05407365 -0.032951146
0.011965958 -0.025421869 -0.033952147 -0.0008128266 0.31623384 -0.05669352 -0.033591386 -0.03285543
-0.069494694 -0.0099001955 -0.04168011 -0.009782622 -0.024815688 0.37489367 0.0069983876 0.21661057
-0.019177873 0.14316604 0.0100516565 -0.028387489 -0.0017463944 0.058097534 -0.020016057 -0.01994468
-0.06553095 -0.06843829 -0.015053732 -0.020547854 -0.016855061 -0.008744771 -0.028244508 -0.019771704
-0.035648122 -0.05969859 -0.06934259 -0.007644336 0.522222 -0.044342652 -0.04729575 -0.05155203
0.29985088 0.3763177 -0.06505595 -0.030575799 0.4682867 -0.0013237244 -0.021414898 -0.026409538
-0.021161783 -0.0028516161 -0.008298862 0.011531497 -0.026721826 0.5854766 0.002243561 0.009044976
-0.07872534 0.21956475 -0.033145007 0.011628051 -0.045891777 -0.032588255 0.1372572 -0.046937454
-0.034488186 -0.02796495 -0.044201642 -0.05877222 0.022249945 0.2674108 -0.03056933 -0.037579015
0.003007031 -0.019199682 -0.08363953 -0.012899756 0.44722056 -0.008534105 -0.006083032 -0.0126885045
0.008148496 -0.0072458154 -0.046749886 0.3227405 -0.019687332 -0.011324963 -0.020366982 -0.054877177
-0.033200588 -0.036691558 -0.0033681714 -0.030666273 -0.040637575 -0.006641197 0.26043957 -0.03154203
0.29305184 -0.010547023 0.018055718 -0.0063708313 -0.009940863 -0.02946078 -0.018819671 0.23980214
00000000: fa91 0bbd b79e 7dbd 0774 fdbb a7df 4f3c
00000010: 9e5a 443a 7a80 aebc bf30 c13e 531e 68bd
00000020: 1ec3 4abd ff4f 00bd 3720 52bd 0ebe 7ebd
00000030: 282a 59bd 64fe 47bd 6517 46bd 4be8 4bbd
00000040: 69ed 5dba 1681 56bd 8dfa 0bbc f574 9cbd
00000050: 1757 a3bd 76e4 e9bc 557c 5dbd c8f7 06bd
00000060: de0c 443c 8641 d0bc 6811 0bbd df13 55ba
00000070: 67e9 a13e 7737 68bd 1f97 09bd 6a93 06bd
00000080: 3c53 8ebd 6e34 22bc c3b8 2abd 4a47 20bc
00000090: 454a cbbc 10f2 bf3e bb52 e53b 29cf 5d3e
000000a0: ea1a 9dbc 1e9a 123e b4af 243c e18c e8bc
000000b0: 46e7 e4ba aef7 6d3d b7f8 a3bc 0763 a3bc
000000c0: 1735 86bd 6029 8cbd eea3 76bc f953 a8bc
000000d0: a013 8abc 3a46 0fbc 0761 e7bc 45f8 a1bc
000000e0: c403 12bd 8286 74bd 7d03 8ebd 577d fabb
000000f0: 57b0 053f a4a0 35bd 30b9 41bd 3928 53bd
00000100: 0e86 993e b7ac c03e 0e3c 85bd 197a fabc
00000110: 46c3 ef3e d280 adba 4c6e afbc d158 d8bc
00000120: 7a5b adbc 2ee2 3abb f3f7 07bc 9bee 3c3c
00000130: bbe7 dabc cbe1 153f b508 133b 6131 143c
00000140: c03a a1bd 95d5 603e 0fc3 07bd 9583 3e3c
00000150: 04f9 3bbd 437b 05bd 278d 0c3e 7d41 40bd
00000160: 7c43 0dbd c016 e5bc c80c 35bd 24bb 70bd
00000170: 8445 b63c 12ea 883e 886c fabc 74ec 19bd
00000180: 9c11 453b a748 9dbc 344b abbd 8059 53bc
00000190: 18fa e43e a1d2 0bbc 2c54 c7bb 72e3 4fbc
000001a0: 4581 053c 4e6e edbb cf7c 3fbd 3e3e a53e
000001b0: 5447 a1bc 568c 39bc a8d8 a6bc e4c6 60bd
000001c0: 57fd 07bd e349 16bd 8abc 5cbb d637 fbbc
000001d0: 9673 26bd 669e d9bb 5658 853e 3732 01bd
000001e0: e40a 963e 6ccd 2cbc 96e9 933c 68c2 d0bb
000001f0: 00df 22bc bc57 f1bc b62b 9abc b18e 753e

encoder.linear_mu.weight f4 [128, 128]
0.09756357 0.010701341 -0.077376254 0.07034457 0.0771883 0.037209004 0.00788367 0.055975977
-0.0591565 -0.0016139026 -0.06473055 0.067091696 -0.029504342 -0.053205498 0.009110885 0.010932096
-0.037922706 0.013173591 -0.0877446 0.009678845 0.061041802 -0.09701299 -0.0720711 0.048910778
0.063866474 -0.050268777 0.058120497 -0.0800835 -0.0041461876 -0.0644426 -0.06670954 0.051026814
0.016047973 -0.11588662 0.067628704 -0.03678696 -0.068134874 0.0039795456 -0.032354258 -0.0004852199
-0.070260175 -0.0005689738 -0.014858911 0.05003914 0.04609793 -0.0071873055 -0.03239075 -0.039790343
0.051750347 0.003037811 0.0044131074 0.021399679 -0.007386511 0.008450553 0.021139687 -0.04487505
-0.00023715362 0.054033473 0.058317684 -0.011229411 0.0019542114 0.051810917 0.03978384 0.05985495
0.00091633335 -0.0048624054 -0.101219125 0.054427728 0.0038197758 0.04030143 -0.03550527 0.041043825
0.012601369 0.07499688 -0.029545717 -0.05616459 0.05965604 -0.003956 0.023635048 -0.08781529
0.016782954 -0.007433772 -0.043396562 -0.050782118 0.08875062 -0.08357357 0.0048032217 0.040016998
-0.04213865 0.03415325 0.020494282 -0.0067116674 0.061996106 0.00062988716 0.035994068 -0.03678764
0.049486257 -0.06252627 -0.13549879 -0.030470425 -0.007948161 0.007177347 0.058543462 0.09027706
-0.0009966345 -0.029214384 -0.07621441 -0.0014401472 -0.034300752 -0.042934433 -0.0016931324 -0.07649298
0.08302521 -0.01197227 0.06694489 0.038213976 -0.003480583 -0.016273513 0.002134858 -0.022411048
0.004644374 0.008849671 0.061419155 0.060750384 0.0070110373 -0.07262562 0.08533326 -0.007667772
-0.011234517 -0.019707978 -0.022657905 0.005281327 0.076808125 0.0027169175 0.0046946644 -0.039545354
-0.0283411 0.06382376 0.0005859362 -0.04510447 -0.028947977 -0.02057202 0.01677091 -0.019551897
-0.062377434 -0.045721225 0.033681683 -0.0361643 0.037030004 0.024484288 -0.020155998 0.005539466
0.022980712 0.0014483789 0.042122737 4.771561e-05 -0.00025878567 -0.02402062 0.04756366 -0.047663223
0.017572656 -0.026656765 0.03542955 -0.036407094 0.035684474 0.007934137 0.083195806 0.0030700874
0.0019622706 5.5147117e-05 0.04843437 -0.049368482 -0.050879218 0.02547464 0.035071816 0.0368238
-2.1527816e-05 0.0038802472 -0.050743252 -0.09830408 0.042902775 -0.027428424 -0.0031229483 0.044656344
0.004434785 -0.026781568 0.0229978 -0.051470365 0.00016936226 -0.010067892 -0.097514026 -0.05984051
0.00095077086 -0.0013920804 -0.04872241 0.039981153 -0.0043440573 0.016850412 0.026733642 0.014376238
0.0037634757 0.043694567 -0.045336213 0.03826539 -0.020664485 -0.0050546615 0.02245544 0.072249174
-0.06334933 -0.0019090621 -0.0043797474 -0.015304616 0.02785225 0.035196796 0.004535675 -0.039337534
0.05786007 0.03569037 0.07190015 0.16001812 -0.032255277 -0.0016946389 0.016551903 -0.0424732
0.06951697 -0.054846495 -0.15133573 0.0123779215 -0.0015420109 -0.04553981 0.024017898 -0.05350138
0.038089752 0.0009376389 -0.011076869 -0.0006964509 0.047107205 0.06090072 0.095454715 0.050912414
0.085369006 -0.039468635 -0.05441393 0.014150904 -0.01733073 -0.009674714 0.0007429845 -0.0043902495
0.0021575042 -0.0058024456 0.088472374 0.07219569 -0.081806146 0.073763065 0.01346347 -0.0024803318
00000000: 69cf c73d ad54 2f3c 7177 9ebd d010 903d
00000010: e614 9e3d 7868 183d 822a 013c 1147 653d
00000020: 164e 72bd 9689 d3ba 7391 84bd 5f67 893d
00000030: 17b3 f1bc 02ee 59bd d245 153c 891c 333c
00000040: d754 1bbd 0cd6 573c 71b3 b3bd 0594 1e3c
00000050: f806 7a3d bfae c6bd 039a 93bd ab56 483d
00000060: 6dcc 823d a2e6 4dbd c20f 6e3d d102 a4bd
00000070: bedc 87bb 7bfa 83bd 039f 88bd 7e01 513d
00000080: 0a77 833c f755 edbd eb80 8a3d ecad 16bd
00000090: 4c8a 8bbd d966 823b e685 04bd 1d65 feb9
000000a0: 91e4 8fbd 2f27 15ba ca72 73bc d7f5 4c3d
000000b0: 2fd1 3c3d 7d83 ebbb 2aac 04bd 33fb 22bd
000000c0: 2cf8 533d 0316 473b d49b 903b 614e af3c
000000d0: 8c0a f2bb 3074 0a3c 232d ad3c e7ce 37bd
000000e0: 71ac 78b9 3452 5d3d 86de 6e3d 90fb 37bc
000000f0: 3a12 003b af37 543d 61f4 223d 772a 753d
00000100: 1736 703a d054 9fbb f94b cfbd 9cef 5e3d
00000110: 3455 7a3b 1d13 253d f96d 11bd 921d 283d
00000120: f975 4e3c f797 993d dc09 f2bc d70c 66bd
00000130: e459 743d 55a1 81bb 4a9e c13c 81d8 b3bd
00000140: 687c 893c 0097 f3bb 98c0 31bd e900 50bd
00000150: e3c2 b53d 9f28 abbd 5864 9d3b dde8 233d
00000160: 9499 2cbd 47e4 0b3d a0e3 a73c 8ced dbbb
00000170: a1ef 7d3d 031f 253a 846e 133d a3ae 16bd
00000180: 1ab2 4a3d c60d 80bd 32c0 0abe 1d9d f9bc
00000190: 0139 02bc f32f eb3b 45cb 6f3d 2ee3 b83d
000001a0: 81a1 82ba 0153 efbc 4d16 9cbd 52c3 bcba
000001b0: f27e 0cbd 04dc 2fbd 19ec ddba 5aa8 9cbd
000001c0: 1f09 aa3d 5727 44bc 671a 893d 4286 1c3d
000001d0: 7e1a 64bb 0850 85bc f9e8 0b3b 6097 b7bc
000001e0: d52f 983b 36fe 103c a792 7b3d 65d5 783d
000001f0: d8bc e53b bebc 94bd 34c3 ae3d ef41 fbbb
00000200: fb10 38bc a072 a1bc 129d b9bc fb0e ad3b
00000210: 944d 9d3d 500e 323b b3d5 993b 4ffa 21bd
00000220: 982b e8bc 08b6 823d 8399 193a 77bf 38bd
00000230: 4f24 edbc a786 a8bc 2663 893c 4d2b a0bc
00000240: 7b7f 7fbd 2e46 3bbd cef5 093d 0421 14bd
00000250: c6ac 173d 4693 c83c 311e a5bc 6984 b53b
00000260: 0c42 bc3c 88d7 bd3a e488 2c3d 3f22 4838
00000270: a0ad 87b9 e4c6 c4bc 1dd2 423d 833a 43bd
00000280: 88f4 8f3c 4a5f dabc 931e 113d 9b1f 15bd
00000290: e229 123d 2ffe 013c 9062 aa3d 8533 493b
000002a0: 7099 003b c44d 6738 1e63 463d 9b36 4abd
000002b0: ba66 50bd 31b0 d03c 77a7 0f3d 8ed4 163d
000002c0: a296 b4b7 bf4b 7e3b 28d8 4fbd a653 c9bd
000002d0: d2ba 2f3d 93b1 e0bc 61aa 4cbb 92e9 363d
000002e0: ac51 913b 0565 dbbc e265 bc3c 97d2 52bd
000002f0: d696 3139 cdf3 24bc 6fb5 c7bd 531b 75bd
00000300: 273d 793a 7876 b6ba 2691 47bd 47c3 233d
00000310: 9858 8ebb e009 8a3c 8300 db3c 508a 6b3c
00000320: a5a4 763b 13f9 323d 77b2 39bd 2bbc 1c3d
00000330: 9148 a9bc 93a1 a5bb 79f4 b73c 60f7 933d
00000340: 4bbd 81bd 7f39 faba fc83 8fbb 36c0 7abc
00000350: 672a e43c 842a 103d 00a0 943b 6520 21bd
00000360: aefe 6c3d 1130 123d 6340 933d cadb 233e
00000370: 1c1e 04bd a51e deba db97 873c 61f8 2dbd
00000380: ea5e 8e3d b8a6 60bd c1f7 1abe c4cc 4a3c
00000390: 4d1d caba f487 3abd 2fc1 c43c 4324 5bbd
000003a0: 0004 1c3d e2cb 753a c27b 35bc 0792 36ba
000003b0: 7cf3 403d 0973 793d c37d c33d 8989 503d
000003c0: f2d5 ae3d dda9 21bd 24e1 5ebd 31d9 673c
000003d0: 2df9 8dbc b182 1ebc d9c4 423a 15dc 8fbb
000003e0: ea64 0d3b 7122 bebb 0131 b53d 55db 933d
000003f0: fb89 a7bd 1711 973d e395 5c3c 108d 22bb

encoder.linear_mu.bias f4 [128]
0.0036104256 -0.012084659 -0.00858933 -0.00032901147 -0.0018422037 0.0036723956 -0.0032837624 -0.078948304
0.011140506 0.0026341048 -0.024581714 0.0039798757 -0.007918836 0.0012132404 0.004206254 0.011768047
-0.01053219 -0.0044338545 -0.067980126 0.0115653435 0.00891284 0.008283793 0.008057313 -0.00042684865
0.02477278 0.009718587 0.012552295 -0.018394452 -0.07744357 -0.009577702 0.0022472648 -0.0065620462
-0.0061200066 0.011418523 -0.008578911 -0.004299991 0.011500586 0.008766875 0.0004464026 0.010126192
0.012107008 -0.005254272 0.00846887 -0.0003561182 -0.0025034775 -0.01932626 -0.00040036053 -0.014811719
0.00068819785 0.008293366 -0.00075533905 0.029843146 -0.0032121052 0.004510117 0.0054393043 0.0068024844
0.011939157 0.0017358557 0.002947138 0.007728356 0.006698544 0.0005754536 -0.0038963503 -0.0009187047
0.01236238 -0.009054572 -0.014973603 0.036132485 -0.0112692155 -0.0011197759 0.0014238921 -0.0028388244
0.0019220847 0.023036541 -0.009852794 -0.13235508 0.00088336016 -0.0033591695 0.003477332 0.4699973
-0.0056496137 0.023345936 0.006832053 0.0037164877 -0.0056730104 0.008250048 -0.0024714575 -0.0034666888
0.0031757904 0.0021542707 -0.004762575 -0.1357343 -0.007924637 -0.022951989 0.019114254 0.0044349004
0.011589652 0.016273648 -5.5391178e-05 0.014551758 -0.00455625 -0.020175943 0.033380013 -0.004103118
0.010885818 0.43933195 -0.0007604393 0.06683127 0.004709894 0.0039841505 0.027507847 0.0006782742
-0.0005445029 -0.002309711 0.017149324 0.16656384 0.055101085 0.009836425 0.0054883556 -0.010953584
-0.003934449 -0.005925546 0.008189642 -0.0026791233 0.005542937 -0.11172215 0.009712354 -0.00021285919
00000000: e49c 6c3b bcfe 45bc 43ba 0cbc 2c7f acb9
00000010: 1976 f1ba 93ac 703b 6434 57bb a6af a1bd
00000020: ab86 363c f2a0 2c3b 975f c9bc 9e69 823b
00000030: 01be 01bc 9805 9f3a 9ed4 893b c4ce 403c
00000040: 358f 2cbc de49 91bb 2a39 8bbd 917c 3d3c
00000050: 2907 123c bfb8 073c d202 043c a8ca dfb9
00000060: 49f0 ca3c b53a 1f3c 24a8 4d3c f6af 96bc
00000070: bc9a 9ebd cbeb 1cbc d946 133b 6f06 d7bb
00000080: 568a c8bb c214 3b3c 908e 0cbc f0e6 8cbb
00000090: f46c 3c3c f0a2 0f3c 250b ea39 54e8 253c
000000a0: 795c 463c 072c acbb 04c1 0a3c 60b5 bab9
000000b0: 6211 24bb 1b52 9ebc 7be7 d1b9 daac 72bc
000000c0: 2d68 343a e6e0 073c f201 46ba 9d79 f43c
000000d0: 2f82 52bb 9bc9 933b 313c b23b 60e7 de3b
000000e0: 749c 433c a785 e33a c524 413b 263e fd3b
000000f0: 767f db3b 0ada 163a e959 7fbb 3bd5 70ba
00000100: 948b 4a3c a159 14bc d853 75bc a8ff 133d
00000110: 84a2 38bc 72c5 92ba e4a1 ba3a 920b 3abb
00000120: 76ee fb3a 21b7 bc3c 9d6d 21bc 1788 07be
00000130: 4c91 673a 8325 5cbb f3e3 633b 7ca3 f03e
00000140: 6520 b9bb fa3f bf3c 6adf df3b 5190 733b
00000150: a9e4 b9bb 362b 073c 2df8 21bb 6331 63bb
00000160: ec20 503b aa2e 0d3b 600f 9cbb effd 0abe
00000170: 56d6 01bc cf05 bcbc 7f95 9c3c a452 913b
00000180: 86e2 3d3c 5050 853c d353 68b8 7f6a 6e3c
00000190: 984c 95bb 0548 a5bc 7bb9 083d 7373 86bb
000001a0: 6e5a 323c 1ef0 e03e 3858 47ba d5de 883d
000001b0: 7455 9a3b 7a8d 823b 2358 e13c 36ce 313a
000001c0: f9bc 0eba 855e 17bb bd7c 8c3c b68f 2a3e
000001d0: adb1 613d f528 213c aad7 b33b a976 33bc
000001e0: 8dec 80bb 152b c2bb d92d 063c 3b94 2fbb
000001f0: 87a1 b53b 95ce e4bd 9120 1f3c f432 5fb9

encoder.linear_sigma.weight f4 [128, 128]
0.02554769 0.07073045 -0.06789647 -0.035965063 0.0011389172 -0.025550738 -0.000566743 -0.05368613
0.044642437 -0.05478478 0.008719032 -0.096987695 0.014804152 0.033573586 -0.019052802 0.0827648
0.027114779 0.06896534 -0.09601697 0.029703544 0.027662152 -0.021072257 0.070847355 0.028504107
0.055043526 0.020073382 0.07335897 -0.003889405 0.00093806 -8.32218e-05 -0.039687663 0.033424105
-0.04908455 -0.005231035 0.06161227 0.019308584 -0.0722699 -0.0006348622 0.0608849 -0.0002549828
0.041550215 0.0016002599 -0.017670546 -0.0053535164 0.03285852 0.012170193 -0.06559395 -0.05637599
-0.025136784 0.012750566 -0.014951203 -0.008056912 -0.03861433 0.046637766 0.020212507 -0.02859044
-0.023160052 -0.010011253 0.058614872 -0.08474757 0.0019285346 -0.06903214 0.0039062575 0.05236451
0.0006432247 -0.0011419093 0.04318243 0.06199142 -0.00064236403 -0.023071986 -0.025211582 0.0035233344
-0.031260293 -0.030375343 -0.04817435 0.025275359 0.009637893 -1.576024e-05 -0.013305552 0.021951744
-0.011955643 -0.001395168 0.06339963 0.019000418 0.017087482 0.06579668 0.0013654873 -0.04793735
0.006923613 -0.0638587 -0.11342613 -0.027386762 -0.071676694 0.0013012823 -0.015643803 -0.04629635
0.00468746 -0.055255227 -0.075997606 -0.07627924 0.00051180617 0.05346121 0.05934978 -0.028230332
0.07913504 0.07762432 0.015732968 0.002311688 -0.021915663 -0.06894856 -0.03707009 0.059425194
-0.04084799 -0.05415334 -0.0006936043 -0.04757422 -0.07297604 0.03529861 -0.0009733029 -0.12917858
0.00024220979 0.068504244 -0.032221958 -0.04776335 -0.001004088 0.06564978 -0.026340844 -0.0004820888
0.019205635 -0.012659524 -0.018406121 -0.01277699 -0.05799685 0.0059294878 0.002051929 -0.013994755
-0.045115966 -0.022462493 0.06621911 0.074605174 -0.10569382 0.06626698 0.025047777 -0.0090680905
-0.052038215 -0.0843578 0.04442878 0.0002690709 -0.03196105 -0.0073796837 0.016520431 0.042553235
0.0560719 -0.054304175 -0.039398126 -0.052943762 -0.0019713815 0.049189672 0.0055736676 0.07077835
0.043081284 -0.11560635 -0.071007855 -0.07156257 -0.011880106 -0.0008810145 -0.08383803 0.00037591066
0.07796666 -0.00016821509 0.01672019 -0.05839977 0.081672445 0.00037838082 0.07329505 -0.082270645
-0.08111437 0.042304173 0.0062950565 0.06808155 0.0045803227 0.028596494 -0.022438897 0.01967442
-0.0078007136 0.01991715 -0.06550745 0.04472654 0.0003162525 -0.018712174 -0.029575033 0.025737917
-0.00027232937 -0.0012631307 -0.011604503 0.05243233 -7.382195e-05 -0.05112033 0.013044179 0.026854174
-0.07622346 0.062497012 -0.048412554 -0.00055036 0.021859668 -0.00021955442 0.067387454 -0.057781268
0.024141401 0.002400517 -0.083164036 -0.07643882 -0.09600327 0.006359313 0.0026732988 0.052554257
0.010219282 -0.06538207 0.0112767145 -0.010066205 0.015162873 -0.00075306266 -0.037901316 0.011734186
-0.0016479365 -0.07812458 -0.05806237 -0.01134954 -0.0013102219 0.035291333 0.01510646 -0.08068305
0.078569874 -0.011698171 0.047020696 1.1444645e-05 -0.09678876 -0.029417697 -0.07022484 -0.06884073
0.0076990044 -0.09594843 0.07376476 -0.016128289 -0.067681685 0.013010268 0.0006752267 0.061816778
-0.0017816583 0.041468207 -0.020501506 0.042781338 -0.06596693 -0.0074750283 0.048278246 -0.0012238076
00000000: 6449 d13c 20db 903d 4e0d 8bbd 1a50 13bd
00000010: b847 953a c84f d1bc 7b91 14ba fde5 5bbd
00000020: fdda 363d 0166 60bd 45da 0e3c 7ca1 c6bd
00000030: 1d8d 723c 7584 093d 9f14 9cbc 9780 a93d
00000040: d01f de3c b33d 8d3d 8ca4 c4bd d954 f33c
00000050: bd9b e23c ba9f acbc 6b18 913d 7281 e93c
00000060: 5275 613d ef70 a43c 3a3d 963d 63e5 7ebb
00000070: 24e8 753a 5d87 aeb8 888f 22bd b7e7 083d
00000080: e20c 49bd 1a69 abbb 265d 7c3d 092d 9e3c
00000090: 3e02 94bd e26c 26ba 7262 793d 36af 85b9
000000a0: 8f30 2a3d d0bf d13a d2c1 90bc 8d6c afbb
000000b0: a896 063d 7d65 473c 1f56 86bd 83ea 66bd
000000c0: a8eb cdbc c0e7 503c e4f5 74bc 2301 04bc
000000d0: 0f2a 1ebd 3e07 3f3d b394 a53c 8036 eabc
000000e0: 26ba bdbc 3d06 24bc 2616 703d 2290 adbd
000000f0: e2c6 fc3a b960 8dbd 1000 803b 2b7c 563d
00000100: 149e 283a 1eac 95ba 0fe0 303d b7ea 7d3d
00000110: 5264 28ba 7601 bdbc 8588 cebc bee7 663b
00000120: cb0a 00bd b6d5 f8bc 7852 45bd 450e cf3c
00000130: 41e8 1d3c dc34 84b7 88ff 59bc 25d4 b33c
00000140: 9ae1 43bc 12de b6ba aad7 813d c4a6 9b3c
00000150: 0cfb 8b3c 69c0 863d 27fa b23a f459 44bd
00000160: 7adf e23b 5ac8 82bd f54b e8bd 345a e0bc
00000170: 3bcb 92bd ca8f aa3a 6f27 80bc 3ea1 3dbd
00000180: 4499 993b 4e53 62bd a2a4 9bbd 4a38 9cbd
00000190: bb2a 063a 24fa 5a3d c118 733d 4c43 e7bc
000001a0: 8d11 a23d 80f9 9e3d 6de2 803c b07f 173b
000001b0: 7a88 b3bc e734 8dbd cfd6 17bd d567 733d
000001c0: 3950 27bd e5cf 5dbd ffd2 35ba 2fdd 42bd
000001d0: 7674 95bd 4695 103d 4025 7fba 6447 04be
000001e0: b2f9 7d39 f44b 8c3d 2cfb 03bd 81a3 43bd
000001f0: 9a9b 83ba 6473 863d c1c8 d7bc ddc0 fcb9
00000200: 2355 9d3c e469 4fbc 6fc8 96bc 9556 51bc
00000210: 1b8e 6dbd 264c c23b a879 063b 424a 65bc
00000220: 85cb 38bd 4303 b8bc e29d 873d 99ca 983d
00000230: 0076 d8bd fbb6 873d ff30 cd3c 5492 14bc
00000240: 0626 55bd c8c3 acbd f4fa 353d 1612 8d39
00000250: 97e9 02bd 46d1 f1bb db55 873c 4d4c 2e3d
00000260: a6ab 653d 0e6e 5ebd ee5f 21bd 8fdb 58bd
00000270: 4b32 01bb 1c7b 493d 50a3 b63b 3df4 903d
00000280: 0076 303d 06c3 ecbd 916c 91bd 668f 92bd
00000290: c7a4 42bc e2f3 66ba 46b3 abbd e015 c539
000002a0: fcac 9f3d e562 30b9 c8f8 883c 9934 6fbd
000002b0: e243 a73d 6a61 c639 b71b 963d 837d a8bd
000002c0: 4a1f a6bd 2447 2d3d c346 ce3b 576e 8b3d
000002d0: 8816 963b 3243 ea3c c7d1 b7bc 402c a13c
000002e0: 219d ffbb 4a29 a33c c528 86bd 2d33 373d
000002f0: b1ce a539 464a 99bc 5747 f2bc 53d8 d23c
00000300: 6ec7 8eb9 a28f a5ba d020 3ebc 48c3 563d
00000310: dcd0 9ab8 8d63 51bd 41b7 553c 49fd db3c
00000320: 0c1b 9cbd defc 7f3d 3e4c 46bd 0946 10ba
00000330: 0c13 b33c 3138 66b9 6f02 8a3d 0dac 6cbd
00000340: 30c4 c53c fe51 1d3b e851 aabd f58b 9cbd
00000350: 5d9d c4bd c961 d03b 8332 2f3b 2243 573d
00000360: c66e 273c 09e7 85bd f8c1 383c b9ec 24bc
00000370: b36d 783c 2e69 45ba 693e 1bbd be40 403c
00000380: 93ff d7ba c8ff 9fbd cfd2 6dbd 6cf3 39bc
00000390: c0bb abba a58d 103d 1681 773c 283d a5bd
000003a0: 3ee9 a03d afa9 3fbc c698 403d 6002 4037
000003b0: 2f39 c6bd 62fd f0bc 0ad2 8fbd 5efc 8cbd
000003c0: ee47 fc3b 9c80 c4bd fa11 973d 791f 84bc
000003d0: b29c 8abd 0529 553c b201 313a 9733 7d3d
000003e0: 8886 e9ba 91da 293d c6f2 a7bc 7c3b 2f3d
000003f0: ab19 87bd 15f1 f4bb 69bf 453d 2b68 a0ba

encoder.linear_sigma.bias f4 [128]
-0.34241927 -0.34531233 -0.34417322 -0.34415838 -0.34681088 -0.34368497 -0.34664258 0.0188992
-0.34687456 -0.34779763 -0.34539598 -0.3465493 -0.34550083 -0.34573144 -0.3446599 -0.34710056
-0.34737998 -0.34581512 -0.12022924 -0.34486777 -0.34630233 -0.34600654 -0.345739 -0.3461547
-0.35178834 -0.3451671 -0.3472172 -0.3479263 -0.75454 -0.34880894 -0.34685245 -0.34556463
-0.34706625 -0.34628183 -0.34668213 -0.34552613 -0.34329736 -0.3461575 -0.34753606 -0.34623432
-0.34397116 -0.34339634 -0.34699416 -0.3462111 -0.34586492 -0.3464151 -0.34403476 -0.34525707
-0.34656993 -0.34495986 -0.34818035 -0.14222541 -0.3457184 -0.34537524 -0.34488353 -0.3431817
-0.34486544 -0.34612498 -0.34486696 -0.34757757 -0.3451339 -0.34644413 -0.34362525 -0.34503928
-0.34528473 -0.34641764 -0.34723002 -0.16807595 -0.34337574 -0.3452656 -0.34690693 -0.34912673
-0.34572914 -0.3463166 -0.34731442 -0.24569868 -0.347278 -0.345825 -0.3461443 -1.1535646
-0.34623888 -0.34441254 -0.34391195 -0.34580848 -0.34750986 -0.34397757 -0.3452497 -0.34781966
-0.34582466 -0.34506541 -0.34448284 -0.1987578 -0.34509745 -0.34516475 -0.34699717 -0.34594536
-0.3453785 -0.34468046 -0.3458873 -0.34393167 -0.345971 -0.34646094 -0.89883983 -0.3465184
-0.34554288 -0.6651067 -0.34688157 -0.56024414 -0.34370348 -0.34671015 -1.4758687 -0.34585968
-0.34693196 -0.34694546 -0.34918618 -0.3414404 -0.31437272 -0.34600958 -0.34543386 -0.34577006
-0.34719968 -0.34667206 -0.34547198 -0.3458089 -0.34716883 -0.29222247 -0.3440169 -0.3429325
00000000: 9451 afbe c7cc b0be 7937 b0be 8735 b0be
00000010: 3291 b1be 7af7 afbe 237b b1be 7fd2 9a3c
00000020: 8b99 b1be 8812 b2be bed7 b0be e96e b1be
00000030: 7ce5 b0be b603 b1be 4377 b0be 2ab7 b1be
00000040: cadb b1be ae0e b1be bf3a f6bd 8292 b0be
00000050: 8a4e b1be c527 b1be b404 b1be 303b b1be
00000060: 9a1d b4be beb9 b0be 74c6 b1be 6523 b2be
00000070: 8929 41bf 1697 b2be a596 b1be d9ed b0be
00000080: abb2 b1be da4b b1be 5280 b1be cde8 b0be
00000090: acc4 afbe 8e3b b1be 3ff0 b1be a045 b1be
000000a0: fd1c b0be a5d1 afbe 38a9 b1be 9542 b1be
000000b0: 3515 b1be 525d b1be 5325 b0be 89c5 b0be
000000c0: 9d71 b1be 949e b0be b244 b2be 8aa3 11be
000000d0: 0102 b1be 06d5 b0be 9394 b0be 83b5 afbe
000000e0: 3492 b0be 4b37 b1be 6792 b0be b0f5 b1be
000000f0: 64b5 b0be 2061 b1be a6ef afbe fda8 b0be
00000100: 29c9 b0be a75d b1be 22c8 b1be 1a1c 2cbe
00000110: f2ce afbe a7c6 b0be c99d b1be bdc0 b2be
00000120: 6903 b1be 6950 b1be 32d3 b1be 6f98 7bbe
00000130: 6cce b1be f90f b1be d339 b1be 01a8 93bf
00000140: 3946 b1be d756 b0be 3a15 b0be cf0d b1be
00000150: d0ec b1be d41d b0be 92c4 b0be 6b15 b2be
00000160: ee0f b1be 6aac b0be 0e60 b0be 2a87 4bbe
00000170: 9db0 b0be 6fb9 b0be 9da9 b1be c01f b1be
00000180: 73d5 b0be f579 b0be 2418 b1be d017 b0be
00000190: 1c23 b1be 5463 b1be 5e1a 66bf dc6a b1be
000001a0: ffea b0be 6f44 2abf 769a b1be 296c 0fbf
000001b0: e7f9 afbe fe83 b1be 44e9 bcbf 8514 b1be
000001c0: 11a1 b1be d6a2 b1be 88c8 b2be 47d1 aebe
000001d0: 76f5 a0be 2b28 b1be b5dc b0be c608 b1be
000001e0: 28c4 b1be 007f b1be b4e1 b0be dd0d b1be
000001f0: 1dc0 b1be 2f9e 95be fc22 b0be d994 afbe
