checkpoints_anomalies/model-70.pt (torch, 824385 bytes, 45 tensors)

encoder.conv1.weight f4 [8, 1, 3, 3]
0	0xbe4c1f20	-0.19933748
1	0x3f176990	0.5914545
2	0xbf0b16c0	-0.5433159
3	0xbf14514b	-0.57936543
4	0x3e9d2c86	0.3069803
5	0xbf68085d	-0.9063776
6	0xbd8bc4f8	-0.06824678
7	0xbd99f1d9	-0.07516832
8	0xbe89bb28	-0.269006
9	0x3e96e2c5	0.29469886
10	0xbeafb196	-0.34315175
11	0x4019ef91	2.405247
12	0x3c847b9b	0.01617222
13	0xbe8f9ec7	-0.28050825
14	0x3ea52419	0.32254103
15	0x3e26b160	0.162786
16	0xbf12dc8a	-0.57367766
17	0x3f012bc1	0.5045739
18	0xbea78530	-0.32718801
19	0xbf09a94e	-0.53773963
20	0xbf41a2b8	-0.75638914
21	0xbdb734ec	-0.08945641
22	0xbcac0ed2	-0.02100316
23	0x3e8a4e53	0.27012882
24	0x3f7d8480	0.99030304
25	0x3e88346c	0.26602495
26	0x3ed21024	0.4102794
27	0xbe9e6ddc	-0.3094319
28	0xbf223beb	-0.6337268
29	0xbe4e0ef3	-0.2012289
30	0xbed515c2	-0.41618162
31	0xbee074bc	-0.4383906
32	0xbd838475	-0.064217485
33	0xbf52df35	-0.82371837
34	0xbf11de3a	-0.56979716
35	0x3ec61c38	0.38693404
36	0x3eaf08c5	0.34186378
37	0xbd0a1d74	-0.033719495
38	0xbf3a456f	-0.727622
39	0x3e996f9a	0.29967958
40	0x3eda7ce1	0.426734
41	0xbf03b928	-0.514544
42	0x3f48c510	0.78425694
43	0x3c30012e	0.010742469
44	0xbf190de7	-0.5978684
45	0xbde7b065	-0.113129415
46	0x3f68fe45	0.91012985
47	0xbeeb76ff	-0.45989224
48	0xbe54f88d	-0.2079794
49	0x3f16ae51	0.58859736
50	0xbee85853	-0.45379886
51	0x3eeb49d0	0.45954752
52	0x3f09cc1f	0.5382709
53	0xbe0e1fe4	-0.13879353
54	0x3fc35584	1.5260472
55	0x3dfba58e	0.122874364
56	0xbc809da5	-0.01570017
57	0x3e4a5bf8	0.19761646
58	0x3e86d0ab	0.26331076
59	0xbe9d1f22	-0.30687815
60	0x3e392225	0.18079431
61	0xbdedfb98	-0.11620253
62	0x3f49c5cb	0.78817433
63	0x3e8f00fe	0.27930444
64	0xbefdb1fc	-0.49549854
65	0x3f0f1a9b	0.5589997
66	0x3f9e0dfa	1.2348015
67	0x3e9d4802	0.30719
68	0x3e4731b3	0.19452552
69	0x3fac194a	1.3445218
70	0x3ea44e7e	0.32091135
71	0xbea64877	-0.3247716

encoder.conv1.bias f4 [8]
0	0x3fbc56e1	1.4714013
1	0xbe99e7a2	-0.30059534
2	0xbe8f6b74	-0.28011668
3	0xbd7e5424	-0.06209196
4	0x3e83de03	0.2575532
5	0x3e9d4399	0.30715635
6	0x3f5d957d	0.86556226
7	0xbd9648bf	-0.07338094

encoder.conv2.weight f4 [16, 8, 3, 3]
0	0xbe052d04	-0.13005453
1	0xba5f1acd	-0.00085107685
2	0x3f0e696f	0.5562963
3	0xbea0d582	-0.31412894
4	0xbe08d2f0	-0.13361716
5	0x3ee200e0	0.44141293
6	0xbd2dd4c8	-0.042439252
7	0x3d32ffc4	0.04370095
8	0x3ea2f1fa	0.31825238
9	0x3db8420d	0.08996973
10	0xbf04e10d	-0.519059
11	0xbf98db8f	-1.1942004
12	0x3eab99d4	0.335158
13	0x3e1f2037	0.15539633
14	0xbf02cc5c	-0.5109308
15	0x3f5b5991	0.8568354
16	0x3ebb3f7d	0.36571875
17	0xbe6d5ee7	-0.23180734
18	0x3dd0ee97	0.102017574
19	0xbe281732	-0.16415098
20	0x3e90494f	0.2818093
21	0x3e0e6508	0.13905728
22	0xbf6ff8bc	-0.93738914
23	0xbf253d97	-0.64547104
24	0x3f1879bb	0.59560746
25	0xbf042bbf	-0.5162925
26	0xbf1ec6f9	-0.6202236
27	0xbeffc34e	-0.49953693
28	0x3db86dca	0.090053156
29	0x3f1d025c	0.61331725
30	0xbf0d27c2	-0.5513879
31	0x3d346010	0.044036925
32	0x3f239638	0.6390109
33	0xbf083161	-0.53200346
34	0xbe98c489	-0.29837444
35	0x3f136c60	0.5758724
36	0xbe8fa519	-0.28055647
37	0xbc81002b	-0.01574715
38	0x3f3975bd	0.7244528
39	0xbe9d19d1	-0.3068376
40	0xbeef2706	-0.4670946
41	0x3e5e353f	0.217
42	0xbe83d71a	-0.25750047
43	0xbed6f5f5	-0.41984525
44	0x3f104a73	0.563636
45	0xbf46bbfc	-0.7763059
46	0xbee379b3	-0.44428787
47	0x3f8424f3	1.0323776
48	0xbe5d960a	-0.21639267
49	0xbe10f3b7	-0.1415547
50	0x3f56b401	0.83868414
51	0x3ef08a65	0.46980587
52	0x3d87fa73	0.06639566
53	0x3e80283f	0.25030705
54	0x3eb1f243	0.34755144
55	0xbe1e7c67	-0.15477143
56	0xbe4208f5	-0.1894873
57	0x3eacfd29	0.33786896
58	0xbbae50f6	-0.00531971
59	0xbdb6c1b4	-0.08923665
60	0x3f3c8319	0.7363754
61	0xbdd20b78	-0.10256094
62	0xbe9bf133	-0.30457458
63	0x3f38d070	0.7219305
64	0xbdc51c24	-0.09624508
65	0xbefe551c	-0.49674308
66	0x3f2de99d	0.6793459
67	0xbcaa863a	-0.020815957
68	0xbda9b6c0	-0.0828681
69	0x3f8aaa12	1.0833151
70	0x3ea975b5	0.33097616
71	0x3e948d15	0.29013887
72	0xbdd6dfce	-0.10491906
73	0xbc826a6b	-0.015919885
74	0x3d6f267f	0.058386322
75	0xbd5d239e	-0.053989045
76	0x3dc3010c	0.09521684
77	0x3e1041da	0.1408762
78	0x3f074f9a	0.5285584
79	0x3e303439	0.17207421
80	0x3e58a392	0.21156147
81	0x3efe2921	0.49640754
82	0x3f150396	0.58208597
83	0x3fac1469	1.3443729
84	0x3f2c5833	0.6732208
85	0x3e9893d5	0.29800287
86	0x3f904909	1.1272289
87	0x3f2120b7	0.62940544
88	0xbe45b0a7	-0.19305669
89	0x3f598d4d	0.8498123
90	0x3dfc0e46	0.1230741
91	0xbf74a135	-0.9555848
92	0xbe725d39	-0.23668374
93	0x3de8ebb0	0.11373079
94	0x3e3395a3	0.1753755
95	0xbdb67cdf	-0.08910536
96	0x3f351b36	0.70744646
97	0x3e69ede3	0.22844653
98	0x3e8b1902	0.27167517
99	0xbe455dbd	-0.1927404
100	0x3e66ac9b	0.22526781
101	0x3e17f71d	0.1484036
102	0x3e6d2cf3	0.23161678
103	0x3e9a0f44	0.30089772
104	0x3e9a01c2	0.30079466
105	0x3e20117e	0.15631673
106	0x3e8f5f83	0.28002557
107	0xbf14bb02	-0.5809785
108	0xbdd10cb8	-0.10207504
109	0x3e2e89ae	0.17044708
110	0x3f2dacfe	0.6784209
111	0x3f12ac2b	0.5729396
112	0x3edd896d	0.4326891
113	0xbe030f97	-0.12798916
114	0x3e5c4f0b	0.21514527
115	0x3d1bfb51	0.03808147
116	0x3e6b6616	0.22988161
117	0xbf155364	-0.5833037
118	0xbdc781ce	-0.09741555
119	0x3dee8d83	0.11648085
120	0xbf85e4be	-1.0460432
121	0xbe2b9148	-0.16754639
122	0xbea74788	-0.32671762
123	0x3fa18886	1.2619789
124	0x3ef86d89	0.4852107
125	0xbe9fe246	-0.3122732
126	0x3eeec432	0.4663406
127	0xbe7b427e	-0.24537084
128	0x3ac70bf2	0.0015186055
129	0x3e8d12f2	0.27553517
130	0xbe92fbb3	-0.28707656
131	0xbec1b329	-0.37832
132	0x3f191a50	0.59805775
133	0x3df44f03	0.11929133
134	0x3f197a76	0.59952486
135	0x3ebe6cf7	0.3719251
136	0xbc1e5314	-0.009663362
137	0x3fa223b3	1.2667145
138	0x3f3216c1	0.6956597
139	0x3ed9aca4	0.42514527
140	0x3f709983	0.9398424
141	0x3f86b16b	1.0522894
142	0x3f91ad09	1.1380931
143	0x3fa88629	1.3165942
144	0xbe9d083c	-0.30670345
145	0x3e614c55	0.22001775
146	0x3efb0210	0.4902501
147	0x3f381096	0.7190031
148	0x3eecee46	0.46275538
149	0x3eb6fa37	0.35737774
150	0x3e910301	0.28322604
151	0xbda68435	-0.08130685
152	0xbef51532	-0.47867733
153	0x3e115e75	0.14196189
154	0xbe612299	-0.21985854
155	0xbfaa2ed6	-1.3295543
156	0x3eccdd2f	0.400125
157	0xbe159ead	-0.14611311
158	0x3cf4053a	0.029787648
159	0xbe9619bf	-0.29316518
160	0x3e3a7d6f	0.18211912
161	0x3f394124	0.7236502
162	0xbf07a5c0	-0.5298729
163	0xbb8ebca3	-0.0043559833
164	0x3f03753e	0.5135077
165	0x3ef203e4	0.47268593
166	0xbb7ab3a6	-0.0038254051
167	0x3f009d94	0.50240445
168	0x3d9e8988	0.07741076
169	0x3de14f99	0.1100151
170	0x3e6ef983	0.23337369
171	0xbf032b46	-0.51237905
172	0xbdcb869f	-0.09937786
173	0xbe942d55	-0.28940836
174	0x3ee12742	0.43975264
175	0x3f1273ed	0.5720814
176	0x3e4b9e34	0.19884568
177	0x3e818b75	0.2530171
178	0xbd92806d	-0.071534015
179	0xbf0092d5	-0.5022405
180	0x3d934cb9	0.07192368
181	0xbe130b47	-0.1435977
182	0xbdc2c33e	-0.09509896
183	0xbec9f2c2	-0.39443022
184	0xbf01d90e	-0.50721824
185	0xbf319ea7	-0.6938271
186	0xbeb102d0	-0.34572458
187	0x3e1314e7	0.14363442
188	0xbe9b4981	-0.30329517
189	0xbea865e7	-0.32890245
190	0xbe9c26bd	-0.30498305
191	0xbecd6ece	-0.401236
192	0xbf2a2e16	-0.6647657
193	0x3cad0df4	0.021124817
194	0xbf818f15	-1.012179
195	0xbd61fb75	-0.05517145
196	0x3ebc922b	0.36830267
197	0x3f050e7e	0.5197524
198	0x3f239ca1	0.6391087
199	0xbe05e4f1	-0.13075615
200	0xbfdf1aad	-1.7430016
201	0xbf53ecde	-0.82783306
202	0xc00b7ed6	-2.1796165
203	0xbf7f5755	-0.99742633
204	0xbf12a6ad	-0.5728558
205	0xbe0c3c2c	-0.13694829
206	0x3e6d3adc	0.23166984
207	0x3ec83062	0.39099413
208	0x3e809797	0.25115654
209	0xbf22ebaf	-0.63640875
210	0x3eb4ceb9	0.35313967
211	0x3e62a7c1	0.22134306
212	0xbeb31280	-0.34975052
213	0xbd9c21c3	-0.07623627
214	0xbe50c932	-0.2038925
215	0x3ed9dfa4	0.42553437
216	0x3f16a6dd	0.58848363
217	0x3ec0e53c	0.37674892
218	0x3ec47444	0.38369954
219	0x3f5eac70	0.8698187
220	0x3f2a6fe1	0.66576964
221	0x3f30969e	0.68979824
222	0x3de64753	0.11244073
223	0x3d969bdf	0.07353949
224	0xbec5c198	-0.38624263
225	0xbe902a53	-0.2815729
226	0x3d17cca6	0.037060402
227	0x3e352820	0.17691088
228	0x3e8aaddb	0.27085766
229	0x3d6631fb	0.05620001
230	0xbe00f5b2	-0.12593725
231	0xbee05039	-0.43811205
232	0xbc289e97	-0.010291717
233	0x3f54de37	0.8315157
234	0x3de16818	0.110061824
235	0x3eaf727a	0.34267026
236	0xbe2486a9	-0.16066994
237	0x3f0548a4	0.52063966
238	0x3ee979a8	0.4560063
239	0x3e97284c	0.29522932
240	0x3ee2b6a3	0.44279966
241	0x3ea5d9d0	0.3239274
242	0xbe1540a6	-0.14575443
243	0x3ed04ac5	0.40682045
244	0x3fb3a463	1.4034542
245	0x3ee4211d	0.44556513
246	0x3e2c0dd6	0.16802153
247	0x3f6a3bbd	0.91497403
248	0x3ef84501	0.48490146
249	0xbee94e23	-0.45567426
250	0x3e3bd87b	0.183443
251	0x3ca3c234	0.019990064
252	0xbeec1727	-0.46111414
253	0xbea7cae5	-0.32771984
254	0x3e9248ec	0.2857126
255	0xbf0ed6ca	-0.5579649

encoder.conv2.bias f4 [16]
0	0x3dc1ea1e	0.094684824
1	0x3ea08a0f	0.3135533
2	0xbf0faec4	-0.56126046
3	0x3f01825a	0.50589526
4	0x3dcbf86d	0.09959493
5	0x3e8ca3db	0.27468762
6	0x3f15299f	0.58266634
7	0xbf45ebad	-0.7731274
8	0xbdc95f6a	-0.09832652
9	0xbee7ba70	-0.45259428
10	0x3f7400f1	0.95313936
11	0xbeba5eda	-0.3640049
12	0xbe2efd9d	-0.17088933
13	0x3d59b39b	0.0531498
14	0xbe8a9758	-0.2706859
15	0x3df191a4	0.11795357

encoder.conv3.weight f4 [32, 16, 3, 3]
0	0xbeb45871	-0.35223725
1	0xbee16503	-0.44022378
2	0xbe688afb	-0.22709267
3	0x3df74733	0.12074127
4	0xbea406fc	-0.3203658
5	0xbeb4a282	-0.35280234
6	0xbebb7487	-0.3661234
7	0xbe85e526	-0.2615139
8	0x3e1af82f	0.15133737
9	0x3ecc6932	0.39924008
10	0xbf0325d2	-0.51229584
11	0xbf7006b3	-0.9376022
12	0x3db10495	0.08643452
13	0x3ddea6c1	0.108716495
14	0xbd070dcb	-0.03297214
15	0x3ea6811e	0.32520384
16	0x3cbbd741	0.02292979
17	0x3ea0ff32	0.314447
18	0x3e482ba1	0.19547893
19	0x3e9138c3	0.28363618
20	0x3ee1d606	0.441086
21	0xbdef68e2	-0.11689927
22	0x3d556573	0.052098703
23	0x3e10c6d0	0.14138341
24	0xbfd5cc63	-1.6702999
25	0x3e9c1f18	0.30492473
26	0xbeafe814	-0.3435675
27	0x3e119518	0.14217031
28	0x3d2db897	0.042412367
29	0x3e453b6e	0.19260952
30	0x3dc0f525	0.094217576
31	0x3e0bb461	0.13643028
32	0xbe5c4ff0	-0.21514869
33	0xbfbac150	-1.4590244
34	0x3c70a5b8	0.014687948
35	0xbf324026	-0.6962913
36	0x3f388727	0.72081226
37	0x3f537297	0.82596725
38	0x3ec63404	0.3871156
39	0x3e5e8915	0.2173198
40	0x3a82940a	0.0009962332
41	0xbe4aa729	-0.19790329
42	0xbf2cad51	-0.6745196
43	0xbe807959	-0.2509258
44	0xbf6f4cbf	-0.9347648
45	0xbdde5a7a	-0.10857101
46	0xbe6c41d9	-0.23071994
47	0xbef32c7e	-0.47494882
48	0xbd9764d1	-0.07392276
49	0xbe0cb673	-0.13741474
50	0x3e6221ac	0.22083157
51	0xbfa481d5	-1.2852122
52	0x3effe5ac	0.49979913
53	0x3f407908	0.7518468
54	0xbcc3482c	-0.023838125
55	0xbe9f0f4a	-0.31066352
56	0xbce59b72	-0.028028224
57	0xbeeccc87	-0.46249792
58	0x3f1bffa2	0.6093694
59	0x3f08286c	0.5318668
60	0x3e8bc81a	0.27301103
61	0x3ee710b6	0.45129937
62	0x3d6cd496	0.057819925
63	0x3e5288aa	0.20559946
64	0xbdd10f3c	-0.10207984
65	0xbd1695a5	-0.036763806
66	0x3e4f164f	0.20223354
67	0x3f18e550	0.59724903
68	0x3ed15b76	0.40890092
69	0xbf10c69f	-0.5655307
70	0xbc7f16e2	-0.0155694205
71	0xbf8e2b84	-1.110703
72	0x3e8adfcb	0.27123865
73	0xbc923fba	-0.017852653
74	0xbf0d2a20	-0.551424
75	0xbf226f97	-0.6345152
76	0xbf2468df	-0.6422252
77	0xbe0a8e8f	-0.13530944
78	0xbf43fb3d	-0.76555234
79	0x3e733aca	0.23752895
80	0x3ee0e701	0.43926242
81	0x3e417278	0.18891323
82	0x3e82450b	0.254433
83	0x3df2d81f	0.11857628
84	0xbf0c5d86	-0.54830205
85	0x3d060259	0.032717083
86	0xbd774aa3	-0.060373913
87	0xc01a4ca0	-2.4109268
88	0x3ca62fb5	0.02028642
89	0xbe397fe0	-0.18115187
90	0xbd6e2d58	-0.058148712
91	0xbef8d4a7	-0.4859974
92	0xbec9a5ad	-0.39384213
93	0xbf08d7ff	-0.53454584
94	0xbf36d165	-0.7141326
95	0x3d373116	0.044724546
96	0xbf444ddf	-0.7668132
97	0xbc5ee005	-0.013603215
98	0xbc025b96	-0.007956406
99	0xbd802c00	-0.06258392
100	0x3cca51d0	0.024697214
101	0x3e8c8414	0.27444518
102	0x3e18de85	0.14928634
103	0x3f368ace	0.7130555
104	0xbefb8011	-0.49121144
105	0xbf49f2d9	-0.7888618
106	0x3e1f3d2e	0.15550682
107	0xbf838f90	-1.0278187
108	0xbda3a983	-0.07991316
109	0x3de6e4fe	0.112741455
110	0x3e1b10cb	0.15143125
111	0x3e62118a	0.22077003
112	0xbea10321	-0.314477
113	0xbe97addd	-0.29624835
114	0xbe97dde9	-0.29661492
115	0xbecb4f2f	-0.3970885
116	0x3cb24c80	0.021764994
117	0x3ef44b48	0.47713685
118	0x3d4eb9ed	0.05047028
119	0xbdad78a2	-0.084702745
120	0x3f0acf71	0.5422278
121	0xbedbe599	-0.42948607
122	0xbf092be6	-0.5358261
123	0x3e0c1c75	0.1368273
124	0xbf337222	-0.7009603
125	0xbf2e67be	-0.6812705
126	0xbe0d5de5	-0.13805349
127	0x3e4cb26c	0.19989938
128	0x3f12f80f	0.5740976
129	0xbf4959e8	-0.7865281
130	0xbdfda333	-0.123846434
131	0x3e1b45bb	0.15163319
132	0xbf64807a	-0.8925854
133	0xbbb136a1	-0.0054081236
134	0xbeabbe7e	-0.33543772
135	0x3f08ec63	0.534857
136	0xbaaf49c4	-0.0013373424
137	0xbf36833c	-0.71294
138	0xbe859242	-0.26088148
139	0xbf019831	-0.5062285
140	0x3e005830	0.12533641
141	0xbf2ccda8	-0.67501307
142	0xbf39d6a1	-0.7259312
143	0xbe9b113a	-0.3028658
144	0xbf630296	-0.8867582
145	0xbebe4fbc	-0.37170208
146	0xbebef68d	-0.37297478
147	0xbfa2f76b	-1.2731756
148	0xbf0c3118	-0.5476241
149	0x3bd67d3c	0.006545691
150	0xbf99ac52	-1.2005713
151	0xbf4ddaac	-0.8041179
152	0xbe48131f	-0.19538544
153	0x3ec71f07	0.3889086
154	0xbf38a60f	-0.72128385
155	0x3e4e72d9	0.20160998
156	0xbf0a0fb0	-0.5393019
157	0x3f080d32	0.53145134
158	0x3e94c0bb	0.29053292
159	0x3decfd20	0.11571717
160	0x3f4a37b3	0.7899124
161	0xbee6ee64	-0.45103753
162	0x3df1755f	0.11789965
163	0x3f6b273b	0.91856736
164	0x3e3a8e45	0.18218334
165	0x3f95abd9	1.1693069
166	0x3f117e8d	0.56833726
167	0xbe1e2964	-0.15445477
168	0x3e802894	0.2503096
169	0xbf169156	-0.58815515
170	0xbf463537	-0.7742495
171	0xbf005a57	-0.5013785
172	0x3ea4e8f7	0.32208988
173	0x3e124c36	0.14286885
174	0x3ef0f439	0.47061327
175	0xbc5db14c	-0.01353104
176	0x3d48d5f6	0.049032174
177	0xbe89bcbd	-0.26901808
178	0xbd8d4b05	-0.068990745
179	0xbec38a30	-0.38191366
180	0xbf496077	-0.7866282
181	0xbefcfbd9	-0.49410895
182	0x3e75c2d4	0.24000102
183	0xbf26eee2	-0.65208256
184	0xbf86e2d3	-1.0537971
185	0xbf0a714c	-0.5407913
186	0xbee695fb	-0.450363
187	0xbfa4803e	-1.2851636
188	0xbf229e0e	-0.6352242
189	0x3d9b51ff	0.07583999
190	0x3df6a0b5	0.12042371
191	0x3e6589e3	0.22415881
192	0xbdd202ed	-0.10254464
193	0x3e0188fe	0.12649915
194	0x3eea7821	0.45794776
195	0xbe0dfeb0	-0.13866687
196	0xbf8e6e44	-1.11274
197	0xbe4695e9	-0.19393124
198	0x3f34ac12	0.7057506
199	0x3f4d6ba5	0.8024238
200	0x3e671728	0.22567427
201	0x3edf53a7	0.4361851
202	0x3eeb8fb1	0.46008065
203	0x3f14d00e	0.58129966
204	0x3ea9d4fc	0.33170307
205	0x3e3257d0	0.1741631
206	0xbfab911c	-1.3403659
207	0x3e41f892	0.18942478
208	0xbe8c4138	-0.27393508
209	0x3ec3fa20	0.38276768
210	0x3f22a956	0.63539636
211	0x3ec28dc1	0.37998775
212	0x3db77d80	0.08959484
213	0xbd8eb100	-0.06967354
214	0x3d930592	0.07178797
215	0x3d50f853	0.05101807
216	0x3e114769	0.14187397
217	0x3f0e39be	0.5555686
218	0xbe128736	-0.14309391
219	0x3f01a2c3	0.5063898
220	0xbdba9ebb	-0.09112307
221	0x3e97bc2b	0.29635748
222	0x3e98584e	0.2975487
223	0xbdbf2533	-0.09333267
224	0x3ec2415a	0.37940484
225	0xbdc60de3	-0.096706174
226	0x3eef07cc	0.46685636
227	0x3db84d1d	0.08999083
228	0x3e450677	0.19240747
229	0x3c8ef62c	0.017451368
230	0xbc5aae25	-0.013347183
231	0xbdc29487	-0.095009856
232	0xbed6a858	-0.4192531
233	0xbefcf107	-0.4940264
234	0x3e86e8f3	0.263496
235	0xbe249c99	-0.16075362
236	0x3e27ab1b	0.16373865
237	0x3ebed5e4	0.3727256
238	0x3ddd2b3f	0.10799264
239	0xbf05d1b1	-0.5227309
240	0x3d644f55	0.05573972
241	0x3e83fe28	0.25779843
242	0xbf4702ef	-0.7773885
243	0xbf468f14	-0.7756207
244	0x3d1c3fb2	0.038146682
245	0x3dbc11f7	0.09183114
246	0x3f057b65	0.5214141
247	0xbe577495	-0.21040566
248	0xbf858f27	-1.0434312
249	0xbe81c232	-0.25343472
250	0xbf29998b	-0.6624991
251	0xbc0e2044	-0.008674685
252	0x3ea2b4d9	0.317786
253	0xbe89ed30	-0.26938772
254	0x3eda99d0	0.42695475
255	0x3ea15ff8	0.3151853

encoder.conv3.bias f4 [32]
0	0xbef84266	-0.48488158
1	0xbedbe036	-0.42944497
2	0x3da850f5	0.08218566
3	0x3e90378b	0.28167376
4	0xbf67dcc0	-0.9057121
5	0xbec6f40c	-0.38858068
6	0x3ee8395a	0.45356256
7	0xbccfc8c1	-0.025364282
8	0x3e89b56b	0.26896223
9	0xbeacb312	-0.3373037
10	0x3e1b362b	0.15157382
11	0xbf2a3495	-0.66486484
12	0xbe13e420	-0.14442492
13	0x3f0344f0	0.51277065
14	0x3e0a61c3	0.13513856
15	0x3ecd1c11	0.40060475
16	0x3ee0ab9b	0.43880925
17	0x3d17dc3e	0.037075274
18	0xbf8306b0	-1.0236416
19	0x3f6648cd	0.89954835
20	0x3f6fba6d	0.9364384
21	0x3efd318b	0.4945186
22	0xbe4bd220	-0.19904375
23	0x3f0ce351	0.5503436
24	0x3d032708	0.032019645
25	0xbe278e3a	-0.16362849
26	0x3cf45de1	0.029829921
27	0xbed0013d	-0.40625945
28	0x3fd59b5f	1.668804
29	0xbe8e487f	-0.27789685
30	0x3e7eeb9d	0.24894567
31	0xbde3791e	-0.11107086

encoder.batch_norm1.weight f4 [8]
0	0x3f2c106f	0.67212576
1	0x4012adaa	2.2918496
2	0x3eb3bd94	0.35105574
3	0x3f6431e5	0.89138633
4	0x3ecdba83	0.4018136
5	0x3f361d72	0.7113868
6	0x3fde9ccf	1.7391604
7	0x4015683f	2.3344877

encoder.batch_norm1.bias f4 [8]
0	0x3e1a5f2b	0.15075366
1	0xbf0a198d	-0.5394524
2	0x3e3b8b34	0.1831482
3	0x3e3f8da3	0.18706374
4	0x3db47fce	0.08813439
5	0x3d541332	0.05177612
6	0xbea8a64f	-0.32939383
7	0xbede4933	-0.43415222

encoder.batch_norm1.running_mean f4 [8]
0	0xbd822951	-0.06355537
1	0x3ff634f4	1.923491
2	0xbdefa63c	-0.117016286
3	0xc030d02a	-2.7627053
4	0x3e7e2ee2	0.24822572
5	0x3fa5af73	1.2944168
6	0x404c2027	3.1894624
7	0x403bfc83	2.937287

encoder.batch_norm1.running_var f4 [8]
0	0x3e232170	0.15930724
1	0x3ecbce99	0.3980606
2	0x3dd1d464	0.102455884
3	0x3f0ddd54	0.55415845
4	0x3de596ec	0.11210427
5	0x3ddb68ea	0.1071337
6	0x3eb774d4	0.3583132
7	0x3f31dff6	0.6948236

encoder.batch_norm2.weight f4 [16]
0	0x3f9532d8	1.1656141
1	0x3fe3c958	1.779582
2	0x3f5e32c6	0.86796224
3	0x3fa294a4	1.2701612
4	0x3f7daf2d	0.9909542
5	0x3f904a56	1.1272686
6	0x3f5f6f0a	0.8727881
7	0x3f622e1d	0.88351613
8	0x3fafeade	1.3743551
9	0x3f945cc3	1.1590809
10	0x3f41e9ae	0.7574719
11	0x3f4c2007	0.7973637
12	0x3f7daec6	0.9909481
13	0x3f572227	0.8403649
14	0x3f7b739f	0.982233
15	0x3f996bae	1.1985986

encoder.batch_norm2.bias f4 [16]
0	0x3e512c0b	0.20426957
1	0xbf30c1c9	-0.6904569
2	0xbefd636a	-0.4948991
3	0x3f2a5246	0.6653179
4	0xbd962b37	-0.07332461
5	0xbe09f89b	-0.13473742
6	0xbedd117c	-0.43177402
7	0x3aad4178	0.0013218364
8	0xbe02cae5	-0.1277271
9	0x3ef662d9	0.4812229
10	0x3f115b6b	0.5678012
11	0x3e2c7eb1	0.16845204
12	0x3dc84962	0.09779622
13	0xbed00808	-0.40631127
14	0xbdb13208	-0.08652121
15	0x3f2a908c	0.6662681

encoder.batch_norm2.running_mean f4 [16]
0	0x3f9c6d02	1.2220767
1	0x40eceef9	7.4041715
2	0xc035dff0	-2.841793
3	0x402870f0	2.6318932
4	0xbecfe1fd	-0.40602103
5	0xbf7cebd1	-0.9879733
6	0xc001017f	-2.0157163
7	0x3f4bde16	0.7963575
8	0x3f306052	0.68896973
9	0xbeacceb7	-0.3375146
10	0xc02ae210	-2.6700478
11	0xbf24584b	-0.64197224
12	0xbf720e8a	-0.94553435
13	0xbd823bd2	-0.06359066
14	0x3d12dcda	0.03585515
15	0xc010796d	-2.2574112

encoder.batch_norm2.running_var f4 [16]
0	0x40d62148	6.6915627
1	0x405df3ab	3.4679973
2	0x40f96c60	7.7944794
3	0x41a08234	20.063576
4	0x406870d4	3.6318865
5	0x40b5f2e1	5.6858983
6	0x409dd6ca	4.9324694
7	0x40b210f2	5.5645685
8	0x40b574f4	5.6705265
9	0x4177ada1	15.47989
10	0x40a475ae	5.139365
11	0x409a812c	4.828268
12	0x40491e89	3.1424887
13	0x40b41019	5.626965
14	0x40b9ef2f	5.810447
15	0x41895baa	17.169758

encoder.batch_norm3.weight f4 [32]
0	0x3d78c86e	0.06073802
1	0x3d613272	0.05497975
2	0x3d4b0ef0	0.049574792
3	0x3d340a29	0.043955002
4	0x3d44d18c	0.048051402
5	0x3d6ce493	0.057835173
6	0x3d624afd	0.055247296
7	0x3dd3b815	0.10337845
8	0x3d206d48	0.03916672
9	0x3da15568	0.07877618
10	0x3df6a0e0	0.12042403
11	0x3e059db5	0.13048442
12	0x3d44cb7c	0.04804562
13	0x3dc8d54d	0.09806309
14	0x3daca98a	0.084307745
15	0x3d95038c	0.07276067
16	0x3dfc8e26	0.123318
17	0x3d6fc97c	0.05854176
18	0x3d6b059b	0.057378393
19	0x3d8f74e8	0.0700472
20	0x3d62e250	0.05539161
21	0x3d8a17dc	0.06742832
22	0x3d32b0d7	0.04362568
23	0x3d82b963	0.06383016
24	0x3d318d52	0.043347664
25	0x3da1a95f	0.07893633
26	0x3df3f65a	0.11912222
27	0x3d52487f	0.05133867
28	0x3d308800	0.04309845
29	0x3d51c1cf	0.05121022
30	0x3d7ad74f	0.06124049
31	0x3dd2b2b2	0.1028799

encoder.batch_norm3.bias f4 [32]
0	0xbc6e86ef	-0.014558538
1	0xbd1347aa	-0.035957016
2	0xbbcb7fe1	-0.0062103127
3	0x3a069bd7	0.0005134916
4	0x3a571804	0.0008205178
5	0x3d38ae9b	0.04508839
6	0xbca343da	-0.019929815
7	0xbd8bf908	-0.06834608
8	0x3b97e647	0.0046356055
9	0xbd4ab76c	-0.04949133
10	0xbd9f3f8e	-0.07775794
11	0xbda6d0e7	-0.08145314
12	0x3cbe5702	0.023234848
13	0xbd4d63d0	-0.050144017
14	0xbd494281	-0.04913569
15	0xbcf45500	-0.029825687
16	0xbdb3b07b	-0.08773895
17	0x3d014a82	0.031565197
18	0xbd0206e1	-0.03174484
19	0xbcdd52e5	-0.027017066
20	0xbc41616e	-0.011803014
21	0xbcf7eebf	-0.03026521
22	0xbae6241f	-0.0017558372
23	0xbd00d595	-0.031453688
24	0x3b1ed2c0	0.0024234504
25	0xbd0e6763	-0.034766566
26	0xbd8488ea	-0.06471427
27	0x3b3fe0b2	0.0029278216
28	0xbc8e9fb4	-0.017410137
29	0x3c8a2ea8	0.01686795
30	0xbce815c3	-0.02833069
31	0xbd9648d2	-0.07338108

encoder.batch_norm3.running_mean f4 [32]
0	0xc123b678	-10.232048
1	0xc04757ec	-3.1147413
2	0x3fccc08a	1.5996258
3	0xbf45ff6c	-0.7734287
4	0x409711b9	4.7209134
5	0x407bb840	3.9331207
6	0xbdd56e3f	-0.104214184
7	0xbfc59450	-1.5435886
8	0xc0ef8eb7	-7.4861712
9	0x405f4e6c	3.4891615
10	0xc126d08f	-10.425918
11	0xc0c9de82	-6.3084116
12	0xc00463f6	-2.0686011
13	0xbec16fa0	-0.37780476
14	0x3f3056ff	0.68882746
15	0x40b63773	5.6942687
16	0x4018da41	2.3883212
17	0x405288c7	3.2895982
18	0xc08e4bf3	-4.446771
19	0xbfe661b1	-1.7998563
20	0xc0de1fb8	-6.941372
21	0x3e85d6f8	0.2614057
22	0x401a722b	2.4132183
23	0xbf4b5507	-0.79426616
24	0xbfa04c74	-1.2523332
25	0x4026b405	2.6047375
26	0xc100f8e5	-8.060765
27	0x3f9babff	1.2161864
28	0xc0299152	-2.6494946
29	0xbfda188a	-1.7038739
30	0xbf71b8c6	-0.94422567
31	0xc0d1502b	-6.541036

encoder.batch_norm3.running_var f4 [32]
0	0x41e2d0e6	28.352001
1	0x41f3e9be	30.489132
2	0x4206f331	33.73749
3	0x419ddde3	19.733343
4	0x421de63e	39.474846
5	0x42a5b8b6	82.86076
6	0x420f1dea	35.779213
7	0x42846167	66.19024
8	0x416ef1a8	14.933998
9	0x41ba6950	23.301422
10	0x426b2c79	58.79343
11	0x427ed96c	63.712326
12	0x42158ab4	37.385452
13	0x4231c58f	44.44293
14	0x429b5c0d	77.67979
15	0x42009bae	32.15203
16	0x42811d12	64.55678
17	0x4262dc88	56.715363
18	0x41fee696	31.86259
19	0x424a2d76	50.544395
20	0x41b0ced9	22.101
21	0x4233578d	44.8355
22	0x4184a19a	16.578907
23	0x42105bc2	36.089607
24	0x41e3e320	28.4859
25	0x41e87848	29.058731
26	0x4292ffbc	73.49948
27	0x41e052b3	28.04038
28	0x41b145b8	22.159042
29	0x422cc61c	43.193466
30	0x423ce167	47.22012
31	0x424d0268	51.25235

encoder.linear1.weight f4 [128, 512]
0	0xbd99a363	-0.07501867
1	0xbcb9f9f0	-0.022702187
2	0xbcfc2a5d	-0.03078192
3	0xbab5147d	-0.001381531
4	0xbad966a3	-0.0016586374
5	0xbb68277d	-0.0035423927
6	0xbbce6900	-0.006299138
7	0xbd85c10f	-0.06530964
8	0xbcf36ebf	-0.029715894
9	0x3d21b95e	0.03948342
10	0x3d310907	0.0432215
11	0x3d32877f	0.04358625
12	0xbd67994a	-0.056542672
13	0xbcb90e47	-0.022589816
14	0xbceec358	-0.029145882
15	0x3ce2f25b	0.027703455
16	0xbdcb47e0	-0.099258184
17	0xbd60da66	-0.05489578
18	0xbd16ee88	-0.036848575
19	0xbbcdd26e	-0.0062811887
20	0xbd200182	-0.039063938
21	0x3c827901	0.01592684
22	0x3c733cd3	0.014846045
23	0x3d75840a	0.059940375
24	0xbc907420	-0.017633498
25	0x3bf2a7d3	0.00740526
26	0xbd842dbf	-0.06454038
27	0x3b1096b2	0.0022062478
28	0x3c54654b	0.012963603
29	0xbd86d703	-0.06583979
30	0xbc7d36e8	-0.015454985
31	0xbcd3a6d1	-0.02583638
32	0xbd89fc3f	-0.06737565
33	0x3cc8f942	0.024532918
34	0xbd592044	-0.053009287
35	0xbc712792	-0.014718907
36	0xbbccdc05	-0.0062518143
37	0xbb6b60cc	-0.003591585
38	0x3d763f06	0.060118698
39	0xbd1fdb93	-0.03902776
40	0x3d0023df	0.03128421
41	0xbc37ddf6	-0.011222353
42	0x3d317ba1	0.043330792
43	0xbd6bf8ce	-0.057610326
44	0xbcd3a66a	-0.025836188
45	0xbd9f7ee6	-0.07787876
46	0x3c9e2e77	0.019309266
47	0xbdc40988	-0.095721304
48	0x3d261dbf	0.04055571
49	0xbc574d4b	-0.013140987
50	0xbd8a10b1	-0.06741465
51	0xbcb25568	-0.02176924
52	0x36a2b142	4.8486118e-06
53	0xbc26703a	-0.010158593
54	0xbd005814	-0.031333998
55	0xbd2c5261	-0.04207075
56	0xbc4120df	-0.011787622
57	0xbb267a52	-0.0025402498
58	0xbcfad011	-0.030616792
59	0xbc87f594	-0.016596593
60	0xbd7229cf	-0.059121903
61	0xbd0834fc	-0.033253655
62	0x3d1eee8f	0.038801726
63	0xbdd4b0df	-0.10385298
64	0xbc2878ba	-0.01028269
65	0x3bb02311	0.005375274
66	0xbb611a82	-0.0034348075
67	0xbd229b64	-0.039698973
68	0x3c5ba11c	0.013405111
69	0xbd386443	-0.045017492
70	0xbd6d7579	-0.05797336
71	0xbd8fc7b6	-0.07020514
72	0xbd46b40e	-0.048511557
73	0xbdc56df8	-0.096401155
74	0x3c77cd1d	0.015124586
75	0xbc407d33	-0.0117486
76	0xbd87e10f	-0.066347234
77	0x3c60d478	0.0137225315
78	0xbde63369	-0.112402745
79	0x3c9269ef	0.017872779
80	0xbce4adf5	-0.02791498
81	0xbdcb5eec	-0.09930214
82	0xbd8fa49c	-0.070138186
83	0xbe016063	-0.12634425
84	0xbd898d30	-0.067163825
85	0xbc958129	-0.018250065
86	0xbd82c33b	-0.063848935
87	0x3c6f8a27	0.01462034
88	0xbd2e94e8	-0.042622477
89	0xbdd2f956	-0.10301463
90	0xbd214e83	-0.039381515
91	0x3a9fbfde	0.0012187918
92	0xbd5d41e0	-0.0540179
93	0xbc4b6723	-0.012414726
94	0xbd65e225	-0.05612387
95	0xbd231b5f	-0.039821025
96	0xbcc203fd	-0.023683542
97	0xbd977aee	-0.07396494
98	0xbd063889	-0.03276876
99	0x3cada50e	0.021196868
100	0xbd7cd2b1	-0.06172437
101	0x3d3139e7	0.04326811
102	0xbd35fa14	-0.044427946
103	0xbb39cd2f	-0.0028351059
104	0x3d087bea	0.0333213
105	0xbc8c21b8	-0.017105922
106	0xbc87f8fe	-0.01659822
107	0xbd13df1d	-0.03610145
108	0x3caaef95	0.020866195
109	0xbdbefb6d	-0.093252994
110	0x3d230017	0.039795008
111	0xbbea9034	-0.0071583036
112	0xbdb39bd0	-0.08769953
113	0xbddff64a	-0.10935648
114	0x3d098108	0.03357032
115	0xbdbb56ac	-0.09147391
116	0xbcaffca3	-0.021482771
117	0xbd235788	-0.0398784
118	0x3d5bbb05	0.053645153
119	0xbcd7cc0d	-0.026342416
120	0x3bfa6020	0.0076408535
121	0xbae43d14	-0.0017413222
122	0x3d4448c2	0.04792095
123	0xbd0dc45d	-0.034611095
124	0xbc03ada3	-0.008037004
125	0x3d9c27f1	0.07624806
126	0xbc60533d	-0.013691721
127	0xbd368877	-0.044563737
128	0xbcbfcc2a	-0.023412783
129	0xbd935387	-0.07193666
130	0xbb7efee1	-0.0038909244
131	0xbda88ce6	-0.08229999
132	0x3cf3c992	0.029759202
133	0xbdb765d2	-0.089549676
134	0xbd1e5c75	-0.038662393
135	0x3c9f5e69	0.019454198
136	0xbd39a723	-0.04532541
137	0xbd1aa6d1	-0.037756745
138	0x3d3ca249	0.046053205
139	0xb9a33834	-0.00031131657
140	0xbcc4d069	-0.024025159
141	0xbbec2788	-0.007206861
142	0xbd2430e4	-0.04008569
143	0x3d5602b0	0.052248657
144	0x3c248c3d	0.010043201
145	0x3d9d5049	0.07681329
146	0xbdafd60f	-0.0858575
147	0xbcd9dbb3	-0.026594019
148	0xbd97633c	-0.07391974
149	0x3d5b4b84	0.053538814
150	0xbd43632f	-0.04770201
151	0xbd9bb5c2	-0.07603027
152	0xbd46577a	-0.048423268
153	0x3d938757	0.072035484
154	0xbd7aafc4	-0.06120278
155	0xbcda3f16	-0.02664141
156	0xbcfe138f	-0.031015186
157	0xbd793c9d	-0.06084882
158	0xbc69d4c5	-0.01427192
159	0xbd8798be	-0.0662093
160	0xbdbf74d3	-0.09348454
161	0xbd909b43	-0.07060864
162	0xbd320c2f	-0.04346865
163	0xbc9976ae	-0.018733349
164	0xbdb06abf	-0.0861411
165	0x3d220a75	0.039560754
166	0x3bb30fdd	0.0054645375
167	0x3dcbb452	0.09946503
168	0xba878683	-0.001033977
169	0x3cb4f29a	0.022088338
170	0x3c45bbf8	0.012068741
171	0xbd243c23	-0.040096413
172	0xbc393aac	-0.011305492
173	0x3d08d0be	0.033402197
174	0x3d4901de	0.049074046
175	0x3d1b4f9c	0.03791772
176	0xbba2c9e6	-0.004967916
177	0xbce34913	-0.027744805
178	0xbd2f2357	-0.042758312
179	0xbd45b216	-0.04826554
180	0xbd0bfe9b	-0.034178358
181	0xbd230235	-0.039797027
182	0xbde364c3	-0.11103203
183	0xbd2bab3c	-0.04191135
184	0xbd1e2a43	-0.038614523
185	0xbbe179d0	-0.0068809763
186	0x3c61eb06	0.013788944
187	0xbd869b3c	-0.06572577
188	0xbcf6ace7	-0.030111743
189	0xbd317589	-0.04332498
190	0xbca47484	-0.02007509
191	0xbca55c15	-0.02018551
192	0x3d24a91b	0.040200334
193	0xbd1f66d5	-0.038916428
194	0xbd4339e1	-0.04766262
195	0xbdb4cab7	-0.08827727
196	0x3d03eb1a	0.032206632
197	0xbd7d5a47	-0.061853673
198	0xbd9500bf	-0.07275533
199	0x3c71344d	0.014721942
200	0xbd99fc84	-0.07518867
201	0xbda930e7	-0.082612805
202	0xbc5b77cc	-0.013395261
203	0x3be96ec9	0.0071238023
204	0xbdca31f1	-0.09872807
205	0xbcee0543	-0.029055243
206	0xbd79d371	-0.060992662
207	0x3d28fb72	0.041255422
208	0xbd68630f	-0.056735095
209	0x3cd400b3	0.02587924
210	0xbc297116	-0.010341903
211	0xbd802a2b	-0.06258043
212	0x3bb37ba5	0.005477386
213	0x3d92d967	0.071703725
214	0xbd35b5ab	-0.044362705
215	0xbd883e5e	-0.066525206
216	0x3cb8b13c	0.02254545
217	0xbcb1709f	-0.021660147
218	0xbc5c1453	-0.01343258
219	0xbd4c3794	-0.04985769
220	0xbd0d88a7	-0.03455415
221	0x3d9bc037	0.076050214
222	0xbcf08f29	-0.02936514
223	0xbd2cc54d	-0.04218035
224	0x3c81ae71	0.01583025
225	0xbd455093	-0.048172545
226	0xbc941cb8	-0.0180801
227	0xbdc075f0	-0.09397495
228	0xbca89b17	-0.020581765
229	0x399e093f	0.00030142997
230	0xbb7e723d	-0.0038825416
231	0x3c8d2191	0.01722792
232	0xbd35d6d8	-0.044394344
233	0x3d072f85	0.033004303
234	0xbc4ba039	-0.012428337
235	0xbd860ffe	-0.06546019
236	0xbd0101ec	-0.031495973
237	0x3ddadc43	0.10686543
238	0xbd118d20	-0.035534978
239	0x3bd2aa6b	0.006429007
240	0xbca74d5f	-0.020422636
241	0xbd73a236	-0.05948087
242	0xbd17b62f	-0.03703898
243	0xbd97cb06	-0.074117705
244	0xbd3a5da0	-0.045499444
245	0xbc9991b2	-0.01874623
246	0xbca317eb	-0.019908866
247	0xbd9423b6	-0.07233374
248	0x3d6a5bea	0.057216562
249	0x3d8b97e6	0.06816082
250	0xbd94f61d	-0.07273505
251	0x3cd14301	0.025544645
252	0x3d4e1775	0.05031534
253	0xbd51f5f4	-0.05125995
254	0xbc1b44fc	-0.009476896
255	0xbdbb50f6	-0.091463014

encoder.linear1.bias f4 [128]
0	0xbd0b91fa	-0.03407476
1	0xbd7d9eb7	-0.06191894
2	0xbbfd7407	-0.007734779
3	0x3c4fdfa7	0.0126876
4	0x3a445a9e	0.00074903097
5	0xbcae807a	-0.021301497
6	0x3ec6797e	0.38764566
7	0xbd681e53	-0.056669544
8	0xbd4ac31e	-0.049502485
9	0xbd004fff	-0.03132629
10	0xbd522037	-0.051300254
11	0xbd7ebe0e	-0.06219297
12	0xbd592a28	-0.05301872
13	0xbd47fe64	-0.04882659
14	0xbd461765	-0.048362155
15	0xbd4be84b	-0.04978208
16	0xba5ded69	-0.0008465858
17	0xbd568116	-0.0523692
18	0xbc0bfa8d	-0.008543623
19	0xbd9c74f5	-0.07639495
20	0xbda35717	-0.079755954
21	0xbce9e476	-0.028551321
22	0xbd5d7c55	-0.05407365
23	0xbd06f7c8	-0.032951146
24	0x3c440cde	0.011965958
25	0xbcd04186	-0.025421869
26	0xbd0b1168	-0.033952147
27	0xba5513df	-0.0008128266
28	0x3ec94830	0.39312887
29	0xbd683777	-0.05669352
30	0xbd09971f	-0.033591386
31	0xbd06936a	-0.03285543
32	0xbd8e533c	-0.069494694
33	0xbc22346e	-0.0099001955
34	0xbd2ab8c3	-0.04168011
35	0xbc20474a	-0.009782622
36	0xbccb4a45	-0.024815688
37	0x3ec6d124	0.38831437
38	0x3be552bb	0.0069983876
39	0x3e6a2363	0.22865061
40	0xbc9d1aea	-0.019177873
41	0x3e0cc21b	0.1374592
42	0x3c24afb4	0.0100516565
43	0xbce88ce1	-0.028387489
44	0xbae4e746	-0.0017463944
45	0x3deb7c81	0.114983566
46	0xbca3f8b7	-0.020016057
47	0xbca36307	-0.01994468
48	0xbd863517	-0.06553095
49	0xbd8c2960	-0.06843829
50	0xbc76a3ee	-0.015053732
51	0xbca853f9	-0.020547854
52	0xbc8a13a0	-0.016855061
53	0xbc0f463a	-0.008744771
54	0xbce76107	-0.028244508
55	0xbca1f845	-0.019771704
56	0xbd1203c4	-0.035648122
57	0xbd748682	-0.05969859
58	0xbd8e037d	-0.06934259
59	0xbbfa7d57	-0.007644336
60	0x3f15dff7	0.5854487
61	0xbd35a0a4	-0.044342652
62	0xbd41b930	-0.04729575
63	0xbd532839	-0.05155203
64	0x3eaedc6d	0.34152547
65	0x3eef3a76	0.4672429
66	0xbd853c0e	-0.06505595
67	0xbcfa7a19	-0.030575799
68	0x3ef8193c	0.48456752
69	0xbaad80d2	-0.0013237244
70	0xbcaf6e4c	-0.021414898
71	0xbcd858d1	-0.026409538
72	0xbcad5b7a	-0.021161783
73	0xbb3ae22e	-0.0028516161
74	0xbc07f7f3	-0.008298862
75	0x3c3cee9b	0.011531497
76	0xbcdae7bb	-0.026721826
77	0x3f1a590a	0.6029211
78	0x3b1308b5	0.002243561
79	0x3c143161	0.009044976
80	0xbda13ac0	-0.07872534
81	0x3e900d38	0.28135085
82	0xbd07c30f	-0.033145007
83	0x3c3e8395	0.011628051
84	0xbd3bf904	-0.045891777
85	0xbd057b43	-0.032588255
86	0x3e50f716	0.20406756
87	0xbd40417d	-0.046937454
88	0xbd0d437c	-0.034488186
89	0xbce516c0	-0.02796495
90	0xbd350cc8	-0.044201642
91	0xbd70bb24	-0.05877222
92	0x3cb64584	0.022249945
93	0x3ea329c5	0.31867805
94	0xbcfa6c88	-0.03056933
95	0xbd19ec74	-0.037579015
96	0x3b45119c	0.003007031
97	0xbc9d48a7	-0.019199682
98	0xbdab4b34	-0.08363953
99	0xbc535980	-0.012899756
100	0x3f07a514	0.52986264
101	0xbc0bd2a1	-0.008534105
102	0xbbc7542c	-0.006083032
103	0xbc4fe372	-0.0126885045
104	0x3c058145	0.008148496
105	0xbbed6e4e	-0.0072458154
106	0xbd3f7ccf	-0.046749886
107	0x3eb4a7cb	0.35284266
108	0xbca14754	-0.019687332
109	0xbc398c56	-0.011324963
110	0xbca6d8a8	-0.020366982
111	0xbd60c6e4	-0.054877177
112	0xbd07fd57	-0.033200588
113	0xbd1649e3	-0.036691558
114	0xbb5cbc8a	-0.0033681714
115	0xbcfb37d6	-0.030666273
116	0xbd267396	-0.040637575
117	0xbbd99e66	-0.006641197
118	0x3e9f2a5b	0.31087002
119	0xbd013237	-0.03154203
120	0x3e9dde9f	0.3083391
121	0xbc2ccd6c	-0.010547023
122	0x3c93e996	0.018055718
123	0xbbd0c268	-0.0063708313
124	0xbc22df00	-0.009940863
125	0xbcf157bc	-0.02946078
126	0xbc9a2bb6	-0.018819671
127	0x3e78ba35	0.24289782

encoder.linear_mu.weight f4 [128, 128]
0	0x3dc7cf69	0.09756357
1	0x3c2f54ad	0.010701341
2	0xbd9e7771	-0.077376254
3	0x3d9010d0	0.07034457
4	0x3d9e14e6	0.0771883
5	0x3d186878	0.037209004
6	0xbb907a03	-0.004409076
7	0x3d654711	0.055975977
8	0xbd724e16	-0.0591565
9	0xbad38996	-0.0016139026
10	0xbd849173	-0.06473055
11	0x3d89675f	0.067091696
12	0xbcf1b317	-0.029504342
13	0xbd59ee02	-0.053205498
14	0x3c1545d2	0.009110885
15	0x3c331c89	0.010932096
16	0xbd1b54d7	-0.037922706
17	0x3c57d60c	0.013173591
18	0xbdb3b371	-0.0877446
19	0x3c1e9405	0.009678845
20	0x3d7a06f8	0.061041802
21	0xbdc6aebf	-0.09701299
22	0xbd939a03	-0.0720711
23	0x3d4856ab	0.048910778
24	0x3d82cc6d	0.063866474
25	0xbd4de6a2	-0.050268777
26	0x3d6e0fc2	0.058120497
27	0xbda402d1	-0.0800835
28	0x38ec613f	0.000112714704
29	0xbd83fa7b	-0.0644426
30	0xbd889f03	-0.06670954
31	0x3d51017e	0.051026814
32	0x3c83770a	0.016047973
33	0xbded55f7	-0.11588662
34	0x3d8a80eb	0.067628704
35	0xbd16adec	-0.03678696
36	0xbd8b8a4c	-0.068134874
37	0x3bbd9a10	0.005786188
38	0xbd0485e6	-0.032354258
39	0x3c21207e	0.009834407
40	0xbd8fe491	-0.070260175
41	0xba473d69	-0.00076003984
42	0xbc7372ca	-0.014858911
43	0x3d4cf5d7	0.05003914
44	0x3d3cd12f	0.04609793
45	0x3cc62bd4	0.02419082
46	0xbd04ac2a	-0.03239075
47	0xbd22fb33	-0.039790343
48	0x3d53f82c	0.051750347
49	0x3b471603	0.003037811
50	0x3b909bd4	0.0044131074
51	0x3caf4e61	0.021399679
52	0xbbf20a8c	-0.007386511
53	0x3c0a7430	0.008450553
54	0x3cad2d23	0.021139687
55	0xbd37cee7	-0.04487505
56	0xb978ac71	-0.00023715362
57	0x3d5d5234	0.054033473
58	0x3d6ede86	0.058317684
59	0xbc37fb90	-0.011229411
60	0x39e3f842	0.0004348178
61	0x3d5437af	0.051810917
62	0x3d22f461	0.03978384
63	0x3d752a77	0.05985495
64	0xbb3f87ba	-0.0029225186
65	0xbc26c698	-0.010179184
66	0xbdcf4bf9	-0.101219125
67	0x3d5eef9c	0.054427728
68	0xbb9d4763	-0.0047997697
69	0x3d25131d	0.04030143
70	0xbd116df9	-0.03550527
71	0x3d281d92	0.041043825
72	0x3c4e75f9	0.012601369
73	0x3d9997f7	0.07499688
74	0xbcf209dc	-0.029545717
75	0xbd660cd7	-0.05616459
76	0x3d7459e4	0.05965604
77	0xbc14e43c	-0.009087618
78	0x3cc19e4a	0.023635048
79	0xbdb3d881	-0.08781529
80	0x3c897c68	0.016782954
81	0xbc32c5a1	-0.010911376
82	0xbd31c098	-0.043396562
83	0xbd5000e9	-0.050782118
84	0x3db5c2e3	0.08875062
85	0xbdab289f	-0.08357357
86	0xbb4244f5	-0.0029643152
87	0x3d23e8dd	0.040016998
88	0xbd2c9994	-0.04213865
89	0x3d0be447	0.03415325
90	0x3ca7e3a0	0.020494282
91	0xbbdbed8c	-0.0067116674
92	0x3d7defa1	0.061996106
93	0x3a2620ef	0.0006337305
94	0x3d136e84	0.035994068
95	0xbd16aea3	-0.03678764
96	0x3d4ab21a	0.049486257
97	0xbd800dc6	-0.06252627
98	0xbe0ac032	-0.13549879
99	0xbcf99d1d	-0.030470425
100	0xbb9292d6	-0.0044730706
101	0x3beb2ff3	0.007177347
102	0x3d6fcb45	0.058543462
103	0x3db8e32e	0.09027706
104	0xba82a181	-0.0009966345
105	0xbcef5301	-0.029214384
106	0xbd9c164d	-0.07621441
107	0xbb916529	-0.004437108
108	0xbd0c7ef2	-0.034300752
109	0xbd2fdc04	-0.042934433
110	0xbaddec19	-0.0016931324
111	0xbd9ca85a	-0.07649298
112	0x3daa091f	0.08302521
113	0xbc442757	-0.01197227
114	0x3d891a67	0.06694489
115	0x3d1c8642	0.038213976
116	0xbb641a7e	-0.003480583
117	0xbc855008	-0.016273513
118	0x3baef292	0.005338975
119	0xbcb79760	-0.022411048
120	0x3b4da2c3	0.003137753
121	0x3c10fe36	0.008849671
122	0x3d7b92a7	0.061419155
123	0x3d78d565	0.060750384
124	0x3be5bcd8	0.0070110373
125	0xbd94bcbe	-0.07262562
126	0x3daec334	0.08533326
127	0x3c65b2b4	0.014019657
128	0xbc3810fb	-0.011234517
129	0xbca172a0	-0.019707978
130	0xbcb99d12	-0.022657905
131	0x3bad0efb	0.005281327
132	0x3d9d4d94	0.076808125
133	0x3b320e50	0.0027169175
134	0xbb88b0ce	-0.0041714674
135	0xbd21fa4f	-0.039545354
136	0xbce82b98	-0.0283411
137	0x3d82b608	0.06382376
138	0x3a199983	0.0005859362
139	0xbd38bf77	-0.04510447
140	0xbced244f	-0.028947977
141	0xbca886a7	-0.02057202
142	0x3c896326	0.01677091
143	0xbca02b4d	-0.019551897
144	0xbd7f7f7b	-0.062377434
145	0xbd3b462e	-0.045721225
146	0x3d09f5ce	0.033681683
147	0xbd142104	-0.0361643
148	0x3d17acc6	0.037030004
149	0x3cc89346	0.024484288
150	0xbca51e31	-0.020155998
151	0x3bb58469	0.005539466
152	0x3cbc420c	0.022980712
153	0x3abdd788	0.0014483789
154	0x3d2c88e4	0.042122737
155	0x3848223f	4.771561e-05
156	0xba4674c7	-0.0007570502
157	0xbcc4c6e4	-0.02402062
158	0x3d42d21d	0.04756366
159	0xbd433a83	-0.047663223
160	0x3c8ff488	0.017572656
161	0xbcda5f4a	-0.026656765
162	0x3d111e93	0.03542955
163	0xbd151f9b	-0.036407094
164	0x3d1229e2	0.035684474
165	0xbb500e32	-0.0031746742
166	0x3daa6290	0.083195806
167	0xbc0df227	-0.008663691
168	0x3b009970	0.0019622706
169	0xbb2dd191	-0.0026522616
170	0x3d46631e	0.04843437
171	0xbd4a369b	-0.049368482
172	0xbd5066ba	-0.050879218
173	0xbbbb8918	-0.00572313
174	0x3d0fa777	0.035071816
175	0x3d16d48e	0.0368238
176	0xb7b496a2	-2.1527816e-05
177	0x3b7e4bbf	0.0038802472
178	0xbd4fd828	-0.050743252
179	0xbdc953a6	-0.09830408
180	0x3d2fbad2	0.042902775
181	0xbce0b193	-0.027428424
182	0xbb4caa61	-0.0031229483
183	0x3d36e992	0.044656344
184	0x3b9151ac	0.004434785
185	0xbcdb6505	-0.026781568
186	0x3cbc65e2	0.0229978
187	0xbd52d297	-0.051470365
188	0xbad9e0d8	-0.0016622795
189	0xbc24f3cd	-0.010067892
190	0xbdc7b56f	-0.097514026
191	0xbd751b53	-0.05984051
192	0x3b1d58c1	0.00240092
193	0x3a921343	0.0011144656
194	0xbd479126	-0.04872241
195	0x3d23c347	0.039981153
196	0xbba8d6c4	-0.005152555
197	0x3c8a09e0	0.016850412
198	0x3cdb0083	0.026733642
199	0x3c6b8a50	0.014376238
200	0x3b76a4a5	0.0037634757
201	0x3d32f913	0.043694567
202	0xbd39b277	-0.045336213
203	0x3d1cbc2b	0.03826539
204	0xbca94891	-0.020664485
205	0x38f12a14	0.00011499613
206	0x3cb7f479	0.02245544
207	0x3d93f760	0.072249174
208	0xbd81bd4b	-0.06334933
209	0x3ae7ac15	0.0017675186
210	0xbb8f83fc	-0.0043797474
211	0xbc7ac036	-0.015304616
212	0x3ce42a67	0.02785225
213	0x3d102a84	0.035196796
214	0xbb8ecb55	-0.004357735
215	0xbd212065	-0.039337534
216	0x3d6cfeae	0.05786007
217	0x3d123011	0.03569037
218	0x3d934063	0.07190015
219	0x3e23dbca	0.16001812
220	0xbd041e1c	-0.032255277
221	0x3b9251fa	0.004465339
222	0x3c8797db	0.016551903
223	0xbd2df861	-0.0424732
224	0x3d8e5eea	0.06951697
225	0xbd60a6b8	-0.054846495
226	0xbe1af7c1	-0.15133573
227	0x3c4accc4	0.0123779215
228	0x3b978ef9	0.004625198
229	0xbd3a87f4	-0.04553981
230	0x3cc4c12f	0.024017898
231	0xbd5b2443	-0.05350138
232	0x3d1c0400	0.038089752
233	0x3a75cbe2	0.0009376389
234	0xbc357bc2	-0.011076869
235	0x38518d10	4.9960858e-05
236	0x3d40f37c	0.047107205
237	0x3d797309	0.06090072
238	0x3dc37dc3	0.095454715
239	0x3d508989	0.050912414
240	0x3daed5f2	0.085369006
241	0xbd21a9dd	-0.039468635
242	0xbd5ee124	-0.05441393
243	0x3c67d931	0.014150904
244	0xbc8df92d	-0.01733073
245	0xbc1e82b1	-0.009674714
246	0x3ac1bc7a	0.0014780902
247	0xbb8fdc15	-0.0043902495
248	0x3bb15f17	0.005412947
249	0xbbbe2271	-0.0058024456
250	0x3db53101	0.088472374
251	0x3d93db55	0.07219569
252	0xbda789fb	-0.081806146
253	0x3d971117	0.073763065
254	0x3c5c95e3	0.01346347
255	0xbb90a55a	-0.0044142427

encoder.linear_mu.bias f4 [128]
0	0x3c64e507	0.01397062
1	0xbbcc08f3	-0.006226653
2	0x3c04d623	0.008107695
3	0xbc01a967	-0.007913924
4	0x3bcd9da2	0.006274895
5	0x3c1cb2a6	0.0095640775
6	0x3bfce92e	0.007718227
7	0xbde4db8b	-0.11174687
8	0xbbe8f0b5	-0.0071087726
9	0xbc443b95	-0.011977096
10	0x398d0de3	0.00026903962
11	0xbc892aa5	-0.016743967
12	0xba845385	-0.0010095692
13	0xbc8e606c	-0.017379962
14	0x3a8f95a0	0.0010954626
15	0x3ad11359	0.0015951201
16	0xbbb93451	-0.0056519886
17	0x3a861022	0.0010228197
18	0xbddd53ef	-0.10807025
19	0x3c5c4bdd	0.013445822
20	0x39b99211	0.00035394778
21	0xb9a1331a	-0.00030746387
22	0xbb54e6f8	-0.00324863
23	0x3c55d133	0.013050365
24	0x3d5078b5	0.050896365
25	0xbc31ee59	-0.010860049
26	0x3bc98ea2	0.0061510364
27	0x3bcb14ed	0.006197563
28	0xbd905483	-0.07047369
29	0x3c38502e	0.011249585
30	0x3c7a02ae	0.015259428
31	0x3b195804	0.0023398409
32	0xbc4194b3	-0.011815238
33	0xbac9db70	-0.001540048
34	0xbbdefa27	-0.006804723
35	0xbc427c93	-0.011870521
36	0xbc5c897b	-0.013460512
37	0xbb21befa	-0.0024680481
38	0x3c2930d7	0.010326586
39	0xbb9102d4	-0.004425386
40	0xb97d3038	-0.00024145923
41	0x3b23c7ce	0.002499092
42	0xbc8ee383	-0.01744247
43	0x3b7488d2	0.0037312997
44	0x3bad9eca	0.00529847
45	0xbb660d82	-0.0035103266
46	0xbc4b08b5	-0.012392213
47	0xbb34bb22	-0.002757736
48	0xba365464	-0.0006955324
49	0x3b18a103	0.002328933
50	0xbc7e17b0	-0.015508577
51	0x3cc9783c	0.024593465
52	0xbba09a56	-0.004901211
53	0x3c0a30e1	0.008434505
54	0x3b74fe03	0.0037382848
55	0xbc719f83	-0.014747503
56	0x3c72313b	0.014782245
57	0x3b206773	0.0024475723
58	0xbc63494b	-0.013872455
59	0xbae48911	-0.0017435869
60	0xbb13f0ef	-0.0022574028
61	0x3baf32ae	0.0053466177
62	0x3c4f0c3c	0.012637194
63	0x3b9f6f78	0.004865583
64	0x3bb61961	0.0055572246
65	0xbafdcb9a	-0.0019363046
66	0xbc777802	-0.015104296
67	0x3d49d8ca	0.04927901
68	0x3c53b048	0.012920447
69	0xbc67f423	-0.014157328
70	0x3b8270e4	0.003980743
71	0x3c8830a8	0.016624764
72	0x3b431131	0.0029764886
73	0x3adc3d73	0.0016802981
74	0xbba747fc	-0.0051050168
75	0xbdd29557	-0.102823906
76	0xbca0e810	-0.019641906
77	0x3c0abf2e	0.008468432
78	0x3c59c3e7	0.013291336
79	0x3f04d5bd	0.5188864
80	0x3b85ec67	0.0040870192
81	0x3bbb8eab	0.0057237945
82	0x3ba83fb6	0.005134548
83	0xbc001802	-0.007818224
84	0x3bf90ee2	0.007600651
85	0x39d26e4d	0.00040136502
86	0x3bbe43c8	0.00580642
87	0x3c01fc4a	0.007933686
88	0xb9d32d3c	-0.00040278758
89	0x3c12713a	0.008938128
90	0x3b47af93	0.003046964
91	0xbe070e67	-0.13189088
92	0x3c099d1f	0.008399277
93	0xbc39785e	-0.011320202
94	0xbb3ee789	-0.0029129705
95	0x3bf7711e	0.0075513264
96	0xba859397	-0.001019108
97	0xbc33eb6a	-0.01098142
98	0x3b13c343	0.0022546805
99	0xbb5cda8d	-0.0033699602
100	0x3a297130	0.00064637046
101	0xbb0ea700	-0.002176702
102	0x3d3155e0	0.043294787
103	0xbc6ad592	-0.014333146
104	0x3c61aa89	0.013773569
105	0x3eff7087	0.4989054
106	0x3c472648	0.012155123
107	0x3e0a3847	0.1349803
108	0x3b1de00c	0.0024089841
109	0x3bd3ca8c	0.0064633545
110	0x3c70e5e4	0.014703248
111	0x3c506135	0.012718488
112	0x3b29cb29	0.0025908446
113	0xbbbadb90	-0.0057024434
114	0xbb16ecbf	-0.0023029295
115	0x3e2d70cf	0.16937564
116	0x3d63b0dc	0.055588588
117	0x3c5ac5ad	0.013352794
118	0x3b938717	0.004502188
119	0x3ae70987	0.0017626741
120	0xbc5d3199	-0.0135005945
121	0x3a7cafb4	0.0009639219
122	0xbb0024b2	-0.0019553122
123	0x3c689907	0.014196641
124	0xbbffe22d	-0.0078089447
125	0xbe037470	-0.12837386
126	0xbbd4ca04	-0.0064938087
127	0xbbdc78b6	-0.006728257

encoder.linear_sigma.weight f4 [128, 128]
0	0x3cd14964	0.02554769
1	0x3d90db20	0.07073045
2	0xbd8b0d4e	-0.06789647
3	0xbd13501a	-0.035965063
4	0x3a9547b8	0.0011389172
5	0xbcd14fc8	-0.025550738
6	0xba4bfa84	-0.0007781165
7	0xbd5be5fd	-0.05368613
8	0x3d36dafd	0.044642437
9	0xbd606601	-0.05478478
10	0x3c0eda45	0.008719032
11	0xbdc6a17c	-0.096987695
12	0x3c728d1d	0.014804152
13	0x3d098475	0.033573586
14	0xbc9c149f	-0.019052802
15	0x3da98097	0.0827648
16	0x3cde1fd0	0.027114779
17	0x3d8d3db3	0.06896534
18	0xbdc4a48c	-0.09601697
19	0x3cf354d9	0.029703544
20	0x3ce29bbd	0.027662152
21	0xbcac9fba	-0.021072257
22	0x3d91186b	0.070847355
23	0x3ce98172	0.028504107
24	0x3d617552	0.055043526
25	0x3ca470ef	0.020073382
26	0x3d963d3a	0.07335897
27	0xbb7ee563	-0.003889405
28	0x3a43f051	0.00074744696
29	0xb8ae875d	-8.32218e-05
30	0xbd228f88	-0.039687663
31	0x3d08e7b7	0.033424105
32	0xbd490ce2	-0.04908455
33	0xbbab691a	-0.005231035
34	0x3d7c5d26	0.06161227
35	0x3c9e2d09	0.019308584
36	0xbd94023e	-0.0722699
37	0x3b091c2e	0.0020921337
38	0x3d796272	0.0608849
39	0xba5f74d0	-0.00085241813
40	0x3d2a308f	0.041550215
41	0x3ac4612b	0.0014982572
42	0xbc90c1d2	-0.017670546
43	0xbbaf6c8d	-0.0053535164
44	0x3d0696a8	0.03285852
45	0xb9901ce6	-0.0002748735
46	0xbd86561f	-0.06559395
47	0xbd66ea83	-0.05637599
48	0xbccdeba8	-0.025136784
49	0x3c50e7c0	0.012750566
50	0xbc74f5e4	-0.014951203
51	0xbc040123	-0.008056912
52	0xbd1e2a0f	-0.03861433
53	0x3d3f073e	0.046637766
54	0x3ca594b3	0.020212507
55	0xbcea3680	-0.02859044
56	0xbcbdba26	-0.023160052
57	0xbc24063d	-0.010011253
58	0x3d701626	0.058614872
59	0xbdad9022	-0.08474757
60	0xba0f00c6	-0.00054551323
61	0xbd8d60b9	-0.06903214
62	0x3b800010	0.0039062575
63	0x3d567c2b	0.05236451
64	0xb90077c0	-0.00012251642
65	0xb9218f8f	-0.00015407636
66	0x3d30e00f	0.04318243
67	0x3d7deab7	0.06199142
68	0xb9964ca9	-0.00028667346
69	0xbcbd0176	-0.023071986
70	0xbcce8885	-0.025211582
71	0x3b66e7be	0.0035233344
72	0xbd000acb	-0.031260293
73	0xbcf8d5b6	-0.030375343
74	0xbd455278	-0.04817435
75	0x3ccf0e45	0.025275359
76	0x3c1de841	0.009637893
77	0xb9e0ca48	-0.0004287532
78	0xbc59ff88	-0.013305552
79	0x3cb3d425	0.021951744
80	0xbc43e19a	-0.011955643
81	0xba167f25	-0.0005740992
82	0x3d81d7aa	0.06339963
83	0x3c9ba6c4	0.019000418
84	0x3c8bfb0c	0.017087482
85	0x3d86c069	0.06579668
86	0xbacd1cb7	-0.0015648816
87	0xbd4459f4	-0.04793735
88	0x3be2df7a	0.006923613
89	0xbd82c85a	-0.0638587
90	0xbde84bf5	-0.11342613
91	0xbce05a34	-0.027386762
92	0xbd92cb3b	-0.071676694
93	0x3a016b6d	0.0004936967
94	0xbc80276f	-0.015643803
95	0xbd3da13e	-0.04629635
96	0x3b999944	0.00468746
97	0xbd62534e	-0.055255227
98	0xbd9ba4a2	-0.075997606
99	0xbd9c384a	-0.07627924
100	0x3b0c52ff	0.0021411774
101	0x3d5afa24	0.05346121
102	0x3d7318c1	0.05934978
103	0xbce7434c	-0.028230332
104	0x3da2118d	0.07913504
105	0x3d9ef980	0.07762432
106	0x3c80e26d	0.015732968
107	0x3956a0f1	0.00020468586
108	0xbcb3887a	-0.021915663
109	0xbd8d34e7	-0.06894856
110	0xbd17d6cf	-0.03707009
111	0x3d7367d5	0.059425194
112	0xbd275039	-0.04084799
113	0xbd5dcfe5	-0.05415334
114	0xba35d2ff	-0.0006936043
115	0xbd42dd2f	-0.04757422
116	0xbd957476	-0.07297604
117	0x3d109546	0.03529861
118	0x398d9eb8	0.0002701187
119	0xbe044764	-0.12917858
120	0x392df052	0.00016588092
121	0x3d8c4bf4	0.068504244
122	0xbd03fb2c	-0.032221958
123	0xbd43a381	-0.04776335
124	0xba839b9a	-0.001004088
125	0x3d867364	0.06564978
126	0xbcd7c8c1	-0.026340844
127	0x3b12e636	0.0022415048
128	0x3c9d5523	0.019205635
129	0xbc4f69e4	-0.012659524
130	0xbc96c86f	-0.018406121
131	0xbc515695	-0.01277699
132	0xbd6d8e1b	-0.05799685
133	0x3bc24c26	0.0059294878
134	0xb987d8ac	-0.0002591064
135	0xbc654a42	-0.013994755
136	0xbd38cb85	-0.045115966
137	0xbcb80343	-0.022462493
138	0x3d879de2	0.06621911
139	0x3d98ca99	0.074605174
140	0xbdd87600	-0.10569382
141	0x3d87b6fb	0.06626698
142	0x3ccd30ff	0.025047777
143	0xbc149254	-0.0090680905
144	0xbd552606	-0.052038215
145	0xbdacc3c8	-0.0843578
146	0x3d35faf4	0.04442878
147	0x398d1216	0.0002690709
148	0xbd02e997	-0.03196105
149	0xbbf1d146	-0.0073796837
150	0x3c8755db	0.016520431
151	0x3d2e4c4d	0.042553235
152	0x3d65aba6	0.0560719
153	0xbd5e6e0e	-0.054304175
154	0xbd215fee	-0.039398126
155	0xbd58db8f	-0.052943762
156	0x3966d8fa	0.0002201534
157	0x3d497b1c	0.049189672
158	0x3bb6a350	0.0055736676
159	0x3d90f43d	0.07077835
160	0x3d307600	0.043081284
161	0xbdecc306	-0.11560635
162	0xbd916c91	-0.071007855
163	0xbd928f66	-0.07156257
164	0xbc42a4c7	-0.011880106
165	0x3a394688	0.00070677
166	0xbdabb346	-0.08383803
167	0xbb6bee7c	-0.0036000302
168	0x3d9facfc	0.07796666
169	0xb9930cf8	-0.00028047687
170	0x3c88f8c8	0.01672019
171	0xbd6f3499	-0.05839977
172	0x3da743e2	0.081672445
173	0xbb258837	-0.0025258192
174	0x3d961bb7	0.07329505
175	0xbda87d83	-0.082270645
176	0xbda61f4a	-0.08111437
177	0x3d2d4724	0.042304173
178	0x3bce46c3	0.0062950565
179	0x3d8b6e57	0.06808155
180	0x3b961688	0.0045803227
181	0x3cea4332	0.028596494
182	0xbcb7d1c7	-0.022438897
183	0x3ca12c40	0.01967442
184	0xbbff9d21	-0.0078007136
185	0x3ca3294a	0.01991715
186	0xbd8628c5	-0.06550745
187	0x3d37332d	0.04472654
188	0xb9653ba1	-0.00021861355
189	0xbc994a46	-0.018712174
190	0xbcf24757	-0.029575033
191	0x3cd2d853	0.025737917
192	0xba8e4c8a	-0.0010856551
193	0xba7eee58	-0.0009724847
194	0xbc3e20d0	-0.011604503
195	0x3d56c348	0.05243233
196	0xb9cb6518	-0.00038794498
197	0xbd51638d	-0.05112033
198	0x3c55b741	0.013044179
199	0x3cdbfd49	0.026854174
200	0xbd9c1b0c	-0.07622346
201	0x3d7ffcde	0.062497012
202	0xbd464c3e	-0.048412554
203	0xba104609	-0.00055036
204	0x3cb3130c	0.021859668
205	0xbb11b0ef	-0.0022230705
206	0x3d8a026f	0.067387454
207	0xbd6cac0d	-0.057781268
208	0x3cc5c430	0.024141401
209	0xbb38fefc	-0.0028228154
210	0xbdaa51e8	-0.083164036
211	0xbd9c8bf5	-0.07643882
212	0xbdc49d5d	-0.09600327
213	0x3bd061c9	0.006359313
214	0xba42d383	-0.00074320304
215	0x3d574322	0.052554257
216	0x3c276ec6	0.010219282
217	0xbd85e709	-0.06538207
218	0x3c38c1f8	0.0112767145
219	0xbc24ecb9	-0.010066205
220	0x3c786db3	0.015162873
221	0xba460d06	-0.0007555041
222	0xbd1b3e69	-0.037901316
223	0x3c4040be	0.011734186
224	0xbad7ff93	-0.0016479365
225	0xbd9fffc8	-0.07812458
226	0xbd6dd2cf	-0.05806237
227	0xbc39f36c	-0.01134954
228	0x3ab30d4b	0.0013660578
229	0x3d108da5	0.035291333
230	0x3c778116	0.01510646
231	0xbda53d28	-0.08068305
232	0x3da0e93e	0.078569874
233	0xbc3fa9af	-0.011698171
234	0x3d4098c6	0.047020696
235	0x3a01ee7e	0.00049564976
236	0xbdc6392f	-0.09678876
237	0xbcf0fd62	-0.029417697
238	0xbd8fd20a	-0.07022484
239	0xbd8cfc5e	-0.06884073
240	0x3bfc47ee	0.0076990044
241	0xbdc4809c	-0.09594843
242	0x3d9711fa	0.07376476
243	0xbc841f79	-0.016128289
244	0xbd8a9cb2	-0.067681685
245	0x3c552905	0.013010268
246	0x3a5920d2	0.00082827837
247	0x3d7d3397	0.061816778
248	0xba0ae4ca	-0.00052983745
249	0x3d29da91	0.041468207
250	0xbca7f2c6	-0.020501506
251	0x3d2f3b7c	0.042781338
252	0xbd8719ab	-0.06596693
253	0xbbf4f115	-0.0074750283
254	0x3d45bf69	0.048278246
255	0x3aa7505e	0.001276504
