checkpoints_anomalies/model-10.pt (torch, 794381 bytes, 45 tensors)

encoder.conv1.weight f4 [8, 1, 3, 3]
-0.09434419 0.1752101 -0.37162974 -0.19187096 -0.3723329 -0.27046067 0.07262613 -0.15226755
-0.22376327 0.20835817 -0.094205245 0.9301488 -0.091789715 -0.011207798 0.090702765 0.14670384
-0.18381684 0.35510668 -0.10143195 -0.37649888 -0.04610196 0.31557542 -0.08107728 0.08949347
0.70817417 -0.113845035 0.13539247 -0.31617588 -0.18037641 -0.041215673 -0.22407888 -0.26901498
-0.06420199 -0.3937046 -0.26569566 0.27338466 0.22579294 0.0045801494 -0.48934847 0.25703764
0.26673394 -0.33075967 0.18501194 -0.21537462 -0.14326142 0.1245172 0.3522348 -0.3746761
-0.097827725 0.23869418 -0.12787598 0.28969675 0.22212704 -0.06323397 0.61281073 -0.021617267
-0.11652103 0.29463395 -0.124016486 -0.20184155 0.14390782 0.047980625 0.41478857 0.17963283
-0.1547658 0.11531393 0.95595896 0.2654662 0.31957665 0.5512487 0.01374623 -0.25238037
00000000: 8737 c1bd 476a 333e 4146 bebe d279 44be
00000010: 6ba2 bebe d279 8abe 02bd 943d 06ec 1bbe
00000020: 3322 65be d85b 553e aeee c0bd 3b1e 6e3f
00000030: 3ffc bbbd e9a0 37bc 5fc2 b93d 8839 163e
00000040: 7b3a 3cbe 8bd0 b53e 8ebb cfbd 76c4 c0be
00000050: 69d5 3cbd 1a93 a13e d80b a6bd 5a48 b73d
00000060: e74a 353f 9627 e9bd 53a4 0a3e cee1 a1be
00000070: 98b4 38be c4d1 28bd ef74 65be 55bc 89be
00000080: 557c 83bd a693 c9be 4309 88be 13f9 8b3e
00000090: 4436 673e 1415 963b e28b fabe 709a 833e
000000a0: 5a91 883e 5559 a9be c573 3d3e 2a8b 5cbe
000000b0: 1fb3 12be e002 ff3d 1f58 b43e 8cd5 bfbe
000000c0: e759 c8bd 3f6c 743e ecf1 02be 2253 943e
000000d0: 4575 633e d080 81bd 2ae1 1c3f b216 b1bc
000000e0: 94a2 eebd 43da 963e 5bfc fdbd 8daf 4ebe
000000f0: 925c 133e 5587 443d 2b5f d43e abf1 373e
00000100: ed7a 1ebe b629 ec3d bab9 743f 30eb 873e
00000110: 8d9f a33e a31e 0d3f de37 613c 0038 81be

encoder.conv1.bias f4 [8]
0.0011133407 0.08800031 0.07301803 -0.3900839 -0.024573168 -0.12887383 0.21950437 0.19375907
00000000: 84ed 913a 8239 b43d 7a8a 953d 14b9 c7be
00000010: ab4d c9bc 80f7 03be c1c5 603e c768 463e

encoder.conv2.weight f4 [16, 8, 3, 3]
-0.021612886 -0.010282721 0.1963337 -0.11825694 -0.0712097 0.055599008 -0.15641508 0.0278345
0.15447609 0.22661294 -0.2546259 -0.6075922 0.17475525 0.096640795 -0.18612699 0.24234279
0.124977574 -0.27286226 0.18521857 0.016398197 0.035521686 0.31591037 -0.24987818 -0.16566677
0.27989566 -0.24200949 -0.14977255 -0.23234722 -0.13445653 0.073209226 -0.27845693 -0.083484806
0.17384166 -0.1032591 -0.16591297 0.08249938 -0.20614813 0.13576196 0.35552987 -0.1146895
0.058351878 0.116077244 -0.31583005 -0.16943093 0.2208959 -0.09346167 -0.051533993 0.3321774
0.00945675 -0.09320142 0.3717404 0.2776268 0.09379409 0.21859697 0.27392837 -0.013426916
-0.26962975 0.16781119 0.031324904 -0.06565547 0.24706322 -0.12970264 -0.2132474 0.38503593
-0.11106265 -0.25780582 0.3801005 -0.15723975 -0.12746201 0.30382097 0.0794592 0.0016144301
-0.034009483 0.03736048 0.015600662 -0.0030797797 0.0064339987 -0.05750762 0.16295205 0.07665348
0.13446546 0.32312742 0.45788765 0.6450204 0.20016515 0.11322011 0.36455402 0.39844412
0.13062993 0.20661235 -0.0385737 -0.25937134 -0.24131875 -0.12654214 -0.028222742 -0.0050715604
0.33735073 0.013473159 0.09010542 0.045164373 -0.020255107 0.06134313 0.15025079 0.06796928
0.08683775 -0.061848935 -0.06375023 -0.046752885 -0.1438057 -0.014674436 -0.12964351 0.046158105
0.10610011 -0.05221567 -0.11295612 -0.04912804 0.07286315 0.20557249 -0.15383407 -0.44489577
0.11750644 -0.027382867 0.050037786 0.36739367 -0.050864965 0.050687797 0.101451084 0.13542803
-0.014534975 0.26115587 0.063230164 0.059615485 0.32389164 0.17924546 -0.19796857 0.15778986
0.36227283 0.15411551 0.3102773 0.10651072 -0.020922668 0.56536245 0.1353691 0.1434212
-0.091283076 0.13208584 0.24373527 0.18246087 0.39176372 0.20368983 0.10377521 -0.07568415
-0.38956738 0.13758646 -0.13517375 -0.29198152 -0.01959215 0.07739844 0.076264456 -0.028188983
0.08548335 0.3136838 0.14295438 -0.11643649 -0.017050507 0.0066695795 -0.052350253 -0.020695021
-0.1717964 -0.039431475 0.09843536 -0.083020374 0.18575767 -0.0088794995 0.15689138 0.44796014
0.07260162 0.11477005 0.10070049 -0.07774875 -0.06927395 -0.07920133 0.26682457 -0.14889298
-0.1802612 -0.1157311 -0.022175586 -0.1781579 -0.43775237 0.023612684 0.002828169 -0.21118994
-0.1796333 -0.0050748754 -0.3410995 -0.26072425 -0.058709912 -0.029824626 0.029029122 0.089206666
-0.1493745 -0.123896115 -0.21950026 0.039128233 -0.20592207 -0.021995332 0.1714607 0.007705976
0.002057526 -0.09189187 -0.004106901 0.06443279 0.023434523 0.061083335 0.0631628 -0.018370712
0.057112787 0.35800216 0.18074903 0.16012216 0.4825712 0.31514406 -0.05813512 0.061312124
-0.015789878 -0.056873333 -0.13370036 -0.075462304 -0.49883178 -0.14677155 -0.18434076 -0.07690522
0.14316711 0.030305652 -0.096713476 -0.10162106 -0.10353685 0.1752071 0.116432264 0.059167545
0.27132696 0.2980787 0.00053112366 -0.06967152 0.41895905 0.15972291 0.10752324 0.31916353
0.14915466 -0.16748904 0.022323828 0.09110999 0.054282773 0.075260125 0.07217068 -0.03331966
00000000: 820d b1bc dc78 28bc b40b 493e b230 f2bd
00000010: 64d6 91bd c9bb 633d 462b 20be 2d05 e43c
00000020: fb2e 1e3e 390d 683e 535e 82be 2a8b 1bbf
00000030: 0af3 323e 9ceb c53d 1398 3ebe b528 783e
00000040: 3ef4 ff3d 9ab4 8bbe f0a9 3d3e 8355 863c
00000050: 307f 113d 01bf a13e 11e0 7fbe 8da4 29be
00000060: 7c4e 8f3e 56d1 77be fa5d 19be 6eec 6dbe
00000070: f9ae 09be b8ee 953d e891 8ebe 15fa aabd
00000080: 8c03 323e 8279 d3bd 17e5 29be 6ff5 a83d
00000090: 7f18 53be 2f05 0b3e 0308 b63e 54e2 eabd
000000a0: 6102 6f3d e8b9 ed3d 7ab4 a1be 4d7f 2dbe
000000b0: 8932 623e d568 bfbd 4f15 53bd 2813 aa3e
000000c0: 7cf0 1a3c 63e0 bebd c254 be3e 1a25 8e3e
000000d0: 1e17 c03d e2d7 5f3e 5740 8c3e 91fc 5bbc
000000e0: e90c 8abe b2d6 2b3e 8b4e 003d 6076 86bd
000000f0: 24fe 7c3e c5d0 04be 875d 5abe 6e23 c53e
00000100: d174 e3bd 20ff 83be 889c c23e 7503 21be
00000110: 6785 02be 6c8e 9b3e 81bb a23d 499b d33a
00000120: 874d 0bbd 4d07 193d eb99 7f3c 21d6 49bb
00000130: 4bd4 d23b 1c8d 6bbd e7dc 263e 80fc 9c3d
00000140: 50b1 093e f570 a53e 4070 ea3e 0f20 253f
00000150: 18f8 4c3e f2df e73d d3a6 ba3e de00 cc3e
00000160: dac3 053e 3092 533e 75ff 1dbd 52cc 84be
00000170: 431c 77be 4394 01be 6133 e7bc 552f a6bb
00000180: 3cb9 ac3e 86be 5c3c 3189 b83d 47fe 383d
00000190: 0aee a5bc ef42 7b3d 58db 193e 7a33 8b3d
000001a0: fed7 b13d 4f55 7dbd 7b8f 82bd f47f 3fbd
000001b0: cd41 13be 0c6d 70bc 45c1 04be 4810 3d3d
000001c0: 044b d93d 19e0 55bd 8a55 e7bd 7c3a 49bd
000001d0: 4639 953d 9881 523e ae86 1dbe 61c9 e3be
000001e0: 37a7 f03d 0952 e0bc 6cf4 4c3d 061b bc3e
000001f0: c857 50bd 029e 4f3d 96c5 cf3d a5ad 0a3e
00000200: 1b24 6ebc 39b6 853e d17e 813d 5e2f 743d
00000210: 20d5 a53e 1f8c 373e 46b8 4abe aa93 213e
00000220: d37b b93e 75d0 1d3e abdc 9e3e 4b22 da3d
00000230: 0466 abbc 98bb 103f 339e 0a3e 02dd 123e
00000240: 9ff2 babd 8341 073e bd95 793e 06d7 3a3e
00000250: 4195 c83e 1194 503e 1988 d43d 4b00 9bbd
00000260: 6075 c7be 77e3 0c3e fd6a 0abe 9a7e 95be
00000270: b77f a0bc 1383 9e3d 8a30 9c3d 95ec e6bc
00000280: e511 af3d 2a9b a03e a262 123e 4176 eebd
00000290: 81ad 8bbc 7d8c da3b 386d 56bd 9b88 a9bc
000002a0: 65eb 2fbe e682 21bd 7a98 c93d 9606 aabd
000002b0: 4237 3e3e 527b 11bc 22a8 203e 085b e53e
000002c0: 28b0 943d 8f0c eb3d 0f3c ce3d bd3a 9fbd
000002d0: 80df 8dbd 4f34 a2bd 3b9d 883e 6777 18be
000002e0: 6496 38be 6d04 edbd 93a9 b5bc 066f 36be
000002f0: 1421 e0be 636f c13c cd58 393b 2d42 58be
00000300: cbf1 37be 244b a6bb 98a4 aebe a67d 85be
00000310: ce79 70bd c652 f4bc 7bce ed3c fcb1 b63d
00000320: a1f5 18be 3fbd fdbd adc4 60be ed44 203d
00000330: 3cdd 52be 8e2f b4bc 6593 2f3e 6982 fc3b
00000340: 8fd7 063b ce31 bcbd 2f93 86bb 57f5 833d
00000350: c2f9 bf3c 8532 7a3d 805b 813d 2d7e 96bc
00000360: 19ef 693d 0f4c b73e 4616 393e 10f7 233e
00000370: 9313 f73e 905a a13e 171f 6ebd 6c22 7b3d
00000380: c659 81bc 03f4 68bd bfe8 08be fb8b 9abd
00000390: e166 ffbe 484b 16be d3c3 3cbe 7c80 9dbd
000003a0: 669a 123e 8f43 f83c b711 c6bd b41e d0bd
000003b0: 210b d4bd 7d69 333e 0a74 ee3d ab59 723d
000003c0: 5eeb 8a3e c59d 983e 1b3b 0b3a f1af 8ebd
000003d0: cd81 d63e 678e 233e 2535 dc3d 6769 a33e
000003e0: 00bc 183e 3f82 2bbe 76e0 b63c e097 ba3d
000003f0: 9d57 5e3d fb21 9a3d 39ce 933d 327a 08bd

encoder.conv2.bias f4 [16]
-0.09410651 0.3274285 -0.2149376 0.123509005 -0.21101877 0.11604664 0.3803758 0.033775143
-0.008898076 -0.012413263 0.41547167 -0.12703304 0.0528552 -0.06510905 0.18891661 -0.31438196
00000000: eaba c0bd b5a4 a73e 9a18 5cbe 4af2 fc3d
00000010: 4e15 58be dca9 ed3d 9ec0 c23e ce57 0a3d
00000020: 3cc9 11bc 0061 4bbc b4b8 d43e f314 02be
00000030: b27e 583d e557 85bd 5b73 413e acf6 a0be

encoder.conv3.weight f4 [32, 16, 3, 3]
-0.16427676 -0.20253454 -0.004205232 -0.16231395 -0.2704088 0.014494179 -0.049319223 -0.18130532
0.020198083 -0.042712305 0.0083058905 -0.30244893 -0.10216546 -0.07492796 -0.066009805 0.011401482
-0.00053628726 0.06198047 0.046884228 0.060502637 0.09928527 -0.07196869 0.013512479 0.07868665
-0.6140256 -0.06730201 -0.05318514 0.028975941 0.06436831 0.18672282 -0.15733671 -0.06986081
-0.1579461 -0.7526103 -0.08493346 -0.16690977 0.21171981 0.13868126 -0.023005595 -0.30137467
-0.16691242 0.04909514 -0.46129233 -0.0035002194 -0.05640501 -0.059559103 -0.2655033 -0.13518433
-0.30796468 -0.20641047 0.08002043 -0.96531 0.061875697 0.25342864 -0.05478762 -0.0014895751
-0.11739639 -0.08870917 0.1786817 0.07499142 -0.14499755 0.17922348 -0.10975695 0.03249771
-0.2009039 -0.025849689 -0.085071675 0.12074573 0.15789947 -0.2661092 0.020398127 -0.24246915
0.009696065 -0.18546383 -0.13459733 -0.31790456 -0.17726335 -0.037651796 -0.21051551 0.22126909
0.09864298 0.06343578 0.045599647 0.110036016 -0.38256237 0.01395829 -0.09749652 -0.7918756
-0.09714573 -0.08902083 -0.08573731 -0.16698697 -0.15102017 -0.22694354 -0.17673217 0.14257155
-0.01415407 0.053163778 0.093726106 0.11032591 0.20347029 0.0735836 0.00015829683 0.28298044
-0.015623384 -0.18951808 0.085934676 -0.02268884 -0.0597028 0.07301781 0.08235205 -0.1426535
-0.0028754598 -0.038817625 -0.084501654 -0.16809353 0.0904508 0.19123738 0.101089634 0.08249984
0.028803503 -0.25020605 -0.15747125 -0.12086467 -0.18245175 -0.26809806 0.050803 0.10576942
0.2149526 -0.665044 -0.033826426 -0.029086629 -0.4578347 -0.12255727 -0.012320914 -0.0061893268
-0.10102614 -0.2808034 -0.08566843 -0.09825452 0.0019119532 -0.2290613 -0.12437886 0.11744326
-0.23661296 -0.20835324 -0.18250121 -0.44635865 -0.21026577 0.049682446 -0.80362594 -0.15467176
-0.06742827 0.43258104 -0.47175816 0.0782067 -0.17284757 0.29100156 0.11629841 -0.06007773
0.082818225 -0.16440393 0.10519768 0.21280932 0.0823716 0.0715666 0.08604168 -0.13261579
0.042450506 -0.42253792 -0.043171607 -0.31870452 0.2650404 0.16217673 0.067793325 -0.077483386
-0.09887229 -0.08111313 -0.22415772 0.01946484 -0.16183099 -0.10858632 0.08518755 -0.32599434
-0.24081317 -0.05440083 0.16100025 -0.11979839 -0.19932298 -0.07017951 0.036075555 0.061548054
0.01765832 -0.012158871 0.0005525282 -0.078709915 -0.48769563 -0.27327308 0.030048754 0.36499488
0.06509035 0.2197943 0.0025949087 0.08028086 -0.0013299627 -0.16726491 -0.39144236 -0.27930063
0.1493054 0.12956287 0.03341591 0.16218755 0.14789274 0.2567282 0.0040233326 0.10185179
-0.38390294 0.18472321 -0.03600565 0.17587903 -0.044800542 0.17833656 -0.060301337 -0.17591168
-0.28952444 -0.037071154 0.12515494 0.15643077 0.14985777 0.0436857 -0.12132131 -0.18210998
-0.18498261 -0.1272999 0.19425292 0.07058709 -0.13753925 0.10338512 0.094787724 0.0031191602
-0.11099353 0.14171785 -0.14531784 -0.12023615 0.22496183 0.13962428 0.24211235 -0.016485434
-0.07131411 0.042501885 -0.18490842 -0.17829612 0.40753344 -0.16787934 0.035646632 -0.18584676
00000000: 2b38 28be 3765 4fbe 0bcc 89bb a135 26be
00000010: 0673 8abe fe78 6d3c f402 4abd 1aa8 39be
00000020: 7376 a53c 19f3 2ebd 6e15 083c 96da 9abe
00000030: 203c d1bd d573 99bd 2630 87bd 48cd 3a3c
00000040: a195 0cba 3cdf 7d3d ad09 403d 9dd1 773d
00000050: 1356 cb3d 5264 93bd 7263 5d3c 7726 a13d
00000060: c830 1dbf a3d5 89bd a9d8 59bd f45e ed3c
00000070: 88d3 833d 4434 3f3e e01c 21be 2f13 8fbd
00000080: 9fbc 21be 12ab 40bf 98f1 adbd 65ea 2abe
00000090: 14cd 583e 7602 0e3e 3b76 bcbc c84d 9abe
000000a0: 17eb 2abe fc17 493d 822e ecbe f063 65bb
000000b0: f108 67bd 3ff4 73bd 0cf0 87be c36d 0abe
000000c0: 8cad 9dbe 445d 53be c0e1 a33d 8e1e 77bf
000000d0: 5f71 7d3d 66c1 813e fc68 60bd d93d c3ba
000000e0: 856d f0bd 27ad b5bd 56f8 363e 1a95 993d
000000f0: 3d7a 14be 5c86 373e 40c8 e0bd 521c 053d
00000100: c1b9 4dbe bac2 d3bc 0f3a aebd 8a49 f73d
00000110: 66b0 213e 773f 88be f919 a73c d549 78be
00000120: 3fdc 1e3c 3bea 3dbe e2d3 09be 63c4 a2be
00000130: 8684 35be c538 1abd 6191 57be 5d94 623e
00000140: 5505 ca3d 9eea 813d b2c6 3a3d 905a e13d
00000150: 37df c3be 50b1 643c 41ac c7bd 5cb8 4abf
00000160: 57f4 c6bd 8e50 b6bd 0b97 afbd a2fe 2abe
00000170: 08a5 1abe e363 68be 47f9 34be 47fe 113e
00000180: 79e6 67bc 43c2 593d 79f3 bf3d 8df2 e13d
00000190: 845a 503e 00b3 963d 7bfc 2539 d0e2 903e
000001a0: 39f9 7fbc 0711 42be 85fe af3d f2dd b9bc
000001b0: ec8a 74bd 5d8a 953d 31a8 a83d c213 12be
000001c0: 3672 3cbb 3bff 1ebd 340f adbd b620 2cbe
000001d0: 453e b93d bbd3 433e 1508 cf3d adf5 a83d
000001e0: 53f5 eb3c 021b 80be 2540 21be e587 f7bd
000001f0: a2d4 3abe 2644 89be ce16 503d a39d d83d
00000200: 891c 5c3e 5340 2abf 948d 0abd 1547 eebc
00000210: 4f69 eabe 4eff fabd a9dd 49bc d6cf cabb
00000220: cbe6 cebd 77c5 8fbe ee72 afbd aa39 c9bd
00000230: 819a fa3a 0c8f 6abe 58ba febd 1886 f03d
00000240: ab4a 72be 8d5a 55be 99e1 3abe 1f89 e4be
00000250: e94f 57be d27f 4b3d 6eba 4dbf 4662 1ebe
00000260: d517 8abd 437b dd3e 498a f1be d62a a03d
00000270: f4fe 30be 28fe 943e dc2d ee3d 1114 76bd
00000280: 9a9c a93d 8159 28be e271 d73d b0ea 593e
00000290: 71b2 a83d 8291 923d 9f36 b03d 6fcc 07be
000002a0: 95e0 2d3d e456 d8be b6d4 30bd 3d2d a3be
000002b0: 60b3 873e a811 263e 3ad7 8a3d 9caf 9ebd
000002c0: 8e7d cabd a41e a6bd 9a89 65be ba74 9f3c
000002d0: 06b7 25be 8162 debd cf76 ae3d bbe8 a6be
000002e0: ba97 76be 68d3 5ebd 40dd 243e dc58 f5bd
000002f0: 531b 4cbe 46ba 8fbd f6c3 133d d019 7c3d
00000300: 2ea8 903c 0036 47bc 8ad7 103a aa32 a1bd
00000310: 3eb3 f9be 73ea 8bbe ce28 f63c 9ce0 ba3e
00000320: 174e 853d c211 613e 580f 2a3b 4b6a a43d
00000330: 2552 aeba 7e47 2bbe 226b c8be 7e00 8fbe
00000340: 84e3 183e 21ac 043e 1fdf 083d 7e14 263e
00000350: 3271 173e e171 833e 29d6 833b ac97 d03d
00000360: ed8e c4be 1528 3d3e a97a 13bd a219 343e
00000370: c680 37bd dc9d 363e 89fe 76bd 3122 34be
00000380: 8c3c 94be ecd7 17bd 9e28 003e 632f 203e
00000390: 5174 193e c7ef 323d 4f77 f8bd 0a7b 3abe
000003a0: 156c 3dbe e85a 02be 3dea 463e f78f 903d
000003b0: 17d7 0cbe 94bb d33d 1120 c23d d36a 4c3b
000003c0: 9350 e3bd 7c1e 113e 33ce 14be 5f3e f6bd
000003d0: 655c 663e abf9 0e3e 4dec 773e 760c 87bc
000003e0: 220d 92bd 7516 2e3d a258 3dbe 4293 36be
000003f0: 39a8 d03e 90e8 2bbe 3402 123d 9d4e 3ebe

encoder.conv3.bias f4 [32]
-0.18252885 0.052364342 -0.17931333 -0.124679446 -0.12971693 -0.46563485 -0.24433075 0.05827472
-0.100897536 -0.48204803 0.24026515 -0.09053056 0.01981101 0.3663296 0.21466483 0.04444985
0.24632087 0.0006310191 -0.01344937 0.16109297 0.27594477 0.06509449 -0.16330913 0.052155524
0.17180495 -0.13067527 0.037941918 -0.07231282 0.26300293 -0.083209716 -0.052537035 0.10848143
00000000: d8e8 3abe fe7b 563d ea9d 37be f057 ffbd
00000010: 84d4 04be b167 eebe d731 7abe 79b1 6e3d
00000020: 5ea3 cebd 00cf f6be 1108 763e 1668 b9bd
00000030: b34a a23c 8e8f bb3e 19d1 5b3e 0c11 363d
00000040: 8a3b 7c3e fa6a 253a bf5a 5cbc 8ef5 243e
00000050: a248 8d3e 4350 853d 823a 27be 08a1 553d
00000060: a3ed 2f3e bdcf 05be fc68 1b3d be18 94bd
00000070: 52a8 863e db69 aabd 1331 57bd 832b de3d

encoder.batch_norm1.weight f4 [8]
0.9858278 1.5859692 0.7939639 0.9478592 0.5883001 0.9074639 1.1237643 1.6894406
00000000: 365f 7c3f 0a01 cb3f 3841 4b3f e7a6 723f
00000010: d69a 163f 8e4f 683f 82d7 8f3f 973f d83f

encoder.batch_norm1.bias f4 [8]
0.14166565 -0.104847975 0.12388249 0.006637984 0.06823125 -0.015167499 -0.07378542 -0.1372124
00000000: cd10 113e 89ba d6bd 1ab6 fd3d 7283 d93b
00000010: d3bc 8b3d 1a81 78bc cf1c 97bd 6881 0cbe

encoder.batch_norm1.running_mean f4 [8]
-1.2542979 1.2769959 0.5293483 -1.6933997 -0.23648863 0.36809307 1.1400952 1.9417158
00000000: d58c a0bf 9a74 a33f 5f83 073f 52c1 d8bf
00000010: 132a 72be b276 bc3e a4ee 913f 258a f83f

encoder.batch_norm1.running_var f4 [8]
0.113391474 0.09953911 0.03156125 0.13580683 0.031982232 0.028782915 0.06053933 0.24713719
00000000: ca39 e83d 29db cb3d 5f46 013d f210 0b3e
00000010: cdff 023d 26ca eb3c 17f8 773d 8811 7d3e

encoder.batch_norm2.weight f4 [16]
1.220923 1.1485052 0.7810624 1.0171418 1.0701131 1.0806735 0.82013816 0.83250624
1.1893198 0.930559 0.7567305 0.7432446 1.1112374 0.9566034 0.8862646 1.1215978
00000000: 3447 9c3f 3802 933f b5f3 473f b431 823f
00000010: 77f9 883f 8253 8a3f 93f4 513f 211f 553f
00000020: a23b 983f 1d39 6e3f 17b9 413f 4745 3e3f
00000030: 073d 8e3f f6e3 743f 3de2 623f 8490 8f3f

encoder.batch_norm2.bias f4 [16]
0.1389561 -0.0073015178 -0.13399632 0.4940291 -0.003536244 -0.0815966 -0.08118272 0.2355437
-0.067474164 0.13706239 0.39592412 0.20800897 0.18449542 -0.15512526 -0.042692132 0.28979838
00000000: 824a 0e3e 9241 efbb 5536 09be 62f1 fc3e
00000010: 54c0 67bb 1e1c a7bd 2043 a6bd 5e32 713e
00000020: e52f 8abd 155a 0c3e 91b6 ca3e 4e00 553e
00000030: 5eec 3c3e 28d9 1ebe f2dd 2ebd 7460 943e

encoder.batch_norm2.running_mean f4 [16]
-0.014706307 3.0127144 -0.084930904 0.7185717 -1.4833744 -0.22379851 0.131198 -0.32171687
-0.24467857 -1.1930304 -2.0705838 -1.3317255 -0.9284435 0.8329076 -0.019620022 -0.8273549
00000000: b9f2 70bc 50d0 4040 41f0 adbd 51f4 373f
00000010: 36df bdbf 702b 65be c558 063e 13b8 a4be
00000020: 058d 7abe 38b5 98bf 7284 04c0 fb75 aabf
00000030: 79ae 6dbf 6f39 553f 2bba a0bc 88cd 53bf

encoder.batch_norm2.running_var f4 [16]
2.302033 0.9393547 1.8750335 5.020217 1.307582 1.412098 2.0902119 0.92598784
1.4728967 5.0876827 1.572433 2.4381855 1.3776457 1.6093254 1.5494958 3.2457752
00000000: 8254 1340 8d79 703f 1901 f03f 9ea5 a040
00000010: d95e a73f a1bf b43f 08c6 0540 8a0d 6d3f
00000020: e187 bc3f 4cce a240 7c45 c93f 3b0b 1c40
00000030: b256 b03f 60fe cd3f e155 c63f c8ba 4f40

encoder.batch_norm3.weight f4 [32]
0.34349385 0.31920785 0.29293063 0.1970808 0.22814924 0.29905188 0.25622436 0.29184404
0.26453882 0.36852306 0.3716662 0.3368487 0.22511102 0.3420268 0.27564937 0.41686624
0.39588624 0.3092621 0.32404402 0.38889155 0.40721577 0.23790945 0.16447847 0.2847745
0.18905868 0.35440472 0.40721422 0.3612729 0.19734721 0.21097264 0.24528748 0.415201
00000000: 6dde af3e 366f a33e 01fb 953e 8dcf 493e
00000010: f49f 693e 541d 993e d72f 833e 956c 953e
00000020: a271 873e 0eaf bc3e 084b be3e 6f77 ac3e
00000030: 8183 663e 231e af3e ea21 8d3e 7e6f d53e
00000040: 9ab1 ca3e 9a57 9e3e 19e9 a53e cb1c c73e
00000050: 967e d03e 899e 733e 0b6d 283e f7cd 913e
00000060: 9998 413e 8974 b53e 627e d03e c3f8 b83e
00000070: 6315 4a3e 3609 583e a42c 7b3e 3a95 d43e

encoder.batch_norm3.bias f4 [32]
-0.09869017 -0.22732654 -0.077789836 -0.015452927 -0.01873615 0.106339574 -0.12648186 -0.2082833
0.082205415 -0.23670621 -0.18404102 -0.21586324 0.041018955 -0.18840687 -0.20762776 -0.2265663
-0.2506746 0.07328335 -0.1429393 -0.26161632 -0.017568674 -0.047908813 -0.013810109 -0.13850291
-0.020644028 -0.21532153 -0.18527155 -0.14943846 -0.033293832 0.034614813 -0.10455081 -0.30583444
00000000: 121e cabd 4ac8 68be 4750 9fbd 462e 7dbc
00000010: 8e7c 99bc 90c8 d93d 7684 01be 3848 55be
00000020: 505b a83d 1d63 72be 4075 3cbe 410b 5dbe
00000030: 7e03 283d bbed 40be 5f9c 54be ff00 68be
00000040: 6c58 80be 9515 963d ae5e 12be 93f2 85be
00000050: 2eec 8fbc 083c 44bd cc43 62bc b5d3 0dbe
00000060: aa1d a9bc 3f7d 5cbe d3b7 3dbe 6506 19be
00000070: 1d5f 08bd 43c8 0d3d bc1e d6bd 5596 9cbe

encoder.batch_norm3.running_mean f4 [32]
-3.9593527 -1.3895838 -1.4309012 -1.2428111 2.4356918 0.14942195 -2.3683257 -2.3306344
-4.704029 0.1410866 -4.4715905 -3.0392675 -2.6913424 -0.82256454 0.32284123 0.5245723
0.1903976 0.17495735 -2.209488 -1.9784129 -4.8473725 -1.7199548 -1.1974877 -1.5268265
-0.40401667 -1.7225982 -3.121634 -1.299994 -1.2311087 -1.7623956 -1.6326416 -1.7331153
00000000: 0966 7dc0 e2dd b1bf c527 b7bf 6f14 9fbf
00000010: 60e2 1b40 1102 193e a692 17c0 1d29 15c0
00000020: 6887 96c0 0179 103e 4517 8fc0 5c83 42c0
00000030: f43e 2cc0 9793 52bf 724b a53e 5f4a 063f
00000040: 97f7 423e 0528 333e 4068 0dc0 a23c fdbf
00000050: ad1d 9bc0 7b27 dcbf 4747 99bf 0d6f c3bf
00000060: 46db cebe 197e dcbf dac8 47c0 3466 a6bf
00000070: f894 9dbf 2e96 e1bf 66fa d0bf b9d6 ddbf

encoder.batch_norm3.running_var f4 [32]
8.582588 9.597126 11.41743 5.010653 9.361734 13.030645 7.9006014 11.559456
7.9747834 8.957542 15.173367 7.9078574 7.0926065 14.969151 8.816689 15.276012
11.808141 12.251326 14.897609 16.130592 10.026702 10.219118 3.8433487 11.164127
6.341518 10.773906 12.9439745 17.642962 4.831896 8.845117 12.54263 12.060567
00000000: 4852 0941 d48d 1941 cbad 3641 4557 a040
00000010: aac9 1541 867d 5041 bad1 fc40 88f3 3841
00000020: 6d31 ff40 1852 0f41 1cc6 7241 2b0d fd40
00000030: a2f6 e240 a481 6f41 2811 0d41 8c6a 7441
00000040: 25ee 3c41 6e05 4441 9b5c 6e41 740b 8141
00000050: 5f6d 2041 8281 2341 6df9 7540 44a0 3241
00000060: b7ed ca40 eb61 2c41 851a 4f41 c924 8d41
00000070: e49e 9a40 9985 0d41 9dae 4841 15f8 4041

encoder.linear1.weight f4 [128, 512]
-0.04702682 -0.021513326 -0.036179643 0.010854755 -0.0058342814 -0.027700644 -0.0031325577 -0.023201866
-0.017472107 0.029579023 0.00436198 0.020145547 -0.01152506 -0.028261684 0.03836447 -0.012697428
-0.025124261 -0.028420053 -0.0042677284 -0.002671158 -0.0355492 0.0076388237 -0.004637307 0.022081044
-0.013823152 0.0043383897 -0.04174291 -0.03884899 -0.040111426 -0.015394149 -0.0044733756 0.030361645
-0.052853394 -0.005757121 0.013961207 -0.012628519 -0.023986164 -0.0058521708 0.020695101 -0.024894878
0.0012405996 0.0017200023 -0.035185505 -0.011491373 -0.018636333 -0.026285458 -0.022937633 -0.04139791
0.028832782 -0.009842928 0.005008533 -0.031178558 0.0014200895 -0.014443151 0.017125037 -0.028896157
-0.019832192 0.011674848 0.0032987723 -0.006235309 -0.028216887 -0.030142874 0.032593444 -0.029987369
0.016884714 -0.016009364 -0.0053048423 0.011134604 0.024801567 -0.0016321393 -0.03213499 -0.057606578
-0.04996107 -0.028076965 -0.0034011079 -0.016701503 -0.022056514 0.014273803 -0.04264704 0.004431906
0.014741035 -0.047565255 -0.03282747 -0.06492756 -0.049167685 0.03233422 -0.025104413 0.031840973
-0.027874198 -0.034149572 -0.0041976403 0.008479898 -0.004828516 -0.025228564 -0.024950685 -0.018187417
-0.020009657 -0.036307327 0.013461868 0.024125127 -0.024054859 0.033602245 0.0017044797 0.023698546
0.0020046036 -0.041629497 0.031121347 -0.02987638 -0.012547754 -0.036655795 0.039215695 0.019002272
-0.051043082 -0.027791377 0.03237074 -0.046207488 -0.0483574 0.023079276 0.009796821 -0.027098281
0.011953593 -0.0027110644 0.035748392 -0.038778283 0.034361105 0.024668291 -0.006812047 -0.003196345
0.021921055 -0.021868685 0.012609778 -0.04940767 0.027913585 -0.02939096 -0.019506712 0.010649138
-0.027704854 0.00061947847 0.004088018 0.02452282 0.009622877 0.006377136 -0.020376049 0.0006865132
-0.007865335 0.029184733 -0.03969695 0.0029012049 -0.032745015 0.026786188 -0.049378432 -0.018921515
-0.02364214 0.027717788 0.026060209 -0.038117528 -0.018181728 -0.03433982 0.0078780735 0.0056661763
-0.053705137 -0.009284665 -0.0024040036 -0.012408095 -0.045178216 0.017216956 -0.03594194 0.048999954
0.025709782 -0.002200258 -0.029223703 -0.019716144 0.0073016486 -0.009519999 0.026333801 0.019331196
0.014404673 -0.0049005984 -0.018616054 -0.03799872 0.0063570747 0.041058566 -0.04217178 0.025196344
-0.010292352 0.017210614 0.009534939 -0.02763511 -0.0040526977 -0.017636256 -0.034761764 -0.037077658
0.020415818 0.019794561 0.003443208 -0.046486877 0.047425207 0.00988474 -0.051388014 -0.012426673
-0.035855602 -0.03279458 0.03597824 -0.0017360329 -0.05049629 -0.0042276694 -0.013535489 0.020801034
-0.01112535 -0.0139812445 0.030892532 -0.025697147 -0.0029512919 0.030074134 0.0046887486 -0.04260045
-0.004416009 -0.03562725 -0.0036774746 0.0038350008 -0.033258375 0.025115592 -0.017586194 0.016430546
0.029773215 0.0063528363 0.018958962 -0.018050615 -0.013074301 0.0048654745 0.013208108 0.019660821
-0.003087783 0.024275448 0.003991805 -0.03969961 0.03218569 0.03211052 0.026445372 -0.013423959
0.029791169 -0.0015921327 -0.017066168 -0.054364342 -0.072177544 -0.017456712 0.0024750857 -0.024940291
0.00050473295 0.02774656 -0.03872425 0.017859304 -0.019174486 -0.0055775647 0.003234979 -0.040228542
00000000: 329f 40bd b73c b0bc 1b31 14bd 24d8 313c
00000010: 802d bfbb 76ec e2bc 994b 4dbb d711 bebc
00000020: aa21 8fbc b54f f23c f1ee 8e3b 4608 a53c
00000030: 9bd3 3cbc 0c85 e7bc 1024 1d3d e008 50bc
00000040: 65d1 cdbc 2cd1 e8bc 4dd8 8bbb 980e 2fbb
00000050: 0a9c 11bd 194f fa3b 8df4 97bb 4ee3 b43c
00000060: 807a 62bc 0d29 8e3b 9dfa 2abd 1e20 1fbd
00000070: e14b 24bd be37 7cbc 6595 92bb fcb8 f83c
00000080: cd7c 58bd 3ba6 bcbb 8cbd 643c d9e7 4ebc
00000090: a27e c4bc 91c3 bfbb c688 a93c 58f0 cbbc
000000a0: 9d9b a23a b371 e13a ad1e 10bd 5046 3cbc
000000b0: 39ab 98bc 9a54 d7bc b4e7 bbbc db90 29bd
000000c0: ba32 ec3c 3b44 21bc 9f1e a43b 2d6a ffbc
000000d0: 4c22 ba3a f7a2 6cbc ce49 8c3c a2b7 ecbc
000000e0: 1f77 a2bc dd47 3f3c 3730 583b 9051 ccbb
000000f0: 1a27 e7bc 30ee f6bc b480 053d 12a8 f5bc
00000100: d051 8a3c 1226 83bc 3ed4 adbb ea6d 363c
00000110: a82c cb3c 82ed d5ba fb9f 03bd e0f4 6bbd
00000120: fba3 4cbd aa01 e6bc 1fe5 5ebb 97d1 88bc
00000130: ddaf b4bc abdc 693c aaae 2ebd 8639 913b
00000140: 6284 713c c9d3 42bd 1976 06bd bef8 84bd
00000150: 0e64 49bd e370 043d c5a7 cdbc ae6b 023d
00000160: 6e58 e4bc 6ce0 0bbd 5c8c 89bb 45ef 0a3c
00000170: 8738 9ebb 22ac cebc 6165 ccbc c7fd 94bc
00000180: 4beb a3bc feb6 14bd 2b8f 5c3c 0fa2 c53c
00000190: b20e c5bc 82a2 093d d968 df3a 7423 c23c
000001a0: ab5f 033b b183 2abd 32f2 fe3c 4fbf f4bc
000001b0: 1895 4dbc 6324 16bd a3a0 203d a7aa 9b3c
000001c0: 8d12 51bd beaa e3bc 2e97 043d 1044 3dbd
000001d0: 6912 46bd c010 bd3c d882 203c 37fd ddbc
000001e0: 01d9 433c 1dac 31bb e86c 123d fad5 1ebd
000001f0: 3bbe 0c3d 2815 ca3c 9837 dfbb c579 51bb
00000200: c993 b33c f525 b3bc 3e99 4e3c b25f 4abd
00000210: 08ab e43c 4fc5 f0bc 8acc 9fbc b979 2e3c
00000220: 4af5 e2bc 7f64 223a c8f4 853b 15e4 c83c
00000230: 46a9 1d3c 4bf7 d03b aceb a6bc 1ff7 333a
00000240: 9bdd 00bc d214 ef3c 4599 22bd 2422 3e3b
00000250: a31f 06bd b56e db3c 0a41 4abd 4b01 9bbc
00000260: 29ad c1bc 6a10 e33c 387c d53c 2021 1cbd
00000270: d9f1 94bc e9a7 0cbd 0913 013c 55ab b93b
00000280: ebf9 5bbd b51e 18bc 7d8c 1dbb 534b 4bbc
00000290: cb0c 39bd 930a 8d3c db37 13bd 2db4 483d
000002a0: 529d d23c 3432 10bb 8c66 efbc c083 a1bc
000002b0: ab42 ef3b c5f9 1bbc fcb9 d73c 755c 9e3c
000002c0: 9401 6c3c 3395 a0bb b280 98bc 8ca4 1bbd
000002d0: 024f d03b 072d 283d 51bc 2cbd 9068 ce3c
000002e0: 41a1 28bc 46fd 8c3c 6f38 1c3c 0763 e2bc
000002f0: 7ecc 84bb e979 90bc 5a62 0ebd bede 17bd
00000300: 133f a73c 3428 a23c 72a7 613b 0669 3ebd
00000310: ef40 423d 9bf3 213c 3d7c 52bd 3f99 4bbc
00000320: 53dd 12bd 9c53 06bd eb5d 133d 998b e3ba
00000330: 33d5 4ebd 4388 8abb f5c3 5dbc ee66 aa3c
00000340: 1a47 36bc 9711 65bc 5612 fd3c d382 d2bc
00000350: 766a 41bb 085e f63c 13a4 993b cf7d 2ebd
00000360: 2bb4 90bb e1ed 11bd c901 71bb a354 7b3b
00000370: ef39 08bd 37bf cd3c ec10 90bc 5a99 863c
00000380: f5e6 f33c 742b d03b d34f 9b3c e2de 93bc
00000390: 9835 56bc 8f6e 9f3b d266 583c bb0f a13c
000003a0: 675c 4abb 4edd c63c b0cd 823b 0f9c 22bd
000003b0: 24d5 033d 5286 033d f7a3 d83c 2af0 5bbc
000003c0: 9c0c f43c 1caf d0ba 59ce 8bbc 25ad 5ebd
000003d0: d2d1 93bd 6101 8fbc 0c35 223b 954f ccbc
000003e0: 0e50 043a c14c e33c 529d 1ebd ad4d 923c
000003f0: d013 9dbc 01c4 b6bb f101 543b afc6 24bd

encoder.linear1.bias f4 [128]
0.0041370196 -0.06191894 -0.007734779 0.0126876 0.00074903097 -0.021301497 0.26416883 -0.024903748
-0.049502485 -0.03132629 -0.051300254 -0.06219297 -0.021252915 -0.04882659 -0.048362155 -0.04978208
-0.0008465858 -0.0523692 -0.008543623 -0.07639495 -0.079755954 -0.028551321 -0.05407365 -0.032951146
0.011965958 -0.025421869 -0.033952147 -0.0008128266 0.06421148 -0.05669352 -0.033591386 -0.03285543
-0.069494694 0.021865617 -0.04168011 -0.009782622 0.0069500855 0.24796152 0.0069983876 0.14138538
-0.019177873 0.07480372 0.0100516565 -0.028387489 -0.0017463944 0.02201833 -0.020016057 -0.01994468
-0.06553095 -0.06843829 -0.015053732 -0.020547854 0.005091637 -0.008744771 -0.028244508 -0.019771704
-0.035648122 -0.05969859 -0.06934259 -0.007644336 0.20576705 -0.044342652 -0.04729575 -0.05155203
0.09774264 0.1599848 -0.06505595 -0.030575799 0.29997423 -0.0013237244 -0.021414898 -0.026409538
-0.021161783 -0.0028516161 0.024232948 0.011531497 -0.026721826 0.3436574 0.03400937 0.009044976
-0.07872534 0.08599737 -0.033145007 0.011628051 -0.045891777 -0.032588255 0.07705341 -0.046937454
-0.034488186 -0.02796495 -0.044201642 -0.0039996216 0.022249945 0.1430617 -0.03056933 -0.037579015
0.003007031 -0.019199682 -0.01974447 -0.012899756 0.18421192 -0.008534105 -0.006083032 -0.0126885045
0.008148496 -0.0072458154 -0.046749886 0.16302629 -0.019687332 -0.011324963 -0.020366982 -0.054877177
-0.033200588 -0.036691558 -0.0033681714 -0.030666273 -0.040637575 -0.006641197 0.11134262 0.00022377617
0.10537257 -0.010547023 0.018055718 -0.0063708313 -0.009940863 -0.02946078 -0.018819671 0.079602346
00000000: d68f 873b b79e 7dbd 0774 fdbb a7df 4f3c
00000010: 9e5a 443a 7a80 aebc 2341 873e f202 ccbc
00000020: 1ec3 4abd ff4f 00bd 3720 52bd 0ebe 7ebd
00000030: 981a aebc 64fe 47bd 6517 46bd 4be8 4bbd
00000040: 69ed 5dba 1681 56bd 8dfa 0bbc f574 9cbd
00000050: 1757 a3bd 76e4 e9bc 557c 5dbd c8f7 06bd
00000060: de0c 443c 8641 d0bc 6811 0bbd df13 55ba
00000070: 4f81 833d 7737 68bd 1f97 09bd 6a93 06bd
00000080: 3c53 8ebd 861f b33c c3b8 2abd 4a47 20bc
00000090: 8bbd e33b a0e9 7d3e bb52 e53b 54c7 103e
000000a0: ea1a 9dbc b132 993d b4af 243c e18c e8bc
000000b0: 46e7 e4ba c95f b43c b7f8 a3bc 0763 a3bc
000000c0: 1735 86bd 6029 8cbd eea3 76bc f953 a8bc
000000d0: bfd7 a63b 3a46 0fbc 0761 e7bc 45f8 a1bc
000000e0: c403 12bd 8286 74bd 7d03 8ebd 577d fabb
000000f0: 99b4 523e a4a0 35bd 30b9 41bd 3928 53bd
00000100: 4b2d c83d 0ed3 233e 0e3c 85bd 197a fabc
00000110: 3996 993e d280 adba 4c6e afbc d158 d8bc
00000120: 7a5b adbc 2ee2 3abb 2d84 c63c 9bee 3c3c
00000130: bbe7 dabc ddf3 af3e 694d 0b3d 6131 143c
00000140: c03a a1bd 641f b03d 0fc3 07bd 9583 3e3c
00000150: 04f9 3bbd 437b 05bd 2ece 9d3d 7d41 40bd
00000160: 7c43 0dbd c016 e5bc c80c 35bd 420f 83bb
00000170: 8445 b63c c47e 123e 886c fabc 74ec 19bd
00000180: 9c11 453b a748 9dbc 28bf a1bc 8059 53bc
00000190: 0da2 3c3e a1d2 0bbc 2c54 c7bb 72e3 4fbc
000001a0: 4581 053c 4e6e edbb cf7c 3fbd 5df0 263e
000001b0: 5447 a1bc 568c 39bc a8d8 a6bc e4c6 60bd
000001c0: 57fd 07bd e349 16bd 8abc 5cbb d637 fbbc
000001d0: 9673 26bd 669e d9bb 9907 e43d 75a5 6a39
000001e0: 93cd d73d 6ccd 2cbc 96e9 933c 68c2 d0bb
000001f0: 00df 22bc bc57 f1bc b62b 9abc 8e06 a33d

encoder.linear_mu.weight f4 [128, 128]
0.056372877 0.010701341 -0.077376254 0.07034457 0.0771883 0.037209004 0.14665437 0.02436702
-0.0591565 -0.0016139026 -0.06473055 0.067091696 -0.061256412 -0.053205498 0.009110885 0.010932096
-0.037922706 0.013173591 -0.0877446 0.009678845 0.061041802 -0.09701299 -0.0720711 0.048910778
0.063866474 -0.050268777 0.058120497 -0.0800835 0.10553572 -0.0644426 -0.06670954 0.051026814
0.016047973 -0.08436706 0.067628704 -0.03678696 -0.037759446 0.10484599 -0.032354258 0.13084151
-0.070260175 0.0008551095 -0.014858911 0.05003914 0.04609793 -0.013609276 -0.03239075 -0.039790343
0.051750347 0.003037811 0.0044131074 0.021399679 -0.020087652 0.008450553 0.021139687 -0.04487505
-0.00023715362 0.054033473 0.058317684 -0.011229411 0.12173199 0.051810917 0.03978384 0.05985495
-0.045223504 0.015442058 -0.101219125 0.054427728 -0.073782496 0.04030143 -0.03550527 0.041043825
0.012601369 0.07499688 -0.01741754 -0.05616459 0.05965604 -0.048155714 -0.008126181 -0.08781529
0.016782954 -0.052892316 -0.043396562 -0.050782118 0.08875062 -0.08357357 -0.019999119 0.040016998
-0.04213865 0.03415325 0.020494282 -0.049462296 0.061996106 -0.010611891 0.035994068 -0.03678764
0.049486257 -0.06252627 -0.049207073 -0.030470425 -0.09415189 0.007177347 0.058543462 0.09027706
-0.0009966345 -0.029214384 -0.07621441 -0.083531134 -0.034300752 -0.042934433 -0.0016931324 -0.07649298
0.08302521 -0.01197227 0.06694489 0.038213976 -0.003480583 -0.016273513 -0.013661847 -0.054108247
-0.19132942 0.008849671 0.061419155 0.060750384 0.0070110373 -0.07262562 0.08533326 0.021764893
0.034610253 -0.019707978 -0.022657905 0.005281327 0.076808125 0.0027169175 0.064920634 -0.07096351
-0.0283411 0.06382376 0.0005859362 -0.04510447 -0.06065593 -0.02057202 0.01677091 -0.019551897
-0.062377434 -0.045721225 0.033681683 -0.0361643 0.037030004 0.024484288 -0.020155998 0.005539466
0.022980712 0.0014483789 0.042122737 4.771561e-05 0.04350796 -0.02402062 0.04756366 -0.047663223
0.017572656 -0.058285523 0.03542955 -0.036407094 0.0044346144 0.04312316 0.083195806 0.051518776
0.0019622706 0.0007368341 0.04843437 -0.049368482 -0.050879218 0.08242723 0.035071816 0.0368238
-2.1527816e-05 0.0038802472 -0.050743252 -0.09830408 0.070724085 -0.027428424 -0.0031229483 0.044656344
0.004434785 -0.026781568 0.0229978 -0.051470365 0.04319254 -0.010067892 -0.097514026 -0.05984051
-0.022044951 0.009560219 -0.04872241 0.039981153 -0.037361186 0.016850412 0.026733642 0.014376238
0.0037634757 0.043694567 -0.07452454 0.03826539 -0.020664485 -0.011328102 -0.009306374 0.072249174
-0.06334933 -0.020130668 -0.0043797474 -0.015304616 0.02785225 0.035196796 -0.014678386 -0.039337534
0.05786007 0.03569037 0.07190015 0.040201664 -0.032255277 -0.0055249548 0.016551903 -0.0424732
0.06951697 -0.054846495 -0.070742145 0.0123779215 -0.034045428 -0.04553981 0.024017898 -0.05350138
0.038089752 0.0009376389 -0.011076869 -0.039116353 0.047107205 0.06090072 0.095454715 0.050912414
0.085369006 -0.039468635 -0.05441393 0.014150904 -0.01733073 -0.009674714 -0.007345162 0.027248265
-0.081001036 -0.0058024456 0.088472374 0.07219569 -0.081806146 0.073763065 0.01346347 0.012288413
00000000: 3fe7 663d ad54 2f3c 7177 9ebd d010 903d
00000010: e614 9e3d 7868 183d 902c 163e 589d c73c
00000020: 164e 72bd 9689 d3ba 7391 84bd 5f67 893d
00000030: 01e8 7abd 02ee 59bd d245 153c 891c 333c
00000040: d754 1bbd 0cd6 573c 71b3 b3bd 0594 1e3c
00000050: f806 7a3d bfae c6bd 039a 93bd ab56 483d
00000060: 6dcc 823d a2e6 4dbd c20f 6e3d d102 a4bd
00000070: 1d23 d83d 7bfa 83bd 039f 88bd 7e01 513d
00000080: 0a77 833c a3c8 acbd eb80 8a3d ecad 16bd
00000090: a6a9 1abd 7fb9 d63d e685 04bd 51fb 053e
000000a0: 91e4 8fbd 6d29 603a ca72 73bc d7f5 4c3d
000000b0: 2fd1 3c3d 71f9 5ebc 2aac 04bd 33fb 22bd
000000c0: 2cf8 533d 0316 473b d49b 903b 614e af3c
000000d0: dc8e a4bc 3074 0a3c 232d ad3c e7ce 37bd
000000e0: 71ac 78b9 3452 5d3d 86de 6e3d 90fb 37bc
000000f0: 9f4e f93d af37 543d 61f4 223d 772a 753d
00000100: 483c 39bd b000 7d3c f94b cfbd 9cef 5e3d
00000110: 471b 97bd 1d13 253d f96d 11bd 921d 283d
00000120: f975 4e3c f797 993d 3baf 8ebc d70c 66bd
00000130: e459 743d ed3e 45bd ac23 05bc 81d8 b3bd
00000140: 687c 893c 9da5 58bd 98c0 31bd e900 50bd
00000150: e3c2 b53d 9f28 abbd 31d5 a3bc dde8 233d
00000160: 9499 2cbd 47e4 0b3d a0e3 a73c fa98 4abd
00000170: a1ef 7d3d 7fdd 2dbc 846e 133d a3ae 16bd
00000180: 1ab2 4a3d c60d 80bd 5b8d 49bd 1d9d f9bc
00000190: b5d2 c0bd f32f eb3b 45cb 6f3d 2ee3 b83d
000001a0: 81a1 82ba 0153 efbc 4d16 9cbd 5f12 abbd
000001b0: f27e 0cbd 04dc 2fbd 19ec ddba 5aa8 9cbd
000001c0: 1f09 aa3d 5727 44bc 671a 893d 4286 1c3d
000001d0: 7e1a 64bb 0850 85bc f1d5 5fbc 9ca0 5dbd
000001e0: dceb 43be 36fe 103c a792 7b3d 65d5 783d
000001f0: d8bc e53b bebc 94bd 34c3 ae3d 4a4c b23c
00000200: 7bc3 0d3d a072 a1bc 129d b9bc fb0e ad3b
00000210: 944d 9d3d 500e 323b 1cf5 843d 5155 91bd
00000220: 982b e8bc 08b6 823d 8399 193a 77bf 38bd
00000230: 5a72 78bd a786 a8bc 2663 893c 4d2b a0bc
00000240: 7b7f 7fbd 2e46 3bbd cef5 093d 0421 14bd
00000250: c6ac 173d 4693 c83c 311e a5bc 6984 b53b
00000260: 0c42 bc3c 88d7 bd3a e488 2c3d 3f22 4838
00000270: 6735 323d e4c6 c4bc 1dd2 423d 833a 43bd
00000280: 88f4 8f3c cdbc 6ebd 931e 113d 9b1f 15bd
00000290: 3e50 913b e9a1 303d 9062 aa3d 5a05 533d
000002a0: 7099 003b 1928 413a 1e63 463d 9b36 4abd
000002b0: ba66 50bd 9ccf a83d 77a7 0f3d 8ed4 163d
000002c0: a296 b4b7 bf4b 7e3b 28d8 4fbd a653 c9bd
000002d0: cad7 903d 93b1 e0bc 61aa 4cbb 92e9 363d
000002e0: ac51 913b 0565 dbbc e265 bc3c 97d2 52bd
000002f0: a9ea 303d cdf3 24bc 6fb5 c7bd 531b 75bd
00000300: 9d97 b4bc 77a2 1c3c 2691 47bd 47c3 233d
00000310: 0b08 19bd e009 8a3c 8300 db3c 508a 6b3c
00000320: a5a4 763b 13f9 323d 52a0 98bd 2bbc 1c3d
00000330: 9148 a9bc 8199 39bc c379 18bc 60f7 933d
00000340: 4bbd 81bd 12e9 a4bc fc83 8fbb 36c0 7abc
00000350: 672a e43c 842a 103d 9d7d 70bc 6520 21bd
00000360: aefe 6c3d 1130 123d 6340 933d 80aa 243d
00000370: 1c1e 04bd ae0a b5bb db97 873c 61f8 2dbd
00000380: ea5e 8e3d b8a6 60bd 42e1 90bd c4cc 4a3c
00000390: 3873 0bbd f487 3abd 2fc1 c43c 4324 5bbd
000003a0: 0004 1c3d e2cb 753a c27b 35bc 7838 20bd
000003b0: 7cf3 403d 0973 793d c37d c33d 8989 503d
000003c0: f2d5 ae3d dda9 21bd 24e1 5ebd 31d9 673c
000003d0: 2df9 8dbc b182 1ebc afaf f0bb c137 df3c
000003e0: dfe3 a5bd 7122 bebb 0131 b53d 55db 933d
000003f0: fb89 a7bd 1711 973d e395 5c3c 5755 493c

encoder.linear_mu.bias f4 [128]
-0.030746037 -0.0147285545 -0.021562645 0.0031624436 -0.0016694876 -0.039605055 0.0031540499 -0.0063006175
-0.0078405095 0.023590123 0.00253062 0.0068499865 -0.0014873608 -0.01908888 -0.008701391 -0.003055754
-0.019940903 -0.007115033 0.03582479 -0.009857365 0.011215346 0.0012467158 0.019462336 -0.0073783565
-0.029205156 -0.019833386 0.012470561 0.0004530064 -0.12101104 0.004296939 0.015678713 -0.032856323
0.023650276 0.027645571 0.023302026 -0.015164804 0.0021892088 -0.008399698 -0.013937457 -0.014046248
0.0023143517 0.020287415 0.006098839 0.014984107 0.012973875 -0.0027842293 0.007997531 -0.011412575
-0.011462924 0.0029719835 0.02310335 0.077794805 0.030445665 0.005041438 0.013721041 -0.012486004
0.0044594356 0.0024643154 0.009217942 0.018912004 0.0035251116 0.0001428044 0.020910395 0.02386576
0.0062271273 0.0013225175 -0.0043958095 -0.0025407895 0.010838644 -0.031735722 0.0071449387 3.7626873e-05
0.015290457 -0.004803077 -0.010837112 -0.098985106 -0.009982368 0.010150525 -0.0008319568 0.2528509
-0.0044282163 -0.009054484 -0.016502926 -0.008830915 0.005383325 0.020953415 -0.014368426 -0.009801667
0.022211006 0.009056081 -0.0004361288 -0.026736612 -0.00011116349 0.01004347 -0.0091183465 0.0004927389
-0.018383434 -0.0082981875 -0.0059244838 0.009378024 -0.027743174 -0.008522797 -0.05980198 0.02392754
0.015064519 0.25602376 -0.034240928 -0.021203624 -0.010864089 -0.013228392 0.04963815 -0.0037940796
-0.0099382615 -0.0060981694 0.00053290953 0.06794979 0.0020189066 0.0054597924 -0.015865663 -0.0060754423
-0.0054662116 -0.015755925 0.0015297757 0.0007661357 0.022639908 -0.06289255 0.008867966 0.0050709783
00000000: 1ddf fbbc 0950 71bc 25a4 b0bc 0041 4f3b
00000010: b5d2 daba e938 22bd 2db4 4e3b 6975 cebb
00000020: 7b75 00bc 1340 c13c c2d8 253b da75 e03b
00000030: 8cf3 c2ba 4860 9cbc 4790 0ebc 0b43 48bb
00000040: 1b5b a3bc 3925 e9bb 04bd 123d c980 21bc
00000050: 92c0 373c d768 a33a 7a6f 9f3c 24c6 f1bb
00000060: a73f efbc a079 a2bc 5351 4c3c 7d81 ed39
00000070: a3d4 f7bd 56cd 8c3b a570 803c 5a94 06bd
00000080: 39be c13c f778 e23c e4e3 be3c cc75 78bc
00000090: d478 0f3b e39e 09bc ef59 64bc 3c22 66bc
000000a0: 61ac 173b cb31 a63c c5d8 c73b e67f 753c
000000b0: 6090 543c 9e77 36bb 1408 033c cffb 3abc
000000c0: fdce 3bbc 9cc5 423b 3d43 bd3c e252 9f3d
000000d0: 3069 f93c a632 a53b 38ce 603c 1992 4cbc
000000e0: 7520 923b 5a80 213b da06 173c 59ed 9a3c
000000f0: 8f05 673b c4bd 1539 474c ab3c 2082 c33c
00000100: ee0c cc3b 5358 ad3a b90a 90bb 6083 26bb
00000110: 9194 313c 51fd 01bd 1720 ea3b 8cd1 1d38
00000120: d384 7a3c 2163 9dbb 248e 31bc b4b8 cabd
00000130: 168d 23bc 634e 263c ad17 5aba ac75 813e
00000140: 921a 91bb 4259 14bc 2531 87bc 8baf 10bc
00000150: 9a66 b03b 7fa6 ab3c 8c69 6bbc 2c97 20bc
00000160: dbf3 b53c f55f 143c 37a8 e4b9 bd06 dbbc
00000170: 7220 e9b8 5e8d 243c 1e65 15bc 262b 013a
00000180: db98 96bc 1ff5 07bc 2c22 c2bb 49a6 193c
00000190: a745 e3bc 34a3 0bbc ecf2 74bd b003 c43c
000001a0: 2cd1 763c 8c15 833e 3740 0cbd 39b3 adbc
000001b0: 4bff 31bc e6bb 58bc 5f51 4b3d 18a6 78bb
000001c0: 17d4 22bc 27d3 c7bb f4b2 0b3a 4229 8b3d
000001d0: a24f 043b 0fe8 b23b b5f8 81bc 8114 c7bb
000001e0: e81d b3bb 9212 81bc c182 c83a 7fd6 483a
000001f0: 5477 b93c cfcd 80bd f24a 113c 732a a63b

encoder.linear_sigma.weight f4 [128, 128]
0.0018325176 0.07073045 -0.06789647 -0.035965063 0.0011389172 -0.025550738 0.0032078149 -0.08527246
0.044642437 -0.05478478 0.008719032 -0.096987695 -0.016949145 0.033573586 -0.019052802 0.0827648
0.027114779 0.06896534 -0.09601697 0.029703544 0.027662152 -0.021072257 0.070847355 0.028504107
0.055043526 0.020073382 0.07335897 -0.003889405 -0.0023023863 -8.32218e-05 -0.039687663 0.033424105
-0.04908455 -0.036730792 0.06161227 0.019308584 -0.093785346 -0.0011371414 0.0608849 -0.0015937344
0.041550215 0.003317672 -0.017670546 -0.0053535164 0.03285852 -0.041802283 -0.06559395 -0.05637599
-0.025136784 0.012750566 -0.014951203 -0.008056912 -0.08743054 0.046637766 0.020212507 -0.02859044
-0.023160052 -0.010011253 0.058614872 -0.08474757 -0.0064240396 -0.06903214 0.0039062575 0.05236451
-0.002467583 -0.004810181 0.04318243 0.06199142 -0.0041674017 -0.023071986 -0.025211582 0.0035233344
-0.031260293 -0.030375343 -0.08168627 0.025275359 0.009637893 0.0008058544 -0.045040023 0.021951744
-0.011955643 0.0014920059 0.06339963 0.019000418 0.017087482 0.06579668 0.00040850774 -0.04793735
0.006923613 -0.0638587 -0.11342613 0.04678764 -0.071676694 -0.001502156 -0.015643803 -0.04629635
0.00468746 -0.055255227 -0.08462386 -0.07627924 -0.001312656 0.05346121 0.05934978 -0.028230332
0.07913504 0.07762432 0.015732968 -0.0037422816 -0.021915663 -0.06894856 -0.03707009 0.059425194
-0.04084799 -0.05415334 -0.0006936043 -0.04757422 -0.07297604 0.03529861 0.0019764728 -0.09748123
-0.007491221 0.068504244 -0.032221958 -0.04776335 -0.001004088 0.06564978 -0.026340844 -0.0021051979
0.031804983 -0.012659524 -0.018406121 -0.01277699 -0.05799685 0.0059294878 -0.002702745 -0.045438994
-0.045115966 -0.022462493 0.06621911 0.074605174 -0.07397951 0.06626698 0.025047777 -0.0090680905
-0.052038215 -0.0843578 0.04442878 0.0002690709 -0.03196105 -0.0073796837 0.016520431 0.042553235
0.0560719 -0.054304175 -0.039398126 -0.052943762 -0.00157874 0.049189672 0.0055736676 0.07077835
0.043081284 -0.08425377 -0.071007855 -0.07156257 -0.04315223 -0.003809021 -0.08383803 -0.0009644347
0.07796666 0.0002998461 0.01672019 -0.05839977 0.081672445 -0.06884545 0.07329505 -0.082270645
-0.08111437 0.042304173 0.0062950565 0.06808155 -0.008442909 0.028596494 -0.022438897 0.01967442
-0.0078007136 0.01991715 -0.06550745 0.04472654 -0.0006306492 -0.018712174 -0.029575033 0.025737917
-0.0018207137 -0.0016087763 -0.011604503 0.05243233 -0.0049400264 -0.05112033 0.013044179 0.026854174
-0.07622346 0.062497012 -0.08427098 -0.00055036 0.021859668 0.00059695484 0.03563288 -0.057781268
0.024141401 0.0011157679 -0.083164036 -0.07643882 -0.09600327 0.006359313 -0.00030190055 0.052554257
0.010219282 -0.06538207 0.0112767145 0.035321612 0.015162873 -2.0906118e-05 -0.037901316 0.011734186
-0.0016479365 -0.07812458 0.03444349 -0.01134954 -0.002012299 0.035291333 0.01510646 -0.08068305
0.078569874 -0.011698171 0.047020696 -0.00053241034 -0.09678876 -0.029417697 -0.07022484 -0.06884073
0.0076990044 -0.09594843 0.07376476 -0.016128289 -0.067681685 0.013010268 -0.00034253998 0.030415466
-0.00032287755 0.041468207 -0.020501506 0.042781338 -0.06596693 -0.0074750283 0.048278246 0.002864531
00000000: 1631 f03a 20db 903d 4e0d 8bbd 1a50 13bd
00000010: b847 953a c84f d1bc 343a 523b 54a3 aebd
00000020: fdda 363d 0166 60bd 45da 0e3c 7ca1 c6bd
00000030: efd8 8abc 7584 093d 9f14 9cbc 9780 a93d
00000040: d01f de3c b33d 8d3d 8ca4 c4bd d954 f33c
00000050: bd9b e23c ba9f acbc 6b18 913d 7281 e93c
00000060: 5275 613d ef70 a43c 3a3d 963d 63e5 7ebb
00000070: a2e3 16bb 5d87 aeb8 888f 22bd b7e7 083d
00000080: e20c 49bd 0773 16bd 265d 7c3d 092d 9e3c
00000090: 8812 c0bd 220c 95ba 7262 793d dae4 d0ba
000000a0: 8f30 2a3d 4d6d 593b d2c1 90bc 8d6c afbb
000000b0: a896 063d df38 2bbd 1f56 86bd 83ea 66bd
000000c0: a8eb cdbc c0e7 503c e4f5 74bc 2301 04bc
000000d0: c80e b3bd 3e07 3f3d b394 a53c 8036 eabc
000000e0: 26ba bdbc 3d06 24bc 2616 703d 2290 adbd
000000f0: c080 d2bb b960 8dbd 1000 803b 2b7c 563d
00000100: 2cb7 21bb b99e 9dbb 0fe0 303d b7ea 7d3d
00000110: b38e 88bb 7601 bdbc 8588 cebc bee7 663b
00000120: cb0a 00bd b6d5 f8bc 224b a7bd 450e cf3c
00000130: 41e8 1d3c f93f 533a e37b 38bd 25d4 b33c
00000140: 9ae1 43bc 698f c33a aad7 813d c4a6 9b3c
00000150: 0cfb 8b3c 69c0 863d fb2c d639 f459 44bd
00000160: 7adf e23b 5ac8 82bd f54b e8bd 65a4 3f3d
00000170: 3bcb 92bd fee3 c4ba 6f27 80bc 3ea1 3dbd
00000180: 4499 993b 4e53 62bd 464f adbd 4a38 9cbd
00000190: 6d0d acba 24fa 5a3d c118 733d 4c43 e7bc
000001a0: 8d11 a23d 80f9 9e3d 6de2 803c 1141 75bb
000001b0: 7a88 b3bc e734 8dbd cfd6 17bd d567 733d
000001c0: 3950 27bd e5cf 5dbd ffd2 35ba 2fdd 42bd
000001d0: 7674 95bd 4695 103d b687 013b 3da4 c7bd
000001e0: eb78 f5bb f44b 8c3d 2cfb 03bd 81a3 43bd
000001f0: 9a9b 83ba 6473 863d c1c8 d7bc 5cf7 09bb
00000200: f145 023d e469 4fbc 6fc8 96bc 9556 51bc
00000210: 1b8e 6dbd 264c c23b 8920 31bb 3d1e 3abd
00000220: 85cb 38bd 4303 b8bc e29d 873d 99ca 983d
00000230: 9282 97bd fbb6 873d ff30 cd3c 5492 14bc
00000240: 0626 55bd c8c3 acbd f4fa 353d 1612 8d39
00000250: 97e9 02bd 46d1 f1bb db55 873c 4d4c 2e3d
00000260: a6ab 653d 0e6e 5ebd ee5f 21bd 8fdb 58bd
00000270: b9ed ceba 1c7b 493d 50a3 b63b 3df4 903d
00000280: 0076 303d 3e8d acbd 916c 91bd 668f 92bd
00000290: 65c0 30bd c5a0 79bb 46b3 abbd 1ed2 7cba
000002a0: fcac 9f3d aa34 9d39 c8f8 883c 9934 6fbd
000002b0: e243 a73d d8fe 8cbd b71b 963d 837d a8bd
000002c0: 4a1f a6bd 2447 2d3d c346 ce3b 576e 8b3d
000002d0: 2154 0abc 3243 ea3c c7d1 b7bc 402c a13c
000002e0: 219d ffbb 4a29 a33c c528 86bd 2d33 373d
000002f0: 2752 25ba 464a 99bc 5747 f2bc 53d8 d23c
00000300: 04a5 eeba 93dd d2ba d020 3ebc 48c3 563d
00000310: f2df a1bb 8d63 51bd 41b7 553c 49fd db3c
00000320: 0c1b 9cbd defc 7f3d 4396 acbd 0946 10ba
00000330: 0c13 b33c f67c 1c3a c8f3 113d 0dac 6cbd
00000340: 30c4 c53c f53e 923a e851 aabd f58b 9cbd
00000350: 5d9d c4bd c961 d03b 6848 9eb9 2243 573d
00000360: c66e 273c 09e7 85bd f8c1 383c 65ad 103d
00000370: b36d 783c 8c5f afb7 693e 1bbd be40 403c
00000380: 93ff d7ba c8ff 9fbd 9e14 0d3d 6cf3 39bc
00000390: c6e0 03bb a58d 103d 1681 773c 283d a5bd
000003a0: 3ee9 a03d afa9 3fbc c698 403d 7491 0bba
000003b0: 2f39 c6bd 62fd f0bc 0ad2 8fbd 5efc 8cbd
000003c0: ee47 fc3b 9c80 c4bd fa11 973d 791f 84bc
000003d0: b29c 8abd 0529 553c f096 b3b9 db29 f93c
000003e0: e447 a9b9 91da 293d c6f2 a7bc 7c3b 2f3d
000003f0: ab19 87bd 15f1 f4bb 69bf 453d dbba 3b3b

encoder.linear_sigma.bias f4 [128]
-0.31888145 -0.32243082 -0.33042863 -0.33535892 -0.33486637 -0.30487996 -0.3266305 -0.08338145
-0.33291134 -0.3347877 -0.3286412 -0.33242399 -0.33179075 -0.32549515 -0.33600286 -0.33201078
-0.3139666 -0.3218908 -0.18465923 -0.33121595 -0.33267802 -0.3326418 -0.32328072 -0.32993037
-0.10194502 -0.33451605 -0.33016503 -0.33180332 -0.16043568 -0.3271564 -0.32601458 -0.3342729
-0.33199027 -0.33056727 -0.32628527 -0.33763322 -0.30799755 -0.3323441 -0.3264882 -0.33715853
-0.33030966 -0.32819512 -0.33138865 -0.3256241 -0.33430567 -0.32683328 -0.3254061 -0.3354217
-0.33300447 -0.32399347 -0.3246602 -0.064837314 -0.3277348 -0.3339885 -0.3319261 -0.33359584
-0.32768163 -0.33322936 -0.33744496 -0.3252162 -0.3374986 -0.3296163 -0.3152063 -0.3242805
-0.33015278 -0.32806414 -0.33162853 -0.1755287 -0.33755636 -0.32606077 -0.33120003 -0.334248
-0.33297846 -0.32851636 -0.33784604 -0.15210964 -0.33715808 -0.3263875 -0.3266816 -0.44189653
-0.31459668 -0.33860773 -0.32972643 -0.33061206 -0.33164078 -0.33420515 -0.3313237 -0.33012518
-0.3309205 -0.33476943 -0.3284352 -0.30819032 -0.32757568 -0.316657 -0.31861648 -0.32800218
-0.3225825 -0.33297518 -0.31638983 -0.3173024 -0.33431295 -0.33299264 -0.25842777 -0.3266196
-0.33611125 -0.304664 -0.3052649 -0.19673462 -0.33128396 -0.33201808 -0.41898555 -0.32435644
-0.32886446 -0.31388667 -0.3294001 -0.1492815 -0.07883926 -0.32994953 -0.33073157 -0.33272576
-0.33394104 -0.33910996 -0.32598853 -0.3335462 -0.33599022 -0.15090579 -0.3276467 -0.3269952
00000000: 6e44 a3be a715 a5be f12d a9be 2ab4 abbe
00000010: 9b73 abbe 3a19 9cbe 1d3c a7be e5c3 aabd
00000020: 5b73 aabe 4b69 abbe a943 a8be 7a33 aabe
00000030: 7ae0 a9be 4da7 a6be 9108 acbe 51fd a9be
00000040: 3bc0 a0be dfce a4be 4f17 3dbe 2395 a9be
00000050: c654 aabe 0750 aabe 0d85 a5be a2ec a8be
00000060: 8dc8 d0bd b045 abbe 640b a9be 20e2 a9be
00000070: 4049 24be 0b81 a7be 62eb a6be d125 abbe
00000080: a1fa a9be 1d40 a9be dd0e a7be 43de acbe
00000090: dbb1 9dbe 0229 aabe 7629 a7be 0ba0 acbe
000000a0: 591e a9be 3109 a8be c6ab a9be 34b8 a6be
000000b0: 1d2a abbe b156 a7be a19b a6be 65bc abbe
000000c0: 907f aabe 79e2 a5be dd39 a6be 6dc9 84bd
000000d0: dbcc a7be 8a00 abbe 38f2 a9be 13cd aabe
000000e0: e3c5 a7be 0a9d aabe 96c5 acbe bd82 a6be
000000f0: 9ecc acbe 78c3 a8be b862 a1be 1808 a6be
00000100: c909 a9be 06f8 a7be 37cb a9be ccbd 33be
00000110: 30d4 acbe 70f1 a6be 0d93 a9be 8e22 abbe
00000120: 277c aabe 4c33 a8be 28fa acbe a1c2 1bbe
00000130: fc9f acbe 431c a7be d042 a7be 4340 e2be
00000140: d112 a1be fe5d adbe e7d1 a8be fc45 a9be
00000150: d2cc a9be f01c abbe 43a3 a9be 2b06 a9be
00000160: 696e a9be e666 abbe a928 a8be 1fcb 9dbe
00000170: 00b8 a7be de20 a2be b321 a3be e7ef a7be
00000180: 8929 a5be b97b aabe d9fd a1be 7675 a2be
00000190: 112b abbe 037e aabe a550 84be af3a a7be
000001a0: c616 acbe ebfc 9bbe ae4b 9cbe cd74 49be
000001b0: 0d9e a9be 46fe a9be 4685 d6be 0c12 a6be
000001c0: ec60 a8be c1b5 a0be 21a7 a8be 40dd 18be
000001d0: 7a76 a1bd 25ef a8be a655 a9be 085b aabe
000001e0: 52fa aabe d29f adbe f8e7 a6be 91c6 aabe
000001f0: e906 acbe 0c87 1abe 4fc1 a7be ea6b a7be
