checkpoints_anomalies/model-100.pt (torch, 839369 bytes, 45 tensors)

encoder.conv1.weight f4 [8, 1, 3, 3]
00000000: 8610 57be 5883 2d3f abc2 17bf 11d0 24bf
00000010: 0c9a 173f 6c4e 92bf 80e2 6fbd 9294 f23c
00000020: dcb1 a2be 246a b33e 92b1 07bf 2afb 2e40
00000030: 69e7 a33d c0c5 bfbe 82ca cf3e d090 623e
00000040: 50e8 36bf f807 113f 81b7 bdbe 0172 0cbf
00000050: 3f2e 62bf b9be 8abe 6eb3 583c 7761 aa3e
00000060: c644 893f d4a0 ed3e 9091 f83e 3f78 b3be
00000070: 1ada 3ebf 9c02 adbe d726 e5be 67ce 02bf
00000080: da77 b8bd f3a5 7cbf 458d 22bf f2af d03e
00000090: aba3 da3e 7225 07be e902 39bf 09bd 9f3e
000000a0: 6c20 ae3e 96f9 0ebf 6be2 873f 71e0 8e3d
000000b0: 0c9a 3dbf 1362 41be 4224 8a3f 3d34 febe
000000c0: 7315 62be 9312 183f 5af7 18bf ca87 0a3f
000000d0: 9335 2a3f 7ffa 2ebe 866b ea3f 1f23 343e
000000e0: 06ac 3ebd 9d7f dc3d 2c80 da3e 40bf b2be
000000f0: c0f9 203e 76c3 33be dcfa 693f b664 9f3e
00000100: 3ecc 25bf ebe4 263f c9ea 893f acfa 683e
00000110: d018 693e a5f9 e43f fe59 c63e 6f21 b2be
-0.21002397 0.6777854 -0.59281415 -0.64379984 0.5921943 -1.1430182 -0.058565617 0.02961186
-0.3177632 0.35041916 -0.53005326 2.7340798 0.08003122 -0.3745556 0.4058419 0.22125554
-0.7144823 0.56652784 -0.37054065 -0.54861456 -0.88351816 -0.27098635 0.013226373 0.33277485
1.0724113 0.46411765 0.48548555 -0.35052678 -0.74551547 -0.33791053 -0.44756195 -0.51096195
-0.09007235 -0.9869072 -0.6349681 0.40759236 0.42702994 -0.13197878 -0.72270066 0.3119891
0.3400911 -0.5584959 1.0615972 0.069764026 -0.7406318 -0.18885069 1.0792315 -0.4964923
-0.22078495 0.5940334 -0.5975243 0.5411345 0.66488 -0.17087744 1.8314064 0.17591523
-0.046550773 0.10766528 0.42675912 -0.34911537 0.15720272 -0.17555031 0.91398406 0.31131524
-0.64764774 0.6519305 1.0774776 0.22751874 0.22763371 1.7888685 0.38740534 -0.34791133

encoder.conv1.bias f4 [8]
00000000: 8cc6 a73f 3a7e 383e 24aa f2be dba0 bb3d
00000010: 7d1d 183f 06ae 3d3e ef70 913f 50e8 48bd
1.3107467 0.18016902 -0.47395432 0.0916154 0.59419996 0.18523416 1.136259 -0.049049675

encoder.conv2.weight f4 [16, 8, 3, 3]
00000000: 0263 57be 9c74 8dbc 5e73 1d3f f2f0 d4be
00000010: 4a8e 4dbd 1b28 e73e 4f20 f7bd 1788 973c
00000020: dc8c ca3d a7be 373e 56fb e2be 4560 96bf
00000030: 26ac dd3e efe4 153e aa9b 9bbe a1a4 913f
00000040: 8cf1 6f3e 05f5 07be d4ec d13d 2a76 8abe
00000050: 7b3b 683e c6ca 23bd c124 98bf b0ea 6abf
00000060: e504 b23e 26a2 16bf d614 88bf fc73 17bf
00000070: 9db1 c13d 6927 513f 3017 23bf 681f 3d3e
00000080: 39da 4b3f 97a8 24bf 382f 8dbe 3598 3b3f
00000090: 6e1f 11bf 83fa 70be c17c 2a3f 23da f8be
000000a0: 900d 1dbf 5cea 3b3e 3459 c7bc d3d8 debe
000000b0: 9252 0c3f 44d7 78bf e210 1dbf 5f5a 913f
000000c0: 56e6 dbbe 0314 33be b1b1 803f 679d 213f
000000d0: 062d 053e 4fe5 a53e 11d2 e33e b07b 36be
000000e0: 9ae8 94be 003c fb3e d83f 07be 65bc b2bc
000000f0: 22de 943f db7d 94bd 6489 4bbe e0db 533f
00000100: dda6 1abe 0765 1bbf 4525 413f 4937 30bd
00000110: 037b 8d3d 02e8 a93f 6996 de3e a725 cc3e
00000120: 332b 2ebe e702 213d 8fa5 343e 5fc0 1abd
00000130: 4003 003e 4b65 573e 4925 203f f23e cf3c
00000140: 71ff 913e 12f1 373f 297f d73e 2916 be3f
00000150: 1c41 923f 118b 393e bebb 953f 09a8 2e3f
00000160: d38f c2be cb39 6e3f acbd 233d 6ae4 80bf
00000170: 6252 f4be ba02 1e3d a0da 45bc c152 a6be
00000180: 6637 073f 0529 673e 6517 11bd 5c3f 22be
00000190: 3e6b 363e 0308 423e de15 4a3e a6e9 d43e
000001a0: c01b ac3e 39e7 92bd 3e6b 063f 0c42 64bf
000001b0: 94af d3bd 943d ab3e d01e 3e3f f3bb e93e
000001c0: f050 093f 3225 1dbd 7013 043e 9ede 7bbe
000001d0: 8565 963e ea89 25bf ad9f aebc aa9b f33e
000001e0: db5e b0bf 4c21 773e 71af 9cbe 8bb5 8d3f
000001f0: eae4 e03e 8b70 cdbe 96eb e63e ceba 70be
00000200: 2088 033e 296c ce3e 808c b4be d096 e8be
00000210: b55f 213f bd58 c8bc b2f6 293f ce8f d93e
00000220: fd71 bc3c 5e9e fb3f 2621 423f 5c89 163f
00000230: dab8 c83f 41f6 a83f 01ce c03f a03f a93f
00000240: 64ee 4dbe 345d 5d3e 6de7 0e3f 1bbf 783f
00000250: 3152 9f3e c0e2 d23e b923 d83e fb91 d13c
00000260: f6cf 3ebf de12 143e 9ad3 44be cc9f b1bf
00000270: c947 023f f4ff 1bbe 7bc9 77be 0181 e1be
00000280: eed6 1f3e de0d 2a3f 675d 4cbf 710c a13d
00000290: 7ac6 343f f66f 0a3f 0437 843d ee59 543f
000002a0: 70d4 19bd 1810 303e 1ddb 1c3e fb14 1cbf
000002b0: 3e59 7ebe d1f1 90be 6049 cc3e 7b12 e43e
000002c0: d222 ae3e 36c9 943e c6eb 89be 4f18 1bbf
000002d0: 4ad4 133e 4ba9 c1be 993d a0be ab83 d9be
000002e0: 3ad0 02bf fed1 40bf f360 46be 7375 7b3e
000002f0: f91c 093e b8b2 c6be 92d1 06bf 089c a0be
00000300: 4715 63bf 9a5b d63c a26f 95bf 169c e93d
00000310: 9ca7 d63e c145 223f 7598 663f a929 87be
00000320: 6e95 11c0 d18b 68bf c314 21c0 e8a7 8cbf
00000330: 8283 53bf 72f1 0ebe 374d bc3e 94cd fd3e
00000340: bb39 aa3e f972 5bbf 63b3 f93e cfab bf3e
00000350: 8dcd b2be 902b 91be 7e7d 8ebe 5b10 183f
00000360: 28e8 683f 1325 bd3e 48ca b73e 8c33 b43f
00000370: a185 193f 4497 353f fbf8 2a3e 51d9 e53d
00000380: c276 f0be 33e3 3bbe 82ef 18bd e9cc a03e
00000390: 24f5 d03e a7dd e03d eb6e 0b3d aa78 a7be
000003a0: b52e 3e3d 6f42 733f ede8 873e c71f ea3e
000003b0: 9f93 dfbd 38c9 093f 7aec 093f 87fb ce3e
000003c0: 4b45 f83e 4f65 c93e f5ac 2fbd 08b9 083f
000003d0: 0699 cc3f 0a85 223f 42da 5e3e a3e8 7f3f
000003e0: ca27 1a3f c9e5 fdbe 4075 3d3e 0d88 66bd
000003f0: 4e11 1ebf cba2 0bbf f98b 963e 38dc 34bf
-0.21033862 -0.017267518 0.6150416 -0.41590077 -0.050184526 0.45147786 -0.12066709 0.01849751
0.09890148 0.17943822 -0.4433238 -1.1748129 0.432954 0.14638112 -0.303922 1.1378366
0.23431987 -0.13277061 0.102502495 -0.27043277 0.2267894 -0.0399883 -1.1886216 -0.91764355
0.3476936 -0.5884117 -1.0631359 -0.59161353 0.09457705 0.8170076 -0.63707256 0.18469012
0.79629856 -0.6431975 -0.27575088 0.73279124 -0.5668858 -0.23533063 0.6659661 -0.48603925
-0.6134882 0.1835112 -0.024334528 -0.435248 0.5481349 -0.9720347 -0.61353886 1.1355704
-0.4294917 -0.17488103 1.0054227 0.631308 0.13005456 0.3240151 0.44496205 -0.1782062
-0.2908371 0.49069214 -0.13207948 -0.02181835 1.163029 -0.072505675 -0.19876629 0.8275738
-0.15102716 -0.6070103 0.75447494 -0.043021474 0.06908228 1.3273928 0.4347413 0.39872476
-0.17008667 0.03930941 0.1764128 -0.037781116 0.1250124 0.21034734 0.6255689 0.02529857
0.285152 0.7185222 0.42089203 1.4850513 1.142612 0.18119456 1.1697919 0.6822515
-0.38000354 0.93056935 0.039975807 -1.0069706 -0.47719103 0.03857682 -0.01207605 -0.3248501
0.52818906 0.22574241 -0.0354227 -0.15844482 0.17814347 0.18948369 0.19734904 0.4158451
0.33614922 -0.071730085 0.5250739 -0.8916328 -0.10336223 0.33445418 0.74265766 0.45651206
0.53639126 -0.03836555 0.1289804 -0.2459664 0.29374328 -0.64663565 -0.021316374 0.475797
-1.3778948 0.24133795 -0.306026 1.1071028 0.43924648 -0.40124926 0.45101613 -0.2350876
0.12844896 0.40316895 -0.35263443 -0.4542756 0.6303666 -0.024456376 0.6639205 0.42492527
0.023003573 1.9657705 0.7583183 0.58803344 1.5681412 1.3200151 1.5062867 1.3222542
-0.2011047 0.21617585 0.5582188 0.97166604 0.31117395 0.41188622 0.42214754 0.025582304
-0.74536073 0.14460322 -0.19221345 -1.3876891 0.50890785 -0.15234357 -0.24197952 -0.44043735
0.15609333 0.6642741 -0.7983002 0.07863701 0.7061535 0.5407709 0.06455806 0.8294972
-0.03755611 0.1719364 0.1531796 -0.60969514 -0.2483873 -0.2830949 0.3989973 0.4454535
0.3401094 0.29059762 -0.26937693 -0.60583967 0.1443645 -0.37824473 -0.31296995 -0.42483267
-0.5109898 -0.7532042 -0.1937292 0.24556522 0.13389958 -0.38808227 -0.5266353 -0.31369042
-0.8870434 0.026166726 -1.1674693 0.11406724 0.4192475 0.63387686 0.9007638 -0.26398972
-2.2747455 -0.9083834 -2.5168922 -1.0988741 -0.8262254 -0.13959292 0.3677766 0.49570906
0.3324717 -0.8572231 0.48769674 0.37435767 -0.34922448 -0.28353548 -0.27830118 0.59399956
0.9097924 0.36942348 0.35896516 1.4078231 0.59969527 0.7093394 0.16696541 0.112230904
-0.46965605 -0.18348388 -0.037337787 0.31406334 0.40812027 0.10979777 0.034041326 -0.32709247
0.046431262 0.95023245 0.26544896 0.4572737 -0.10916828 0.5382266 0.5387646 0.40426275
0.48490366 0.39335105 -0.042889554 0.53407335 1.5984199 0.6348425 0.21762946 0.9996435
0.60216963 -0.49589375 0.18501759 -0.056282092 -0.61745155 -0.5454528 0.29403666 -0.7064853

encoder.conv2.bias f4 [16]
00000000: 1e5a c2be 3ad4 963e c928 32bf 5e49 cc3e
00000010: 3fd3 fa3c a285 123e 54a8 023f 2821 71bf
00000020: d03a 1cbf 6927 fabe 0e5b 8d3f 5916 70be
00000030: 4310 443e d480 6c3e 4309 a5be f928 e2be
-0.3795938 0.2945879 -0.69593483 0.39899725 0.030618308 0.1430879 0.510381 -0.9419122
-0.6102724 -0.48858193 1.1043413 -0.23446025 0.19146828 0.23096019 -0.3223363 -0.44171885

encoder.conv3.weight f4 [32, 16, 3, 3]
00000000: ec25 9fbe 4c1d c8be b1b0 95be a870 163e
00000010: dcf7 c8be a4e2 fbbe f98e debe 56a4 e0bd
00000020: 246d 593e 5b17 063f 91bf c1be bfe2 8abf
00000030: bf6e fd3d ab28 993e 5213 15bc 82ff e93e
00000040: 4bc3 293d 4acc 9b3e 226d 913e 885e 883e
00000050: 0682 1f3f dabf 1fbe 3218 d93d a921 343e
00000060: 8f14 fabf d277 de3e fda0 10bf 2251 ba3d
00000070: 915f 303d 2cf8 213e ac38 9e3e 23e4 9d3e
00000080: e93a 78be d9c2 d2bf 46d9 da3b e7fd 4bbf
00000090: 0abd 613f 64f0 813f 75b7 c03e 20ba 893e
000000a0: 8cfa 8b3e 4f67 8fbe 5189 6dbf 2c33 43be
000000b0: cfc7 68bf f194 b5bd 8a2b 4ebe f7ee 1fbf
000000c0: ae31 1ebe a2d9 45be 86a0 743e 0730 bebf
000000d0: ea9f 1e3f 40da 393f 2afc 5bbe 7ebc debe
000000e0: d2f5 853c 82ed 10bf 1033 003f 8657 323f
000000f0: 17a1 413e fb0e 0c3f 8b3b 2d3e 97a1 a63e
00000100: 78ad 5bbd b240 aebd b442 903e 68b2 6c3f
00000110: 66f6 013f af05 2dbf 7ef1 90bd fe09 b2bf
00000120: d204 993e 4947 32be 9925 24bf f3e3 3dbf
00000130: 3e76 6fbf f7f6 95be abf1 6cbf b019 8d3e
00000140: ea4d fb3e dcf1 6a3e f37e ce3d 986e 0b3e
00000150: 9441 eabe 684e e3bc 1eb4 cebd a081 37c0
00000160: 0ea5 6a3a dbe1 4fbe d62a b4bc b79a 03bf
00000170: 3b0c b3be 95b8 30bf 23ff 8bbf 4a8d 7f3c
00000180: c6bd 2cbf 1233 4cbc 3b4d 1abe 6b0a 823d
00000190: 634a 153e 1077 d23e 91a0 813e d165 563f
000001a0: b560 0dbf e7be 71bf b641 723e aeff aebf
000001b0: 1466 fcbd 45bc ed3c 72c3 773e 7a37 863e
000001c0: 01cb e7be 7055 2cbf e96f 09bf fdce 07bf
000001d0: c4c8 553c 2900 c23e ae33 6ebd dcc6 6bbe
000001e0: a929 d93e b1a3 0ebf 6638 1abf 29d5 d53e
000001f0: 2633 36bf b277 17bf ae66 2cbe 7add 7a3d
00000200: 84f3 2b3f d2c5 32bf dbec 123e 173d 6c3e
00000210: e74e 85bf be4a 0f3e c9d0 d2be 02e8 603f
00000220: d0fe 0abe 4aba 65bf b8d9 adbe fba3 0abf
00000230: 6099 6e3e 4529 3fbf 4ff9 4dbf 287d febe
00000240: 5df0 79bf 2081 e3be c6dd a1be 22e8 b7bf
00000250: 9d6f 15bf b379 19bd 76aa 89bf 8154 6abf
00000260: 9973 2b3d 97e3 f63e 1c89 49bf 1dfd 003f
00000270: 390e 09bf 00eb 3c3f d7e4 db3e 3e20 5a3e
00000280: bdf1 573f 1015 f4be 2a2b 7d3e 2e08 783f
00000290: 1520 ac3e 0a46 b33f 48d5 133f 3c54 b6bd
000002a0: 6178 8b3d 334c 8fbf 5aa9 aebf 4113 e6be
000002b0: 9cee de3e 4ca7 973d b2eb 4f3f 3c2e 623d
000002c0: a766 7e3d 88ab 8dbe bc33 49bd f6e2 aabe
000002d0: d890 49bf 74fc c1be 97f1 803e c589 05bf
000002e0: 8631 acbf c981 29bf c17c eabe 9bdd fcbf
000002f0: 6f7e 04bf 8dad 67bc 7853 943c a02c 533e
00000300: eb92 a8bd 7154 163e 3d67 273f 5d06 63bc
00000310: ca7f b4bf a25f c6bd 072d 373f e39b 573f
00000320: 675a b03e 1a62 e03e bede 013f 7e5b 2b3f
00000330: 1ce1 eb3e 5c06 0b3f c433 cdbf aa11 193e
00000340: e93c 88be f66f 823e db7d 653f 9716 293f
00000350: 4230 ae3d 2811 babd 5e41 39bc 83df a1be
00000360: 2623 8c3e fef4 ec3e bdae 12be 002f 3f3f
00000370: 7f58 bcbd ea3f d73e dffd 913e e4c3 7b3d
00000380: 64df 1d3f cd2e 5abe c22f b53e 2c15 8d3d
00000390: 2f57 533e 3628 283d f1f0 fd3d 6ef5 37be
000003a0: 07be 58bf cd1d 50bf 6192 293d 1da1 8dbe
000003b0: 3f9e 9a3e f184 763e 92c8 a33d 7898 d0be
000003c0: b4ad 443e da7c 253d 2449 98bf 97ed 6dbf
000003d0: b2fa b1bd 24bb fe3d 524f 983e 1ccf b3be
000003e0: fff8 afbf dd19 c1be 076b 36bf 7323 2bbd
000003f0: 5594 c23e 0409 39be cf5d 423f 013e 8ebd
-0.3108362 -0.39084852 -0.29236367 0.14691412 -0.39251602 -0.4919635 -0.43468454 -0.109688446
0.2123304 0.5237939 -0.37841466 -1.0850447 0.12374639 0.2991384 -0.009098845 0.4570275
0.04144601 0.30429298 0.28403574 0.26634622 0.62307775 -0.1560053 0.10600318 0.17590965
-1.9537524 0.4345079 -0.5649565 0.09097506 0.04305989 0.15817326 0.30902612 0.30838117
-0.24241222 -1.6465713 0.006678733 -0.796843 0.88179076 1.0151486 0.37639967 0.26899815
0.2733959 -0.28008506 -0.92787653 -0.1906249 -0.90929884 -0.08866299 -0.20133796 -0.62474006
-0.15448639 -0.19321302 0.2388936 -1.4858407 0.6196276 0.7259865 -0.21482912 -0.43503183
0.016352568 -0.5661241 0.50077915 0.696648 0.18909107 0.5471036 0.16917245 0.32545158
-0.05363223 -0.085084334 0.2817589 0.92459726 0.507666 -0.675868 -0.07077311 -1.3909299
0.2988649 -0.17410006 -0.6411987 -0.7417595 -0.935398 -0.29289982 -0.92556256 0.2755866
0.4908288 0.22943825 0.100828074 0.13616407 -0.45753157 -0.027747348 -0.100929484 -2.8672867
0.00089509867 -0.20301001 -0.021993082 -0.5140795 -0.3497027 -0.6903165 -1.0937237 0.015597651
-0.6747707 -0.012463348 -0.15068524 0.06349643 0.14579158 0.41106462 0.25317815 0.8374911
-0.5522569 -0.9443192 0.23657879 -1.3671777 -0.12324157 0.029020438 0.2419565 0.262142
-0.45272067 -0.6731787 -0.53686386 -0.53050214 0.013048355 0.37890747 -0.058154754 -0.23025078
0.42414597 -0.55718523 -0.6024231 0.4176419 -0.71171796 -0.59167016 -0.16836044 0.061246373
0.6716845 -0.698331 0.14348166 0.23070179 -1.0414704 0.13993356 -0.41174915 0.87854016
-0.13573766 -0.8973738 -0.3395517 -0.54156464 0.23300695 -0.7467235 -0.8045854 -0.49704862
-0.9763239 -0.44434452 -0.31614512 -1.4367716 -0.58373433 -0.037469577 -1.0755146 -0.9153519
0.04185829 0.48220512 -0.7872484 0.5038622 -0.5353733 0.7379608 0.42948028 0.21301362
0.8435324 -0.4767232 0.24723497 0.9688748 0.33618227 1.4005749 0.57747316 -0.08902785
0.0681007 -1.1195129 -1.3645432 -0.44936565 0.4354142 0.07404956 0.8121902 0.055219874
0.062109616 -0.2766993 -0.049121603 -0.33376282 -0.7873664 -0.3788792 0.25184318 -0.52163345
-1.3452613 -0.6621366 -0.45798305 -1.9755129 -0.5175542 -0.014140499 0.018106207 0.20622492
-0.082311474 0.1468065 0.65391904 -0.013856498 -1.4101498 -0.09686209 0.7155308 0.8422224
0.34443972 0.43824846 0.507305 0.6693648 0.46070182 0.5430658 -1.6031423 0.14948145
-0.2660897 0.25476044 0.89645165 0.66050094 0.08505298 -0.090853035 -0.011307089 -0.31615838
0.27370566 0.46280664 -0.1432447 0.7468109 -0.09196567 0.4204095 0.28514 0.061466113
0.6166899 -0.21306916 0.35388 0.06888804 0.20638727 0.041053973 0.123994716 -0.17964718
-0.8466496 -0.8129547 0.041399363 -0.27661982 0.30198857 0.2407415 0.0799724 -0.40741324
0.19206887 0.04040227 -1.1897321 -0.9294066 -0.086903945 0.12438038 0.29748017 -0.3511895
-1.3747863 -0.37715045 -0.7125706 -0.041781854 0.38003793 -0.18069845 0.7592439 -0.0694542

encoder.conv3.bias f4 [32]
00000000: 159c 5ebb 8641 1ebf 7d9e 813e 0252 803e
00000010: ad27 5dbf cc9a a7be 0d03 9a3e e660 05be
00000020: 630a 693d a8b2 063c b785 293f 722d 63bf
00000030: 5902 f3be 01b6 9c3e 6ff2 003e cc75 313f
00000040: 0dfb 053f f262 443e 7a9f 33bf 5bed 873f
00000050: f8ef 283f de28 a13f d3d4 11bc 086d 913f
00000060: a148 82bd 863a ccbd ba22 1abe efd7 92be
00000070: 7d51 bc3f 9434 5abc 54d8 cf3e 0286 b1be
-0.0033967544 -0.6181873 0.2531623 0.25062567 -0.86388665 -0.32735288 0.30080453 -0.13025245
0.05689467 0.008221306 0.6621966 -0.8874122 -0.4746273 0.30607608 0.12592481 0.6932037
0.523362 0.1917837 -0.70165217 1.061931 0.65991163 1.2590597 -0.008900839 1.1361399
-0.06361509 -0.099721 -0.1505231 -0.2868037 1.4712368 -0.0133182 0.40594733 -0.34672552

encoder.batch_norm1.weight f4 [8]
00000000: 4075 2c3f 0d06 1a40 f812 be3e d173 6c3f
00000010: 0c83 de3e 78f0 303f 6c1d f43f a874 1d40
0.6736641 2.4066193 0.37123847 0.9236422 0.43459356 0.69116926 1.9071479 2.4602451

encoder.batch_norm1.bias f4 [8]
00000000: 5d27 733e ad30 19bf d9dc 573e 4f50 873e
00000010: 8ef1 d73d de5d 563d aada c0be dfb2 0abf
0.23745485 -0.598399 0.2108034 0.26428458 0.1054412 0.052335612 -0.37666827 -0.54179186

encoder.batch_norm1.running_mean f4 [8]
00000000: 36c2 21be 506c 2640 a476 58be addf 49c0
00000010: bdc7 213f 6247 9d3f d0cf 7340 da04 4c40
-0.15796742 2.6003609 -0.21139008 -3.154277 0.631954 1.2287409 3.8095589 3.187796

encoder.batch_norm1.running_var f4 [8]
00000000: a765 1c3e 0cdf f43e bec0 0f3e 5a21 4c3f
00000010: c00d 203e 0af1 053e 35ee f73e 4dc3 503f
0.15273152 0.4782642 0.14038369 0.7973839 0.15630245 0.1308023 0.48423925 0.81548005

encoder.batch_norm2.weight f4 [16]
00000000: a44e 9a3f 83c4 f83f c803 6d3f 57a4 ac3f
00000010: a680 823f ffaf 923f 2a1a 6c3f 9801 5f3f
00000020: c769 bc3f 8198 9e3f d739 4a3f d942 563f
00000030: 8334 763f 973c 5b3f 866a 863f aa79 9e3f
1.2055249 1.9434971 0.92583895 1.3487653 1.019551 1.145996 0.92227423 0.87111807
1.4719781 1.239029 0.78994507 0.8369575 0.96173877 0.8563933 1.0501258 1.2380879

encoder.batch_norm2.bias f4 [16]
00000000: bdb5 103e 3234 5cbf c4da 06bf d83e 313f
00000010: f490 bcbd 0eec 04be ab7f eebe 4423 4fbd
00000020: 0548 10be 4f2e 083f 2f70 103f 6816 313e
00000030: 1b84 b93d 71a1 ddbe 15b4 ebbd 7fad 4d3f
0.14131828 -0.86017144 -0.5267756 0.69236517 -0.09207335 -0.12980673 -0.46581778 -0.05057074
-0.14089973 0.5319566 0.5642118 0.17293704 0.090584 -0.43287233 -0.11508957 0.8034286

encoder.batch_norm2.running_mean f4 [16]
00000000: 60fa 5b3f fd0a 0541 19f1 6bc0 ca51 6240
00000010: cf6b 55bf 724e cbbf 49a6 46c0 3ac7 a53f
00000020: 3239 473f a56e ac3e f4b8 21c0 4510 53bd
00000030: 071b 87bf 9ccb bebe 140b 49be 3c44 64c0
0.85928917 8.315183 -3.6865904 3.536242 -0.8336763 -1.5883315 -3.1038992 1.2951424
0.7782165 0.33678165 -2.5269136 -0.051529188 -1.0555123 -0.37264717 -0.19633132 -3.5666647

encoder.batch_norm2.running_var f4 [16]
00000000: df5e 1e41 0d60 bc40 50ad 2241 2729 f041
00000010: d485 ab40 97e3 0141 2424 ea40 2836 0941
00000020: 2050 fb40 1fe0 c841 5bfb c440 edbd b640
00000030: 53e0 8840 6c6b e840 3059 0441 4f87 e241
9.898162 5.886725 10.167313 30.020094 5.3600864 8.118064 7.3169117 8.575722
7.853531 25.109434 6.155683 5.7106843 4.2773833 7.263113 8.271774 28.316069

encoder.batch_norm3.weight f4 [32]
00000000: fc36 683d 29a0 443d 18f5 233d 4007 273d
00000010: 0bf2 373d 6eb4 573d 3dac 553d a665 d73d
00000020: 44b2 0a3d bee0 8a3d bae8 ea3d 3c3a ff3d
00000030: 9a0c 203d 779e bb3d ac1a 9d3d d992 823d
00000040: 22ec e33d 9171 453d e03d 6b3d f7e5 6d3d
00000050: 149a 3f3d 6a86 833d 2051 0d3d 764a 5f3d
00000060: 9c3e 1e3d 5d3c 823d f0f4 db3d ed86 283d
00000070: d10f 113d 0cac 483d aa1a 703d c207 b83d
0.056693062 0.048004303 0.04002866 0.0407784 0.044908565 0.052662306 0.052166212 0.10517435
0.033861414 0.067811474 0.1147017 0.12462279 0.039074518 0.09161084 0.07671103 0.06375665
0.11129023 0.04820401 0.057432055 0.05808064 0.0467778 0.06422122 0.034501195 0.05451437
0.038633928 0.0635917 0.107400775 0.0411443 0.035415474 0.0489922 0.05861918 0.08985855

encoder.batch_norm3.bias f4 [32]
00000000: 530f 83bc ca91 09bd df9e 23bc 2540 433b
00000010: fdec c33a 9556 203d d357 6cbc 9d78 9bbd
00000020: 0cfe 61bb 0997 51bd 6276 a3bd 2481 9bbd
00000030: e74c a63c a37e 61bd 384c 33bd 57ed c3bc
00000040: 94d6 99bd c4f4 cd3c c4d4 10bd 6b86 a1bc
00000050: ee2a 78bc 6db1 ebbc ee0a 8539 3b37 c1bc
00000060: 9587 6bb8 2be1 e5bc 7580 7ebd 5c76 e33b
00000070: a724 8dbc 44cd 7c3c b388 debc de96 7fbd
-0.015998518 -0.0335863 -0.009986608 0.0029792872 0.0014947947 0.03914507 -0.014425236 -0.075913645
-0.00344837 -0.05116943 -0.07981564 -0.07592991 0.020300342 -0.05505241 -0.04377386 -0.023916883
-0.07511631 0.025141127 -0.03535916 -0.019717416 -0.015146954 -0.028771127 0.0002537588 -0.023585906
-5.6154637e-05 -0.02806147 -0.062134225 0.0069416 -0.017229391 0.0154297985 -0.027164793 -0.062399738

encoder.batch_norm3.running_mean f4 [32]
00000000: 0ad4 3dc1 d541 94c0 75d7 4040 61f2 65bf
00000010: 54f0 a540 a874 c040 c9a1 083f 26f1 42c0
00000020: 9f22 f8c0 185c 8c40 1d84 44c1 76f8 fac0
00000030: 3ed8 27c0 a5ff 22bf 5ff7 cebf b092 ee40
00000040: f725 2f40 4ae8 a040 8dcb 92c0 e0c8 74bf
00000050: 07f3 dbc0 a27a 163f 67b4 6340 a7f8 01bf
00000060: 333a 19c0 7f2f 6240 81ad 22c1 c5f5 2240
00000070: d1be a2c0 71a7 e5bf 500c 3abf 81ff edc0
-11.864267 -4.633036 3.0131505 -0.89822966 5.185587 6.0142403 0.53371865 -3.0459685
-7.754226 4.386242 -12.282254 -7.8428297 -2.6225734 -0.6367133 -1.6169242 7.455406
2.7366922 5.0283556 -4.5873475 -0.9561901 -6.8734164 0.5878087 3.557886 -0.5077004
-2.3941772 3.534149 -10.167359 2.5462506 -5.085793 -1.7941724 -0.7267504 -7.4374394

encoder.batch_norm3.running_var f4 [32]
00000000: a1c6 1d42 e07f 4442 ac01 3b42 ad4a f241
00000010: 0a80 6742 4c35 f442 0cc2 3f42 2b0e ca42
00000020: 1213 a241 330e 1842 28c7 b042 069a bd42
00000030: 541a 4642 f4fe 8c42 8090 e942 ed1a 4442
00000040: ae55 c142 973f a142 1582 4142 515d 8c42
00000050: e6c3 f641 4695 8042 adc4 d841 420c 5742
00000060: 24ab 1d42 bcf6 3242 464d d842 0615 1942
00000070: 8cb9 0542 e964 8242 8227 8342 4206 8c42
39.443974 49.124878 46.751633 30.286463 57.87504 122.104095 47.9395 101.02767
20.259312 38.013866 88.38898 94.80083 49.52571 70.497955 116.78223 49.026295
96.66734 80.6242 48.377033 70.18226 30.845654 64.29155 27.096033 53.76197
39.41713 44.74095 108.150925 38.27053 33.4312 65.19709 65.57716 70.01222

encoder.linear1.weight f4 [128, 512]
00000000: 63a3 99bd f0f9 b9bc 5d2a fcbc 7d14 b5ba
00000010: a366 d9ba 7d27 68bb 0069 cebb 0fc1 85bd
00000020: bf6e f3bc 5eb9 213d 0709 313d 7f87 323d
00000030: 4a99 67bd 470e b9bc 58c3 eebc 5bf2 e23c
00000040: e047 cbbd 66da 60bd 88ee 16bd 6ed2 cdbb
00000050: 8201 20bd 0179 823c d33c 733c 0a84 753d
00000060: 2074 90bc d3a7 f23b bf2d 84bd b296 103b
00000070: 4b65 543c 03d7 86bd e836 7dbc d1a6 d3bc
00000080: 3ffc 89bd 42f9 c83c 4420 59bd 9227 71bc
00000090: 05dc ccbb cc60 6bbb 063f 763d 93db 1fbd
000000a0: df23 003d f6dd 37bc a17b 313d cef8 6bbd
000000b0: 6aa6 d3bc e67e 9fbd 772e 9e3c 8809 c4bd
000000c0: bf1d 263d 4b4d 57bc b110 8abd 6855 b2bc
000000d0: 42b1 a236 3a70 26bc 1458 00bd 6152 2cbd
000000e0: df20 41bc 527a 26bb 11d0 fabc 94f5 87bc
000000f0: cf29 72bd fc34 08bd 8fee 1e3d dfb0 d4bd
00000100: ba78 28bc 1123 b03b 821a 61bb 649b 22bd
00000110: 1ca1 5b3c 4364 38bd 7975 6dbd b6c7 8fbd
00000120: 0eb4 46bd f86d c5bd 1dcd 773c 337d 40bc
00000130: 0fe1 87bd 78d4 603c 6933 e6bd ef69 923c
00000140: f5ad e4bc ec5e cbbd 9ca4 8fbd 6360 01be
00000150: 308d 89bd 2981 95bc 3bc3 82bd 278a 6f3c
00000160: e894 2ebd 56f9 d2bd 834e 21bd debf 9f3a
00000170: e041 5dbd 2367 4bbc 25e2 65bd 5f1b 23bd
00000180: fd03 c2bc ee7a 97bd 8938 06bd 0ea5 ad3c
00000190: b1d2 7cbd e739 313d 14fa 35bd 2fcd 39bb
000001a0: ea7b 083d b821 8cbc fef8 87bc 1ddf 13bd
000001b0: 95ef aa3c 6dfb bebd 1700 233d 3490 eabb
000001c0: d09b b3bd 4af6 dfbd 0881 093d ac56 bbbd
000001d0: a3fc afbc 8857 23bd 05bb 5b3d 0dcc d7bc
000001e0: 2060 fa3b 143d e4ba c248 443d 5dc4 0dbd
000001f0: a3ad 03bc f127 9c3d 3d53 60bc 7788 36bd
00000200: 2acc bfbc 8753 93bd e1fe 7ebb e68c a8bd
00000210: 92c9 f33c d265 b7bd 755c 1ebd 695e 9f3c
00000220: 23a7 39bd d1a6 1abd 49a2 3c3d 3438 a3b9
00000230: 69d0 c4bc 8827 ecbb e430 24bd b002 563d
00000240: 3d8c 243c 4950 9d3d 0fd6 afbd b3db d9bc
00000250: 3c63 97bd 844b 5b3d 2f63 43bd c2b5 9bbd
00000260: 7a57 46bd 5787 933d c4af 7abd 163f dabc
00000270: 8f13 febc 9d3c 79bd c5d4 69bc be98 87bd
00000280: d374 bfbd 439b 90bd 2f0c 32bd ae76 99bc
00000290: bf6a b0bd 750a 223d dd0f b33b 52b4 cb3d
000002a0: 8386 87ba 9af2 b43c f8bb 453c 233c 24bd
000002b0: ac3a 39bc bed0 083d de01 493d 9c4f 1b3d
000002c0: e6c9 a2bb 1349 e3bc 5723 2fbd 16b2 45bd
000002d0: 9bfe 0bbd 3502 23bd c364 e3bd 3cab 2bbd
000002e0: 432a 1ebd d079 e1bb 06eb 613c 3c9b 86bd
000002f0: e7ac f6bc 8975 31bd 8474 a4bc 155c a5bc
00000300: 1ba9 243d d566 1fbd e139 43bd b7ca b4bd
00000310: 1aeb 033d 475a 7dbd bf00 95bd 4d34 713c
00000320: 84fc 99bd e730 a9bd cc77 5bbc c96e e93b
00000330: f131 cabd 4305 eebc 71d3 79bd 72fb 283d
00000340: 0f63 68bd b300 d43c 1671 29bc 2b2a 80bd
00000350: a57b b33b 67d9 923d abb5 35bd 5e3e 88bd
00000360: 3cb1 b83c 9f70 b1bc 5314 5cbc 9437 4cbd
00000370: a788 0dbd 37c0 9b3d 298f f0bc 4dc5 2cbd
00000380: 71ae 813c 9350 45bd b81c 94bc f075 c0bd
00000390: 179b a8bc 3f09 9e39 3d72 7ebb 9121 8d3c
000003a0: d8d6 35bd 852f 073d 39a0 4bbc fe0f 86bd
000003b0: ec01 01bd 43dc da3d 208d 11bd 6baa d23b
000003c0: 5f4d a7bc 36a2 73bd 2fb6 17bd 06cb 97bd
000003d0: a05d 3abd b291 99bc eb17 a3bc b623 94bd
000003e0: ea5b 6a3d e697 8b3d 1df6 94bd 0143 d13c
000003f0: 7517 4e3d f4f5 51bd fc44 1bbc f650 bbbd
-0.07501867 -0.022702187 -0.03078192 -0.001381531 -0.0016586374 -0.0035423927 -0.006299138 -0.06530964
-0.029715894 0.03948342 0.0432215 0.04358625 -0.056542672 -0.022589816 -0.029145882 0.027703455
-0.099258184 -0.05489578 -0.036848575 -0.0062811887 -0.039063938 0.01592684 0.014846045 0.059940375
-0.017633498 0.00740526 -0.06454038 0.0022062478 0.012963603 -0.06583979 -0.015454985 -0.02583638
-0.06737565 0.024532918 -0.053009287 -0.014718907 -0.0062518143 -0.003591585 0.060118698 -0.03902776
0.03128421 -0.011222353 0.043330792 -0.057610326 -0.025836188 -0.07787876 0.019309266 -0.095721304
0.04055571 -0.013140987 -0.06741465 -0.02176924 4.8486118e-06 -0.010158593 -0.031333998 -0.04207075
-0.011787622 -0.0025402498 -0.030616792 -0.016596593 -0.059121903 -0.033253655 0.038801726 -0.10385298
-0.01028269 0.005375274 -0.0034348075 -0.039698973 0.013405111 -0.045017492 -0.05797336 -0.07020514
-0.048511557 -0.096401155 0.015124586 -0.0117486 -0.066347234 0.0137225315 -0.112402745 0.017872779
-0.02791498 -0.09930214 -0.070138186 -0.12634425 -0.067163825 -0.018250065 -0.063848935 0.01462034
-0.042622477 -0.10301463 -0.039381515 0.0012187918 -0.0540179 -0.012414726 -0.05612387 -0.039821025
-0.023683542 -0.07396494 -0.03276876 0.021196868 -0.06172437 0.04326811 -0.044427946 -0.0028351059
0.0333213 -0.017105922 -0.01659822 -0.03610145 0.020866195 -0.093252994 0.039795008 -0.0071583036
-0.08769953 -0.10935648 0.03357032 -0.09147391 -0.021482771 -0.0398784 0.053645153 -0.026342416
0.0076408535 -0.0017413222 0.04792095 -0.034611095 -0.008037004 0.07624806 -0.013691721 -0.044563737
-0.023412783 -0.07193666 -0.0038909244 -0.08229999 0.029759202 -0.089549676 -0.038662393 0.019454198
-0.04532541 -0.037756745 0.046053205 -0.00031131657 -0.024025159 -0.007206861 -0.04008569 0.052248657
0.010043201 0.07681329 -0.0858575 -0.026594019 -0.07391974 0.053538814 -0.04770201 -0.07603027
-0.048423268 0.072035484 -0.06120278 -0.02664141 -0.031015186 -0.06084882 -0.01427192 -0.0662093
-0.09348454 -0.07060864 -0.04346865 -0.018733349 -0.0861411 0.039560754 0.0054645375 0.09946503
-0.001033977 0.022088338 0.012068741 -0.040096413 -0.011305492 0.033402197 0.049074046 0.03791772
-0.004967916 -0.027744805 -0.042758312 -0.04826554 -0.034178358 -0.039797027 -0.11103203 -0.04191135
-0.038614523 -0.0068809763 0.013788944 -0.06572577 -0.030111743 -0.04332498 -0.02007509 -0.02018551
0.040200334 -0.038916428 -0.04766262 -0.08827727 0.032206632 -0.061853673 -0.07275533 0.014721942
-0.07518867 -0.082612805 -0.013395261 0.0071238023 -0.09872807 -0.029055243 -0.060992662 0.041255422
-0.056735095 0.02587924 -0.010341903 -0.06258043 0.005477386 0.071703725 -0.044362705 -0.066525206
0.02254545 -0.021660147 -0.01343258 -0.04985769 -0.03455415 0.076050214 -0.02936514 -0.04218035
0.01583025 -0.048172545 -0.0180801 -0.09397495 -0.020581765 0.00030142997 -0.0038825416 0.01722792
-0.044394344 0.033004303 -0.012428337 -0.06546019 -0.031495973 0.10686543 -0.035534978 0.006429007
-0.020422636 -0.05948087 -0.03703898 -0.074117705 -0.045499444 -0.01874623 -0.019908866 -0.07233374
0.057216562 0.06816082 -0.07273505 0.025544645 0.05031534 -0.05125995 -0.009476896 -0.091463014

encoder.linear1.bias f4 [128]
00000000: fa91 0bbd b79e 7dbd 0774 fdbb a7df 4f3c
00000010: 6e62 b1bc 7a80 aebc 4bee be3e 531e 68bd
00000020: 1ec3 4abd ff4f 00bd 3720 52bd 0ebe 7ebd
00000030: 282a 59bd 64fe 47bd 6517 46bd 4be8 4bbd
00000040: 69ed 5dba 1681 56bd 8dfa 0bbc f574 9cbd
00000050: 1757 a3bd 76e4 e9bc 557c 5dbd c8f7 06bd
00000060: de0c 443c 8641 d0bc 6811 0bbd df13 55ba
00000070: 7d43 e23e 7737 68bd 1f97 09bd 6a93 06bd
00000080: 3c53 8ebd 6e34 22bc c3b8 2abd 4a47 20bc
00000090: 454a cbbc 14a1 ca3e bb52 e53b aea1 713e
000000a0: ea1a 9dbc 3ef4 ea3d b4af 243c e18c e8bc
000000b0: 46e7 e4ba ec01 7b3d b7f8 a3bc 0763 a3bc
000000c0: 1735 86bd 6029 8cbd eea3 76bc f953 a8bc
000000d0: a013 8abc 3a46 0fbc 0761 e7bc 45f8 a1bc
000000e0: c403 12bd 8286 74bd 7d03 8ebd 577d fabb
000000f0: 3b8d 223f a4a0 35bd 30b9 41bd 3928 53bd
00000100: a43c c23e bffc 0d3f 0e3c 85bd 197a fabc
00000110: a520 023f d280 adba 4c6e afbc d158 d8bc
00000120: 7a5b adbc 2ee2 3abb f3f7 07bc 9bee 3c3c
00000130: bbe7 dabc f7d3 1f3f b508 133b 6131 143c
00000140: c03a a1bd c80c af3e 0fc3 07bd 9583 3e3c
00000150: 04f9 3bbd 437b 05bd b8b8 903e 7d41 40bd
00000160: 7c43 0dbd c016 e5bc c80c 35bd 24bb 70bd
00000170: 59db 123c 6750 bb3e 886c fabc 74ec 19bd
00000180: 9c11 453b a748 9dbc 344b abbd 8059 53bc
00000190: d7f6 163f a1d2 0bbc 2c54 c7bb 72e3 4fbc
000001a0: 4581 053c 4e6e edbb cf7c 3fbd b001 c23e
000001b0: 5447 a1bc 568c 39bc a8d8 a6bc e4c6 60bd
000001c0: 57fd 07bd e349 16bd 8abc 5cbb d637 fbbc
000001d0: 9673 26bd 669e d9bb 4bd8 b23e 3732 01bd
000001e0: 5904 a33e 6ccd 2cbc 96e9 933c 68c2 d0bb
000001f0: 00df 22bc bc57 f1bc b62b 9abc e827 743e
-0.03407476 -0.06191894 -0.007734779 0.0126876 -0.02165338 -0.021301497 0.37291178 -0.056669544
-0.049502485 -0.03132629 -0.051300254 -0.06219297 -0.05301872 -0.04882659 -0.048362155 -0.04978208
-0.0008465858 -0.0523692 -0.008543623 -0.07639495 -0.079755954 -0.028551321 -0.05407365 -0.032951146
0.011965958 -0.025421869 -0.033952147 -0.0008128266 0.44192114 -0.05669352 -0.033591386 -0.03285543
-0.069494694 -0.0099001955 -0.04168011 -0.009782622 -0.024815688 0.39576018 0.0069983876 0.23596832
-0.019177873 0.11472367 0.0100516565 -0.028387489 -0.0017463944 0.06128113 -0.020016057 -0.01994468
-0.06553095 -0.06843829 -0.015053732 -0.020547854 -0.016855061 -0.008744771 -0.028244508 -0.019771704
-0.035648122 -0.05969859 -0.06934259 -0.007644336 0.6349675 -0.044342652 -0.04729575 -0.05155203
0.3793689 0.55463785 -0.06505595 -0.030575799 0.5083106 -0.0013237244 -0.021414898 -0.026409538
-0.021161783 -0.0028516161 -0.008298862 0.011531497 -0.026721826 0.6243281 0.002243561 0.009044976
-0.07872534 0.3418944 -0.033145007 0.011628051 -0.045891777 -0.032588255 0.2826593 -0.046937454
-0.034488186 -0.02796495 -0.044201642 -0.05877222 0.008963429 0.3658478 -0.03056933 -0.037579015
0.003007031 -0.019199682 -0.08363953 -0.012899756 0.589704 -0.008534105 -0.006083032 -0.0126885045
0.008148496 -0.0072458154 -0.046749886 0.37891912 -0.019687332 -0.011324963 -0.020366982 -0.054877177
-0.033200588 -0.036691558 -0.0033681714 -0.030666273 -0.040637575 -0.006641197 0.34930643 -0.03154203
0.31839254 -0.010547023 0.018055718 -0.0063708313 -0.009940863 -0.02946078 -0.018819671 0.23843348

encoder.linear_mu.weight f4 [128, 128]
00000000: 69cf c73d ad54 2f3c 7177 9ebd d010 903d
00000010: 0bd2 b13d 7868 183d 9ac9 ad3b 1147 653d
00000020: 164e 72bd 9689 d3ba 7391 84bd 5f67 893d
00000030: 17b3 f1bc 02ee 59bd d245 153c 891c 333c
00000040: d754 1bbd 0cd6 573c 71b3 b3bd 0594 1e3c
00000050: f806 7a3d bfae c6bd 039a 93bd ab56 483d
00000060: 6dcc 823d a2e6 4dbd c20f 6e3d d102 a4bd
00000070: ba6b 043b 7bfa 83bd 039f 88bd 7e01 513d
00000080: 0a77 833c f755 edbd eb80 8a3d ecad 16bd
00000090: 4c8a 8bbd a2e5 a2bb e685 04bd 90d9 d7ba
000000a0: 91e4 8fbd a732 9cbb ca72 73bc d7f5 4c3d
000000b0: 2fd1 3c3d 5e5a e6bb 2aac 04bd 33fb 22bd
000000c0: 2cf8 533d 0316 473b d49b 903b 614e af3c
000000d0: 8c0a f2bb 3074 0a3c 232d ad3c e7ce 37bd
000000e0: 71ac 78b9 3452 5d3d 86de 6e3d 90fb 37bc
000000f0: 8b0e 10bb af37 543d 61f4 223d 772a 753d
00000100: 6482 3ebb 92d5 c83b f94b cfbd 9cef 5e3d
00000110: d2fa b93a 1d13 253d f96d 11bd 921d 283d
00000120: f975 4e3c f797 993d dc09 f2bc d70c 66bd
00000130: e459 743d 60b1 72ba 4a9e c13c 81d8 b3bd
00000140: 687c 893c ceff f2ba 98c0 31bd e900 50bd
00000150: e3c2 b53d 9f28 abbd 573c 083c dde8 233d
00000160: 9499 2cbd 47e4 0b3d a0e3 a73c 8ced dbbb
00000170: 5020 383d ab32 3a3c 846e 133d a3ae 16bd
00000180: 1ab2 4a3d c60d 80bd 32c0 0abe 1d9d f9bc
00000190: 6398 f2bb f32f eb3b 45cb 6f3d 2ee3 b83d
000001a0: 81a1 82ba 0153 efbc 4d16 9cbd 8fbd 0fba
000001b0: f27e 0cbd 04dc 2fbd 19ec ddba 5aa8 9cbd
000001c0: 1f09 aa3d 5727 44bc 671a 893d 4286 1c3d
000001d0: 7e1a 64bb 0850 85bc 163b 00bc 6097 b7bc
000001e0: 920b b1ba 36fe 103c a792 7b3d 65d5 783d
000001f0: d8bc e53b bebc 94bd 34c3 ae3d 89b1 0dbc
00000200: fb10 38bc a072 a1bc 129d b9bc fb0e ad3b
00000210: 17f2 c63c 500e 323b 0e7d 07bc 4ffa 21bd
00000220: 982b e8bc 08b6 823d 8399 193a 77bf 38bd
00000230: 4f24 edbc a786 a8bc 2663 893c 4d2b a0bc
00000240: 7b7f 7fbd 2e46 3bbd cef5 093d 0421 14bd
00000250: c6ac 173d 4693 c83c 311e a5bc 6984 b53b
00000260: 0c42 bc3c 88d7 bd3a e488 2c3d 3f22 4838
00000270: b67e 93bb e4c6 c4bc 1dd2 423d 833a 43bd
00000280: 88f4 8f3c 4a5f dabc 931e 113d 9b1f 15bd
00000290: e229 123d 59fe b53a 9062 aa3d e4d5 babb
000002a0: 7099 003b 163c c5ba 1e63 463d 9b36 4abd
000002b0: ba66 50bd 09fc 633b 77a7 0f3d 8ed4 163d
000002c0: a296 b4b7 bf4b 7e3b 28d8 4fbd a653 c9bd
000002d0: d2ba 2f3d 93b1 e0bc 61aa 4cbb 92e9 363d
000002e0: ac51 913b 0565 dbbc e265 bc3c 97d2 52bd
000002f0: fba9 1cbb cdf3 24bc 6fb5 c7bd 531b 75bd
00000300: 1b67 22bb e2e0 9bba 2691 47bd 47c3 233d
00000310: 5870 2d3c e009 8a3c 8300 db3c 508a 6b3c
00000320: a5a4 763b 13f9 323d 77b2 39bd 2bbc 1c3d
00000330: 9148 a9bc 4955 22bb 79f4 b73c 60f7 933d
00000340: 4bbd 81bd f3d8 4a3b fc83 8fbb 36c0 7abc
00000350: 672a e43c 842a 103d 69b1 873b 6520 21bd
00000360: aefe 6c3d 1130 123d 6340 933d cadb 233e
00000370: 16e1 67bd 008e bbbb db97 873c 61f8 2dbd
00000380: ea5e 8e3d b8a6 60bd c1f7 1abe c4cc 4a3c
00000390: cf0c 903b f487 3abd 2fc1 c43c 4324 5bbd
000003a0: 0004 1c3d e2cb 753a c27b 35bc f8ba 3e3a
000003b0: 7cf3 403d 0973 793d c37d c33d 8989 503d
000003c0: f2d5 ae3d dda9 21bd 24e1 5ebd 31d9 673c
000003d0: 2df9 8dbc b182 1ebc 4f78 c33b 15dc 8fbb
000003e0: 349c 0a3b 7122 bebb 0131 b53d 55db 933d
000003f0: fb89 a7bd 1711 973d e395 5c3c fb3e 373c
0.09756357 0.010701341 -0.077376254 0.07034457 0.08682641 0.037209004 0.005303574 0.055975977
-0.0591565 -0.0016139026 -0.06473055 0.067091696 -0.029504342 -0.053205498 0.009110885 0.010932096
-0.037922706 0.013173591 -0.0877446 0.009678845 0.061041802 -0.09701299 -0.0720711 0.048910778
0.063866474 -0.050268777 0.058120497 -0.0800835 0.0020205812 -0.0644426 -0.06670954 0.051026814
0.016047973 -0.11588662 0.067628704 -0.03678696 -0.068134874 -0.004971222 -0.032354258 -0.0016468037
-0.070260175 -0.0047667804 -0.014858911 0.05003914 0.04609793 -0.0070298156 -0.03239075 -0.039790343
0.051750347 0.003037811 0.0044131074 0.021399679 -0.007386511 0.008450553 0.021139687 -0.04487505
-0.00023715362 0.054033473 0.058317684 -0.011229411 -0.0021981325 0.051810917 0.03978384 0.05985495
-0.0029069418 0.006128975 -0.101219125 0.054427728 0.001418913 0.04030143 -0.03550527 0.041043825
0.012601369 0.07499688 -0.029545717 -0.05616459 0.05965604 -0.00092579983 0.023635048 -0.08781529
0.016782954 -0.001853937 -0.043396562 -0.050782118 0.08875062 -0.08357357 0.008315167 0.040016998
-0.04213865 0.03415325 0.020494282 -0.0067116674 0.04495269 0.011364619 0.035994068 -0.03678764
0.049486257 -0.06252627 -0.13549879 -0.030470425 -0.00740342 0.007177347 0.058543462 0.09027706
-0.0009966345 -0.029214384 -0.07621441 -0.00054832635 -0.034300752 -0.042934433 -0.0016931324 -0.07649298
0.08302521 -0.01197227 0.06694489 0.038213976 -0.003480583 -0.016273513 -0.007826587 -0.022411048
-0.0013507477 0.008849671 0.061419155 0.060750384 0.0070110373 -0.07262562 0.08533326 -0.008648285
-0.011234517 -0.019707978 -0.022657905 0.005281327 0.02428536 0.0027169175 -0.008269561 -0.039545354
-0.0283411 0.06382376 0.0005859362 -0.04510447 -0.028947977 -0.02057202 0.01677091 -0.019551897
-0.062377434 -0.045721225 0.033681683 -0.0361643 0.037030004 0.024484288 -0.020155998 0.005539466
0.022980712 0.0014483789 0.042122737 4.771561e-05 -0.004501189 -0.02402062 0.04756366 -0.047663223
0.017572656 -0.026656765 0.03542955 -0.036407094 0.035684474 0.0013885006 0.083195806 -0.0057017673
0.0019622706 -0.0015047814 0.04843437 -0.049368482 -0.050879218 0.0034787676 0.035071816 0.0368238
-2.1527816e-05 0.0038802472 -0.050743252 -0.09830408 0.042902775 -0.027428424 -0.0031229483 0.044656344
0.004434785 -0.026781568 0.0229978 -0.051470365 -0.0023905027 -0.010067892 -0.097514026 -0.05984051
-0.0024780694 -0.0011892582 -0.04872241 0.039981153 0.010585867 0.016850412 0.026733642 0.014376238
0.0037634757 0.043694567 -0.045336213 0.03826539 -0.020664485 -0.0024770072 0.02245544 0.072249174
-0.06334933 0.0030952066 -0.0043797474 -0.015304616 0.02785225 0.035196796 0.004141022 -0.039337534
0.05786007 0.03569037 0.07190015 0.16001812 -0.056611143 -0.005723715 0.016551903 -0.0424732
0.06951697 -0.054846495 -0.15133573 0.0123779215 0.004396058 -0.04553981 0.024017898 -0.05350138
0.038089752 0.0009376389 -0.011076869 0.00072757853 0.047107205 0.06090072 0.095454715 0.050912414
0.085369006 -0.039468635 -0.05441393 0.014150904 -0.01733073 -0.009674714 0.0059652696 -0.0043902495
0.0021150233 -0.0058024456 0.088472374 0.07219569 -0.081806146 0.073763065 0.01346347 0.011184449

encoder.linear_mu.bias f4 [128]
00000000: 499c 093c 2681 013a 8c22 0cbb 3485 6ebc
00000010: 971f 213c 6053 bd3b 108e 663a b817 02be
00000020: 557b b83b 647b 09bc 8dc5 cf3a a58e 043a
00000030: be91 27bc 2308 71ba 0a73 cb3c 0e80 103b
00000040: 405b 833b b287 f6ba 158a 23be ef1d 1fbc
00000050: 0f27 4e3c f405 f0b9 8ae9 46bb 5a94 643c
00000060: cefd a63d 1820 05bc 9d0f b13a fc8f d03a
00000070: f2de 74bd 5d5e 243c 9e3b 07bc 69c8 f23b
00000080: 77d3 ceba 7ad8 ccbb 828c 2d3c 65ef 63bc
00000090: 17fd db3b ef5e ad3b 714c 09bc 34d2 073b
000000a0: d4a9 55bc 71df 5e3c 4743 153b ab38 1abb
000000b0: 6ca3 063c c023 3ebb bd73 b4bb 2980 cb3a
000000c0: 58ae 0bbb 1d48 3f3a de7d 363b 3c5c aa3c
000000d0: 089b 9aba 371a d23c 450c c4ba b287 d5bb
000000e0: ffbc 9dbb 58c6 81bc fae8 823a 2da2 bc3b
000000f0: fa25 62bc 64fc 6bba d3aa 32bc 1165 28bc
00000100: 5e80 bd3b 2900 8fba a19a d9bb eb1a 903d
00000110: 019a 13bb 4801 283c ee28 c1bb 7c5d 9c3b
00000120: 0046 72bc ba35 123c 94b1 2f3c dcb0 17bd
00000130: 4910 adbb ae16 ad39 5f69 b63b b1a0 1c3f
00000140: 8abe e83b c68f 183a 7fda 203b 0ca4 fa3b
00000150: d84c 3ebc 41f4 bc3a 3ed9 9bba 21d0 f6bb
00000160: 66dd b6ba 01b6 4e3c e989 9d3a d91f eabd
00000170: da3d fcbb ac6c 39bc 83de 133c fe7d 2a3c
00000180: 5749 8ebc 2e31 3ebb 70fd 1cbc 6418 c53a
00000190: b878 e0ba 0612 b0bb c76e 873d 70f2 c13a
000001a0: 07d5 8ebc f081 173f 61c5 543c d1fc 563e
000001b0: 0558 c9bb 6f50 bbbb 447c b2bb b969 9a3b
000001c0: 37e7 05bc 51ac 453c f9f9 4fbb 51c9 283e
000001d0: 06d2 3f3d 86f0 ad3c 018c 00bc 7ce4 3cbc
000001e0: ec24 de3a e045 2c3a 1161 06bb 1357 323c
000001f0: 4631 6ebb ec60 24be 43fd a0bb 9cc5 813b
0.008399078 0.0004940204 -0.0021382896 -0.014558125 0.009834192 0.0057777613 0.00087949727 -0.1270436
0.0056299367 -0.008391235 0.0015851721 0.0005056656 -0.010227619 -0.0009194633 0.024835128 0.0022048983
0.0040086806 -0.0018808751 -0.15970643 -0.009711727 0.0125825545 -0.00045780803 -0.0030351602 0.013951385
0.08153878 -0.0081253275 0.0013508681 0.0015912051 -0.05978293 0.010032264 -0.00825396 0.0074091447
-0.0015779574 -0.006251392 0.010592582 -0.013912057 0.0067135203 0.005290858 -0.008380041 0.0020724656
-0.013040978 0.013603077 0.0022775696 -0.0023532312 0.008217674 -0.0029013008 -0.005506961 0.0015525866
-0.0021313634 0.00072968175 0.0027846019 0.020795934 -0.001179547 0.025647266 -0.001495727 -0.0065164203
-0.00481379 -0.015841648 0.0009987645 0.0057566375 -0.013803 -0.00090021477 -0.0109049855 -0.010278002
0.005783125 -0.0010910082 -0.0066407477 0.07036384 -0.0022522213 0.010254212 -0.005894772 0.0047718864
-0.014787197 0.008923942 0.01072349 -0.0370339 -0.0052814824 0.0003301403 0.0055667604 0.61182696
0.007102792 0.0005819764 0.0024544296 0.0076489504 -0.011615001 0.0014416055 -0.0011890305 -0.007532135
-0.001395148 0.012616635 0.001201925 -0.11431856 -0.007697803 -0.011317413 0.009025219 0.010406015
-0.017368956 -0.0029021013 -0.009581909 0.0015037176 -0.0017125821 -0.0053732423 0.06612926 0.0014796983
-0.017435564 0.59182644 0.012986512 0.2099488 -0.006144526 -0.0057163755 -0.0054469425 0.00471231
-0.008172802 0.012065009 -0.0031734689 0.16483046 0.046831153 0.021232855 -0.0078458795 -0.011529084
0.001694826 0.00065716915 -0.0020504633 0.010885018 -0.0036345287 -0.16052598 -0.0049130036 0.0039603245

encoder.linear_sigma.weight f4 [128, 128]
00000000: 6449 d13c 20db 903d 4e0d 8bbd 1a50 13bd
00000010: aa86 163d c84f d1bc 900d 463a fde5 5bbd
00000020: fdda 363d 0166 60bd 45da 0e3c 7ca1 c6bd
00000030: 1d8d 723c 7584 093d 9f14 9cbc 9780 a93d
00000040: d01f de3c b33d 8d3d 8ca4 c4bd d954 f33c
00000050: bd9b e23c ba9f acbc 6b18 913d 7281 e93c
00000060: 5275 613d ef70 a43c 3a3d 963d 63e5 7ebb
00000070: 639f 1eb9 5d87 aeb8 888f 22bd b7e7 083d
00000080: e20c 49bd 1a69 abbb 265d 7c3d 092d 9e3c
00000090: 3e02 94bd a76b e53a 7262 793d 7290 4fb9
000000a0: 8f30 2a3d be72 96ba d2c1 90bc 8d6c afbb
000000b0: a896 063d 744e 873b 1f56 86bd 83ea 66bd
000000c0: a8eb cdbc c0e7 503c e4f5 74bc 2301 04bc
000000d0: 0f2a 1ebd 3e07 3f3d b394 a53c 8036 eabc
000000e0: 26ba bdbc 3d06 24bc 2616 703d 2290 adbd
000000f0: 3248 a73a b960 8dbd 1000 803b 2b7c 563d
00000100: eccc 8c3a 8b56 94ba 0fe0 303d b7ea 7d3d
00000110: d09e 8cba 7601 bdbc 8588 cebc bee7 663b
00000120: cb0a 00bd b6d5 f8bc 7852 45bd 450e cf3c
00000130: 41e8 1d3c a818 d23a 88ff 59bc 25d4 b33c
00000140: 9ae1 43bc 6e7d 6939 aad7 813d c4a6 9b3c
00000150: 0cfb 8b3c 69c0 863d 8808 5238 f459 44bd
00000160: 7adf e23b 5ac8 82bd f54b e8bd 345a e0bc
00000170: fd60 d7bd 0c53 43b8 6f27 80bc 3ea1 3dbd
00000180: 4499 993b 4e53 62bd a2a4 9bbd 4a38 9cbd
00000190: 2ccd 073a 24fa 5a3d c118 733d 4c43 e7bc
000001a0: 8d11 a23d 80f9 9e3d 6de2 803c 6fdd e83a
000001b0: 7a88 b3bc e734 8dbd cfd6 17bd d567 733d
000001c0: 3950 27bd e5cf 5dbd ffd2 35ba 2fdd 42bd
000001d0: 7674 95bd 4695 103d 42f1 00b9 6447 04be
000001e0: b3e7 48ba f44b 8c3d 2cfb 03bd 81a3 43bd
000001f0: 9a9b 83ba 6473 863d c1c8 d7bc 46c5 28ba
00000200: 2355 9d3c e469 4fbc 6fc8 96bc 9556 51bc
00000210: 0f78 423c 264c c23b c19b d4ba 424a 65bc
00000220: 85cb 38bd 4303 b8bc e29d 873d 99ca 983d
00000230: 0076 d8bd fbb6 873d ff30 cd3c 5492 14bc
00000240: 0626 55bd c8c3 acbd f4fa 353d 1612 8d39
00000250: 97e9 02bd 46d1 f1bb db55 873c 4d4c 2e3d
00000260: a6ab 653d 0e6e 5ebd ee5f 21bd 8fdb 58bd
00000270: b535 da39 1c7b 493d 50a3 b63b 3df4 903d
00000280: 0076 303d 06c3 ecbd 916c 91bd 668f 92bd
00000290: c7a4 42bc 36d4 d638 46b3 abbd b495 133b
000002a0: fcac 9f3d 7a19 b63a c8f8 883c 9934 6fbd
000002b0: e243 a73d 5ce7 9f3a b71b 963d 837d a8bd
000002c0: 4a1f a6bd 2447 2d3d c346 ce3b 576e 8b3d
000002d0: 8816 963b 3243 ea3c c7d1 b7bc 402c a13c
000002e0: 219d ffbb 4a29 a33c c528 86bd 2d33 373d
000002f0: 26c1 6b3a 464a 99bc 5747 f2bc 53d8 d23c
00000300: 11ef 603a 00c4 05bb d020 3ebc 48c3 563d
00000310: 5ab1 74ba 8d63 51bd 41b7 553c 49fd db3c
00000320: 0c1b 9cbd defc 7f3d 3e4c 46bd 0946 10ba
00000330: 0c13 b33c 7f0d 29bb 6f02 8a3d 0dac 6cbd
00000340: 30c4 c53c b71a e9ba e851 aabd f58b 9cbd
00000350: 5d9d c4bd c961 d03b 7f3a ceba 2243 573d
00000360: c66e 273c 09e7 85bd f8c1 383c b9ec 24bc
00000370: ad83 f53c 346c 44ba 693e 1bbd be40 403c
00000380: 93ff d7ba c8ff 9fbd cfd2 6dbd 6cf3 39bc
00000390: 69c0 4bbb a58d 103d 1681 773c 283d a5bd
000003a0: 3ee9 a03d afa9 3fbc c698 403d bc7d c838
000003b0: 2f39 c6bd 62fd f0bc 0ad2 8fbd 5efc 8cbd
000003c0: ee47 fc3b 9c80 c4bd fa11 973d 791f 84bc
000003d0: b29c 8abd 0529 553c 82cd eb3a 9733 7d3d
000003e0: b46a 88ba 91da 293d c6f2 a7bc 7c3b 2f3d
000003f0: ab19 87bd 15f1 f4bb 69bf 453d c042 e0b9
0.02554769 0.07073045 -0.06789647 -0.035965063 0.03674952 -0.025550738 0.00075551216 -0.05368613
0.044642437 -0.05478478 0.008719032 -0.096987695 0.014804152 0.033573586 -0.019052802 0.0827648
0.027114779 0.06896534 -0.09601697 0.029703544 0.027662152 -0.021072257 0.070847355 0.028504107
0.055043526 0.020073382 0.07335897 -0.003889405 -0.0001512743 -8.32218e-05 -0.039687663 0.033424105
-0.04908455 -0.005231035 0.06161227 0.019308584 -0.0722699 0.0017503396 0.0608849 -0.00019794868
0.041550215 -0.0011478288 -0.017670546 -0.0053535164 0.03285852 0.0041292254 -0.06559395 -0.05637599
-0.025136784 0.012750566 -0.014951203 -0.008056912 -0.03861433 0.046637766 0.020212507 -0.02859044
-0.023160052 -0.010011253 0.058614872 -0.08474757 0.0012762605 -0.06903214 0.0039062575 0.05236451
0.0010742224 -0.0011317296 0.04318243 0.06199142 -0.0010728482 -0.023071986 -0.025211582 0.0035233344
-0.031260293 -0.030375343 -0.04817435 0.025275359 0.009637893 0.0016029077 -0.013305552 0.021951744
-0.011955643 0.00022267338 0.06339963 0.019000418 0.017087482 0.06579668 5.0075847e-05 -0.04793735
0.006923613 -0.0638587 -0.11342613 -0.027386762 -0.10516546 -4.6568966e-05 -0.015643803 -0.04629635
0.00468746 -0.055255227 -0.075997606 -0.07627924 0.00051804143 0.05346121 0.05934978 -0.028230332
0.07913504 0.07762432 0.015732968 0.0017766188 -0.021915663 -0.06894856 -0.03707009 0.059425194
-0.04084799 -0.05415334 -0.0006936043 -0.04757422 -0.07297604 0.03529861 -0.00012296907 -0.12917858
-0.00076639204 0.068504244 -0.032221958 -0.04776335 -0.001004088 0.06564978 -0.026340844 -0.00064380874
0.019205635 -0.012659524 -0.018406121 -0.01277699 0.0118694445 0.0059294878 -0.0016220735 -0.013994755
-0.045115966 -0.022462493 0.06621911 0.074605174 -0.10569382 0.06626698 0.025047777 -0.0090680905
-0.052038215 -0.0843578 0.04442878 0.0002690709 -0.03196105 -0.0073796837 0.016520431 0.042553235
0.0560719 -0.054304175 -0.039398126 -0.052943762 0.00041620215 0.049189672 0.0055736676 0.07077835
0.043081284 -0.11560635 -0.071007855 -0.07156257 -0.011880106 0.000102438426 -0.08383803 0.002251965
0.07796666 0.0013893091 0.01672019 -0.05839977 0.081672445 0.0012199688 0.07329505 -0.082270645
-0.08111437 0.042304173 0.0062950565 0.06808155 0.0045803227 0.028596494 -0.022438897 0.01967442
-0.0078007136 0.01991715 -0.06550745 0.04472654 0.000899332 -0.018712174 -0.029575033 0.025737917
0.00085805455 -0.0020411015 -0.011604503 0.05243233 -0.0009334289 -0.05112033 0.013044179 0.026854174
-0.07622346 0.062497012 -0.048412554 -0.00055036 0.021859668 -0.0025795398 0.067387454 -0.057781268
0.024141401 -0.0017784451 -0.083164036 -0.07643882 -0.09600327 0.006359313 -0.0015733986 0.052554257
0.010219282 -0.06538207 0.0112767145 -0.010066205 0.029970014 -0.000749293 -0.037901316 0.011734186
-0.0016479365 -0.07812458 -0.05806237 -0.01134954 -0.0031090027 0.035291333 0.01510646 -0.08068305
0.078569874 -0.011698171 0.047020696 9.560163e-05 -0.09678876 -0.029417697 -0.07022484 -0.06884073
0.0076990044 -0.09594843 0.07376476 -0.016128289 -0.067681685 0.013010268 0.0017990323 0.061816778
-0.0010407777 0.041468207 -0.020501506 0.042781338 -0.06596693 -0.0074750283 0.048278246 -0.00042774342

encoder.linear_sigma.bias f4 [128]
00000000: 76f4 b0be 84a5 b1be 680a b1be 988e b0be
00000010: 290d b1be 845e b2be 2e05 b2be 4c2c 5f3c
00000020: da69 b2be 062c b0be 609f afbe 632c b1be
00000030: ddcf b0be 1893 b1be 47b3 b0be e9a3 b0be
00000040: 3fc1 b1be 2c7d b0be 5263 77be 39d7 afbe
00000050: 6fa5 b1be ddf7 b0be 3a38 b1be 6f25 b0be
00000060: 4a0f 0bbf e796 b0be 214e b1be c925 b1be
00000070: 06c5 87bf 0573 b1be b750 b2be ace7 b0be
00000080: dd44 b1be 9d64 b0be f7c9 b0be 398e b1be
00000090: 7591 b1be 89bd b0be 588a b0be d71d b1be
000000a0: 96ef b0be 400e b0be d9c0 b1be f0d5 b1be
000000b0: ab97 b0be 7571 b1be bd5b b1be 6682 b1be
000000c0: be31 b1be e049 b1be 5934 b1be 5aa6 8fbe
000000d0: 0282 afbe 2168 b0be 15e3 afbe 1448 b2be
000000e0: 1802 b2be 2bb1 b0be dd7a b1be b46f b1be
000000f0: 99c4 b1be fcd6 b0be c43a b1be 45e1 b1be
00000100: 7413 b1be 8a96 b1be c401 b2be 63a3 efbe
00000110: 7947 b2be d4d9 b0be 4692 b1be 1548 b1be
00000120: c9a0 b0be 1760 b1be 1df4 b0be b2a5 93be
00000130: b24a b1be 0adc b0be 9800 b1be 766f 86bf
00000140: 2c69 b2be 25b7 b0be 811a b2be fb5f b1be
00000150: 6107 b1be 2f32 b0be a3dc b0be 388f b0be
00000160: 4539 b1be 60aa b0be 09f1 b0be 72dc a2be
00000170: 68f2 afbe 9624 b1be bc1b b1be 34fa b0be
00000180: eb5a b2be e514 b1be 76ea b0be 3458 b2be
00000190: 994e b1be 56ee b2be f330 99bf 9f3b b1be
000001a0: 48f3 b0be 3721 80bf a741 b1be e250 30bf
000001b0: e623 b1be 3d0b b1be f215 c2bf 73cf b1be
000001c0: da23 b1be e750 b0be 853a b1be a96e e8be
000001d0: e995 dfbe 0ea0 b0be 7fb3 b1be 390d b2be
000001e0: 859c b1be 7131 b1be b987 b2be f87c b0be
000001f0: 99ce afbe 0c98 eabe b03a b1be 5932 b2be
-0.3456151 -0.3469659 -0.34578252 -0.3448379 -0.34580353 -0.34837735 -0.34769577 0.013621401
-0.34846383 -0.34408587 -0.3430128 -0.34604177 -0.34533587 -0.34682536 -0.34511778 -0.34500054
-0.34717748 -0.344705 -0.24158981 -0.3434389 -0.34696528 -0.34564105 -0.3461321 -0.3440356
-0.54320204 -0.3449013 -0.3462992 -0.3459914 -1.0607002 -0.34658065 -0.34827206 -0.34551752
-0.3462285 -0.34451762 -0.34529087 -0.3467882 -0.34681287 -0.34519604 -0.34480548 -0.34593078
-0.3455779 -0.34385872 -0.34717444 -0.34733534 -0.34490713 -0.34656873 -0.34640303 -0.346698
-0.34608263 -0.34626675 -0.3461025 -0.28056604 -0.34278876 -0.34454444 -0.34352937 -0.34820616
-0.34767222 -0.34510168 -0.3466405 -0.34655535 -0.34720305 -0.3453902 -0.34615147 -0.3474218
-0.34585154 -0.34685165 -0.34766972 -0.46804342 -0.34820154 -0.3454119 -0.3468191 -0.34625307
-0.3449767 -0.34643623 -0.34561244 -0.28837353 -0.346273 -0.34542876 -0.34570765 -1.0502765
-0.34845865 -0.34514728 -0.34785846 -0.3464354 -0.34575942 -0.34413287 -0.34543332 -0.34484267
-0.34614006 -0.34504986 -0.34558895 -0.3180881 -0.3436463 -0.34598225 -0.34591472 -0.3456589
-0.3483499 -0.34586254 -0.3455388 -0.3483292 -0.34630278 -0.3494746 -1.1968063 -0.346158
-0.3456061 -1.0010136 -0.346204 -0.6887342 -0.345977 -0.34578887 -1.5162947 -0.34728584
-0.34597665 -0.34436724 -0.3461496 -0.45396927 -0.4366906 -0.34497112 -0.34707257 -0.34775713
-0.34689727 -0.34608033 -0.34869173 -0.34470344 -0.3433731 -0.45819128 -0.34615088 -0.34804037
