checkpoints_anomalies/model-80.pt (torch, 829401 bytes, 45 tensors)

encoder.conv1.weight f4 [8, 1, 3, 3]
-0.19377653 0.64580077 -0.5459696 -0.5959928 0.42068687 -0.98568547 -0.07646185 -0.03904373
-0.27718157 0.32125673 -0.39490873 2.5518413 0.060767286 -0.32069412 0.3302047 0.19562978
-0.6114273 0.5223371 -0.35009676 -0.52323467 -0.8134782 -0.16477041 -0.008308133 0.26943898
1.0262275 0.3511192 0.4313091 -0.3194278 -0.6816797 -0.25746417 -0.4005337 -0.47554636
-0.07278806 -0.87329847 -0.5957373 0.3965925 0.34513545 -0.08064265 -0.7322581 0.3201534
0.42090148 -0.52026165 0.88300186 0.05353863 -0.6509601 -0.15349518 0.96404445 -0.47662094
-0.21078113 0.5761635 -0.5141258 0.50315714 0.5748628 -0.1436642 1.6692052 0.12873626
-0.015130988 0.08351706 0.33175042 -0.32205123 0.17964332 -0.13417888 0.8157103 0.30306557
-0.5786024 0.6035153 1.145587 0.31609076 0.22543927 1.479394 0.31648076 -0.31767538
00000000: 5b6d 46be 3353 253f aac4 0bbf fc92 18bf
00000010: 4564 d73e e255 7cbf 0898 9cbd 51ec 1fbd
00000020: beea 8dbe c37b a43e 7a31 cabe 5e51 2340
00000030: 1ee7 783d 0532 a4be 9710 a93e 2c53 483e
00000040: 8086 1cbf e2b7 053f e23f b3be b5f2 05bf
00000050: 1b40 50bf 93b9 28be d61e 08bc e8f3 893e
00000060: 6c5b 833f e5c5 b33e 8cd4 dc3e 0a8c a3be
00000070: 9082 2ebf 58d2 83be c112 cdbe d07a f3be
00000080: e811 95bd 7d90 5fbf 3d82 18bf 2c0e cb3e
00000090: 98b5 b03e f927 a5bd 4475 3bbf 25eb a33e
000000a0: 6680 d73e de2f 05bf 690c 623f 534b 5b3d
000000b0: 52a5 26bf d72d 1dbe 9ecb 763f a907 f4be
000000c0: 02d7 57be 737f 133f c09d 03bf e8ce 003f
000000d0: 352a 133f b51c 13be 84a8 d53f 70d3 033e
000000e0: f7e7 77bc fe0a ab3d 31db a93e e6e3 a4be
000000f0: 6bf4 373e 3066 09be 64d2 503f 692b 9b3e
00000100: 491f 14bf fb7f 1a3f 98a2 923f a6d6 a13e
00000110: 8dd9 663e c85c bd3f c409 a23e 59a6 a2be

encoder.conv1.bias f4 [8]
1.5699573 0.05930956 -0.0884691 -0.20808798 0.5054133 0.31692895 0.9898832 -0.14247237
00000000: 5cf4 c83f 95ee 723d 4a2f b5bd 0415 55be
00000010: c462 013f 8344 a23e fc68 7d3f 47e4 11be

encoder.conv2.weight f4 [16, 8, 3, 3]
-0.12355169 -0.009308464 0.6007237 -0.31102005 -0.12102223 0.42555854 -0.06118405 0.015926948
0.23302379 0.11704301 -0.498425 -1.2345833 0.3524941 0.17390287 -0.4819202 0.9895817
0.34851137 -0.21023026 0.032764193 -0.19379914 0.28707555 0.0812082 -0.9813527 -0.7078093
0.5484217 -0.5802853 -0.80219316 -0.5077203 0.1028279 0.6779609 -0.5648613 0.12001778
0.6908613 -0.5857116 -0.2836276 0.6241734 -0.39419076 -0.117570095 0.68770826 -0.38698393
-0.5446556 0.16621418 -0.12932491 -0.47318617 0.5127882 -0.8536984 -0.5541777 1.1049172
-0.22182862 -0.15358178 0.8956904 0.52773494 0.108064346 0.30522382 0.37999296 -0.14599109
-0.21139966 0.42512473 -0.05348644 -0.045245785 0.8908748 -0.057747483 -0.25568697 0.7499091
-0.11433106 -0.52322614 0.7190795 0.0112344725 -0.023658793 1.2216157 0.3314964 0.3752169
-0.09947493 0.007904897 0.07086761 -0.092247814 0.091751084 0.18032317 0.5395402 0.10059327
0.257475 0.5532217 0.48945817 1.5127367 0.8791459 0.30213436 1.181919 0.66525817
-0.3432876 0.9288988 0.12535602 -0.99078214 -0.30167696 0.043959938 0.1317901 -0.17809165
0.595796 0.17482318 0.16227263 -0.17560117 0.22550361 0.16578941 0.16915038 0.3309392
0.31412828 0.083452806 0.34256163 -0.6614199 -0.17956756 0.31967503 0.61600715 0.57723725
0.51447654 -0.020568749 0.20867473 -0.021687202 0.27532017 -0.56218404 -0.03959565 0.1791238
-1.0723906 -0.12159099 -0.42634526 1.1888224 0.49712875 -0.44277003 0.4294143 -0.21937393
-0.04483026 0.3340649 -0.3465776 -0.49255517 0.62498415 0.029035354 0.6581814 0.4295094
-0.01633203 1.5003794 0.73741925 0.4979701 1.1996167 1.1215131 1.314883 1.1950239
-0.29319122 0.23477338 0.5126724 0.816175 0.39868364 0.36413965 0.34525535 -0.07131903
-0.5661659 0.12563263 -0.26235762 -1.3644483 0.45906505 -0.13532233 -0.15941994 -0.3056832
0.13976605 0.7192323 -0.62185395 0.04429025 0.615098 0.47939786 0.022295106 0.63199
0.084638104 0.14164409 0.26758108 -0.57534426 -0.14941297 -0.26819062 0.39648402 0.5214183
0.23621795 0.26643127 -0.13708262 -0.5625735 0.11553031 -0.24977809 -0.26459247 -0.45510066
-0.51979774 -0.73015636 -0.31882155 0.12990987 -0.09686717 -0.3560906 -0.43593383 -0.2837293
-0.7784571 0.029382886 -1.0108613 0.042445898 0.321844 0.5438008 0.78153557 -0.13030738
-1.9413146 -0.83999544 -2.2610645 -1.0513078 -0.69393134 -0.12485159 0.34512302 0.37940192
0.3310096 -0.6783517 0.32951522 0.2831712 -0.38756782 -0.15353765 -0.21382704 0.5040399
0.7038679 0.36203718 0.38023192 1.0198648 0.64001644 0.68663114 0.13693817 0.10107595
-0.3883354 -0.20536308 0.07266051 0.19107935 0.32317993 0.118688434 -0.040650643 -0.42022035
0.04336611 0.85648257 0.09384536 0.41243297 -0.14550413 0.5636657 0.5000342 0.34513214
0.5022422 0.33741507 -0.13180085 0.44870517 1.4806403 0.51741433 0.18235338 0.95642835
0.5369844 -0.49455658 0.1984355 0.0018095062 -0.5239435 -0.3697458 0.28420213 -0.60726684
00000000: ab08 fdbd 8782 18bc 07c9 193f 053e 9fbe
00000010: 81da f7bd cfe2 d93e 209c 7abd 3b79 823c
00000020: ca9d 6e3e 3fb4 ef3d 9031 ffbe d306 9ebf
00000030: 1b7a b43e 9813 323e 3fbe f6be 3a55 7d3f
00000040: 1570 b23e 9a46 57be bf33 063d 4873 46be
00000050: 91fb 923e 7c50 a63d ee39 7bbf fe32 35bf
00000060: 5d65 0c3f 948d 14bf 885c 4dbf f5f9 01bf
00000070: 6f97 d23d d88e 2d3f c09a 10bf e2cb f53d
00000080: 49dc 303f 32f1 15bf a337 91be d4c9 1f3f
00000090: 5fd3 c9be 97c8 f0bd a60d 303f c222 c6be
000000a0: 8d6e 0bbf 0d34 2a3e c06d 04be 7545 f2be
000000b0: 1646 033f fa8b 5abf 97de 0dbf ed6d 8d3f
000000c0: 0b27 63be 8b44 1dbe f74b 653f a319 073f
000000d0: d750 dd3d 4c46 9c3e 708e c23e b07e 15be
000000e0: 2779 58be f3a9 d93e 9914 5bbd a553 39bd
000000f0: 5f10 643f a088 6cbd 67e9 82be 0bfa 3f3f
00000100: 6726 eabd 26f2 05bf 9815 383f cb10 383c
00000110: 16d0 c1bc e75d 9c3f e5b9 a93e 6e1c c03e
00000120: 83b9 cbbd 8b83 013c 0a23 913d 6cec bcbd
00000130: fee7 bb3d a3a6 383e 4e1f 0a3f d803 ce3d
00000140: c3d3 833e f09f 0d3f 439a fa3e 5ba1 c13f
00000150: b50f 613f 5bb1 9a3e 1f49 973f 5c4e 2a3f
00000160: 64c3 afbe 50cc 6d3f 545d 003e e6a3 7dbf
00000170: 6775 9abe 560f 343d fcf3 063e a85d 36be
00000180: 1686 183f d904 333e cc2a 263e cbd0 33be
00000190: 6bea 663e b3c4 293e c235 2d3e dd70 a93e
000001a0: 6cd5 a03e 4ee9 aa3d 3d64 af3e d152 29bf
000001b0: 8fe0 37be 72ac a33e a5b2 1d3f d2c5 133f
000001c0: bcb4 033f cb7f a8bc d4ae 553e 5ca9 b1bc
000001d0: c4f6 8c3e 4beb 0fbf 0c2f 22bd 3b6c 373e
000001e0: 1844 89bf b204 f9bd ed49 dabe 552b 983f
000001f0: a987 fe3e c1b2 e2be 31dc db3e 8fa3 60be
00000200: ef9f 37bd 8e0a ab3e 9f72 b1be 3130 fcbe
00000210: f6fe 1f3f 8ddb ed3c 947e 283f a8e8 db3e
00000220: c0ca 85bc 6f0c c03f 82c7 3c3f f0f5 fe3e
00000230: 0a8d 993f be8d 8f3f 164e a83f 8bf6 983f
00000240: 291d 96be 6f68 703e 803e 033f d8f0 503f
00000250: 4320 cc3e 8370 ba3e 4fc5 b03e b60f 92bd
00000260: 40f0 10bf d7a5 003e bd53 86be 3ea6 aebf
00000270: 930a eb3e f091 0abe fb3e 23be 8282 9cbe
00000280: d51e 0f3e 9c1f 383f d231 1fbf b169 353d
00000290: 1077 1d3f a373 f53e 3aa4 b63c 19ca 213f
000002a0: be56 ad3d 260b 113e 6300 893e c349 13bf
000002b0: b7ff 18be 4850 89be f4ff ca3e ab7b 053f
000002c0: 1ee3 713e ae69 883e 635f 0cbe d104 10bf
000002d0: 289b ec3d d4c5 7fbe aa78 87be f402 e9be
000002e0: 7711 05bf 87eb 3abf 943c a3be 1807 053e
000002f0: 4b62 c6bd 8251 b6be b832 dfbe f844 91be
00000300: f748 47bf 61b4 f03c e763 81bf c0db 2d3d
00000310: bdc8 a43e 8736 0b3f b712 483f 4c6f 05be
00000320: ff7c f8bf f109 57bf 48b5 10c0 4191 86bf
00000330: 7ca5 31bf 31b2 ffbd f7b3 b03e f840 c23e
00000340: 177a a93e 75a8 2dbf 38b6 a83e d1fb 903e
00000350: 4a6f c6be f938 1dbe 7af5 5abe c208 013f
00000360: b030 343f f05c b93e c2ad c23e ee8a 823f
00000370: 1ed8 233f 0fc7 2f3f 8539 0c3e e800 cf3d
00000380: e6d3 c6be b34a 52be 09cf 943d 4eaa 433e
00000390: d777 a53e ec12 f33d 4a81 26bd 1f27 d7be
000003a0: aaa0 313d 7142 5b3f ff31 c03d 6a2a d33e
000003b0: 09ff 14be 654c 103f 3e02 003f 29b5 b03e
000003c0: f292 003f abc1 ac3e cdf6 06be afbc e53e
000003d0: 9f85 bd3f 4475 043f d8ba 3a3e 7dd8 743f
000003e0: cf77 093f 8536 fdbe ad32 4b3e f42c ed3a
000003f0: 2921 06bf 524f bdbe f182 913e d775 1bbf

encoder.conv2.bias f4 [16]
-0.020396646 0.24064915 -0.52170134 0.650545 0.18030871 0.41557345 0.3701485 -1.1532923
-0.32559723 -0.5052675 1.0331635 -0.30310583 -0.17423768 0.026800407 -0.5901405 -0.0548072
00000000: de16 a7bc bb6c 763e 388e 05bf 1e8a 263f
00000010: d9a2 383e 0bc6 d43e 1b84 bd3e 159f 93bf
00000020: aeb4 a6be 3659 01bf b43e 843f b030 9bbe
00000030: 5d6b 32be 878c db3c 7313 17bf 847d 60bd

encoder.conv3.weight f4 [32, 16, 3, 3]
-0.31954148 -0.4244333 -0.23279731 0.091564246 -0.3624154 -0.38749054 -0.46531555 -0.2596164
0.16897471 0.4555911 -0.4760075 -0.96068037 0.12932412 0.19367124 -0.032871593 0.33131403
0.12466541 0.3380653 0.24637598 0.2993992 0.5268333 -0.15668944 0.051946633 0.115272366
-1.7598091 0.35508502 -0.39096358 0.08321824 0.023878645 0.17972286 0.17796715 0.19874863
-0.24793766 -1.547165 0.019055307 -0.7302404 0.7341009 0.8522744 0.3877143 0.2741912
0.0669053 -0.22331658 -0.7612702 -0.29991484 -0.9911341 -0.083051525 -0.23817447 -0.5027234
-0.15253279 -0.16116022 0.17466147 -1.3493792 0.5044632 0.7399668 -0.069391325 -0.37947446
-0.112573996 -0.50661623 0.59711456 0.5546455 0.22607373 0.48210022 0.07135219 0.25369725
-0.04909328 -0.062528595 0.1987302 0.7016828 0.45820823 -0.6246106 -0.04833107 -1.2179266
0.31414005 -0.03016292 -0.600606 -0.6183943 -0.73633844 -0.21277034 -0.89146173 0.2722905
0.44303897 0.2162603 0.22364566 0.10834985 -0.5630586 -0.006140097 -0.07360682 -2.5868146
0.03574988 -0.14695823 -0.017638704 -0.50712913 -0.36310536 -0.6177089 -0.842985 0.028939378
-0.7168887 0.041340142 -0.066365466 -0.01316917 0.08376913 0.33263034 0.13298656 0.7325483
-0.55051446 -0.82110673 0.12634264 -1.2172383 -0.060238935 0.09336041 0.18482934 0.18393864
-0.36366487 -0.3986977 -0.40444043 -0.42666516 0.010156676 0.48346043 0.045091435 -0.12773609
0.5286841 -0.40587223 -0.52272886 0.2186355 -0.7304418 -0.67030907 -0.13939731 0.18670784
0.59719115 -0.72570336 0.013638221 0.19871253 -0.9489901 0.0952233 -0.3129265 0.70544404
0.020950748 -0.737473 -0.28513837 -0.5254794 0.14109194 -0.6982888 -0.7684267 -0.406457
-0.8955659 -0.36593926 -0.36810836 -1.3196539 -0.6258116 -0.06513642 -1.1505053 -0.8775461
-0.12442852 0.45308703 -0.7534353 0.38522208 -0.65202695 0.5950239 0.34441686 0.111307606
0.780236 -0.44008514 0.18993181 0.9575602 0.21537147 1.2445248 0.59244126 -0.102789894
0.24757962 -0.7572218 -0.9692377 -0.45547515 0.38042304 0.11314304 0.558796 0.0023024213
0.100963555 -0.2350344 -0.08717273 -0.3875166 -0.81803 -0.47725034 0.22385453 -0.6589606
-1.1840634 -0.6140584 -0.47043464 -1.5171279 -0.623328 0.10665223 0.08549525 0.262581
-0.079908624 0.15826215 0.5115871 -0.17067936 -1.2024916 -0.112366855 0.7934524 0.8841404
0.2568227 0.3508238 0.50374657 0.6205785 0.38384145 0.31293306 -1.4664813 0.1333629
-0.31100065 0.3243563 0.759319 0.4694884 0.09529088 -0.01610935 0.037202213 -0.07708836
0.20073022 0.5553837 -0.11519069 0.5637133 -0.06619335 0.322231 0.3089147 0.023043979
0.48382962 -0.115747124 0.39609686 0.058758244 0.23330729 0.047104195 0.046210915 -0.076266594
-0.5396829 -0.6360598 0.16486393 -0.25421035 0.28363836 0.36465642 0.03888184 -0.5237488
0.13812275 0.17997125 -0.9055838 -0.846127 -0.043410864 0.07698403 0.4173155 -0.2789802
-1.167398 -0.2450058 -0.62787414 -0.08524177 0.33497703 -0.24635735 0.48706093 0.23630235
00000000: f19a a3be 524f d9be 6b62 6ebe 0986 bb3d
00000010: 838e b9be 2965 c6be d73d eebe 71ec 84be
00000020: b507 2d3e 3d43 e93e 41b7 f3be 26ef 75bf
00000030: 8b6d 043e c151 463e 5da4 06bd fea1 a93e
00000040: 9450 ff3d e516 ad3e fc49 7c3e da4a 993e
00000050: 8cde 063f 3273 20be fec5 543d eb13 ec3d
00000060: 6d41 e1bf b4cd b53e 612c c8be 536e aa3d
00000070: 269d c33c 4509 383e 053d 363e c384 4b3e
00000080: 5fe3 7dbe 8109 c6bf e019 9c3c 09f1 3abf
00000090: 09ee 3b3f a82e 5a3f 7d82 c63e ca62 8c3e
000000a0: a505 893d 1aad 64be 9be2 42bf 708e 99be
000000b0: f7ba 7dbf eb16 aabd 02e4 73be 7bb2 00bf
000000c0: 8e31 1cbe 2f07 25be 75da 323e 75b8 acbf
000000d0: 8024 013f 776e 3d3f 0a1d 8ebd 7a4a c2be
000000e0: 328d e6bd 9ab1 01bf 80dc 183f 3ffd 0d3f
000000f0: df7f 673e d7d5 f63e 1921 923d 9be4 813e
00000100: 0916 49bd fe0e 80bd ee7f 4b3e 7ca1 333f
00000110: 459a ea3e 7be6 1fbf cdf6 45bd 05e5 9bbf
00000120: f7d6 a03e 3a18 f7bc 51c1 19bf 174f 1ebf
00000130: ad80 3cbf 78e0 59be d636 64bf a969 8b3e
00000140: 01d6 e23e 5773 5d3e 5e03 653e 87e6 dd3d
00000150: 9c24 10bf de32 c9bb 2cbf 96bd 5f8e 25c0
00000160: 776e 123d 387c 16be 0b7f 90bc 37d3 01bf
00000170: f2e8 b9be 2c22 1ebf ddcd 57bf 4612 ed3c
00000180: 0586 37bf 4854 293d 9eea 87bd 81c3 57bc
00000190: 268f ab3d 864e aa3e a12d 083e 4988 3b3f
000001a0: 84ee 0cbf 0d34 52bf f75f 013e 77ce 9bbf
000001b0: 1abd 76bd be33 bf3d e743 3d3e 695a 3c3e
000001c0: 4832 babe 1b22 ccbe d112 cfbe db73 dabe
000001d0: 3068 263c 2088 f73e ccb1 383d 40cd 02be
000001e0: d757 073f 7cce cfbe 8fd1 05bf fce1 5f3e
000001f0: 3cfe 3abf 6099 2bbf 2bbe 0ebe 5730 3f3e
00000200: 85e1 183f b2c7 39bf d872 5f3c 4c7b 4b3e
00000210: 04f1 72bf 6f04 c33d e737 a0be fb97 343f
00000220: e7a0 ab3c 08cb 3cbf a8fd 91be d185 06bf
00000230: 687a 103e 0ec3 32bf 9db7 44bf 221b d0be
00000240: cf43 65bf 645c bbbe b378 bcbe 6bea a8bf
00000250: 3035 20bf 3e66 85bd c243 93bf dca6 60bf
00000260: 61d4 febd 06fb e73e 23e1 40bf d43b c53e
00000270: 3deb 26bf 7c53 183f 6857 b03e 3ef5 e33d
00000280: 8cbd 473f d752 e1be 7c7d 423e aa22 753f
00000290: 578a 5c3e 974c 9f3f 3baa 173f 8283 d2bd
000002a0: 8385 7d3e 4ad9 41bf f61f 78bf 0a34 e9be
000002b0: cfc6 c23e 8ab7 e73d 410d 0f3f 38e4 163b
000002c0: fbc5 ce3d dcac 70be 9e87 b2bd 9368 c6be
000002d0: 6a6a 51bf 285a f4be 1f3a 653e a4b1 28bf
000002e0: 648f 97bf ee32 1dbf cfdc f0be 3f31 c2bf
000002f0: 6c92 1fbf 7c6c da3d 2218 af3d 0471 863e
00000300: 22a7 a3bd 790f 223e 5ff7 023f 92c6 2ebe
00000310: 3feb 99bf 9820 e6bd b21f 4b3f 0657 623f
00000320: 447e 833e 2d9f b33e 89f5 003f 3cde 1e3f
00000330: de86 c43e c338 a03e a9b5 bbbf 4990 083e
00000340: 7a3b 9fbe 0712 a63e bb62 423f c960 f03e
00000350: dd27 c33d c1f7 83bc 5961 183d 81e0 9dbd
00000360: 398c 4d3e a02d 0e3f 19e9 ebbd 844f 103f
00000370: 6190 87bd 76fb a43e 112a 9e3e bac6 bc3c
00000380: 84b8 f73e d40c edbd 35cd ca3e 7cac 703d
00000390: 1be8 6e3e 54f0 403d a847 3d3d a931 9cbd
000003a0: a928 0abf d1d4 22bf 17d2 283e dc27 82be
000003b0: 0c39 913e 3fb4 ba3e 9042 1f3d 6714 06bf
000003c0: 0d70 0d3e 624a 383e 57d4 67bf c79b 58bf
000003d0: 97cf 31bd cea9 9d3d 61aa d53e 7ed6 8ebe
000003e0: 4c6d 95bf cde2 7abe 5cbc 20bf 3d93 aebd
000003f0: 1c82 ab3e 1a45 7cbe 0d60 f93e 3ef9 713e

encoder.conv3.bias f4 [32]
-0.26749116 -0.3542186 0.12684147 0.22795708 -1.135336 -0.496218 0.08110348 0.08692969
0.20386316 -0.2733312 0.300042 -0.54330075 -0.12833926 0.3764677 0.30043828 0.40451452
0.45816073 0.0460768 -0.7702153 0.68145114 0.66956824 0.735014 -0.3593035 0.6174739
0.19414696 -0.1660211 -0.2707968 -0.37494165 1.4421679 -0.26868016 0.32234153 -0.30610788
00000000: 9af4 88be 245c b5be bbe2 013e 956d 693e
00000010: b152 91bf 4910 febe 9519 a63d 3108 b23d
00000020: 81c1 503e 11f2 8bbe 1b9f 993e c215 0bbf
00000030: 5e6b 03be 60c0 c03e 0cd3 993e 871c cf3e
00000040: 0b94 ea3e 07bb 3c3d d42c 45bf 9573 2e3f
00000050: d368 2b3f e129 3c3f a1f6 b7be c512 1e3f
00000060: 76ce 463e 6f01 2abe e1a5 8abe 5af8 bfbe
00000070: f598 b83f 7290 89be f309 a53e 2cba 9cbe

encoder.batch_norm1.weight f4 [8]
0.656639 2.3238268 0.35042042 0.90666234 0.4139451 0.7127574 1.8298153 2.371238
00000000: 7e19 283f 94b9 1440 4e6a b33e 061b 683f
00000010: 9df0 d33e 4577 363f 6337 ea3f 5dc2 1740

encoder.batch_norm1.bias f4 [8]
0.18741724 -0.564841 0.20318003 0.20541325 0.08815813 0.07576709 -0.3331509 -0.4735157
00000000: 4eea 3f3e 6b99 10bf 6d0e 503e da57 523e
00000010: 408c b43d c72b 9b3d c192 aabe a670 f2be

encoder.batch_norm1.running_mean f4 [8]
0.11461359 2.3983727 0.09809463 -3.0994062 0.523239 1.3076844 3.3920004 2.9301195
00000000: 88ba ea3d f07e 1940 d6e5 c83d ac5c 46c0
00000010: fef2 053f 3462 a73f 8916 5940 1487 3b40

encoder.batch_norm1.running_var f4 [8]
0.14637777 0.44154012 0.11500135 0.63386756 0.1275287 0.113353536 0.38864616 0.7284233
00000000: 0ee4 153e 8c11 e23e d485 eb3d 2545 223f
00000010: e296 023e e625 e83d a1fc c63e f379 3a3f

encoder.batch_norm2.weight f4 [16]
1.1807508 1.8329738 0.89483577 1.3020153 1.0059825 1.1231991 0.89344966 0.87605214
1.4143641 1.1861506 0.7689026 0.8046108 0.9744359 0.8388221 1.00593 1.2046419
00000000: d822 973f e39e ea3f f513 653f 70a8 a63f
00000010: 09c4 803f fdc4 8f3f 1eb9 643f f444 603f
00000020: e209 b53f c8d3 973f cdd6 443f f9fa 4d3f
00000030: a274 793f 0cbd 563f 50c2 803f b531 9a3f

encoder.batch_norm2.bias f4 [16]
0.17011015 -0.7604089 -0.49350783 0.67614204 -0.07747813 -0.14438926 -0.43764663 -0.012169548
-0.12788926 0.51573634 0.5698061 0.17917708 0.10553138 -0.41336316 -0.11332754 0.7077073
00000000: 5b31 2e3e 28aa 42bf 0fad fcbe a517 2d3f
00000010: dbac 9ebd c7da 13be 3813 e0be c962 47bc
00000020: 67f5 02be 4c07 043f d0de 113f 327a 373e
00000030: d620 d83d 56a4 d3be 4518 e8bd 4e2c 353f

encoder.batch_norm2.running_mean f4 [16]
1.2958958 7.483608 -3.1943777 3.1625266 -0.43802804 -0.996444 -2.532266 0.7209332
0.7189248 -0.2440933 -2.6197667 -0.16045846 -1.1158687 -0.38620254 -0.4170128 -2.6227686
00000000: eadf a53f b779 ef40 af70 4cc0 d666 4a40
00000010: 3645 e0be f416 7fbf a510 22c0 148f 383f
00000020: 750b 383f 98f3 79be 42aa 27c0 394f 24be
00000030: c9d4 8ebf 57bc c5be b482 d5be 71db 27c0

encoder.batch_norm2.running_var f4 [16]
7.422707 4.1305385 8.403755 23.104475 4.483517 6.1490936 5.943676 6.4545784
6.257627 18.159714 5.2393355 4.8079286 3.355708 6.6641445 6.422034 20.493547
00000000: d186 ed40 5f2d 8440 c875 0641 f7d5 b841
00000010: f978 8f40 60c5 c440 9832 be40 e88b ce40
00000020: 7b3e c840 1847 9141 a3a8 a740 8dda 9940
00000030: ebc3 5640 ac40 d540 4d81 cd40 c9f2 a341

encoder.batch_norm3.weight f4 [32]
0.055869002 0.054256674 0.045371074 0.039804243 0.045395903 0.057058517 0.05415207 0.09837656
0.03622553 0.078073524 0.11844479 0.12926358 0.043646753 0.0974223 0.08014341 0.06912369
0.119716436 0.05599069 0.053618964 0.055973206 0.049287062 0.06506624 0.037399985 0.061503913
0.04208418 0.070892565 0.12033632 0.04242122 0.04181495 0.049545765 0.062476747 0.09700449
00000000: e5d6 643d 3f3c 5e3d 05d7 393d c609 233d
00000010: 0ef1 393d 31b6 693d 90ce 5d3d a679 c93d
00000020: 3961 143d 03e5 9f3d 2f93 f23d ac5d 043e
00000030: f0c6 323d 5885 c73d 3a22 a43d b990 8d3d
00000040: e42d f53d 7e56 653d 8f9f 5b3d 2944 653d
00000050: 3be1 493d 7341 853d ba30 193d 87eb 7b3d
00000060: 7660 2c3d 1f30 913d e372 f63d e0c1 2d3d
00000070: 2746 2b3d 80f0 4a3d 9ee7 7f3d 4aaa c63d

encoder.batch_norm3.bias f4 [32]
-0.019353788 -0.030002352 -0.0073379446 0.0047695357 -0.0009670634 0.040281393 -0.012487217 -0.06548047
-0.0007506663 -0.053077735 -0.08656244 -0.083063975 0.021445854 -0.055774037 -0.049328353 -0.028269066
-0.080795564 0.032512397 -0.034608983 -0.024492085 -0.021003073 -0.032228574 0.0016326464 -0.03236869
-0.0012234335 -0.028807048 -0.0637507 0.00047987408 -0.018496782 0.017601758 -0.030367086 -0.06873427
00000000: d68b 9ebc 7ec7 f5bc 2473 f0bb c449 9c3b
00000010: 8782 7dba 1afe 243d 2f97 4cbc a01a 86bd
00000020: 5dc8 44ba 0a68 59bd a647 b1bd 721d aabd
00000030: 37af af3c 5173 64bd 870c 4abd 8794 e7bc
00000040: 2578 a5bd b82b 053d 26c2 0dbd a0a3 c8bc
00000050: a30e acbc 1c02 04bd 86fe d53a 0895 04bd
00000060: 9e5b a0ba c2fc ebbc ba8f 82bd 9c97 fb39
00000070: 9086 97bc 9031 903c 65c4 f8bc 8ec4 8cbd

encoder.batch_norm3.running_mean f4 [32]
-10.842864 -3.3168182 2.021598 -0.78035253 4.939541 4.433313 -0.24384876 -1.8580234
-7.5404215 3.8549023 -11.186698 -6.781718 -2.3174558 -0.5739205 -0.14519101 6.223603
2.4316432 3.7230222 -4.1902633 -1.4863929 -6.848341 0.16502371 2.5488236 -1.0039918
-1.6190028 2.8015592 -8.817461 1.394106 -3.6913393 -1.7465225 -0.6824259 -6.8988075
00000000: 5f7c 2dc1 c046 54c0 dd61 0140 2fc5 47bf
00000010: b810 9e40 b3dd 8d40 7db3 79be b6d3 edbf
00000020: 224b f1c0 b8b6 7640 b7fc 32c1 d503 d9c0
00000030: 3251 14c0 74ec 12bf f4ac 14be c127 c740
00000040: 0ba0 1b40 ff45 6e40 a316 86c0 1f42 bebf
00000050: 9c25 dbc0 fafb 283e ed1f 2340 ce82 80bf
00000060: 7c3b cfbf bf4c 3340 5214 0dc1 1172 b23f
00000070: e73e 6cc0 0d8e dfbf 77b3 2ebf 08c3 dcc0

encoder.batch_norm3.running_var f4 [32]
33.808495 35.162354 38.231594 22.06508 44.369648 96.88011 39.780067 71.79793
16.991468 26.15831 72.09405 76.3 41.14789 51.14996 89.866646 37.480526
71.69643 63.787632 35.939495 57.8802 25.146366 52.422768 20.276628 43.80593
32.904694 33.696945 84.22615 31.867256 26.417198 49.076424 53.852703 57.2638
00000000: e63b 0742 40a6 0c42 27ed 1842 4985 b041
00000010: 857a 3142 9ec2 c142 ca1e 1f42 8a98 8f42
00000020: 87ee 8741 3844 d141 2730 9042 9a99 9842
00000030: 7097 2442 8f99 4c42 b9bb b342 0fec 1542
00000040: 9264 8f42 8926 7f42 0bc2 0f42 5385 6742
00000050: c22b c941 eab0 5142 8936 a241 4639 2f42
00000060: 689e 0342 acc9 0642 ca73 a842 24f0 fe41
00000070: 6c56 d341 424e 4442 2b69 5742 220e 6542

encoder.linear1.weight f4 [128, 512]
-0.07501867 -0.022702187 -0.03078192 -0.001381531 -0.0016586374 -0.0035423927 -0.006299138 -0.06530964
-0.029715894 0.03948342 0.0432215 0.04358625 -0.056542672 -0.022589816 -0.029145882 0.027703455
-0.099258184 -0.05489578 -0.036848575 -0.0062811887 -0.039063938 0.01592684 0.014846045 0.059940375
-0.017633498 0.00740526 -0.06454038 0.0022062478 0.012963603 -0.06583979 -0.015454985 -0.02583638
-0.06737565 0.024532918 -0.053009287 -0.014718907 -0.0062518143 -0.003591585 0.060118698 -0.03902776
0.03128421 -0.011222353 0.043330792 -0.057610326 -0.025836188 -0.07787876 0.019309266 -0.095721304
0.04055571 -0.013140987 -0.06741465 -0.02176924 4.8486118e-06 -0.010158593 -0.031333998 -0.04207075
-0.011787622 -0.0025402498 -0.030616792 -0.016596593 -0.059121903 -0.033253655 0.038801726 -0.10385298
-0.01028269 0.005375274 -0.0034348075 -0.039698973 0.013405111 -0.045017492 -0.05797336 -0.07020514
-0.048511557 -0.096401155 0.015124586 -0.0117486 -0.066347234 0.0137225315 -0.112402745 0.017872779
-0.02791498 -0.09930214 -0.070138186 -0.12634425 -0.067163825 -0.018250065 -0.063848935 0.01462034
-0.042622477 -0.10301463 -0.039381515 0.0012187918 -0.0540179 -0.012414726 -0.05612387 -0.039821025
-0.023683542 -0.07396494 -0.03276876 0.021196868 -0.06172437 0.04326811 -0.044427946 -0.0028351059
0.0333213 -0.017105922 -0.01659822 -0.03610145 0.020866195 -0.093252994 0.039795008 -0.0071583036
-0.08769953 -0.10935648 0.03357032 -0.09147391 -0.021482771 -0.0398784 0.053645153 -0.026342416
0.0076408535 -0.0017413222 0.04792095 -0.034611095 -0.008037004 0.07624806 -0.013691721 -0.044563737
-0.023412783 -0.07193666 -0.0038909244 -0.08229999 0.029759202 -0.089549676 -0.038662393 0.019454198
-0.04532541 -0.037756745 0.046053205 -0.00031131657 -0.024025159 -0.007206861 -0.04008569 0.052248657
0.010043201 0.07681329 -0.0858575 -0.026594019 -0.07391974 0.053538814 -0.04770201 -0.07603027
-0.048423268 0.072035484 -0.06120278 -0.02664141 -0.031015186 -0.06084882 -0.01427192 -0.0662093
-0.09348454 -0.07060864 -0.04346865 -0.018733349 -0.0861411 0.039560754 0.0054645375 0.09946503
-0.001033977 0.022088338 0.012068741 -0.040096413 -0.011305492 0.033402197 0.049074046 0.03791772
-0.004967916 -0.027744805 -0.042758312 -0.04826554 -0.034178358 -0.039797027 -0.11103203 -0.04191135
-0.038614523 -0.0068809763 0.013788944 -0.06572577 -0.030111743 -0.04332498 -0.02007509 -0.02018551
0.040200334 -0.038916428 -0.04766262 -0.08827727 0.032206632 -0.061853673 -0.07275533 0.014721942
-0.07518867 -0.082612805 -0.013395261 0.0071238023 -0.09872807 -0.029055243 -0.060992662 0.041255422
-0.056735095 0.02587924 -0.010341903 -0.06258043 0.005477386 0.071703725 -0.044362705 -0.066525206
0.02254545 -0.021660147 -0.01343258 -0.04985769 -0.03455415 0.076050214 -0.02936514 -0.04218035
0.01583025 -0.048172545 -0.0180801 -0.09397495 -0.020581765 0.00030142997 -0.0038825416 0.01722792
-0.044394344 0.033004303 -0.012428337 -0.06546019 -0.031495973 0.10686543 -0.035534978 0.006429007
-0.020422636 -0.05948087 -0.03703898 -0.074117705 -0.045499444 -0.01874623 -0.019908866 -0.07233374
0.057216562 0.06816082 -0.07273505 0.025544645 0.05031534 -0.05125995 -0.009476896 -0.091463014
00000000: 63a3 99bd f0f9 b9bc 5d2a fcbc 7d14 b5ba
00000010: a366 d9ba 7d27 68bb 0069 cebb 0fc1 85bd
00000020: bf6e f3bc 5eb9 213d 0709 313d 7f87 323d
00000030: 4a99 67bd 470e b9bc 58c3 eebc 5bf2 e23c
00000040: e047 cbbd 66da 60bd 88ee 16bd 6ed2 cdbb
00000050: 8201 20bd 0179 823c d33c 733c 0a84 753d
00000060: 2074 90bc d3a7 f23b bf2d 84bd b296 103b
00000070: 4b65 543c 03d7 86bd e836 7dbc d1a6 d3bc
00000080: 3ffc 89bd 42f9 c83c 4420 59bd 9227 71bc
00000090: 05dc ccbb cc60 6bbb 063f 763d 93db 1fbd
000000a0: df23 003d f6dd 37bc a17b 313d cef8 6bbd
000000b0: 6aa6 d3bc e67e 9fbd 772e 9e3c 8809 c4bd
000000c0: bf1d 263d 4b4d 57bc b110 8abd 6855 b2bc
000000d0: 42b1 a236 3a70 26bc 1458 00bd 6152 2cbd
000000e0: df20 41bc 527a 26bb 11d0 fabc 94f5 87bc
000000f0: cf29 72bd fc34 08bd 8fee 1e3d dfb0 d4bd
00000100: ba78 28bc 1123 b03b 821a 61bb 649b 22bd
00000110: 1ca1 5b3c 4364 38bd 7975 6dbd b6c7 8fbd
00000120: 0eb4 46bd f86d c5bd 1dcd 773c 337d 40bc
00000130: 0fe1 87bd 78d4 603c 6933 e6bd ef69 923c
00000140: f5ad e4bc ec5e cbbd 9ca4 8fbd 6360 01be
00000150: 308d 89bd 2981 95bc 3bc3 82bd 278a 6f3c
00000160: e894 2ebd 56f9 d2bd 834e 21bd debf 9f3a
00000170: e041 5dbd 2367 4bbc 25e2 65bd 5f1b 23bd
00000180: fd03 c2bc ee7a 97bd 8938 06bd 0ea5 ad3c
00000190: b1d2 7cbd e739 313d 14fa 35bd 2fcd 39bb
000001a0: ea7b 083d b821 8cbc fef8 87bc 1ddf 13bd
000001b0: 95ef aa3c 6dfb bebd 1700 233d 3490 eabb
000001c0: d09b b3bd 4af6 dfbd 0881 093d ac56 bbbd
000001d0: a3fc afbc 8857 23bd 05bb 5b3d 0dcc d7bc
000001e0: 2060 fa3b 143d e4ba c248 443d 5dc4 0dbd
000001f0: a3ad 03bc f127 9c3d 3d53 60bc 7788 36bd
00000200: 2acc bfbc 8753 93bd e1fe 7ebb e68c a8bd
00000210: 92c9 f33c d265 b7bd 755c 1ebd 695e 9f3c
00000220: 23a7 39bd d1a6 1abd 49a2 3c3d 3438 a3b9
00000230: 69d0 c4bc 8827 ecbb e430 24bd b002 563d
00000240: 3d8c 243c 4950 9d3d 0fd6 afbd b3db d9bc
00000250: 3c63 97bd 844b 5b3d 2f63 43bd c2b5 9bbd
00000260: 7a57 46bd 5787 933d c4af 7abd 163f dabc
00000270: 8f13 febc 9d3c 79bd c5d4 69bc be98 87bd
00000280: d374 bfbd 439b 90bd 2f0c 32bd ae76 99bc
00000290: bf6a b0bd 750a 223d dd0f b33b 52b4 cb3d
000002a0: 8386 87ba 9af2 b43c f8bb 453c 233c 24bd
000002b0: ac3a 39bc bed0 083d de01 493d 9c4f 1b3d
000002c0: e6c9 a2bb 1349 e3bc 5723 2fbd 16b2 45bd
000002d0: 9bfe 0bbd 3502 23bd c364 e3bd 3cab 2bbd
000002e0: 432a 1ebd d079 e1bb 06eb 613c 3c9b 86bd
000002f0: e7ac f6bc 8975 31bd 8474 a4bc 155c a5bc
00000300: 1ba9 243d d566 1fbd e139 43bd b7ca b4bd
00000310: 1aeb 033d 475a 7dbd bf00 95bd 4d34 713c
00000320: 84fc 99bd e730 a9bd cc77 5bbc c96e e93b
00000330: f131 cabd 4305 eebc 71d3 79bd 72fb 283d
00000340: 0f63 68bd b300 d43c 1671 29bc 2b2a 80bd
00000350: a57b b33b 67d9 923d abb5 35bd 5e3e 88bd
00000360: 3cb1 b83c 9f70 b1bc 5314 5cbc 9437 4cbd
00000370: a788 0dbd 37c0 9b3d 298f f0bc 4dc5 2cbd
00000380: 71ae 813c 9350 45bd b81c 94bc f075 c0bd
00000390: 179b a8bc 3f09 9e39 3d72 7ebb 9121 8d3c
000003a0: d8d6 35bd 852f 073d 39a0 4bbc fe0f 86bd
000003b0: ec01 01bd 43dc da3d 208d 11bd 6baa d23b
000003c0: 5f4d a7bc 36a2 73bd 2fb6 17bd 06cb 97bd
000003d0: a05d 3abd b291 99bc eb17 a3bc b623 94bd
000003e0: ea5b 6a3d e697 8b3d 1df6 94bd 0143 d13c
000003f0: 7517 4e3d f4f5 51bd fc44 1bbc f650 bbbd

encoder.linear1.bias f4 [128]
-0.03407476 -0.06191894 -0.007734779 0.0126876 -0.02165338 -0.021301497 0.3864459 -0.056669544
-0.049502485 -0.03132629 -0.051300254 -0.06219297 -0.05301872 -0.04882659 -0.048362155 -0.04978208
-0.0008465858 -0.0523692 -0.008543623 -0.07639495 -0.079755954 -0.028551321 -0.05407365 -0.032951146
0.011965958 -0.025421869 -0.033952147 -0.0008128266 0.41064042 -0.05669352 -0.033591386 -0.03285543
-0.069494694 -0.0099001955 -0.04168011 -0.009782622 -0.024815688 0.3902724 0.0069983876 0.23422866
-0.019177873 0.12840201 0.0100516565 -0.028387489 -0.0017463944 0.09907088 -0.020016057 -0.01994468
-0.06553095 -0.06843829 -0.015053732 -0.020547854 -0.016855061 -0.008744771 -0.028244508 -0.019771704
-0.035648122 -0.05969859 -0.06934259 -0.007644336 0.6043502 -0.044342652 -0.04729575 -0.05155203
0.35733643 0.5042789 -0.06505595 -0.030575799 0.49775052 -0.0013237244 -0.021414898 -0.026409538
-0.021161783 -0.0028516161 -0.008298862 0.011531497 -0.026721826 0.61013824 0.002243561 0.009044976
-0.07872534 0.30954146 -0.033145007 0.011628051 -0.045891777 -0.032588255 0.23660855 -0.046937454
-0.034488186 -0.02796495 -0.044201642 -0.05877222 0.008963429 0.3338454 -0.03056933 -0.037579015
0.003007031 -0.019199682 -0.08363953 -0.012899756 0.5629757 -0.008534105 -0.006083032 -0.0126885045
0.008148496 -0.0072458154 -0.046749886 0.3653021 -0.019687332 -0.011324963 -0.020366982 -0.054877177
-0.033200588 -0.036691558 -0.0033681714 -0.030666273 -0.040637575 -0.006641197 0.32814842 -0.03154203
0.31515643 -0.010547023 0.018055718 -0.0063708313 -0.009940863 -0.02946078 -0.018819671 0.24303502
00000000: fa91 0bbd b79e 7dbd 0774 fdbb a7df 4f3c
00000010: 6e62 b1bc 7a80 aebc 3ddc c53e 531e 68bd
00000020: 1ec3 4abd ff4f 00bd 3720 52bd 0ebe 7ebd
00000030: 282a 59bd 64fe 47bd 6517 46bd 4be8 4bbd
00000040: 69ed 5dba 1681 56bd 8dfa 0bbc f574 9cbd
00000050: 1757 a3bd 76e4 e9bc 557c 5dbd c8f7 06bd
00000060: de0c 443c 8641 d0bc 6811 0bbd df13 55ba
00000070: 763f d23e 7737 68bd 1f97 09bd 6a93 06bd
00000080: 3c53 8ebd 6e34 22bc c3b8 2abd 4a47 20bc
00000090: 454a cbbc c9d1 c73e bb52 e53b a3d9 6f3e
000000a0: ea1a 9dbc d17b 033e b4af 243c e18c e8bc
000000b0: 46e7 e4ba ace5 ca3d b7f8 a3bc 0763 a3bc
000000c0: 1735 86bd 6029 8cbd eea3 76bc f953 a8bc
000000d0: a013 8abc 3a46 0fbc 0761 e7bc 45f8 a1bc
000000e0: c403 12bd 8286 74bd 7d03 8ebd 577d fabb
000000f0: b2b6 1a3f a4a0 35bd 30b9 41bd 3928 53bd
00000100: cdf4 b63e 6c18 013f 0e3c 85bd 197a fabc
00000110: 28d9 fe3e d280 adba 4c6e afbc d158 d8bc
00000120: 7a5b adbc 2ee2 3abb f3f7 07bc 9bee 3c3c
00000130: bbe7 dabc 0532 1c3f b508 133b 6131 143c
00000140: c03a a1bd 387c 9e3e 0fc3 07bd 9583 3e3c
00000150: 04f9 3bbd 437b 05bd 8349 723e 7d41 40bd
00000160: 7c43 0dbd c016 e5bc c80c 35bd 24bb 70bd
00000170: 59db 123c c9ed aa3e 886c fabc 74ec 19bd
00000180: 9c11 453b a748 9dbc 344b abbd 8059 53bc
00000190: 2d1f 103f a1d2 0bbc 2c54 c7bb 72e3 4fbc
000001a0: 4581 053c 4e6e edbb cf7c 3fbd e008 bb3e
000001b0: 5447 a1bc 568c 39bc a8d8 a6bc e4c6 60bd
000001c0: 57fd 07bd e349 16bd 8abc 5cbb d637 fbbc
000001d0: 9673 26bd 669e d9bb 1203 a83e 3732 01bd
000001e0: 2f5c a13e 6ccd 2cbc 96e9 933c 68c2 d0bb
000001f0: 00df 22bc bc57 f1bc b62b 9abc 2cde 783e

encoder.linear_mu.weight f4 [128, 128]
0.09756357 0.010701341 -0.077376254 0.07034457 0.08682641 0.037209004 0.008924728 0.055975977
-0.0591565 -0.0016139026 -0.06473055 0.067091696 -0.029504342 -0.053205498 0.009110885 0.010932096
-0.037922706 0.013173591 -0.0877446 0.009678845 0.061041802 -0.09701299 -0.0720711 0.048910778
0.063866474 -0.050268777 0.058120497 -0.0800835 0.0025457244 -0.0644426 -0.06670954 0.051026814
0.016047973 -0.11588662 0.067628704 -0.03678696 -0.068134874 0.0033936177 -0.032354258 -0.0026477084
-0.070260175 0.0031738384 -0.014858911 0.05003914 0.04609793 0.003021999 -0.03239075 -0.039790343
0.051750347 0.003037811 0.0044131074 0.021399679 -0.007386511 0.008450553 0.021139687 -0.04487505
-0.00023715362 0.054033473 0.058317684 -0.011229411 0.00013757915 0.051810917 0.03978384 0.05985495
0.0010928005 -0.011393418 -0.101219125 0.054427728 -0.00066835416 0.04030143 -0.03550527 0.041043825
0.012601369 0.07499688 -0.029545717 -0.05616459 0.05965604 -0.0012006747 0.023635048 -0.08781529
0.016782954 -0.00031774025 -0.043396562 -0.050782118 0.08875062 -0.08357357 0.00039685398 0.040016998
-0.04213865 0.03415325 0.020494282 -0.0067116674 0.04495269 -0.003420435 0.035994068 -0.03678764
0.049486257 -0.06252627 -0.13549879 -0.030470425 -0.004172592 0.007177347 0.058543462 0.09027706
-0.0009966345 -0.029214384 -0.07621441 0.0024264946 -0.034300752 -0.042934433 -0.0016931324 -0.07649298
0.08302521 -0.01197227 0.06694489 0.038213976 -0.003480583 -0.016273513 -0.00083927414 -0.022411048
0.012265555 0.008849671 0.061419155 0.060750384 0.0070110373 -0.07262562 0.08533326 0.0007232876
-0.011234517 -0.019707978 -0.022657905 0.005281327 0.02428536 0.0027169175 -0.0046562036 -0.039545354
-0.0283411 0.06382376 0.0005859362 -0.04510447 -0.028947977 -0.02057202 0.01677091 -0.019551897
-0.062377434 -0.045721225 0.033681683 -0.0361643 0.037030004 0.024484288 -0.020155998 0.005539466
0.022980712 0.0014483789 0.042122737 4.771561e-05 -0.005184393 -0.02402062 0.04756366 -0.047663223
0.017572656 -0.026656765 0.03542955 -0.036407094 0.035684474 -0.008832532 0.083195806 -0.012009792
0.0019622706 0.0025797274 0.04843437 -0.049368482 -0.050879218 -0.020830056 0.035071816 0.0368238
-2.1527816e-05 0.0038802472 -0.050743252 -0.09830408 0.042902775 -0.027428424 -0.0031229483 0.044656344
0.004434785 -0.026781568 0.0229978 -0.051470365 -0.0011584881 -0.010067892 -0.097514026 -0.05984051
0.0011966164 0.002042906 -0.04872241 0.039981153 -0.0046160393 0.016850412 0.026733642 0.014376238
0.0037634757 0.043694567 -0.045336213 0.03826539 -0.020664485 -0.0039774785 0.02245544 0.072249174
-0.06334933 -0.00074273255 -0.0043797474 -0.015304616 0.02785225 0.035196796 -0.003264174 -0.039337534
0.05786007 0.03569037 0.07190015 0.16001812 -0.056611143 -0.004509921 0.016551903 -0.0424732
0.06951697 -0.054846495 -0.15133573 0.0123779215 0.0031683056 -0.04553981 0.024017898 -0.05350138
0.038089752 0.0009376389 -0.011076869 0.0036640847 0.047107205 0.06090072 0.095454715 0.050912414
0.085369006 -0.039468635 -0.05441393 0.014150904 -0.01733073 -0.009674714 0.0032309443 -0.0043902495
0.009826098 -0.0058024456 0.088472374 0.07219569 -0.081806146 0.073763065 0.01346347 0.005432419
00000000: 69cf c73d ad54 2f3c 7177 9ebd d010 903d
00000010: 0bd2 b13d 7868 183d 0639 123c 1147 653d
00000020: 164e 72bd 9689 d3ba 7391 84bd 5f67 893d
00000030: 17b3 f1bc 02ee 59bd d245 153c 891c 333c
00000040: d754 1bbd 0cd6 573c 71b3 b3bd 0594 1e3c
00000050: f806 7a3d bfae c6bd 039a 93bd ab56 483d
00000060: 6dcc 823d a2e6 4dbd c20f 6e3d d102 a4bd
00000070: 2bd6 263b 7bfa 83bd 039f 88bd 7e01 513d
00000080: 0a77 833c f755 edbd eb80 8a3d ecad 16bd
00000090: 4c8a 8bbd 7567 5e3b e685 04bd 2d85 2dbb
000000a0: 91e4 8fbd 2c00 503b ca72 73bc d7f5 4c3d
000000b0: 2fd1 3c3d bb0c 463b 2aac 04bd 33fb 22bd
000000c0: 2cf8 533d 0316 473b d49b 903b 614e af3c
000000d0: 8c0a f2bb 3074 0a3c 232d ad3c e7ce 37bd
000000e0: 71ac 78b9 3452 5d3d 86de 6e3d 90fb 37bc
000000f0: 1f43 1039 af37 543d 61f4 223d 772a 753d
00000100: 4d3c 8f3a 75ab 3abc f94b cfbd 9cef 5e3d
00000110: 7d34 2fba 1d13 253d f96d 11bd 921d 283d
00000120: f975 4e3c f797 993d dc09 f2bc d70c 66bd
00000130: e459 743d f55f 9dba 4a9e c13c 81d8 b3bd
00000140: 687c 893c 6096 a6b9 98c0 31bd e900 50bd
00000150: e3c2 b53d 9f28 abbd d710 d039 dde8 233d
00000160: 9499 2cbd 47e4 0b3d a0e3 a73c 8ced dbbb
00000170: 5020 383d 6029 60bb 846e 133d a3ae 16bd
00000180: 1ab2 4a3d c60d 80bd 32c0 0abe 1d9d f9bc
00000190: 3dba 88bb f32f eb3b 45cb 6f3d 2ee3 b83d
000001a0: 81a1 82ba 0153 efbc 4d16 9cbd d305 1f3b
000001b0: f27e 0cbd 04dc 2fbd 19ec ddba 5aa8 9cbd
000001c0: 1f09 aa3d 5727 44bc 671a 893d 4286 1c3d
000001d0: 7e1a 64bb 0850 85bc bc02 5cba 6097 b7bc
000001e0: 77f5 483c 36fe 103c a792 7b3d 65d5 783d
000001f0: d8bc e53b bebc 94bd 34c3 ae3d 029b 3d3a
00000200: fb10 38bc a072 a1bc 129d b9bc fb0e ad3b
00000210: 17f2 c63c 500e 323b 1193 98bb 4ffa 21bd
00000220: 982b e8bc 08b6 823d 8399 193a 77bf 38bd
00000230: 4f24 edbc a786 a8bc 2663 893c 4d2b a0bc
00000240: 7b7f 7fbd 2e46 3bbd cef5 093d 0421 14bd
00000250: c6ac 173d 4693 c83c 311e a5bc 6984 b53b
00000260: 0c42 bc3c 88d7 bd3a e488 2c3d 3f22 4838
00000270: d7e1 a9bb e4c6 c4bc 1dd2 423d 833a 43bd
00000280: 88f4 8f3c 4a5f dabc 931e 113d 9b1f 15bd
00000290: e229 123d 53b6 10bc 9062 aa3d b8c4 44bc
000002a0: 7099 003b a510 293b 1e63 463d 9b36 4abd
000002b0: ba66 50bd cba3 aabc 77a7 0f3d 8ed4 163d
000002c0: a296 b4b7 bf4b 7e3b 28d8 4fbd a653 c9bd
000002d0: d2ba 2f3d 93b1 e0bc 61aa 4cbb 92e9 363d
000002e0: ac51 913b 0565 dbbc e265 bc3c 97d2 52bd
000002f0: 69d8 97ba cdf3 24bc 6fb5 c7bd 531b 75bd
00000300: c9d7 9c3a 46e2 053b 2691 47bd 47c3 233d
00000310: 2542 97bb e009 8a3c 8300 db3c 508a 6b3c
00000320: a5a4 763b 13f9 323d 77b2 39bd 2bbc 1c3d
00000330: 9148 a9bc 8255 82bb 79f4 b73c 60f7 933d
00000340: 4bbd 81bd f0b3 42ba fc83 8fbb 36c0 7abc
00000350: 672a e43c 842a 103d c1eb 55bb 6520 21bd
00000360: aefe 6c3d 1130 123d 6340 933d cadb 233e
00000370: 16e1 67bd f6c7 93bb db97 873c 61f8 2dbd
00000380: ea5e 8e3d b8a6 60bd c1f7 1abe c4cc 4a3c
00000390: 59a3 4f3b f487 3abd 2fc1 c43c 4324 5bbd
000003a0: 0004 1c3d e2cb 753a c27b 35bc 2421 703b
000003b0: 7cf3 403d 0973 793d c37d c33d 8989 503d
000003c0: f2d5 ae3d dda9 21bd 24e1 5ebd 31d9 673c
000003d0: 2df9 8dbc b182 1ebc 40be 533b 15dc 8fbb
000003e0: a4fd 203c 7122 bebb 0131 b53d 55db 933d
000003f0: fb89 a7bd 1711 973d e395 5c3c 6f02 b23b

encoder.linear_mu.bias f4 [128]
-0.0028885393 0.02133812 -0.0054414864 0.010902419 0.008490581 -0.0020630183 0.0049531665 -0.12095366
-0.013679503 -0.0071378355 -0.0066954787 0.0007746798 0.00085071445 0.012101197 -0.001994249 0.004342319
-0.0027382756 -0.0038801294 -0.12371237 -0.0038229432 -0.006324605 0.005673952 -0.020058617 0.0037958948
0.0605554 -0.0024964008 0.007990073 0.0020047345 -0.06914735 0.0038851392 0.006489498 0.0061963773
-0.0006953156 -0.0040407847 0.00038067173 -0.015679058 -0.007538727 0.013674043 0.000348206 0.004778134
0.004129611 -0.010594736 -0.010198931 0.0032846532 -0.0064354273 0.009055473 -0.012399494 -0.008345849
0.0056009856 0.016946161 0.004997239 0.020625709 0.01300419 -0.0070514367 0.016391529 -0.0051114364
-0.0024707397 0.0002445283 -0.0040760865 -0.010141923 -0.004355551 0.0036857538 0.004552163 -0.0015986514
-0.0010435655 -0.0022196022 0.006927765 0.053091414 0.00787609 0.004892219 0.0071413955 -0.002264429
-0.012082125 -0.008968807 -0.005587404 -0.083116665 -0.001323079 -0.0018130448 -0.008816795 0.54953724
0.0002851902 0.018807787 0.010529292 0.0048762797 -0.016474996 -6.709309e-05 0.004302567 0.0019633456
-0.0065254597 -0.0007662795 0.0066837915 -0.13232444 0.007557388 -0.0047243424 0.0049712276 -0.0044829454
-0.006816743 -0.0019520449 0.0076781316 -0.0045231897 0.0060427086 7.9880265e-06 0.0530726 -0.0023383414
0.01493288 0.5311487 -0.00545093 0.16848879 -0.0013148426 0.020110995 0.009086718 -0.00012993334
0.007087968 0.011492758 -0.0051803933 0.16448374 0.054963056 0.0019262978 -0.009450169 0.0038113114
0.0064450786 0.001295003 0.013570856 -0.0024230387 -0.010086496 -0.13987589 0.009535888 0.0059316587
00000000: a64d 3dbb 48cd ae3c 7f4e b2bb 0fa0 323c
00000010: 141c 0b3c b433 07bb 2c4e a23b 8db6 f7bd
00000020: ff1f 60bc 81e4 e9bb bf65 dbbb e213 4b3a
00000030: 7b02 5f3a 1944 463c f2b1 02bb 034a 8e3b
00000040: a474 33bb c549 7ebb e95c fdbd 588a 7abb
00000050: a23e cfbb 8fec b93b f851 a4bc 8cc4 783b
00000060: f008 783d a89a 23bb cce8 023c dd61 033b
00000070: 209d 8dbd d29d 7e3b dba5 d43b fb0a cb3b
00000080: d745 36ba 8f68 84bb e594 c739 5e71 80bc
00000090: 6d07 f7bb 1809 603c 6b8f b639 e591 9c3b
000000a0: b051 873b 8b95 2dbc 6b19 27bc 5643 573b
000000b0: 47e0 d2bb 685d 143c 3f27 4bbc 07bd 08bc
000000c0: 7988 b73b add2 8a3c e1bf a33b 3ff7 a83c
000000d0: 870f 553c bd0f e7bb 8747 863c d67d a7bb
000000e0: 22ec 21bb 0834 8039 b190 85bb 4f2a 26bc
000000f0: 03b9 8ebb b08c 713b 502a 953b d789 d1ba
00000100: 3fc8 88ba bf76 11bb 4e02 e33b 6276 593d
00000110: b70a 013c e84e a03b 5e02 ea3b d066 14bb
00000120: 1bf4 45bc e7f1 12bc 8b16 b7bb 1239 aabd
00000130: 2a6b adba b0a3 edba 5274 10bc 79ae 0c3f
00000140: 9585 9539 ca12 9a3c 0d83 2c3c 33c9 9f3b
00000150: 92f6 86bc 54b4 8cb8 8cfc 8c3b 79ab 003b
00000160: 86d3 d5bb 26e0 48ba b503 db3b 0f80 07be
00000170: f7a3 f73b a8ce 9abb aee5 a23b ace5 92bb
00000180: fc5e dfbb c2db ffba d698 fb3b 4437 94bb
00000190: ea01 c63b 5004 0637 a862 593d dc3e 19bb
000001a0: 0aa9 743c 5cf9 073f b79d b2bb 5388 2c3e
000001b0: cc56 acba d0bf a43c 75e0 143c b73e 08b9
000001c0: 2f42 e83b 1f4c 3c3c 4ac0 a9bb 6d6e 283e
000001d0: f120 613d d47b fc3a e2d4 1abc 32c7 793b
000001e0: 3d31 d33b 17bd a93a 4c58 5e3c d8cb 1ebb
000001f0: d541 25bc a03b 0fbe 6a3c 1c3c 5c5e c23b

encoder.linear_sigma.weight f4 [128, 128]
0.02554769 0.07073045 -0.06789647 -0.035965063 0.03674952 -0.025550738 -0.0010900061 -0.05368613
0.044642437 -0.05478478 0.008719032 -0.096987695 0.014804152 0.033573586 -0.019052802 0.0827648
0.027114779 0.06896534 -0.09601697 0.029703544 0.027662152 -0.021072257 0.070847355 0.028504107
0.055043526 0.020073382 0.07335897 -0.003889405 -0.0009804475 -8.32218e-05 -0.039687663 0.033424105
-0.04908455 -0.005231035 0.06161227 0.019308584 -0.0722699 0.00080113625 0.0608849 -0.0010675731
0.041550215 -0.0018724932 -0.017670546 -0.0053535164 0.03285852 0.0033224938 -0.06559395 -0.05637599
-0.025136784 0.012750566 -0.014951203 -0.008056912 -0.03861433 0.046637766 0.020212507 -0.02859044
-0.023160052 -0.010011253 0.058614872 -0.08474757 -0.00059675134 -0.06903214 0.0039062575 0.05236451
-0.000504632 -0.0023339894 0.04318243 0.06199142 -0.00039869413 -0.023071986 -0.025211582 0.0035233344
-0.031260293 -0.030375343 -0.04817435 0.025275359 0.009637893 -0.0017435551 -0.013305552 0.021951744
-0.011955643 -0.0011399688 0.06339963 0.019000418 0.017087482 0.06579668 -0.0018150585 -0.04793735
0.006923613 -0.0638587 -0.11342613 -0.027386762 -0.10516546 -0.0015343945 -0.015643803 -0.04629635
0.00468746 -0.055255227 -0.075997606 -0.07627924 0.0013537442 0.05346121 0.05934978 -0.028230332
0.07913504 0.07762432 0.015732968 -0.0010719702 -0.021915663 -0.06894856 -0.03707009 0.059425194
-0.04084799 -0.05415334 -0.0006936043 -0.04757422 -0.07297604 0.03529861 0.00274574 -0.12917858
-0.000494755 0.068504244 -0.032221958 -0.04776335 -0.001004088 0.06564978 -0.026340844 -0.0014126836
0.019205635 -0.012659524 -0.018406121 -0.01277699 0.0118694445 0.0059294878 -0.00055413926 -0.013994755
-0.045115966 -0.022462493 0.06621911 0.074605174 -0.10569382 0.06626698 0.025047777 -0.0090680905
-0.052038215 -0.0843578 0.04442878 0.0002690709 -0.03196105 -0.0073796837 0.016520431 0.042553235
0.0560719 -0.054304175 -0.039398126 -0.052943762 -0.0013009991 0.049189672 0.0055736676 0.07077835
0.043081284 -0.11560635 -0.071007855 -0.07156257 -0.011880106 0.0007809269 -0.08383803 0.0014492447
0.07796666 0.0005955647 0.01672019 -0.05839977 0.081672445 0.0016864009 0.07329505 -0.082270645
-0.08111437 0.042304173 0.0062950565 0.06808155 0.0045803227 0.028596494 -0.022438897 0.01967442
-0.0078007136 0.01991715 -0.06550745 0.04472654 -8.265059e-06 -0.018712174 -0.029575033 0.025737917
0.001346188 -0.0009994804 -0.011604503 0.05243233 -0.0024436314 -0.05112033 0.013044179 0.026854174
-0.07622346 0.062497012 -0.048412554 -0.00055036 0.021859668 -0.00029427596 0.067387454 -0.057781268
0.024141401 0.0012407594 -0.083164036 -0.07643882 -0.09600327 0.006359313 0.0012622798 0.052554257
0.010219282 -0.06538207 0.0112767145 -0.010066205 0.029970014 -0.00036256923 -0.037901316 0.011734186
-0.0016479365 -0.07812458 -0.05806237 -0.01134954 -0.0017109549 0.035291333 0.01510646 -0.08068305
0.078569874 -0.011698171 0.047020696 -0.000729382 -0.09678876 -0.029417697 -0.07022484 -0.06884073
0.0076990044 -0.09594843 0.07376476 -0.016128289 -0.067681685 0.013010268 0.0006283352 0.061816778
0.0023285171 0.041468207 -0.020501506 0.042781338 -0.06596693 -0.0074750283 0.048278246 -0.00020167569
00000000: 6449 d13c 20db 903d 4e0d 8bbd 1a50 13bd
00000010: aa86 163d c84f d1bc 89de 8eba fde5 5bbd
00000020: fdda 363d 0166 60bd 45da 0e3c 7ca1 c6bd
00000030: 1d8d 723c 7584 093d 9f14 9cbc 9780 a93d
00000040: d01f de3c b33d 8d3d 8ca4 c4bd d954 f33c
00000050: bd9b e23c ba9f acbc 6b18 913d 7281 e93c
00000060: 5275 613d ef70 a43c 3a3d 963d 63e5 7ebb
00000070: 5c82 80ba 5d87 aeb8 888f 22bd b7e7 083d
00000080: e20c 49bd 1a69 abbb 265d 7c3d 092d 9e3c
00000090: 3e02 94bd 5803 523a 7262 793d cfed 8bba
000000a0: 8f30 2a3d 726e f5ba d2c1 90bc 8d6c afbb
000000b0: a896 063d 32be 593b 1f56 86bd 83ea 66bd
000000c0: a8eb cdbc c0e7 503c e4f5 74bc 2301 04bc
000000d0: 0f2a 1ebd 3e07 3f3d b394 a53c 8036 eabc
000000e0: 26ba bdbc 3d06 24bc 2616 703d 2290 adbd
000000f0: 4e6f 1cba b960 8dbd 1000 803b 2b7c 563d
00000100: 4849 04ba d8f5 18bb 0fe0 303d b7ea 7d3d
00000110: d207 d1b9 7601 bdbc 8588 cebc bee7 663b
00000120: cb0a 00bd b6d5 f8bc 7852 45bd 450e cf3c
00000130: 41e8 1d3c 0088 e4ba 88ff 59bc 25d4 b33c
00000140: 9ae1 43bc 016b 95ba aad7 813d c4a6 9b3c
00000150: 0cfb 8b3c 69c0 863d 42e7 edba f459 44bd
00000160: 7adf e23b 5ac8 82bd f54b e8bd 345a e0bc
00000170: fd60 d7bd bc1d c9ba 6f27 80bc 3ea1 3dbd
00000180: 4499 993b 4e53 62bd a2a4 9bbd 4a38 9cbd
00000190: 1e70 b13a 24fa 5a3d c118 733d 4c43 e7bc
000001a0: 8d11 a23d 80f9 9e3d 6de2 803c 5a81 8cba
000001b0: 7a88 b3bc e734 8dbd cfd6 17bd d567 733d
000001c0: 3950 27bd e5cf 5dbd ffd2 35ba 2fdd 42bd
000001d0: 7674 95bd 4695 103d e0f1 333b 6447 04be
000001e0: 72b2 01ba f44b 8c3d 2cfb 03bd 81a3 43bd
000001f0: 9a9b 83ba 6473 863d c1c8 d7bc cc29 b9ba
00000200: 2355 9d3c e469 4fbc 6fc8 96bc 9556 51bc
00000210: 0f78 423c 264c c23b a843 11ba 424a 65bc
00000220: 85cb 38bd 4303 b8bc e29d 873d 99ca 983d
00000230: 0076 d8bd fbb6 873d ff30 cd3c 5492 14bc
00000240: 0626 55bd c8c3 acbd f4fa 353d 1612 8d39
00000250: 97e9 02bd 46d1 f1bb db55 873c 4d4c 2e3d
00000260: a6ab 653d 0e6e 5ebd ee5f 21bd 8fdb 58bd
00000270: 4986 aaba 1c7b 493d 50a3 b63b 3df4 903d
00000280: 0076 303d 06c3 ecbd 916c 91bd 668f 92bd
00000290: c7a4 42bc 1eb7 4c3a 46b3 abbd 95f4 bd3a
000002a0: fcac 9f3d ac1f 1c3a c8f8 883c 9934 6fbd
000002b0: e243 a73d 390a dd3a b71b 963d 837d a8bd
000002c0: 4a1f a6bd 2447 2d3d c346 ce3b 576e 8b3d
000002d0: 8816 963b 3243 ea3c c7d1 b7bc 402c a13c
000002e0: 219d ffbb 4a29 a33c c528 86bd 2d33 373d
000002f0: 28aa 0ab7 464a 99bc 5747 f2bc 53d8 d23c
00000300: 9372 b03a ff00 83ba d020 3ebc 48c3 563d
00000310: 5525 20bb 8d63 51bd 41b7 553c 49fd db3c
00000320: 0c1b 9cbd defc 7f3d 3e4c 46bd 0946 10ba
00000330: 0c13 b33c 0d49 9ab9 6f02 8a3d 0dac 6cbd
00000340: 30c4 c53c faa0 a23a e851 aabd f58b 9cbd
00000350: 5d9d c4bd c961 d03b 1573 a53a 2243 573d
00000360: c66e 273c 09e7 85bd f8c1 383c b9ec 24bc
00000370: ad83 f53c 3817 beb9 693e 1bbd be40 403c
00000380: 93ff d7ba c8ff 9fbd cfd2 6dbd 6cf3 39bc
00000390: 1f42 e0ba a58d 103d 1681 773c 283d a5bd
000003a0: 3ee9 a03d afa9 3fbc c698 403d ff33 3fba
000003b0: 2f39 c6bd 62fd f0bc 0ad2 8fbd 5efc 8cbd
000003c0: ee47 fc3b 9c80 c4bd fa11 973d 791f 84bc
000003d0: b29c 8abd 0529 553c ddb6 243a 9733 7d3d
000003e0: 099a 183b 91da 293d c6f2 a7bc 7c3b 2f3d
000003f0: ab19 87bd 15f1 f4bb 69bf 453d e878 53b9

encoder.linear_sigma.bias f4 [128]
-0.3453015 -0.34569752 -0.34763545 -0.34682122 -0.3466711 -0.3472606 -0.34457523 -0.011551699
-0.346218 -0.34639135 -0.34650072 -0.3464246 -0.34424627 -0.34703508 -0.3437255 -0.34639123
-0.34522206 -0.34691262 -0.21932088 -0.34676066 -0.34772938 -0.3449188 -0.34656382 -0.34696224
-0.47847193 -0.34707677 -0.34622407 -0.3458859 -0.996911 -0.34391478 -0.34648904 -0.3475381
-0.3476982 -0.34594393 -0.34729466 -0.34469756 -0.34670842 -0.34526682 -0.3477426 -0.34501547
-0.34641016 -0.34671515 -0.34597832 -0.34575048 -0.34744957 -0.34536314 -0.3450409 -0.3457416
-0.34747538 -0.34681526 -0.34394008 -0.24017702 -0.3454048 -0.34510028 -0.344731 -0.34652594
-0.34724876 -0.34554797 -0.3456758 -0.3472095 -0.34721354 -0.34504196 -0.34627408 -0.3459445
-0.34580165 -0.34535086 -0.34697166 -0.38004053 -0.3451433 -0.34578735 -0.345617 -0.3467037
-0.34661418 -0.34506202 -0.34665647 -0.2594592 -0.34619206 -0.3472291 -0.34751913 -1.0839866
-0.34647042 -0.3463278 -0.3446968 -0.3450526 -0.34592807 -0.34685743 -0.34534243 -0.34614033
-0.34503868 -0.34540322 -0.34517208 -0.2805981 -0.34586158 -0.3468176 -0.3439704 -0.34387362
-0.34810075 -0.34705707 -0.34581888 -0.34608942 -0.3465838 -0.34629712 -1.1348021 -0.34611645
-0.34635976 -0.89978296 -0.3452108 -0.6520462 -0.35037458 -0.3442944 -1.4891075 -0.34668282
-0.34571952 -0.3456731 -0.34704524 -0.40769827 -0.3937798 -0.34666136 -0.34599543 -0.3466273
-0.34787172 -0.34627214 -0.34653488 -0.34548065 -0.34887967 -0.43245304 -0.34648466 -0.34672302
00000000: 5ccb b0be 44ff b0be 46fd b1be 8d92 b1be
00000010: e07e b1be 24cc b1be 2a6c b0be 5643 3dbc
00000020: 7c43 b1be 355a b1be 8b68 b1be 915e b1be
00000030: 0c41 b0be 95ae b1be cafc afbe 315a b1be
00000040: f2c0 b0be 889e b1be a795 60be 9d8a b1be
00000050: 9609 b2be 3299 b0be d070 b1be 09a5 b1be
00000060: 46fa f4be 0cb4 b1be 4844 b1be f517 b1be
00000070: 8f35 7fbf 9915 b0be 0367 b1be 84f0 b1be
00000080: 8005 b2be 901f b1be 9bd0 b1be 337c b0be
00000090: c483 b1be d0c6 b0be 510b b2be dea5 b0be
000000a0: ac5c b1be a684 b1be 1224 b1be 3506 b1be
000000b0: e9e4 b1be 70d3 b0be 33a9 b0be 0b05 b1be
000000c0: 4be8 b1be c591 b1be ea18 b0be f7f0 75be
000000d0: e6d8 b0be fcb0 b0be 9580 b0be d96b b1be
000000e0: 97ca b1be aaeb b0be 6bfc b0be 72c5 b1be
000000f0: f9c5 b1be 57a9 b0be d64a b1be a31f b1be
00000100: ea0c b1be d4d1 b0be 45a6 b1be ac94 c2be
00000110: 9fb6 b0be 0a0b b1be b6f4 b0be 2683 b1be
00000120: 6a77 b1be f8ab b0be f57c b1be d6d7 84be
00000130: 1640 b1be 03c8 b1be 07ee b1be 13c0 8abf
00000140: 9264 b1be e151 b1be 197c b0be bcaa b0be
00000150: 7c1d b1be 4c97 b1be b9d0 b0be 4e39 b1be
00000160: e9a8 b0be b1d8 b0be 65ba b0be 8eaa 8fbe
00000170: c514 b1be 1492 b1be e31c b0be 3410 b0be
00000180: 433a b2be 77b1 b1be 2c0f b1be a232 b1be
00000190: 6f73 b1be db4d b1be 3241 91bf 2d36 b1be
000001a0: 1156 b1be 2d58 66bf 78bf b0be 80ec 26bf
000001b0: 4c64 b3be 5b47 b0be 139b bebf 6980 b1be
000001c0: 2602 b1be 11fc b0be eaaf b1be d4bd d0be
000001d0: 829d c9be 997d b1be 5026 b1be 2279 b1be
000001e0: 3e1c b2be 954a b1be 056d b1be d7e2 b0be
000001f0: 5ba0 b2be 7c6a ddbe 7066 b1be ae85 b1be
