checkpoints_anomalies/model-40.pt (torch, 809337 bytes, 45 tensors)

encoder.conv1.weight f4 [8, 1, 3, 3]
00000000: aa1d efbd 2eef c43e 77f6 07bf 9aa7 e7be
00000010: 35d8 36bd 17a2 38bf 3439 113c 3762 15be
00000020: 91a1 82be 2da6 823e d1b1 4ebe fff0 eb3f
00000030: 1062 4ebc f89f 01be 0b1d 5c3e 53db 1e3e
00000040: 3086 d0be ca2a d33e 2709 a1be 10c1 01bf
00000050: 3166 03bf 1610 893d b85c 00bd 3255 473e
00000060: bed2 663f 190b 983d fee2 873e 8a7d 8bbe
00000070: f0c7 f0be 796c c9bd 858d b2be 1c27 a9be
00000080: ba13 29bd 491a 1ebf 3b8d fabe d611 b63e
00000090: 00cc 8b3e af23 a53d 3f43 38bf 207d 8b3e
000000a0: f6d7 de3e dc62 e1be 1e75 f83e e6a3 52bd
000000b0: d87f acbe cc30 fcbd 6b3f 263f e7e3 debe
000000c0: 11b9 14be 490c f43e 6fac 94be 9679 cc3e
000000d0: d2fc e03e 5faa dbbd b208 913f 5af3 f63c
000000e0: c7d4 49bd adf3 4a3e 9756 fc3d 02bb 6abe
000000f0: 2f1b 213e afab ddbd adc0 273f cf33 923e
00000100: 33e2 d0be 512f bd3e 84ad a03f 4899 593e
00000110: 6ed9 623e 9df7 6c3f ca1d 853e 0c37 8fbe
-0.1167558 0.3846373 -0.5311045 -0.45245057 -0.044639785 -0.7212233 0.008863736 -0.14588247
-0.2551389 0.25517407 -0.20185019 1.8432921 -0.012596622 -0.1265868 0.21495454 0.15513353
-0.40727377 0.41243583 -0.31452295 -0.50685215 -0.51327807 0.06692521 -0.031338423 0.19466093
0.9016532 0.07423992 0.2654037 -0.27244216 -0.4702754 -0.09835143 -0.34873596 -0.3303765
-0.04127858 -0.6175886 -0.48935875 0.35560483 0.27304077 0.08063447 -0.7197761 0.272439
0.4352414 -0.44020736 0.48526853 -0.051425837 -0.33691287 -0.12313995 0.6494052 -0.4353325
-0.14523722 0.47665623 -0.29037806 0.39936513 0.43942887 -0.10725855 1.1330779 0.030145336
-0.049275186 0.19819517 0.12321203 -0.229229 0.15733026 -0.10823762 0.65528375 0.28555152
-0.40797576 0.36950162 1.2552953 0.21249878 0.22153255 0.9256533 0.2599929 -0.27971685

encoder.conv1.bias f4 [8]
00000000: 539f 743f 0f35 513d 3d43 e3bd 7b39 9e3c
00000010: 66d5 1a3e 64c6 6e3e b196 f23e a96d 9f3e
0.9555561 0.05107599 -0.11096809 0.019314518 0.15120468 0.23317868 0.47380593 0.31138352

encoder.conv2.weight f4 [16, 8, 3, 3]
00000000: d14c a1bd 731b 0a3c 4e31 d43e 25a3 8bbe
00000010: a94f 54be aae2 8a3e 017f ccbd fd30 d33c
00000020: a1a6 943e 1ba0 713d 7bb1 b6be fe73 85bf
00000030: 415a 853e 2b9f 473e ab1b 0abf f191 073f
00000040: 5c1c 9b3e 6513 96be 7d45 3d3e 5234 37bd
00000050: 4feb dd3d 1d0c 923e fe58 12bf 41d6 d3be
00000060: 344e 2a3f 9b72 96be ce0f 9bbe c301 d5be
00000070: d4e1 7b3d 92ab bf3e ee61 f6be 2d7f bbbd
00000080: 7e75 e93e 7c5c bebe d509 94be e5cb d13e
00000090: bb2e 80be 1b58 023e 168c 293f 6df2 0dbe
000000a0: 368c 70be bf2a 393e 2e66 a5be b12f a5be
000000b0: 12a0 ea3e 40d1 d7be 1993 9ebe 2566 493f
000000c0: b67e 44bd 6af6 1ebe 3f74 103f e942 c73e
000000d0: 9f10 b03d 2010 233e 987a 553e dd55 813d
000000e0: 2e77 efbd 5961 783e cbed a93d 24d5 09be
000000f0: ae80 db3e 3a6c b0bd f62e d8be 79f4 143f
00000100: 5d23 83bd 7e62 d9be 5242 003f 5ec3 64bd
00000110: 59f1 fdbd 1d72 5c3f b068 853e 51e5 3f3e
00000120: a2c7 82bd 9940 173d 40d4 d53a d7ca b0bc
00000130: 750e de3d 05e8 03bd 6964 e53e ed9c 5e3e
00000140: 895f 723e e831 c43e cac1 273f c9fe 853f
00000150: 8a27 bc3e b2a0 193e 1f02 143f 0594 f93e
00000160: 7e04 efbd f388 363f 4cce 543e ab25 07bf
00000170: 395e aabe cc2b 243e 1349 c03d ef9d ddbd
00000180: 0c0e 263f b6bf 353e 83ab 263e 83be c3bd
00000190: a489 f43d 33e8 073e ecc0 6f3e e18e 2d3e
000001a0: d770 643e b23c 5b3e 79ea 2c3e 3525 f8be
000001b0: 5de1 03be 77aa 8c3e d980 5e3e ae85 ae3e
000001c0: 2c79 8a3e 629e 54bd c1a7 173e 216e 583d
000001d0: 4612 853e 802b 34be 3a3d b03c 53ff de3d
000001e0: 639e ffbe fec7 32be ec1a 3e3d 935b 873f
000001f0: 27ae c23e 3356 fcbd c334 bc3e 01fb 89bd
00000200: 2dbd 2abd c67a 743e bfb6 66be 220d aabe
00000210: b52b 113f e0f1 353e ebe6 b53e 8406 a23e
00000220: ce4d d33d 3667 403f 98e0 203f 989d b53e
00000230: 7b8e d73e 8b9f 6f3f ceb1 423f 12e0 673f
00000240: 6ce1 8ebe 365e 4e3e 38f4 e43e dc3f a83e
00000250: b314 1a3f 27f5 a73e a768 a53d a4a5 c0bd
00000260: e333 c1be 100e 6d3e acf7 cfbd 08be 95bf
00000270: 89b8 ef3d 3016 d8bd 9fe9 8b3d deab 29bd
00000280: 89d7 ae3e 1893 503f 7c43 8fbe e441 e2bd
00000290: 9f58 633e 855e 933e 62f4 8ebb 10e9 673e
000002a0: 7a82 85bd c958 b63d 6048 033e aab7 b1be
000002b0: 05fb bf3d 1cd4 7abe 9c95 bd3e 4de6 de3e
000002c0: aa9e 9f3c 82ed 553e 4893 843d 963f 9dbe
000002d0: b80a 0abd 48aa 49bd 82dd 923d 9d78 bfbe
000002e0: e36e c5be 658a c1be 0343 92be 6d10 513c
000002f0: 0bd5 1dbf b7df 54be 8b57 a5be 952d c2be
00000300: 5a7b 16bf 927c dfbc 97ef 44bf 4486 0abe
00000310: 570d 233e b328 ae3e 393e de3e 5992 da3d
00000320: d056 93bf 119b 0ebf fc9d b7bf a0a6 2dbf
00000330: 1c3c dbbe 7690 02be 2f2d 0d3e 9814 753e
00000340: 901d 1d3e 8e72 95be de93 693e ee6e 833e
00000350: 7eca 01be aa72 563d 6040 c6bc 15ba 7c3e
00000360: 8162 ac3e f5df e73e 07de a93e ae8e de3e
00000370: fe1a 3f3f 0f8b 1d3f d5ce 203d b27a a93c
00000380: 9ef0 66be ca64 92be 20dc a5bc be5f 9c3d
00000390: f0fd 38bd 9f2e d8bd c88c abbe 10c5 a4be
000003a0: 5154 bb3a 5498 0c3f 8303 ca3d 4821 563e
000003b0: 2fb8 2ebe 32fe fe3e 78c7 d73e 34ac 883e
000003c0: d138 ce3e f326 bb3e 9385 0ebe 1b58 883e
000003d0: ea15 813f e3d8 653e 8767 233e e571 1c3f
000003e0: b0de 703e 06df b0be 6b39 063e 5bb1 d83d
000003f0: b6ef 25be 3365 56bd b185 7c3e 8c71 89be
-0.0787598 0.008429396 0.41443866 -0.27272907 -0.20733513 0.27126056 -0.099851616 0.025780195
0.29033378 0.05899058 -0.35682282 -1.0426023 0.2604542 0.19494312 -0.5394847 0.52957064
0.30295074 -0.29311672 0.18483539 -0.04472763 0.10835897 0.28524867 -0.5716704 -0.413744
0.6652558 -0.29384312 -0.30285496 -0.41602907 0.061494663 0.37435585 -0.4812159 -0.09155116
0.45597452 -0.37179935 -0.2891375 0.40975872 -0.25035653 0.12728922 0.6622938 -0.1386201
-0.23490986 0.18082713 -0.3230452 -0.32262948 0.4582525 -0.42151833 -0.30971602 0.78671485
-0.047972403 -0.15523687 0.5642738 0.38918236 0.0859692 0.1592412 0.20847547 0.06315205
-0.116926536 0.24255885 0.082973085 -0.13460213 0.42871612 -0.086143926 -0.42223328 0.58185536
-0.064032294 -0.42457956 0.50101197 -0.05585038 -0.12399549 0.86111623 0.26056433 0.18739821
-0.06385733 0.03692684 0.0016313866 -0.021581097 0.10842601 -0.032203693 0.4480317 0.2173955
0.23669256 0.38319325 0.65530074 1.0468379 0.36748916 0.15002707 0.57815737 0.48745742
-0.11670779 0.7130272 0.20781821 -0.5279185 -0.3327501 0.16032332 0.09388938 -0.10821139
0.64865184 0.17748913 0.16276364 -0.095578216 0.11940315 0.1327217 0.23413438 0.16949035
0.2230867 0.21409872 0.16886319 -0.48465887 -0.12878938 0.27473804 0.21728839 0.34086365
0.27045572 -0.051908858 0.14810087 0.052839402 0.25990504 -0.17594719 0.02151357 0.10888543
-0.49925527 -0.17459103 0.046412393 1.0574821 0.38023493 -0.12321129 0.36759004 -0.06737328
-0.04168432 0.2387496 -0.2253065 -0.33213145 0.56707317 0.17768049 0.3552774 0.31645596
0.103175744 0.7515749 0.628427 0.35471797 0.4210089 0.9360282 0.7605256 0.9057628
-0.27906358 0.20153126 0.44717574 0.3286122 0.60187835 0.32804224 0.080766015 -0.094065934
-0.377349 0.23149896 -0.101546615 -1.1698618 0.11705119 -0.10551107 0.06831669 -0.04142367
0.34148815 0.8147445 -0.27981174 -0.11047724 0.22201775 0.2878305 -0.004362629 0.226475
-0.06519027 0.08903653 0.12820578 -0.34710437 0.0937405 -0.24494976 0.37028205 0.4353508
0.019484837 0.20891383 0.06473404 -0.30712575 -0.03370163 -0.04923466 0.071711555 -0.37396708
-0.38561162 -0.378009 -0.2856675 0.012760264 -0.616532 -0.20788465 -0.32293352 -0.379254
-0.5878197 -0.02728108 -0.76928085 -0.13527781 0.15923057 0.34015426 0.43406847 0.10672445
-1.1510868 -0.5570536 -1.4345088 -0.67832375 -0.42819297 -0.1275042 0.13786767 0.23933637
0.15343308 -0.2918896 0.22810313 0.2567057 -0.12674901 0.052355446 -0.024200618 0.2468036
0.33668903 0.45288053 0.33177206 0.4346823 0.7465056 0.6154031 0.03925975 0.020688388
-0.22552726 -0.2859252 -0.020246565 0.07635449 -0.04516405 -0.10555767 -0.33505845 -0.32181597
0.0014292096 0.54919934 0.09863951 0.20911133 -0.17062448 0.4980331 0.4214437 0.2669388
0.40277722 0.36553153 -0.13918142 0.2662972 1.0084813 0.22446017 0.15957461 0.6111129
0.23522449 -0.34545153 0.1310784 0.10580703 -0.16204724 -0.052342605 0.24660374 -0.26844442

encoder.conv2.bias f4 [16]
00000000: 7c45 a13d ee2c 0b3f 0e8b fd3d 9e06 d53e
00000010: e486 70be cffe 29bd dda7 fc3e 199c e8be
00000020: ca1b 9f3e b7d6 2abe 3c58 3e3f 6421 01bf
00000030: 1185 413d 5972 5dbe c0ec b5be 4177 6ebe
0.07874581 0.5436543 0.12380038 0.4160661 -0.23488957 -0.04150277 0.4934682 -0.45431593
0.3107589 -0.1668347 0.74353385 -0.50441575 0.047246043 -0.21625651 -0.35532188 -0.2328768

encoder.conv3.weight f4 [32, 16, 3, 3]
00000000: 28d1 70be ec1c 8fbe cd8d 7bbd 11a1 513d
00000010: 9e75 afbe 645d 25be d949 c7be ebd7 80be
00000020: 6bc8 bf3d 3a84 b83e 3b26 69be c14a 54bf
00000030: fc1d 14bd 4a5a 25bc 2ce5 803d 24e2 2d3e
00000040: be98 91bd 4737 6a3e 8419 5b3e cc63 e43d
00000050: c31b 193e 8290 e2bd 9ea9 213d f82b 9bbd
00000060: 6ec7 a9bf 5727 263e 8c41 99be c62b 4d3d
00000070: 844e e33d 0a20 753e eb78 17be 1fcc 5cbc
00000080: 0727 36be 485a 98bf 0d0a e93c b22a fcbe
00000090: 5542 093f 70dc 093f f36b 7a3e 9e77 1fbe
000000a0: 04f8 37be dc96 2cbe 3d3e 43bf 639b 89be
000000b0: 0475 20bf fe9b a4bd a159 dbbd 5369 9abe
000000c0: 2747 39bc 2a6c cebd 0e73 603e 1185 97bf
000000d0: 414a aa3e 6c14 203f 8399 5d3d 0db4 2fbe
000000e0: 37aa dabd 629c 80be dbb0 1e3f d463 a33e
000000f0: b828 5c3e cc25 a13e 1cba 94bc c1f1 0a3e
00000100: a234 cdbd c2d3 443d 97d9 0d3e eec6 9c3e
00000110: 3e39 983e 266d e5be 5f00 bfbc 1e55 42bf
00000120: 940c 1e3e 167f f6bc 6ae2 d4be c2ff febe
00000130: ba51 f5be 4527 d8bd f94b e9be da15 413e
00000140: d5cd 993e 3f6e cb3d a499 543e ffed a23d
00000150: 00ad 19bf 035e 93bc b1c8 203d 9256 e9bf
00000160: ae62 0c3d e286 55bd 33f5 83be 9b6a 60be
00000170: 27c0 70be 0192 e4be 91b6 cebe c66b 3f3e
00000180: f1da 1bbf bcef 29bc 8bd0 0a3e b0ff 7cbc
00000190: 8e9c d43d c036 143e 2d39 c33d 8fb0 0f3f
000001a0: 2eba c4be 15de dbbe c71e 533e 72bf 09bf
000001b0: b4a3 b4bd 8c1d a33d fb05 303e 0a5a 773d
000001c0: ad1d 44be 8969 11be ab99 97be 8788 9abe
000001d0: 9b10 693d e4c2 063f c868 d93d 27b3 933d
000001e0: 597e 033f bcfb 9ebe 437b b0be 1be0 c4bd
000001f0: 1762 20bf 6079 19bf eed4 db3b 511c 5a3e
00000200: 2510 eb3e 56df 4dbf d981 94bd 3d67 223e
00000210: 4d32 4ebf c3d1 68be 11bf 6abe a180 be3e
00000220: 6417 f13c 2e86 0fbf a656 36be 4e3a cfbe
00000230: feeb c53d c182 cdbe 428e febe 8c63 0cbd
00000240: 2fb1 2abf af09 46be 82e2 73be bc74 7fbf
00000250: 03a5 89be 4a94 f53d 59e7 94bf 406c 1abf
00000260: c5fd 8dbe c8d6 b13e 8ba2 12bf edd6 933d
00000270: 6d55 20bf cc3f cd3e f233 873e 7cae 1a3c
00000280: 77cc 013f f155 d4be c7aa 383e 0177 233f
00000290: 3b85 b23d 39cf 3d3f be83 a63e 0342 9abe
000002a0: 26ea cb3e c059 03be d351 c1be a99d d8be
000002b0: 3322 9a3e 5232 613e a29c 4d3e e20b 36bd
000002c0: 2497 833d faa0 65be c3e8 a0bd bd68 83be
000002d0: 4d45 fabe 7fe4 babe 9850 2c3e 04df 1cbf
000002e0: d4b0 2ebf a08b f3be 85f9 9dbe 949c 2dbf
000002f0: bdd0 18bf 9136 483e 134c 0d3e 4a22 1e3e
00000300: aacc 69bd 7744 bd3c d9bb ca3e deee 00be
00000310: 5e5f 54bf b903 84be 253b 0f3f 1a00 2d3f
00000320: 5c5f 163e b601 c23e d7ed 993e 8502 e03e
00000330: 0ec1 1e3e e947 88bd 188f 6bbf 3014 62bd
00000340: cdbd 54be 7839 af3e 5b0c 033f 162c 6d3e
00000350: 42c9 a83d 28ab 6e3e 60ed f53c 149f 583e
00000360: 9c96 d9bd e99b 983e a876 41be 2663 a03e
00000370: eb26 1abd 1376 923e 7de7 4a3e 0ac1 d2bd
00000380: f867 dd3d 3a6c c6bd de0f c13e 07b4 383e
00000390: 1d3b 893e 50d8 253d 940f 80bd 48bd e5bd
000003a0: 0117 3cbe 7a6d b6be db6e d93e ea24 093d
000003b0: a2ea 543d 549e cf3e 8032 e73c 186f 38be
000003c0: 929d d53d caf0 bb3e b527 a6be 9044 12bf
000003d0: d201 a23e b85e ca3d 50f2 153f 2d7d fbbd
000003e0: 7290 33bf cf43 71bd df16 f0be b9f4 fcbc
000003f0: 1596 913e 5005 abbd bd7c bd3d 0d82 d03e
-0.23517287 -0.27951753 -0.06141453 0.051178996 -0.34269422 -0.16148907 -0.3892353 -0.25164732
0.093643986 0.3603838 -0.2276849 -0.82926565 -0.036161408 -0.010092327 0.06293711 0.16980797
-0.071092114 0.22872649 0.21396452 0.11151847 0.14951997 -0.11062719 0.0394684 -0.07576746
-1.3263986 0.16225944 -0.2993282 0.050090574 0.1109896 0.23938003 -0.1479222 -0.013476401
-0.17788325 -1.1902552 0.028447175 -0.49251324 0.5361684 0.53851986 0.24455242 -0.15572974
-0.17965704 -0.16854423 -0.76266843 -0.26876363 -0.6267855 -0.08037566 -0.10710455 -0.3015848
-0.011308468 -0.100792244 0.2191889 -1.1837484 0.33259776 0.6253116 0.05410148 -0.17158528
-0.10676997 -0.2511931 0.6198861 0.319121 0.21499908 0.3147415 -0.01815515 0.13568784
-0.100198045 0.04805351 0.13852535 0.3062052 0.29731172 -0.44809836 -0.023315607 -0.7591113
0.15434486 -0.030089896 -0.4157899 -0.49804503 -0.47913915 -0.10554365 -0.45565775 0.18855992
0.3003985 0.09933137 0.20761734 0.079555504 -0.600296 -0.017989164 0.039253894 -1.8229544
0.034273796 -0.052130587 -0.2577301 -0.21915667 -0.235108 -0.44642642 -0.40373662 0.18693456
-0.60880953 -0.010372099 0.13556115 -0.01544182 0.10381423 0.1447401 0.0953239 0.5612878
-0.38423294 -0.42942873 0.2061721 -0.5380775 -0.088202864 0.0796462 0.17189781 0.060388602
-0.19151945 -0.14200415 -0.29609427 -0.30182287 0.0569006 0.5264113 0.106156886 0.07211905
0.51364666 -0.31051433 -0.3446904 -0.09613057 -0.62649673 -0.5995083 0.006708733 0.21299864
0.45910755 -0.8041891 -0.07251329 0.15859695 -0.805455 -0.22736268 -0.22924449 0.3720751
0.029430099 -0.56064117 -0.17806491 -0.4047417 0.096641526 -0.4013882 -0.4971791 -0.034274623
-0.6667661 -0.19339631 -0.23816875 -0.997875 -0.26883706 0.119911745 -1.1633102 -0.60321426
-0.27732673 0.34734178 -0.5727927 0.07218728 -0.6263035 0.40087736 0.2640682 0.009441014
0.50702614 -0.41471818 0.18033896 0.6385346 0.08716818 0.7414432 0.32522386 -0.30128488
0.3982708 -0.12827206 -0.3775774 -0.42307785 0.30104217 0.21991852 0.20079282 -0.044444926
0.06425312 -0.22424689 -0.07856896 -0.25665846 -0.48880997 -0.36502454 0.16827619 -0.61277795
-0.6823857 -0.47567463 -0.3085443 -0.67817044 -0.5969351 0.19552065 0.13798551 0.15442768
-0.05707995 0.023103936 0.3959644 -0.1259112 -0.8295802 -0.2578409 0.5594962 0.6757828
0.14684814 0.3789193 0.3006427 0.43751922 0.15503332 -0.06654341 -0.9201522 -0.055195034
-0.20775528 0.34223533 0.5119073 0.23161349 0.08241512 0.23307478 0.030020416 0.21154433
-0.106244296 0.2980645 -0.1889292 0.31325644 -0.03763477 0.28605708 0.19814868 -0.102907255
0.10810846 -0.09688611 0.37707418 0.18037425 0.26802912 0.040489495 -0.06252971 -0.11217743
-0.1836815 -0.356304 0.4246739 0.03348247 0.051981576 0.40550482 0.028222322 -0.18011129
0.10430445 0.36707145 -0.3245217 -0.5713587 0.31642014 0.098813474 0.58572865 -0.12279735
-0.7014228 -0.058902558 -0.4689245 -0.030878412 0.28434816 -0.08350623 0.092523076 0.4072422

encoder.conv3.bias f4 [32]
00000000: 97ff 95bd b1ad 113c 39ba d73d 11a4 b43e
00000010: 605e 6bbf 22f2 8cbe 02c2 9c3e 71e8 28be
00000020: 6a95 503d 0c72 52be 2000 4d3e 0c0e 62be
00000030: cd95 58be 565d e93e 8386 ae3d c4c3 59bd
00000040: 1a35 723e 4dd1 2b3e 62b4 96bf 474d 0d3f
00000050: 80d2 fb3e 184d 903e 0ce5 be3d 2e4a 9cbc
00000060: dcf0 463e 6cc4 d53c 15a4 d6bd 220f 173e
00000070: 0b5f 7a3f 2c0f 89bd 0500 723e 431c 943e
-0.073241405 0.008891509 0.10533566 0.35281423 -0.9194088 -0.27528483 0.30616766 -0.1649492
0.050923742 -0.20551318 0.20019579 -0.22075671 -0.21150894 0.45579022 0.0852175 -0.053165212
0.23653069 0.1677906 -1.1773798 0.5519604 0.49184036 0.28183818 0.09321031 -0.01907834
0.19427818 0.026094638 -0.10480515 0.14751866 0.97801274 -0.06692347 0.2363282 0.28927812

encoder.batch_norm1.weight f4 [8]
00000000: 4e08 343f 8f1c 0a40 dbed b43e 26c0 5b3f
00000010: 4ecd d93e 6c33 393f bc2e c03f f3fc 0b40
0.7032517 2.157993 0.3533772 0.8584007 0.42539448 0.7234409 1.5014262 2.1873138

encoder.batch_norm1.bias f4 [8]
00000000: 2cb0 223e 5fea cebe f2cd 013e 9519 063e
00000010: 4052 d93d bab6 733d e07c 40be 6ec0 c4be
0.15887517 -0.40413186 0.12676218 0.13095696 0.10611391 0.059500434 -0.18797636 -0.38428062

encoder.batch_norm1.running_mean f4 [8]
00000000: e3d9 33bf 6b88 f63f fee0 843c 1a0a 01c0
00000010: 49f7 143e ab5a 7e3f 750f 0a40 3813 3540
-0.70254344 1.9260381 0.016220566 -2.0162416 0.14547457 0.993571 2.1571934 2.829298

encoder.batch_norm1.running_var f4 [8]
00000000: 679c 3f3e d8fa 873e da3a 7e3d b0d2 a13e
00000010: 889c 8b3d a7e8 853d c743 3a3e 2c4f f63e
0.18712007 0.26558566 0.062067844 0.31606054 0.06816965 0.065385155 0.18189918 0.48107278

encoder.batch_norm2.weight f4 [16]
00000000: 1311 973f 25a9 c23f 10f6 563f da3c 933f
00000010: 7433 813f b034 8f3f 92b1 533f 1422 573f
00000020: 3394 9f3f 6337 883f c13c 373f 9839 3e3f
00000030: e7c1 843f ae55 663f 35e5 783f 0174 963f
1.1802086 1.5207869 0.8396921 1.1502945 1.0093827 1.1187954 0.82692826 0.84036374
1.2467102 1.0641903 0.7157708 0.7430663 1.0371674 0.89974487 0.9722474 1.1754152

encoder.batch_norm2.bias f4 [16]
00000000: 51cf 4e3e 9d73 edbe 2a4e c6be 5858 1b3f
00000010: a9dd 8cbd 88cd 00be fbdc aabe 1fae 833d
00000020: 5c5f e1bd 1fe0 993e ee7c 163f 41a5 213e
00000030: d813 bc3d 768f e0be 8a5f fcbd cb84 eb3e
0.20196272 -0.46377268 -0.3873151 0.60681677 -0.06878216 -0.12578404 -0.3337172 0.06429695
-0.110045165 0.30053803 0.5878438 0.15785696 0.091834724 -0.43859452 -0.1232291 0.4599975

encoder.batch_norm2.running_mean f4 [16]
00000000: facf 423f b524 cb40 8014 a4bf 6202 0240
00000010: 074e 56bf 31df 14bf ff62 96bf 5cf2 5d3e
00000020: 6130 cc3e 58df 96bf b25a 42c0 9bfe acbf
00000030: 5aea 5bbf f3e9 073e ed82 a6bd 2a2b f3bf
0.760986 6.348231 -1.2818756 2.0313954 -0.8371281 -0.58153063 -1.1748961 0.21674484
0.3988066 -1.1786909 -3.0367856 -1.35152 -0.8590447 0.13272838 -0.08130441 -1.8997548

encoder.batch_norm2.running_var f4 [16]
00000000: b650 9540 e7b8 0540 e3a4 7440 0c87 3741
00000010: 34c5 1940 c1fe 5a40 f2ec 5740 0cff 5040
00000020: 3232 7f40 7ef9 1d41 a2e9 6440 d351 6e40
00000030: 6828 0f40 0c05 7840 5863 8640 e063 0a41
4.6661024 2.0894105 3.822564 11.47047 2.4026613 3.421799 3.373837 3.2655668
3.9874387 9.873411 3.5767598 3.7237442 2.2368412 3.875308 4.199627 8.649384

encoder.batch_norm3.weight f4 [32]
00000000: ae36 d23d af65 9e3d f5aa 8e3d b83d 6e3d
00000010: 8f45 8a3d c12f b13d 9ff3 ad3d c588 fb3d
00000020: 552f 683d 3220 ed3d 7fd6 073e 4e54 233e
00000030: 0566 7d3d dda2 0b3e d88a d43d c311 d63d
00000040: 1819 3f3e 11f2 b33d 3e73 9d3d 427f c73d
00000050: 8fac ab3d 8d8b b63d 4dfe 553d 94a4 ac3d
00000060: 25b1 663d 6ca9 e53d 594d 273e ffd4 a23d
00000070: a920 4d3d cc18 9d3d 1684 a83d 03f3 1c3e
0.102643356 0.07734238 0.06966201 0.05816433 0.067515485 0.086516865 0.08493733 0.12281946
0.056685764 0.115784064 0.13265418 0.15950128 0.06186487 0.13636346 0.10378045 0.104526065
0.18661916 0.08786405 0.07687996 0.097410694 0.08382522 0.08913336 0.052244473 0.08429828
0.056321282 0.11213955 0.163381 0.07950782 0.050079975 0.07670745 0.082283184 0.15327077

encoder.batch_norm3.bias f4 [32]
00000000: d6e7 c3bc 87e2 2bbd 3fed 51bc 5182 46bb
00000010: 0666 4b3a 52e6 663d d75f 10bd 54ec a7bd
00000020: 5e1d 053d bfed 9fbd e373 abbd 32db d0bd
00000030: d278 d53c 56ad 9fbd 48bd 80bd a458 49bd
00000040: c8cc 09be 0816 3d3d a6ee 15bd fc5d 5bbd
00000050: 3683 93bb 8c69 12bd 1ea9 02bc bd0b 28bd
00000060: a99f 56ba 2e2c 82bd b8f7 c5bd 9091 4cbc
00000070: 03df 76bc 5ea5 c83c e2d8 37bd e919 d9bd
-0.023914259 -0.04196408 -0.0128129115 -0.0030290077 0.0007759038 0.056371994 -0.03524765 -0.08199373
0.03249871 -0.07809018 -0.08371713 -0.10198058 0.026058588 -0.07796733 -0.062861025 -0.0491568
-0.13457024 0.04616359 -0.036604546 -0.053556427 -0.0045017255 -0.03574519 -0.007974891 -0.04102682
-0.00081872434 -0.06356083 -0.09666389 -0.012485877 -0.015067819 0.024492916 -0.04488457 -0.10600645

encoder.batch_norm3.running_mean f4 [32]
00000000: d3c3 dac0 acdd 99bf 7547 fd3e a4f7 0dbf
00000010: 39aa 5640 b8b0 cd3f 4a6d febe 0449 8ebf
00000020: 726f d1c0 4c18 1040 f803 f5c0 ba98 92c0
00000030: 9512 dcbf e266 d1bd 45d8 c33f 0f57 4340
00000040: 6cf0 ce3f e2d3 0b40 816e 4bc0 f160 10c0
00000050: a218 e6c0 36b6 013f 9267 9a3f 706a eebf
00000060: 7787 e4be 7c7c 483f 975a c8c0 7f7a 803f
00000070: b2c8 89bf 209e 9ebf fbd3 aabf aab7 8dc0
-6.8364043 -1.2020774 0.4946858 -0.55455995 3.3541396 1.6069555 -0.49692756 -1.1116033
-6.544854 2.251483 -7.6567345 -4.5811434 -1.7193171 -0.102247015 1.5300375 3.0521886
1.6167121 2.1848073 -3.1786196 -2.2559168 -7.190507 0.50668657 1.2062857 -1.8626232
-0.446346 0.7831495 -6.2610583 1.0037383 -1.0764372 -1.2392006 -1.3345941 -4.42867

encoder.batch_norm3.running_var f4 [32]
00000000: 06b0 8b41 748c 8641 bea5 a641 6e09 4641
00000010: 6484 ba41 04fd 2742 5e87 b041 21e7 1342
00000020: d876 3041 2930 4d41 a33c fa41 115b 0442
00000030: bc44 b341 2cbd d241 4645 2142 70bb a941
00000040: 307e 2342 99c4 0e42 f3bd a441 7a2f 0242
00000050: 56e1 5741 4b7d d241 c0b8 1441 1643 a341
00000060: 17ca 8041 21e5 9541 90eb 1b42 f730 9c41
00000070: 685a 2f41 112b c141 466b ef41 02ce 0842
17.460949 16.81858 20.830929 12.377302 23.314644 41.997086 22.066097 36.97571
11.029015 12.824258 31.279608 33.088932 22.408562 26.34237 40.31765 21.216522
40.87323 35.69199 20.592749 32.546364 13.492514 26.311178 9.295105 20.407757
16.098677 18.73688 38.98004 19.523909 10.959572 24.146029 29.92738 34.20118

encoder.linear1.weight f4 [128, 512]
00000000: 63a3 99bd f0f9 b9bc 5d2a fcbc 7d14 b5ba
00000010: a366 d9ba 7d27 68bb 0069 cebb 0fc1 85bd
00000020: bf6e f3bc 5eb9 213d 0709 313d 7f87 323d
00000030: 4a99 67bd 470e b9bc 58c3 eebc 5bf2 e23c
00000040: e047 cbbd 66da 60bd 88ee 16bd 6ed2 cdbb
00000050: 8201 20bd 0179 823c d33c 733c 0a84 753d
00000060: 2074 90bc d3a7 f23b bf2d 84bd b296 103b
00000070: 4b65 543c 03d7 86bd e836 7dbc d1a6 d3bc
00000080: 3ffc 89bd 42f9 c83c 4420 59bd 9227 71bc
00000090: 05dc ccbb cc60 6bbb 063f 763d 93db 1fbd
000000a0: df23 003d f6dd 37bc a17b 313d cef8 6bbd
000000b0: 6aa6 d3bc e67e 9fbd 772e 9e3c 8809 c4bd
000000c0: bf1d 263d 4b4d 57bc b110 8abd 6855 b2bc
000000d0: 42b1 a236 3a70 26bc 1458 00bd 6152 2cbd
000000e0: df20 41bc 527a 26bb 11d0 fabc 94f5 87bc
000000f0: cf29 72bd fc34 08bd 8fee 1e3d dfb0 d4bd
00000100: ba78 28bc 1123 b03b 821a 61bb 649b 22bd
00000110: 1ca1 5b3c 4364 38bd 7975 6dbd b6c7 8fbd
00000120: 0eb4 46bd f86d c5bd 1dcd 773c 337d 40bc
00000130: 0fe1 87bd 78d4 603c 6933 e6bd ef69 923c
00000140: f5ad e4bc ec5e cbbd 9ca4 8fbd 6360 01be
00000150: 308d 89bd 2981 95bc 3bc3 82bd 278a 6f3c
00000160: e894 2ebd 56f9 d2bd 834e 21bd debf 9f3a
00000170: e041 5dbd 2367 4bbc 25e2 65bd 5f1b 23bd
00000180: fd03 c2bc ee7a 97bd 8938 06bd 0ea5 ad3c
00000190: b1d2 7cbd e739 313d 14fa 35bd 2fcd 39bb
000001a0: ea7b 083d b821 8cbc fef8 87bc 1ddf 13bd
000001b0: 95ef aa3c 6dfb bebd 1700 233d 3490 eabb
000001c0: d09b b3bd 4af6 dfbd 0881 093d ac56 bbbd
000001d0: a3fc afbc 8857 23bd 05bb 5b3d 0dcc d7bc
000001e0: 2060 fa3b 143d e4ba c248 443d 5dc4 0dbd
000001f0: a3ad 03bc f127 9c3d 3d53 60bc 7788 36bd
00000200: 2acc bfbc 8753 93bd e1fe 7ebb e68c a8bd
00000210: 92c9 f33c d265 b7bd 755c 1ebd 695e 9f3c
00000220: 23a7 39bd d1a6 1abd 49a2 3c3d 3438 a3b9
00000230: 69d0 c4bc 8827 ecbb e430 24bd b002 563d
00000240: 3d8c 243c 4950 9d3d 0fd6 afbd b3db d9bc
00000250: 3c63 97bd 844b 5b3d 2f63 43bd c2b5 9bbd
00000260: 7a57 46bd 5787 933d c4af 7abd 163f dabc
00000270: 8f13 febc 9d3c 79bd c5d4 69bc be98 87bd
00000280: d374 bfbd 439b 90bd 2f0c 32bd ae76 99bc
00000290: bf6a b0bd 750a 223d dd0f b33b 52b4 cb3d
000002a0: 8386 87ba 9af2 b43c f8bb 453c 233c 24bd
000002b0: ac3a 39bc bed0 083d de01 493d 9c4f 1b3d
000002c0: e6c9 a2bb 1349 e3bc 5723 2fbd 16b2 45bd
000002d0: 9bfe 0bbd 3502 23bd c364 e3bd 3cab 2bbd
000002e0: 432a 1ebd d079 e1bb 06eb 613c 3c9b 86bd
000002f0: e7ac f6bc 8975 31bd 8474 a4bc 155c a5bc
00000300: 1ba9 243d d566 1fbd e139 43bd b7ca b4bd
00000310: 1aeb 033d 475a 7dbd bf00 95bd 4d34 713c
00000320: 84fc 99bd e730 a9bd cc77 5bbc c96e e93b
00000330: f131 cabd 4305 eebc 71d3 79bd 72fb 283d
00000340: 0f63 68bd b300 d43c 1671 29bc 2b2a 80bd
00000350: a57b b33b 67d9 923d abb5 35bd 5e3e 88bd
00000360: 3cb1 b83c 9f70 b1bc 5314 5cbc 9437 4cbd
00000370: a788 0dbd 37c0 9b3d 298f f0bc 4dc5 2cbd
00000380: 71ae 813c 9350 45bd b81c 94bc f075 c0bd
00000390: 179b a8bc 3f09 9e39 3d72 7ebb 9121 8d3c
000003a0: d8d6 35bd 852f 073d 39a0 4bbc fe0f 86bd
000003b0: ec01 01bd 43dc da3d 208d 11bd 6baa d23b
000003c0: 5f4d a7bc 36a2 73bd 2fb6 17bd 06cb 97bd
000003d0: a05d 3abd b291 99bc eb17 a3bc b623 94bd
000003e0: ea5b 6a3d e697 8b3d 1df6 94bd 0143 d13c
000003f0: 7517 4e3d f4f5 51bd fc44 1bbc f650 bbbd
-0.07501867 -0.022702187 -0.03078192 -0.001381531 -0.0016586374 -0.0035423927 -0.006299138 -0.06530964
-0.029715894 0.03948342 0.0432215 0.04358625 -0.056542672 -0.022589816 -0.029145882 0.027703455
-0.099258184 -0.05489578 -0.036848575 -0.0062811887 -0.039063938 0.01592684 0.014846045 0.059940375
-0.017633498 0.00740526 -0.06454038 0.0022062478 0.012963603 -0.06583979 -0.015454985 -0.02583638
-0.06737565 0.024532918 -0.053009287 -0.014718907 -0.0062518143 -0.003591585 0.060118698 -0.03902776
0.03128421 -0.011222353 0.043330792 -0.057610326 -0.025836188 -0.07787876 0.019309266 -0.095721304
0.04055571 -0.013140987 -0.06741465 -0.02176924 4.8486118e-06 -0.010158593 -0.031333998 -0.04207075
-0.011787622 -0.0025402498 -0.030616792 -0.016596593 -0.059121903 -0.033253655 0.038801726 -0.10385298
-0.01028269 0.005375274 -0.0034348075 -0.039698973 0.013405111 -0.045017492 -0.05797336 -0.07020514
-0.048511557 -0.096401155 0.015124586 -0.0117486 -0.066347234 0.0137225315 -0.112402745 0.017872779
-0.02791498 -0.09930214 -0.070138186 -0.12634425 -0.067163825 -0.018250065 -0.063848935 0.01462034
-0.042622477 -0.10301463 -0.039381515 0.0012187918 -0.0540179 -0.012414726 -0.05612387 -0.039821025
-0.023683542 -0.07396494 -0.03276876 0.021196868 -0.06172437 0.04326811 -0.044427946 -0.0028351059
0.0333213 -0.017105922 -0.01659822 -0.03610145 0.020866195 -0.093252994 0.039795008 -0.0071583036
-0.08769953 -0.10935648 0.03357032 -0.09147391 -0.021482771 -0.0398784 0.053645153 -0.026342416
0.0076408535 -0.0017413222 0.04792095 -0.034611095 -0.008037004 0.07624806 -0.013691721 -0.044563737
-0.023412783 -0.07193666 -0.0038909244 -0.08229999 0.029759202 -0.089549676 -0.038662393 0.019454198
-0.04532541 -0.037756745 0.046053205 -0.00031131657 -0.024025159 -0.007206861 -0.04008569 0.052248657
0.010043201 0.07681329 -0.0858575 -0.026594019 -0.07391974 0.053538814 -0.04770201 -0.07603027
-0.048423268 0.072035484 -0.06120278 -0.02664141 -0.031015186 -0.06084882 -0.01427192 -0.0662093
-0.09348454 -0.07060864 -0.04346865 -0.018733349 -0.0861411 0.039560754 0.0054645375 0.09946503
-0.001033977 0.022088338 0.012068741 -0.040096413 -0.011305492 0.033402197 0.049074046 0.03791772
-0.004967916 -0.027744805 -0.042758312 -0.04826554 -0.034178358 -0.039797027 -0.11103203 -0.04191135
-0.038614523 -0.0068809763 0.013788944 -0.06572577 -0.030111743 -0.04332498 -0.02007509 -0.02018551
0.040200334 -0.038916428 -0.04766262 -0.08827727 0.032206632 -0.061853673 -0.07275533 0.014721942
-0.07518867 -0.082612805 -0.013395261 0.0071238023 -0.09872807 -0.029055243 -0.060992662 0.041255422
-0.056735095 0.02587924 -0.010341903 -0.06258043 0.005477386 0.071703725 -0.044362705 -0.066525206
0.02254545 -0.021660147 -0.01343258 -0.04985769 -0.03455415 0.076050214 -0.02936514 -0.04218035
0.01583025 -0.048172545 -0.0180801 -0.09397495 -0.020581765 0.00030142997 -0.0038825416 0.01722792
-0.044394344 0.033004303 -0.012428337 -0.06546019 -0.031495973 0.10686543 -0.035534978 0.006429007
-0.020422636 -0.05948087 -0.03703898 -0.074117705 -0.045499444 -0.01874623 -0.019908866 -0.07233374
0.057216562 0.06816082 -0.07273505 0.025544645 0.05031534 -0.05125995 -0.009476896 -0.091463014

encoder.linear1.bias f4 [128]
00000000: fa91 0bbd b79e 7dbd 0774 fdbb a7df 4f3c
00000010: 9e5a 443a 7a80 aebc c985 ba3e 531e 68bd
00000020: 1ec3 4abd ff4f 00bd 3720 52bd 0ebe 7ebd
00000030: 282a 59bd 64fe 47bd 6517 46bd 4be8 4bbd
00000040: 69ed 5dba 1681 56bd 8dfa 0bbc f574 9cbd
00000050: 1757 a3bd 76e4 e9bc 557c 5dbd c8f7 06bd
00000060: de0c 443c 8641 d0bc 6811 0bbd df13 55ba
00000070: 4a48 873e 7737 68bd 1f97 09bd 6a93 06bd
00000080: 3c53 8ebd 861f b33c c3b8 2abd 4a47 20bc
00000090: 454a cbbc ba8f bb3e bb52 e53b 1cf8 553e
000000a0: ea1a 9dbc 0875 0c3e b4af 243c e18c e8bc
000000b0: 46e7 e4ba c95f b43c b7f8 a3bc 0763 a3bc
000000c0: 1735 86bd 6029 8cbd eea3 76bc f953 a8bc
000000d0: a013 8abc 3a46 0fbc 0761 e7bc 45f8 a1bc
000000e0: c403 12bd 8286 74bd 7d03 8ebd 577d fabb
000000f0: 35d5 ed3e a4a0 35bd 30b9 41bd 3928 53bd
00000100: 46b9 8a3e d167 a63e 0e3c 85bd 197a fabc
00000110: 31a6 eb3e d280 adba 4c6e afbc d158 d8bc
00000120: 7a5b adbc 2ee2 3abb f3f7 07bc 9bee 3c3c
00000130: bbe7 dabc c826 103f b508 133b 6131 143c
00000140: c03a a1bd 8c7d 3c3e 0fc3 07bd 9583 3e3c
00000150: 04f9 3bbd 437b 05bd c51c ec3d 7d41 40bd
00000160: 7c43 0dbd c016 e5bc c80c 35bd 24bb 70bd
00000170: 8445 b63c 4180 753e 886c fabc 74ec 19bd
00000180: 9c11 453b a748 9dbc 344b abbd 8059 53bc
00000190: 624c cb3e a1d2 0bbc 2c54 c7bb 72e3 4fbc
000001a0: 4581 053c 4e6e edbb cf7c 3fbd 1031 9b3e
000001b0: 5447 a1bc 568c 39bc a8d8 a6bc e4c6 60bd
000001c0: 57fd 07bd e349 16bd 8abc 5cbb d637 fbbc
000001d0: 9673 26bd 669e d9bb 5827 673e 3732 01bd
000001e0: 816e 883e 6ccd 2cbc 96e9 933c 68c2 d0bb
000001f0: 00df 22bc bc57 f1bc b62b 9abc 07b2 5e3e
-0.03407476 -0.06191894 -0.007734779 0.0126876 0.00074903097 -0.021301497 0.36430195 -0.056669544
-0.049502485 -0.03132629 -0.051300254 -0.06219297 -0.05301872 -0.04882659 -0.048362155 -0.04978208
-0.0008465858 -0.0523692 -0.008543623 -0.07639495 -0.079755954 -0.028551321 -0.05407365 -0.032951146
0.011965958 -0.025421869 -0.033952147 -0.0008128266 0.2642234 -0.05669352 -0.033591386 -0.03285543
-0.069494694 0.021865617 -0.04168011 -0.009782622 -0.024815688 0.36633092 0.0069983876 0.20895427
-0.019177873 0.13716519 0.0100516565 -0.028387489 -0.0017463944 0.02201833 -0.020016057 -0.01994468
-0.06553095 -0.06843829 -0.015053732 -0.020547854 -0.016855061 -0.008744771 -0.028244508 -0.019771704
-0.035648122 -0.05969859 -0.06934259 -0.007644336 0.46451727 -0.044342652 -0.04729575 -0.05155203
0.27094477 0.3250108 -0.06505595 -0.030575799 0.4602523 -0.0013237244 -0.021414898 -0.026409538
-0.021161783 -0.0028516161 -0.008298862 0.011531497 -0.026721826 0.56309175 0.002243561 0.009044976
-0.07872534 0.18407267 -0.033145007 0.011628051 -0.045891777 -0.032588255 0.11528925 -0.046937454
-0.034488186 -0.02796495 -0.044201642 -0.05877222 0.022249945 0.23974706 -0.03056933 -0.037579015
0.003007031 -0.019199682 -0.08363953 -0.012899756 0.39706713 -0.008534105 -0.006083032 -0.0126885045
0.008148496 -0.0072458154 -0.046749886 0.3031087 -0.019687332 -0.011324963 -0.020366982 -0.054877177
-0.033200588 -0.036691558 -0.0033681714 -0.030666273 -0.040637575 -0.006641197 0.22573602 -0.03154203
0.26646808 -0.010547023 0.018055718 -0.0063708313 -0.009940863 -0.02946078 -0.018819671 0.217476

encoder.linear_mu.weight f4 [128, 128]
00000000: 69cf c73d ad54 2f3c 7177 9ebd d010 903d
00000010: e614 9e3d 7868 183d 041f cb39 1147 653d
00000020: 164e 72bd 9689 d3ba 7391 84bd 5f67 893d
00000030: 17b3 f1bc 02ee 59bd d245 153c 891c 333c
00000040: d754 1bbd 0cd6 573c 71b3 b3bd 0594 1e3c
00000050: f806 7a3d bfae c6bd 039a 93bd ab56 483d
00000060: 6dcc 823d a2e6 4dbd c20f 6e3d d102 a4bd
00000070: f64c 7fbb 7bfa 83bd 039f 88bd 7e01 513d
00000080: 0a77 833c a3c8 acbd eb80 8a3d ecad 16bd
00000090: 4c8a 8bbd d625 71ba e685 04bd 846d 8a3a
000000a0: 91e4 8fbd fbcf a73a ca72 73bc d7f5 4c3d
000000b0: 2fd1 3c3d 71f9 5ebc 2aac 04bd 33fb 22bd
000000c0: 2cf8 533d 0316 473b d49b 903b 614e af3c
000000d0: 8c0a f2bb 3074 0a3c 232d ad3c e7ce 37bd
000000e0: 71ac 78b9 3452 5d3d 86de 6e3d 90fb 37bc
000000f0: 0864 453a af37 543d 61f4 223d 772a 753d
00000100: 1146 6f3b 086c f3bb f94b cfbd 9cef 5e3d
00000110: 5754 20ba 1d13 253d f96d 11bd 921d 283d
00000120: f975 4e3c f797 993d dc09 f2bc d70c 66bd
00000130: e459 743d 6197 84bb 4a9e c13c 81d8 b3bd
00000140: 687c 893c c01c 23bc 98c0 31bd e900 50bd
00000150: e3c2 b53d 9f28 abbd 0397 3dbb dde8 233d
00000160: 9499 2cbd 47e4 0b3d a0e3 a73c 8ced dbbb
00000170: a1ef 7d3d e3e6 74bb 846e 133d a3ae 16bd
00000180: 1ab2 4a3d c60d 80bd 32c0 0abe 1d9d f9bc
00000190: 9a4b dc3a f32f eb3b 45cb 6f3d 2ee3 b83d
000001a0: 81a1 82ba 0153 efbc 4d16 9cbd 1df6 bcbb
000001b0: f27e 0cbd 04dc 2fbd 19ec ddba 5aa8 9cbd
000001c0: 1f09 aa3d 5727 44bc 671a 893d 4286 1c3d
000001d0: 7e1a 64bb 0850 85bc 2975 b43b 6097 b7bc
000001e0: e0e5 5eb7 36fe 103c a792 7b3d 65d5 783d
000001f0: d8bc e53b bebc 94bd 34c3 ae3d 449e 1b3c
00000200: fb10 38bc a072 a1bc 129d b9bc fb0e ad3b
00000210: 944d 9d3d 500e 323b b700 4abc 4ffa 21bd
00000220: 982b e8bc 08b6 823d 8399 193a 77bf 38bd
00000230: 4f24 edbc a786 a8bc 2663 893c 4d2b a0bc
00000240: 7b7f 7fbd 2e46 3bbd cef5 093d 0421 14bd
00000250: c6ac 173d 4693 c83c 311e a5bc 6984 b53b
00000260: 0c42 bc3c 88d7 bd3a e488 2c3d 3f22 4838
00000270: 417c 85ba e4c6 c4bc 1dd2 423d 833a 43bd
00000280: 88f4 8f3c cdbc 6ebd 931e 113d 9b1f 15bd
00000290: e229 123d 4ea3 6bbb 9062 aa3d 63e2 4bbb
000002a0: 7099 003b d473 a539 1e63 463d 9b36 4abd
000002b0: ba66 50bd 9ccf a83d 77a7 0f3d 8ed4 163d
000002c0: a296 b4b7 bf4b 7e3b 28d8 4fbd a653 c9bd
000002d0: d2ba 2f3d 93b1 e0bc 61aa 4cbb 92e9 363d
000002e0: ac51 913b 0565 dbbc e265 bc3c 97d2 52bd
000002f0: e8fc 0c3b cdf3 24bc 6fb5 c7bd 531b 75bd
00000300: 0236 f63b fda6 5bbb 2691 47bd 47c3 233d
00000310: ce1c 383b e009 8a3c 8300 db3c 508a 6b3c
00000320: a5a4 763b 13f9 323d 77b2 39bd 2bbc 1c3d
00000330: 9148 a9bc 5741 633a 79f4 b73c 60f7 933d
00000340: 4bbd 81bd 92cc 813b fc83 8fbb 36c0 7abc
00000350: 672a e43c 842a 103d d84b 51bb 6520 21bd
00000360: aefe 6c3d 1130 123d 6340 933d cadb 233e
00000370: 1c1e 04bd aef6 bdbb db97 873c 61f8 2dbd
00000380: ea5e 8e3d b8a6 60bd c1f7 1abe c4cc 4a3c
00000390: f22e 873b f487 3abd 2fc1 c43c 4324 5bbd
000003a0: 0004 1c3d e2cb 753a c27b 35bc 5845 8f3a
000003b0: 7cf3 403d 0973 793d c37d c33d 8989 503d
000003c0: f2d5 ae3d dda9 21bd 24e1 5ebd 31d9 673c
000003d0: 2df9 8dbc b182 1ebc 546c 523a 15dc 8fbb
000003e0: 5384 073b 7122 bebb 0131 b53d 55db 933d
000003f0: fb89 a7bd 1711 973d e395 5c3c 62e2 95ba
0.09756357 0.010701341 -0.077376254 0.07034457 0.0771883 0.037209004 0.00038742286 0.055975977
-0.0591565 -0.0016139026 -0.06473055 0.067091696 -0.029504342 -0.053205498 0.009110885 0.010932096
-0.037922706 0.013173591 -0.0877446 0.009678845 0.061041802 -0.09701299 -0.0720711 0.048910778
0.063866474 -0.050268777 0.058120497 -0.0800835 -0.0038955784 -0.0644426 -0.06670954 0.051026814
0.016047973 -0.08436706 0.067628704 -0.03678696 -0.068134874 -0.00091990584 -0.032354258 0.0010561203
-0.070260175 0.0012803072 -0.014858911 0.05003914 0.04609793 -0.013609276 -0.03239075 -0.039790343
0.051750347 0.003037811 0.0044131074 0.021399679 -0.007386511 0.008450553 0.021139687 -0.04487505
-0.00023715362 0.054033473 0.058317684 -0.011229411 0.00075298594 0.051810917 0.03978384 0.05985495
0.0036510269 -0.00742865 -0.101219125 0.054427728 -0.0006116083 0.04030143 -0.03550527 0.041043825
0.012601369 0.07499688 -0.029545717 -0.05616459 0.05965604 -0.004046366 0.023635048 -0.08781529
0.016782954 -0.009955585 -0.043396562 -0.050782118 0.08875062 -0.08357357 -0.0028929121 0.040016998
-0.04213865 0.03415325 0.020494282 -0.0067116674 0.061996106 -0.0037369065 0.035994068 -0.03678764
0.049486257 -0.06252627 -0.13549879 -0.030470425 0.0016807199 0.007177347 0.058543462 0.09027706
-0.0009966345 -0.029214384 -0.07621441 -0.0057666437 -0.034300752 -0.042934433 -0.0016931324 -0.07649298
0.08302521 -0.01197227 0.06694489 0.038213976 -0.003480583 -0.016273513 0.0055071306 -0.022411048
-1.3285753e-05 0.008849671 0.061419155 0.060750384 0.0070110373 -0.07262562 0.08533326 0.009498183
-0.011234517 -0.019707978 -0.022657905 0.005281327 0.076808125 0.0027169175 -0.012329272 -0.039545354
-0.0283411 0.06382376 0.0005859362 -0.04510447 -0.028947977 -0.02057202 0.01677091 -0.019551897
-0.062377434 -0.045721225 0.033681683 -0.0361643 0.037030004 0.024484288 -0.020155998 0.005539466
0.022980712 0.0014483789 0.042122737 4.771561e-05 -0.0010184125 -0.02402062 0.04756366 -0.047663223
0.017572656 -0.058285523 0.03542955 -0.036407094 0.035684474 -0.0035955491 0.083195806 -0.0031110279
0.0019622706 0.0003155755 0.04843437 -0.049368482 -0.050879218 0.08242723 0.035071816 0.0368238
-2.1527816e-05 0.0038802472 -0.050743252 -0.09830408 0.042902775 -0.027428424 -0.0031229483 0.044656344
0.004434785 -0.026781568 0.0229978 -0.051470365 0.0021513049 -0.010067892 -0.097514026 -0.05984051
0.0075137625 -0.003351628 -0.04872241 0.039981153 0.002809334 0.016850412 0.026733642 0.014376238
0.0037634757 0.043694567 -0.045336213 0.03826539 -0.020664485 0.0008669099 0.02245544 0.072249174
-0.06334933 0.0039611543 -0.0043797474 -0.015304616 0.02785225 0.035196796 -0.0031936076 -0.039337534
0.05786007 0.03569037 0.07190015 0.16001812 -0.032255277 -0.005797229 0.016551903 -0.0424732
0.06951697 -0.054846495 -0.15133573 0.0123779215 0.0041254694 -0.04553981 0.024017898 -0.05350138
0.038089752 0.0009376389 -0.011076869 0.00109307 0.047107205 0.06090072 0.095454715 0.050912414
0.085369006 -0.039468635 -0.05441393 0.014150904 -0.01733073 -0.009674714 0.00080270064 -0.0043902495
0.0020678237 -0.0058024456 0.088472374 0.07219569 -0.081806146 0.073763065 0.01346347 -0.0011435265

encoder.linear_mu.bias f4 [128]
00000000: c20b 3cba e175 82ba b943 fd3b f1a1 a43c
00000010: 6dd3 9d3b 7cce 01bb 33ec 7f3c 5c5a 83bd
00000020: 4453 2d3c 5816 1b3c 5d5f 09bb bdc2 92bb
00000030: 3117 233c 63ae 95bb 21af 09bc 9381 073c
00000040: 01af 17bc b606 743c 5b34 2abd b271 313c
00000050: 469d f0bb b2c5 8a3b 1643 0b3c fe8a 2a3b
00000060: eca5 563c 9995 9bba d8c4 383b 6173 8a3a
00000070: 7126 a5bd 8ba1 b2bb d920 2fbb 7f72 28bc
00000080: e2f1 6c3c be37 493c 90f9 ec3b 8cf6 11bb
00000090: 84a9 f8ba 162c 6dbc 66d5 8aba 235a 263c
000000a0: 2c73 a73a 0ef1 153c 5a7a ffbb 336d 2cbc
000000b0: 2014 8c3c ec68 5a3c 8253 aa3c 2cb3 473c
000000c0: e13f 32ba 0119 66ba 5f02 dcbc 8884 123d
000000d0: bd6c 1f3c 0fba 5d3c dfb6 afbb dcb7 a33b
000000e0: ba72 5b3b 5b24 f5bb 08f6 9b3b 8f9b 483a
000000f0: 6781 c33b 5ed9 01bb e6fd 6d3c 2137 1dba
00000100: 960f a63c 6669 db3b 7e74 aabc 25f1 cc3c
00000110: 399f 6b3c 9e4f 1ebc d89c 2b3c 79ff 99bc
00000120: 21a8 20bc acb4 61bb 784c 853a 160a 12be
00000130: 4ce0 563c c709 1b3c 1060 823b b797 e13e
00000140: 8ec4 c8bb 2ab9 c2bb 21b5 2abc 6a7a 493c
00000150: 3631 a0bb 5ed7 a8bc 048e e13a bb92 a93a
00000160: 0192 15bb 90c0 84bc 5eab 353b 9325 09be
00000170: 2f04 b13b 3b3e 86bc 5289 acb7 58c8 ad3b
00000180: dfc7 73bc 144a 573c 5569 5c3b c302 91bb
00000190: 9fc6 873c 2924 ff3b a67a 903c 5b72 60bb
000001a0: c8cd 083a fa73 d43e 282c ab3c 36a9 083d
000001b0: 3bbe ddbc 88b6 ae3b abb1 ef3c b249 cbbc
000001c0: 4fd3 81bc 2e4a 05bb 6810 043c 6c1f 1e3e
000001d0: effa 653d 804a b638 1e46 aebb 781f 713c
000001e0: a9b6 143c 1e53 beba 03e8 6a3a a899 2bbc
000001f0: c6c1 1d3c 0911 dcbd 5451 6cbc 257e bcbb
-0.0007173383 -0.0009953344 0.0077290204 0.02009675 0.0048164637 -0.0019806912 0.015620279 -0.06413719
0.010578934 0.009465776 -0.0020961382 -0.004478781 0.00995426 -0.0045679077 -0.00840357 0.008270639
-0.009258033 0.014894178 -0.041553836 0.01083033 -0.007342967 0.004234993 0.008499881 0.0026022787
0.013101082 -0.0011870145 0.00281935 0.001056295 -0.08063973 -0.0054513863 -0.002672246 -0.010281204
0.014461966 0.012281356 0.0072318986 -0.0022272198 -0.0018971418 -0.014475843 -0.0010592162 0.010153326
0.0012775413 0.00915171 -0.007796568 -0.010524082 0.01709944 0.013330679 0.020791773 0.012188714
-0.000679968 -0.00087775296 -0.0268566 0.035770923 0.009730515 0.013533129 -0.005362376 0.004996283
0.003348513 -0.0074811406 0.004759554 0.00076525746 0.0059663537 -0.0019813399 0.014525866 -0.00059972896
0.020271104 0.006695914 -0.0208075 0.02501733 0.014381223 -0.009662537 0.010474406 -0.018798577
-0.00980571 -0.0034439964 0.0010169884 -0.1426166 0.013115 0.00946278 0.0039787367 0.44061062
-0.006126947 -0.0059424834 -0.010419161 0.012297252 -0.004888679 -0.020610508 0.0017208462 0.0012937406
-0.002282262 -0.016205102 0.002772055 -0.1339324 0.00540211 -0.016387096 -2.0567943e-05 0.005303424
-0.014879196 0.01314022 0.0033632119 -0.004425378 0.016574202 0.007786293 0.017636608 -0.0034247849
0.0005218652 0.41494733 0.020895079 0.033364497 -0.027068248 0.005331818 0.029259523 -0.024815414
-0.01584783 -0.0020338404 0.008060552 0.15441674 0.056147512 8.692313e-05 -0.005318417 0.014716975
0.009076753 -0.001452062 0.0008960964 -0.010473646 0.009628719 -0.10745437 -0.014423687 -0.0057523423

encoder.linear_sigma.weight f4 [128, 128]
00000000: 6449 d13c 20db 903d 4e0d 8bbd 1a50 13bd
00000010: b847 953a c84f d1bc cf67 98ba fde5 5bbd
00000020: fdda 363d 0166 60bd 45da 0e3c 7ca1 c6bd
00000030: 1d8d 723c 7584 093d 9f14 9cbc 9780 a93d
00000040: d01f de3c b33d 8d3d 8ca4 c4bd d954 f33c
00000050: bd9b e23c ba9f acbc 6b18 913d 7281 e93c
00000060: 5275 613d ef70 a43c 3a3d 963d 63e5 7ebb
00000070: 742f edb9 5d87 aeb8 888f 22bd b7e7 083d
00000080: e20c 49bd 0773 16bd 265d 7c3d 092d 9e3c
00000090: 3e02 94bd bc25 223a 7262 793d 9548 07bb
000000a0: 8f30 2a3d 9a54 923a d2c1 90bc 8d6c afbb
000000b0: a896 063d df38 2bbd 1f56 86bd 83ea 66bd
000000c0: a8eb cdbc c0e7 503c e4f5 74bc 2301 04bc
000000d0: 0f2a 1ebd 3e07 3f3d b394 a53c 8036 eabc
000000e0: 26ba bdbc 3d06 24bc 2616 703d 2290 adbd
000000f0: 5204 3d3b b960 8dbd 1000 803b 2b7c 563d
00000100: 2472 b139 1a67 88ba 0fe0 303d b7ea 7d3d
00000110: 76e4 cfb9 7601 bdbc 8588 cebc bee7 663b
00000120: cb0a 00bd b6d5 f8bc 7852 45bd 450e cf3c
00000130: 41e8 1d3c 29b0 13bb 88ff 59bc 25d4 b33c
00000140: 9ae1 43bc 2d43 82bb aad7 813d c4a6 9b3c
00000150: 0cfb 8b3c 69c0 863d f559 423b f459 44bd
00000160: 7adf e23b 5ac8 82bd f54b e8bd 345a e0bc
00000170: 3bcb 92bd 4d7d 00bb 6f27 80bc 3ea1 3dbd
00000180: 4499 993b 4e53 62bd a2a4 9bbd 4a38 9cbd
00000190: 3c63 dc3a 24fa 5a3d c118 733d 4c43 e7bc
000001a0: 8d11 a23d 80f9 9e3d 6de2 803c b503 c3b9
000001b0: 7a88 b3bc e734 8dbd cfd6 17bd d567 733d
000001c0: 3950 27bd e5cf 5dbd ffd2 35ba 2fdd 42bd
000001d0: 7674 95bd 4695 103d 426e 293a 6447 04be
000001e0: d286 45b9 f44b 8c3d 2cfb 03bd 81a3 43bd
000001f0: 9a9b 83ba 6473 863d c1c8 d7bc a2e2 533b
00000200: 2355 9d3c e469 4fbc 6fc8 96bc 9556 51bc
00000210: 1b8e 6dbd 264c c23b 0539 be38 424a 65bc
00000220: 85cb 38bd 4303 b8bc e29d 873d 99ca 983d
00000230: 0076 d8bd fbb6 873d ff30 cd3c 5492 14bc
00000240: 0626 55bd c8c3 acbd f4fa 353d 1612 8d39
00000250: 97e9 02bd 46d1 f1bb db55 873c 4d4c 2e3d
00000260: a6ab 653d 0e6e 5ebd ee5f 21bd 8fdb 58bd
00000270: 646c f6ba 1c7b 493d 50a3 b63b 3df4 903d
00000280: 0076 303d 3e8d acbd 916c 91bd 668f 92bd
00000290: c7a4 42bc 4835 623b 46b3 abbd 4539 0a3b
000002a0: fcac 9f3d e23b 17b9 c8f8 883c 9934 6fbd
000002b0: e243 a73d d8fe 8cbd b71b 963d 837d a8bd
000002c0: 4a1f a6bd 2447 2d3d c346 ce3b 576e 8b3d
000002d0: 8816 963b 3243 ea3c c7d1 b7bc 402c a13c
000002e0: 219d ffbb 4a29 a33c c528 86bd 2d33 373d
000002f0: f5dc 233b 464a 99bc 5747 f2bc 53d8 d23c
00000300: 2349 71ba fd06 863a d020 3ebc 48c3 563d
00000310: 60a3 0dbb 8d63 51bd 41b7 553c 49fd db3c
00000320: 0c1b 9cbd defc 7f3d 3e4c 46bd 0946 10ba
00000330: 0c13 b33c 0455 3bb9 6f02 8a3d 0dac 6cbd
00000340: 30c4 c53c a571 e339 e851 aabd f58b 9cbd
00000350: 5d9d c4bd c961 d03b ee3c 5f3a 2243 573d
00000360: c66e 273c 09e7 85bd f8c1 383c b9ec 24bc
00000370: b36d 783c 36cc 3b3a 693e 1bbd be40 403c
00000380: 93ff d7ba c8ff 9fbd cfd2 6dbd 6cf3 39bc
00000390: 0bff fdba a58d 103d 1681 773c 283d a5bd
000003a0: 3ee9 a03d afa9 3fbc c698 403d 97b3 f7b9
000003b0: 2f39 c6bd 62fd f0bc 0ad2 8fbd 5efc 8cbd
000003c0: ee47 fc3b 9c80 c4bd fa11 973d 791f 84bc
000003d0: b29c 8abd 0529 553c 8630 3d3a 9733 7d3d
000003e0: 85d9 d7ba 91da 293d c6f2 a7bc 7c3b 2f3d
000003f0: ab19 87bd 15f1 f4bb 69bf 453d da07 b43a
0.02554769 0.07073045 -0.06789647 -0.035965063 0.0011389172 -0.025550738 -0.0011627617 -0.05368613
0.044642437 -0.05478478 0.008719032 -0.096987695 0.014804152 0.033573586 -0.019052802 0.0827648
0.027114779 0.06896534 -0.09601697 0.029703544 0.027662152 -0.021072257 0.070847355 0.028504107
0.055043526 0.020073382 0.07335897 -0.003889405 -0.00045239518 -8.32218e-05 -0.039687663 0.033424105
-0.04908455 -0.036730792 0.06161227 0.019308584 -0.0722699 0.00061854324 0.0608849 -0.0020642627
0.041550215 0.0011164129 -0.017670546 -0.0053535164 0.03285852 -0.041802283 -0.06559395 -0.05637599
-0.025136784 0.012750566 -0.014951203 -0.008056912 -0.03861433 0.046637766 0.020212507 -0.02859044
-0.023160052 -0.010011253 0.058614872 -0.08474757 0.0028841686 -0.06903214 0.0039062575 0.05236451
0.00033845112 -0.0010406703 0.04318243 0.06199142 -0.00039652333 -0.023071986 -0.025211582 0.0035233344
-0.031260293 -0.030375343 -0.04817435 0.025275359 0.009637893 -0.002253542 -0.013305552 0.021951744
-0.011955643 -0.003975293 0.06339963 0.019000418 0.017087482 0.06579668 0.002965567 -0.04793735
0.006923613 -0.0638587 -0.11342613 -0.027386762 -0.071676694 -0.0019605935 -0.015643803 -0.04629635
0.00468746 -0.055255227 -0.075997606 -0.07627924 0.0016814242 0.05346121 0.05934978 -0.028230332
0.07913504 0.07762432 0.015732968 -0.0003719606 -0.021915663 -0.06894856 -0.03707009 0.059425194
-0.04084799 -0.05415334 -0.0006936043 -0.04757422 -0.07297604 0.03529861 0.0006463268 -0.12917858
-0.00018837609 0.068504244 -0.032221958 -0.04776335 -0.001004088 0.06564978 -0.026340844 0.0032331129
0.019205635 -0.012659524 -0.018406121 -0.01277699 -0.05799685 0.0059294878 9.070527e-05 -0.013994755
-0.045115966 -0.022462493 0.06621911 0.074605174 -0.10569382 0.06626698 0.025047777 -0.0090680905
-0.052038215 -0.0843578 0.04442878 0.0002690709 -0.03196105 -0.0073796837 0.016520431 0.042553235
0.0560719 -0.054304175 -0.039398126 -0.052943762 -0.0018800613 0.049189672 0.0055736676 0.07077835
0.043081284 -0.08425377 -0.071007855 -0.07156257 -0.011880106 0.0034516621 -0.08383803 0.0021091264
0.07796666 -0.0001442279 0.01672019 -0.05839977 0.081672445 -0.06884545 0.07329505 -0.082270645
-0.08111437 0.042304173 0.0062950565 0.06808155 0.0045803227 0.028596494 -0.022438897 0.01967442
-0.0078007136 0.01991715 -0.06550745 0.04472654 0.0025003527 -0.018712174 -0.029575033 0.025737917
-0.00092043186 0.0010225471 -0.011604503 0.05243233 -0.0021612272 -0.05112033 0.013044179 0.026854174
-0.07622346 0.062497012 -0.048412554 -0.00055036 0.021859668 -0.0001786538 0.067387454 -0.057781268
0.024141401 0.00043381486 -0.083164036 -0.07643882 -0.09600327 0.006359313 0.0008515854 0.052554257
0.010219282 -0.06538207 0.0112767145 -0.010066205 0.015162873 0.00071639137 -0.037901316 0.011734186
-0.0016479365 -0.07812458 -0.05806237 -0.01134954 -0.0019378377 0.035291333 0.01510646 -0.08068305
0.078569874 -0.011698171 0.047020696 -0.00047245316 -0.09678876 -0.029417697 -0.07022484 -0.06884073
0.0076990044 -0.09594843 0.07376476 -0.016128289 -0.067681685 0.013010268 0.00072170084 0.061816778
-0.0016468024 0.041468207 -0.020501506 0.042781338 -0.06596693 -0.0074750283 0.048278246 0.001373525

encoder.linear_sigma.bias f4 [128]
00000000: a1b1 b1be 14b3 b1be 5dd4 b1be 15fa afbe
00000010: 814e b1be c65e b0be 299c b0be 635a 2b3d
00000020: fec7 b0be 9ea7 b0be 57f8 b0be 2a8a b1be
00000030: ed72 b1be aeaf b0be 21ff b0be 1105 b2be
00000040: e4ff b0be e905 b2be 5f91 c0bd 9f70 b0be
00000050: 5351 b1be c466 b0be f924 b0be 92fd afbe
00000060: 4a1c 9cbe 46c5 b0be 6209 b1be c03a b1be
00000070: 09d7 29bf a8e6 b1be 0c74 b1be d421 b0be
00000080: c066 b0be 59bc b0be 232d b1be f62a b1be
00000090: 8f29 b0be 7bbd b1be a142 b1be a0ff aebe
000000a0: bc72 b1be 3deb afbe cd5b b1be 9eb0 b0be
000000b0: 15dc b2be 0812 b0be df3c b1be 4fa4 b2be
000000c0: 1d1c b0be 0c7b b0be 6ff4 b1be f5a5 c6bd
000000d0: 8ab2 b0be fe43 b0be 86f7 b0be 036b afbe
000000e0: ae0d b0be c549 b0be 31c0 afbe 40ad b1be
000000f0: 3190 b2be 55e8 b0be 7512 b1be fab3 b1be
00000100: f5da b0be 62e0 b0be 96e1 b1be be39 0abe
00000110: c662 b0be 6476 b1be 03cf b1be c1f9 b0be
00000120: 1880 afbe 2e63 b0be fa11 b1be adc1 89be
00000130: bcae b1be 3913 b1be 33ae b1be 7d85 90bf
00000140: ce80 b1be 3661 b1be 540a b0be 7e88 b1be
00000150: adb7 b0be bc46 b1be e1d3 b1be 433b b0be
00000160: 9b0d b0be d8d9 b0be 13b0 b1be b56d 46be
00000170: 5a70 b0be 3a23 b1be 8d0c b2be 7262 b1be
00000180: 463e b0be 1cda b0be 9624 b1be 02ec afbe
00000190: d622 b1be 4177 b0be b187 44bf de03 b1be
000001a0: 0f4e b2be 657b 08bf dba1 b0be ec59 03bf
000001b0: 6c78 b1be 8b69 b1be e1f0 aebf 85b5 b0be
000001c0: 3dbd b0be b744 b0be 0961 b1be bc45 90be
000001d0: 268d 81be e244 b0be 06f5 b0be fe69 b0be
000001e0: beaf b0be 8b37 b1be d2bd b1be 750e b1be
000001f0: 3a72 b2be 23d6 79be 956d b1be 6ca5 b1be
-0.34705833 -0.34706938 -0.34732333 -0.34370485 -0.34630206 -0.34447306 -0.3449414 0.041834246
-0.34527582 -0.34502882 -0.34564468 -0.34675723 -0.34657994 -0.34509033 -0.34569648 -0.3476949
-0.3457023 -0.34770134 -0.09402727 -0.34460923 -0.34632358 -0.34453404 -0.34403208 -0.34373146
-0.30490333 -0.34525508 -0.3457747 -0.34615135 -0.6634374 -0.3474629 -0.3465885 -0.3440081
-0.34453392 -0.34518698 -0.3460475 -0.3460309 -0.34406707 -0.34714875 -0.34621146 -0.341794
-0.34657848 -0.3435916 -0.3464035 -0.34509748 -0.34933534 -0.34388757 -0.34616753 -0.34890983
-0.3439645 -0.34468877 -0.347568 -0.096996225 -0.34511214 -0.34426874 -0.34563845 -0.3426133
-0.34385437 -0.34431282 -0.34326318 -0.34702492 -0.34875634 -0.34552255 -0.34584394 -0.34707624
-0.3454205 -0.3454619 -0.3474242 -0.1349859 -0.34450358 -0.34660637 -0.3472825 -0.34565547
-0.34277415 -0.34450668 -0.34584028 -0.26905575 -0.34703624 -0.34584978 -0.34703216 -1.1290737
-0.34668583 -0.3464448 -0.3438288 -0.34674448 -0.34515134 -0.3462428 -0.34731963 -0.34420213
-0.3438538 -0.34541202 -0.34704646 -0.19377787 -0.34460717 -0.34597188 -0.347752 -0.3464542
-0.3442251 -0.34541404 -0.34598225 -0.34359747 -0.3459689 -0.34465984 -0.7676955 -0.34573263
-0.3482518 -0.53313285 -0.34498486 -0.51309085 -0.34662187 -0.34650835 -1.366726 -0.34513488
-0.34519377 -0.34427425 -0.34644344 -0.28178203 -0.25303 -0.34427553 -0.34561938 -0.34455866
-0.3450908 -0.34612688 -0.34715134 -0.34581342 -0.34852773 -0.24398093 -0.34653917 -0.3469652
