checkpoints_anomalies/model-30.pt (torch, 804321 bytes, 45 tensors)

encoder.conv1.weight f4 [8, 1, 3, 3]
0	0xbda9d325	-0.08292226
1	0x3e97565d	0.29558077
2	0xbefd1901	-0.4943314
3	0xbebce5a8	-0.36893964
4	0xbe2d086e	-0.16897747
5	0xbf2a3839	-0.6649204
6	0x3ce50b15	0.027959386
7	0xbe34242b	-0.17591922
8	0xbe86641b	-0.2624825
9	0x3e5b76f5	0.21432097
10	0xbe3132b7	-0.17304502
11	0x3fcc28f2	1.5949996
12	0xbd0400cf	-0.032227334
13	0xbdd1cc1f	-0.10244011
14	0x3e340330	0.17579341
15	0x3e26c662	0.16286615
16	0xbeb24354	-0.34816992
17	0x3ec584f8	0.3857801
18	0xbe9e4794	-0.30913985
19	0xbef855fa	-0.48503095
20	0xbed95867	-0.42450258
21	0x3e1d5b24	0.15366799
22	0xbd202d5a	-0.03910575
23	0x3e2b325d	0.16718431
24	0x3f52d0c8	0.82349825
25	0xbd0f3451	-0.034962002
26	0x3e63c79d	0.22244115
27	0xbe8342c4	-0.25636876
28	0xbec8be02	-0.39207464
29	0xbda320b6	-0.079652235
30	0xbea4d55d	-0.32194033
31	0xbe930bc9	-0.2871993
32	0xbd253fb2	-0.040343948
33	0xbf10464d	-0.5635727
34	0xbedfea0c	-0.4373325
35	0x3eade5fb	0.33964524
36	0x3e95c620	0.2925272
37	0x3dcc1c6e	0.0996636
38	0xbf26f150	-0.65211964
39	0x3e835dcc	0.256575
40	0x3ecd49a1	0.40095237
41	0xbecae4e3	-0.39627752
42	0x3ec37255	0.38173166
43	0xbde08cbb	-0.10964342
44	0xbea00513	-0.3125387
45	0xbd9b707f	-0.07589816
46	0x3f11a4d3	0.56892127
47	0xbed1d5ad	-0.40983334
48	0xbe0e1f7e	-0.13879201
49	0x3ed3d13c	0.4137057
50	0xbe6450ff	-0.22296523
51	0x3ec15810	0.377625
52	0x3ed04698	0.4067886
53	0xbdd481f2	-0.103763476
54	0x3f5000f5	0.8125146
55	0xbd2cfa8a	-0.04223112
56	0xbddb3d74	-0.10705081
57	0x3e996f56	0.29967755
58	0x3d30403e	0.043030016
59	0xbe63cd39	-0.22246255
60	0x3e1169ea	0.1420056
61	0xbd4a52e8	-0.04939547
62	0x3f294d13	0.6613323
63	0x3e750e9e	0.23931357
64	0xbeb2075b	-0.34771237
65	0x3eb90d20	0.36142826
66	0x3f956511	1.1671468
67	0x3e44166e	0.19149181
68	0x3e84be2c	0.2592634
69	0x3f36d34c	0.71416163
70	0x3e3d3be7	0.18479882
71	0xbe956eb0	-0.2918601

encoder.conv1.bias f4 [8]
0	0x3f2a9a2e	0.6664151
1	0x3d3e3287	0.046434905
2	0xbbca8175	-0.0061799833
3	0xbe7594d7	-0.23982559
4	0x3eb0bf9c	0.34521186
5	0xbc495b63	-0.012289855
6	0x3f0a052d	0.5391415
7	0x3ebbacce	0.36655277

encoder.conv2.weight f4 [16, 8, 3, 3]
0	0xbd83564f	-0.064129464
1	0xbc656e42	-0.014003338
2	0x3eae029b	0.33986363
3	0xbe4a58c1	-0.1976042
4	0xbe3cb1a1	-0.18427135
5	0x3e443bee	0.19163486
6	0xbe14e8cf	-0.14541934
7	0x3cb39ca5	0.02192528
8	0x3e8376b7	0.2567651
9	0x3dd61341	0.10452891
10	0xbea7c1d8	-0.3276508
11	0xbf797f10	-0.97459507
12	0x3e8130cb	0.2523254
13	0x3e4ab76e	0.19796535
14	0xbf044774	-0.5167153
15	0x3eebdfd7	0.46069214
16	0x3e91f922	0.28510386
17	0xbe9e08e9	-0.30866173
18	0x3e3bfa52	0.18357208
19	0xbcbe9e11	-0.023268731
20	0x3dfb1163	0.12259176
21	0x3e8f9c73	0.2804905
22	0xbef50d20	-0.47861576
23	0xbec81d9f	-0.390851
24	0x3efa889a	0.48932344
25	0xbeaeda17	-0.34150764
26	0xbe37e494	-0.1795829
27	0xbec2c70d	-0.3804249
28	0x3d2b2b13	0.041789126
29	0x3e9a3043	0.30114946
30	0xbee0c2ae	-0.4389853
31	0xbdd02290	-0.10162842
32	0x3ec163da	0.37771493
33	0xbe9434c0	-0.28946495
34	0xbe8459c2	-0.2584973
35	0x3ea63988	0.32465768
36	0xbe6747f3	-0.2258604
37	0x3e04bdf0	0.1296308
38	0x3f0b2ea7	0.5436806
39	0xbd9f44bf	-0.07776784
40	0xbe21d1fe	-0.15802762
41	0x3e1a3815	0.15060456
42	0xbec047ad	-0.37554684
43	0xbe94ea6c	-0.290851
44	0x3ecacf65	0.39611354
45	0xbeacb28c	-0.3372997
46	0xbe8b98dc	-0.2726506
47	0x3f24f5b2	0.644374
48	0x3d0cfbc3	0.034419786
49	0xbdf8f1d0	-0.12155497
50	0x3efae8ae	0.49005646
51	0x3ed9e06d	0.42554036
52	0x3d95c0e6	0.07312183
53	0x3e50061d	0.20314832
54	0x3e397491	0.18110873
55	0x3d9aa4fc	0.075509995
56	0xbe0eecd0	-0.13957524
57	0x3e801946	0.25019282
58	0x3e15e8e1	0.14639618
59	0xbe25bd64	-0.16185528
60	0x3ebcc0cd	0.36865845
61	0xbd843897	-0.06456106
62	0xbecfeec5	-0.40611854
63	0x3eef4148	0.46729493
64	0xbd79cea1	-0.060988072
65	0xbeac693c	-0.33674037
66	0x3ed22bf7	0.41049168
67	0xbdee3657	-0.11631458
68	0xbe17033b	-0.14747326
69	0x3f37dec6	0.718243
70	0x3e855d2a	0.2604764
71	0x3e1ef624	0.15523583
72	0xbcb9cfa4	-0.022682019
73	0x3d61a39a	0.055087663
74	0x3d3b54f3	0.04573531
75	0xbcc04734	-0.023471452
76	0x3d637c4e	0.055538468
77	0xbdb50822	-0.08839442
78	0x3ec37170	0.38172483
79	0x3e1cb50e	0.15303442
80	0x3e49d884	0.197115
81	0x3ec665d8	0.38749576
82	0x3f3e43ec	0.7432239
83	0x3f7f728e	0.9978417
84	0x3e69d92b	0.2283675
85	0x3c8500af	0.016235678
86	0x3ee72bfc	0.45150745
87	0x3ee4430e	0.4458241
88	0xbd041d68	-0.032254606
89	0x3f1ef1ec	0.62087893
90	0x3e30e16f	0.17273496
91	0xbed4da74	-0.41572917
92	0xbe90c7ce	-0.2827744
93	0x3dacce9d	0.08437846
94	0x3cc35ea9	0.023848848
95	0xbd81d4a0	-0.06339383
96	0x3f11c0ea	0.5693499
97	0x3d0e8c04	0.034801498
98	0x3d595e55	0.053068478
99	0xbc727d37	-0.014800361
100	0x3dbdb2d3	0.09262624
101	0x3e0f7049	0.14007677
102	0x3e58c9fc	0.21170801
103	0x3dcfaadf	0.10140013
104	0x3e202fb5	0.15643199
105	0x3e3d3789	0.18478216
106	0x3d7c37a1	0.06157649
107	0xbec71b24	-0.38887894
108	0xbc7538db	-0.014967169
109	0x3e690672	0.22756365
110	0x3d79faa3	0.06103004
111	0x3e878f7d	0.2647666
112	0x3e2b1fc6	0.1671134
113	0x3bc6d363	0.0060676797
114	0x3c0a2666	0.008432006
115	0x3d830af1	0.06398571
116	0x3e654857	0.22390877
117	0xbdc66e0e	-0.0968896
118	0x3d91b637	0.07114833
119	0xbe1ce8cb	-0.15323178
120	0xbebf679f	-0.37383744
121	0xbda107ea	-0.078628376
122	0x3dc73139	0.09726185
123	0x3f87586e	1.0573862
124	0x3e25bd50	0.16185498
125	0xbdd22f1b	-0.10262891
126	0x3e8c001c	0.27343833
127	0xbd2be6df	-0.041968223
128	0xbd4dbf81	-0.05023146
129	0x3e81c449	0.25345066
130	0xbe1af9ba	-0.15134326
131	0xbe6ca93e	-0.23111436
132	0x3f06efc6	0.52709615
133	0x3e2b8207	0.1674882
134	0x3e5a6e89	0.21331228
135	0x3e935c96	0.28781575
136	0x3e2d896d	0.16946955
137	0x3f04703e	0.5173377
138	0x3f121e09	0.5707708
139	0x3e48c290	0.1960547
140	0x3e8cec5e	0.27524084
141	0x3f6c4739	0.9229618
142	0x3f0d3868	0.55164194
143	0x3f3e4c7d	0.7433546
144	0xbe831d21	-0.2560816
145	0x3e302ecb	0.1720535
146	0x3ec0f82e	0.37689346
147	0x3e829d0d	0.25510445
148	0x3f183d69	0.59468704
149	0x3e955cd5	0.29172388
150	0x3d115a4e	0.035486512
151	0xbdbc5ce9	-0.09197409
152	0xbec5aa29	-0.38606384
153	0x3e77f639	0.2421502
154	0x3ac21979	0.0014808617
155	0xbf617e7e	-0.88083637
156	0xbd20a907	-0.039223697
157	0xbe1011c3	-0.14069276
158	0xbd102104	-0.035187736
159	0xbd4de4ff	-0.050267216
160	0x3e9d15ac	0.30680597
161	0x3f410f92	0.75414383
162	0xbe53d737	-0.20687567
163	0x3be7c2a0	0.0070727617
164	0x3e3f61a1	0.18689586
165	0x3e228501	0.1587105
166	0xba627844	-0.0008639137
167	0x3e3d33de	0.18476817
168	0xbdcf0ecb	-0.101102434
169	0x3db9da12	0.09074797
170	0x3de25400	0.11051178
171	0xbe84a7ed	-0.25909367
172	0x3e1c8378	0.15284526
173	0xbe480815	-0.19534333
174	0x3eaed564	0.3414718
175	0x3ed88e6e	0.42296165
176	0x3cb8174e	0.02247205
177	0x3e616963	0.22012858
178	0x3dc20f0e	0.09475528
179	0xbe6625ee	-0.22475407
180	0xbd63420e	-0.055482917
181	0xbd07259e	-0.03299486
182	0x3e386948	0.18008912
183	0xbe8dfa1c	-0.2772988
184	0xbea1fb48	-0.31637025
185	0xbe88b80e	-0.26702923
186	0xbe59523c	-0.21222776
187	0xbcdf450c	-0.027254604
188	0xbf255cbd	-0.6459463
189	0xbdfcab0e	-0.123373136
190	0xbe7906fc	-0.2431907
191	0xbea659d3	-0.32490405
192	0xbf14fae9	-0.5819536
193	0x3dc63dc0	0.09679747
194	0xbf4442ef	-0.7666463
195	0xbe73827a	-0.23780242
196	0x3e2ceaf7	0.16886507
197	0x3de03ea3	0.10949447
198	0x3ed81a85	0.42207733
199	0x3e1ad3c7	0.15119849
200	0xbf5de570	-0.8667822
201	0xbebf8606	-0.3740694
202	0xbf8db475	-1.1070696
203	0xbf1c5f53	-0.61082953
204	0xbedc3259	-0.43007162
205	0xbe04b336	-0.12958989
206	0x3dc2c596	0.09510343
207	0x3e651384	0.22370726
208	0x3e008513	0.12550764
209	0xbe815f45	-0.25267997
210	0x3e1f97fd	0.15585323
211	0x3e81d227	0.25355646
212	0xbd86b6a8	-0.06577808
213	0x3ddc054d	0.107431985
214	0x3d9ded7f	0.077113144
215	0x3e0450ef	0.12921499
216	0x3e7bd020	0.24591112
217	0x3ee673d0	0.45010233
218	0x3e94cace	0.29060978
219	0x3ea889eb	0.32917723
220	0x3f351694	0.70737576
221	0x3f0d6486	0.5523151
222	0x3ce42184	0.027848013
223	0xbbdb2cc1	-0.0066886847
224	0xbe31f0d9	-0.17377032
225	0xbe66c699	-0.22536696
226	0xbd5fea7f	-0.054666992
227	0x3dc4e958	0.09614819
228	0xbe7f5e25	-0.24938257
229	0xbe0931d5	-0.13397916
230	0xbeafad3d	-0.34311858
231	0xbe2afd07	-0.16698085
232	0x3d689804	0.0567856
233	0x3ec20f1a	0.37902147
234	0x3d96a30e	0.07355319
235	0x3e0833fb	0.13301079
236	0xbe1f1382	-0.15534785
237	0x3ee2d226	0.44300956
238	0x3ebc6383	0.3679467
239	0x3e7fa8d4	0.24966747
240	0x3ed44f19	0.41466597
241	0x3eb0715b	0.34461483
242	0xbd6a057c	-0.057134137
243	0x3e320b49	0.17387117
244	0x3f51e331	0.8198729
245	0x3e3de926	0.1854597
246	0x3e007225	0.12543543
247	0x3f06c587	0.5264515
248	0x3e2b5f2a	0.16735521
249	0xbea3bd8f	-0.3198056
250	0x3dd5de9f	0.10442852
251	0x3dc9d5a1	0.098551996
252	0xbd83e133	-0.06439438
253	0x3d3c001e	0.04589855
254	0x3e07aead	0.13250227
255	0xbe2e5994	-0.17026359

encoder.conv2.bias f4 [16]
0	0x3e094eed	0.13409014
1	0x3f0be290	0.5464258
2	0xbd441f4c	-0.04788141
3	0x3eb8a583	0.36063775
4	0xbeb48822	-0.3526011
5	0xbdf9c176	-0.12195103
6	0x3f180da4	0.59395814
7	0xbe6c649f	-0.23085259
8	0x3eaecda1	0.34141257
9	0xbd00da65	-0.031458277
10	0x3f0afbf8	0.54290724
11	0xbe97d2b9	-0.29652956
12	0xbd5c82a6	-0.053835534
13	0xbe4792ee	-0.19489643
14	0xbe7d70df	-0.24750088
15	0xbe39f55c	-0.18160003

encoder.conv3.weight f4 [32, 16, 3, 3]
0	0xbe8f302b	-0.27966437
1	0xbe564009	-0.20922865
2	0xbd7902d6	-0.06079372
3	0xbd3982b1	-0.045290653
4	0xbea6dedd	-0.32591906
5	0xbdaaacd0	-0.083337426
6	0xbeb81eb5	-0.35960928
7	0xbe652fa9	-0.22381462
8	0x3d84cda8	0.06484538
9	0x3e98c88c	0.29840505
10	0xbdf6f9f8	-0.120593965
11	0xbf294fa7	-0.66137165
12	0xbce1b7eb	-0.02755352
13	0xbbe1ec9c	-0.006894661
14	0x3d0db53f	0.034596678
15	0x3e2282b9	0.15870179
16	0xbd87ee1e	-0.06637214
17	0x3e54ce57	0.20781837
18	0x3e3ee780	0.18642998
19	0x3d84f941	0.06492854
20	0x3dbb5b4d	0.091482736
21	0xbd972265	-0.07379607
22	0x3d725640	0.059164286
23	0xbd7c310e	-0.06157022
24	0xbf98a421	-1.1925088
25	0x3d92a296	0.07159917
26	0xbe585279	-0.21125211
27	0x3cd2939b	0.02570515
28	0x3dcb2445	0.09919027
29	0x3e789cf7	0.24278627
30	0xbe2c16f7	-0.16805635
31	0xbda09fdf	-0.07842993
32	0xbe3b1dc0	-0.18273067
33	0xbf8b55a5	-1.0885512
34	0x3c0ff2b0	0.008785889
35	0xbebac5d7	-0.36479065
36	0x3ee0e6ed	0.43926182
37	0x3eda0210	0.425797
38	0x3e2ef8ee	0.17087147
39	0xbe94a9fe	-0.29035944
40	0xbe860208	-0.26173425
41	0xbe0f46f2	-0.13991907
42	0xbf42254c	-0.7583816
43	0xbe0fb5d9	-0.14034213
44	0xbf020162	-0.5078336
45	0xbccfd818	-0.025371596
46	0xbe34781e	-0.17623946
47	0xbe747d3e	-0.23875901
48	0xbde98f80	-0.114043236
49	0xbe090914	-0.1338237
50	0x3e55d78d	0.20883007
51	0xbf8ba23f	-1.0908889
52	0x3e49390e	0.19650671
53	0x3f0368cb	0.51331776
54	0x3d8f8239	0.0700726
55	0xbe031d1a	-0.1280407
56	0xbdcd9a9c	-0.10039255
57	0xbe527d99	-0.20555724
58	0x3f113fe0	0.5673809
59	0x3e987ede	0.29784292
60	0xbc1faebb	-0.009746249
61	0x3eaee2bd	0.34157363
62	0xbb187d56	-0.0023268065
63	0x3ddba736	0.10725252
64	0xbe2bbace	-0.16770479
65	0x3ccd0602	0.025027279
66	0x3b8382be	0.0040133884
67	0x3e3b86ac	0.18313092
68	0x3e8531b2	0.26014477
69	0xbed95d35	-0.42453924
70	0xbbb79f2b	-0.005603691
71	0xbf1ba051	-0.607915
72	0x3da8d212	0.08243193
73	0xbe008d11	-0.12553813
74	0xbeb3dfcf	-0.3513169
75	0xbedfbfcd	-0.4370102
76	0xbecd0984	-0.40046322
77	0xbe13c28e	-0.14429685
78	0xbecc5ede	-0.39916128
79	0x3e4af9d6	0.19821867
80	0x3e63f14f	0.2226002
81	0x3b6949fd	0.003559708
82	0x3e0fae8c	0.14031428
83	0x3d9a7de8	0.07543546
84	0xbf169569	-0.5882173
85	0xbd083993	-0.033258032
86	0x3d7ac02d	0.06121843
87	0xbfc9d7fb	-1.5769037
88	0x3c7b9e2c	0.015357535
89	0xbd8b3496	-0.06797139
90	0xbe821082	-0.2540322
91	0xbe4b93e2	-0.19880632
92	0xbe447355	-0.1918462
93	0xbec5b6ce	-0.3861603
94	0xbebf5ec2	-0.37376982
95	0x3e661bfc	0.22471613
96	0xbedc5cb1	-0.43039468
97	0x3c81339c	0.01577168
98	0x3e121e0d	0.14269276
99	0x3d396d9b	0.045270544
100	0x3e2f50ed	0.17120714
101	0x3dd64ca4	0.10463837
102	0x3e02a066	0.127565
103	0x3f0d8d4d	0.5529373
104	0xbea57f40	-0.32323647
105	0xbe956c68	-0.2918427
106	0x3e682174	0.22669011
107	0xbe9921a2	-0.29908472
108	0xbda28307	-0.07935148
109	0x3dc4a6f7	0.096021585
110	0x3e519d29	0.20470108
111	0xbda63d21	-0.08117128
112	0xbe335a02	-0.17514804
113	0xbd08600c	-0.033294722
114	0xbe58dc4d	-0.21177788
115	0xbe87797e	-0.2645988
116	0x3ca813d8	0.020517275
117	0x3ee36eda	0.4442051
118	0x3e05d104	0.13068014
119	0x3dba24f6	0.09089081
120	0x3ee59dc8	0.4484694
121	0xbec94915	-0.3931357
122	0xbe921f2e	-0.28539413
123	0xbda12141	-0.07867671
124	0xbf027fb6	-0.5097612
125	0xbf0b6ae9	-0.54460007
126	0x3d8df5cb	0.06931647
127	0x3e5c8b70	0.21537566
128	0x3ee0dd17	0.43918678
129	0xbf448fa8	-0.767817
130	0xbd32b4aa	-0.043629326
131	0x3e216cb9	0.1576413
132	0xbf3d2495	-0.73883945
133	0xbe7ad89b	-0.24496691
134	0xbe26f3ee	-0.1630399
135	0x3e5b0d55	0.21391805
136	0x3b30f91b	0.0027003947
137	0xbef32628	-0.47490048
138	0xbddd1f34	-0.10796967
139	0xbeaad75d	-0.33367434
140	0x3dc7ff39	0.09765477
141	0xbe996115	-0.2995688
142	0xbecf1419	-0.4044502
143	0x3d0de57f	0.034642693
144	0xbf0c04cd	-0.54694825
145	0xbe578328	-0.21046126
146	0xbe6d81ef	-0.23194097
147	0xbf60bfb4	-0.87792516
148	0xbe8457e5	-0.25848308
149	0x3dade2a9	0.084904976
150	0xbf968d47	-1.1761864
151	0xbf09ddbe	-0.53853977
152	0xbe700816	-0.23440585
153	0x3ed2959e	0.41129774
154	0xbf162fa6	-0.58666456
155	0x3d26e352	0.040744133
156	0xbf19c874	-0.6007149
157	0x3ea24700	0.31694794
158	0x3e81e2c2	0.25368315
159	0x3e056ffe	0.13031003
160	0x3ed23998	0.41059566
161	0xbe9e0525	-0.308633
162	0x3e373f9e	0.17895362
163	0x3ef08c33	0.46981964
164	0x3d4ce5ea	0.05002395
165	0x3f0ddd19	0.55415493
166	0x3e933cf2	0.28757435
167	0xbe906377	-0.28200886
168	0x3eb4355c	0.3519696
169	0xbded4676	-0.11585705
170	0xbe74b3d8	-0.2389673
171	0xbed0f932	-0.4081512
172	0x3e8f11b3	0.2794319
173	0x3e4494ba	0.1919736
174	0x3dd59b2b	0.104299866
175	0xbd162e63	-0.03666533
176	0x3cb29a95	0.021802226
177	0xbe74c196	-0.23901972
178	0xbd8e5af6	-0.06950943
179	0xbe2efdb2	-0.17088965
180	0xbeceecfe	-0.40415186
181	0xbe9f89bf	-0.3115978
182	0x3e1f03d5	0.15528806
183	0xbf2288c3	-0.6348993
184	0xbedf85e9	-0.43656853
185	0xbee4878d	-0.44634667
186	0xbe3d03d6	-0.18458495
187	0xbf243add	-0.6415232
188	0xbf0691ba	-0.5256611
189	0x3e305ec3	0.17223649
190	0x3e271f71	0.16320588
191	0x3d9291ac	0.07156691
192	0xbd03c66e	-0.03217166
193	0x3d4aaa13	0.0494786
194	0x3e88fcae	0.2675528
195	0xbdcb059c	-0.09913179
196	0xbf32a77f	-0.6978683
197	0xbe6de613	-0.23232298
198	0x3ed406b0	0.41411352
199	0x3f0dd23b	0.5539891
200	0x3dfdd084	0.12393287
201	0x3eab6321	0.33474067
202	0x3e017923	0.12643866
203	0x3ebd5357	0.36977646
204	0x3e4f06d1	0.20217444
205	0xbd6bffe9	-0.0576171
206	0xbf45b1fc	-0.7722471
207	0xbe812e60	-0.25230694
208	0xbe21af01	-0.15789415
209	0x3eb808cb	0.35944209
210	0x3ecee28b	0.40407214
211	0x3e2081d9	0.15674533
212	0x3dc4221d	0.09576819
213	0x3e80b922	0.25141245
214	0x3b1c8e93	0.0023888692
215	0x3ea08fc1	0.31359676
216	0xbe464672	-0.1936281
217	0x3e461df0	0.19347358
218	0xbe28901f	-0.16461228
219	0x3e6bc229	0.23023285
220	0x3c940d8e	0.01807287
221	0x3e9968b7	0.29962704
222	0x3dc9e109	0.09857375
223	0xbe25d0f1	-0.16192986
224	0xbd2d628c	-0.04233031
225	0xbde4cdb4	-0.11172047
226	0x3e90150a	0.28141052
227	0x3e551bba	0.20811358
228	0x3e874d52	0.26426178
229	0x3d9ce9eb	0.07661804
230	0xbd7cec10	-0.061748564
231	0xbd0cb676	-0.034353696
232	0xbe7eb527	-0.24873792
233	0xbea45559	-0.32096365
234	0x3f015dc0	0.50533676
235	0x3c8d66d7	0.017260952
236	0xbcfc63ad	-0.030809248
237	0x3ece6d24	0.40317643
238	0x3dd4fb80	0.10399532
239	0xbcb05163	-0.021523183
240	0x3d775d05	0.060391445
241	0x3ea67443	0.32510576
242	0xbe507679	-0.20357694
243	0xbee44350	-0.44582605
244	0x3ea00efc	0.31261432
245	0x3e05e756	0.13076529
246	0x3f04a1bd	0.51809293
247	0xbda27973	-0.07933321
248	0xbf10ae89	-0.5651632
249	0xbc95b3cd	-0.018274212
250	0xbec0e23f	-0.37672612
251	0xbe0c762e	-0.13716957
252	0x3ec3aa62	0.3821593
253	0xbd0d9dc9	-0.034574304
254	0x3d5a13d1	0.053241555
255	0x3e8b8d4f	0.27256247

encoder.conv3.bias f4 [32]
0	0x3e0612da	0.13093129
1	0xbd893d04	-0.06701091
2	0x3b21f62c	0.002471338
3	0x3ea9aa08	0.33137536
4	0xbf2db714	-0.6785748
5	0xbe8050e8	-0.25061727
6	0x3dcf8baa	0.10134061
7	0xbe3011d5	-0.17194302
8	0xbe3df0db	-0.1854891
9	0xbea7dee3	-0.32787237
10	0x3eb66632	0.35624844
11	0xbe15f84e	-0.14645502
12	0xbe8dce6f	-0.2769656
13	0x3e597856	0.21237311
14	0x3dab9451	0.083778985
15	0xbeadcabe	-0.33943743
16	0x3ee7dbe9	0.45284966
17	0xbd82a8a8	-0.06379825
18	0xbf3804d5	-0.71882373
19	0x3f57168f	0.84018797
20	0x3e573181	0.21014978
21	0x3e4b9137	0.19879614
22	0x3e28e5b6	0.16493878
23	0xbcd089f6	-0.02545641
24	0x3e86d64f	0.2633538
25	0xbe580c85	-0.21098526
26	0x3e2a37d1	0.16622855
27	0x3d9a1483	0.075234435
28	0x3f62c531	0.8858214
29	0xbe6b25e8	-0.22963679
30	0x3da2ff2b	0.07958826
31	0x3e69410d	0.22778721

encoder.batch_norm1.weight f4 [8]
0	0x3f449fe7	0.7680649
1	0x4004719a	2.0694337
2	0x3ec04b4d	0.3755745
3	0x3f5fa5ad	0.87362176
4	0x3ee4d629	0.4469464
5	0x3f4dc32c	0.80375934
6	0x3fafa92b	1.3723501
7	0x400521cb	2.0801876

encoder.batch_norm1.bias f4 [8]
0	0x3e100420	0.14064074
1	0xbebe80d7	-0.37207672
2	0x3e07ef2e	0.13274834
3	0x3dedcaf8	0.11610979
4	0x3da17e0f	0.07885372
5	0x3cf6daee	0.03013369
6	0xbe0c697d	-0.13712116
7	0xbeb57d4b	-0.35447153

encoder.batch_norm1.running_mean f4 [8]
0	0xbf7d7a5d	-0.99014837
1	0x3fd9ee27	1.7025803
2	0x3d84f1c5	0.064914264
3	0xc001f66e	-2.0306659
4	0x3e954778	0.2915609
5	0x3f36aab6	0.71354234
6	0x3ff25624	1.8932538
7	0x402234bc	2.5344687

encoder.batch_norm1.running_var f4 [8]
0	0x3e500e10	0.20317864
1	0x3e5d0e88	0.21587574
2	0x3d4488ed	0.047982145
3	0x3e867aaa	0.2626546
4	0x3d73c99c	0.05951844
5	0x3d76cc08	0.060253173
6	0x3dff2406	0.12458043
7	0x3ec29c65	0.38009945

encoder.batch_norm2.weight f4 [16]
0	0x3f975e43	1.1825641
1	0x3fb2dafb	1.3973078
2	0x3f4f1839	0.80896336
3	0x3f8df21e	1.1089513
4	0x3f82ae85	1.0209509
5	0x3f8d8fe9	1.1059543
6	0x3f51b78b	0.8192069
7	0x3f533726	0.82506025
8	0x3f9cf6fe	1.2262876
9	0x3f84828d	1.0352341
10	0x3f38292a	0.7193781
11	0x3f3bbc40	0.7333412
12	0x3f894944	1.0725484
13	0x3f6bcaf8	0.9210658
14	0x3f7b4b5c	0.98161864
15	0x3f934f15	1.1508509

encoder.batch_norm2.bias f4 [16]
0	0x3e3f3a5f	0.1867461
1	0xbeba1b16	-0.3634879
2	0xbead7a6c	-0.33882463
3	0x3f14fe3f	0.5820045
4	0xbdc81fa0	-0.09771657
5	0xbe0637cc	-0.13107222
6	0xbe803f89	-0.25048473
7	0x3dad902d	0.08474765
8	0xbdef6a87	-0.1169024
9	0x3e4e02b8	0.20118225
10	0x3f0d2643	0.5513651
11	0x3e32587e	0.1741657
12	0x3d999399	0.07498855
13	0xbedab883	-0.42718896
14	0xbe05240e	-0.13002035
15	0x3ecef0dc	0.40418136

encoder.batch_norm2.running_mean f4 [16]
0	0x3f12e14e	0.5737504
1	0x40aec318	5.461315
2	0xbf7380ff	-0.9511871
3	0x40006298	2.0060177
4	0xbf8a42ec	-1.0801673
5	0xbf4cfb54	-0.80070996
6	0xbf3e7b18	-0.74406576
7	0x3e8b5668	0.2721436
8	0x3e996ce5	0.29965892
9	0xbf8b6b00	-1.0892029
10	0xc042cd07	-3.0437639
11	0xbf915b05	-1.1355902
12	0xbf3e95dd	-0.74447423
13	0x3e5e7284	0.21723372
14	0xbe21b45a	-0.15791455
15	0xbfb9938d	-1.4498154

encoder.batch_norm2.running_var f4 [16]
0	0x40788caa	3.8835855
1	0x3fdfa83b	1.7473215
2	0x405262b2	3.287274
3	0x410d3efc	8.827877
4	0x4011ea49	2.2799246
5	0x403fe899	2.9985716
6	0x403bcb98	2.9343014
7	0x401a27ad	2.4086716
8	0x4050df51	3.2636302
9	0x41121921	9.131135
10	0x403afa2a	2.9215188
11	0x4067a3f8	3.6193829
12	0x4012716e	2.2881732
13	0x404b648e	3.1780124
14	0x406cb488	3.6985188
15	0x40f1d4ff	7.5572505

encoder.batch_norm3.weight f4 [32]
0	0x3e0b1c1b	0.1358494
1	0x3dcaf78f	0.09910499
2	0x3daf4c63	0.085594915
3	0x3d991bef	0.07476031
4	0x3da59a6e	0.08086096
5	0x3de315ef	0.11088168
6	0x3dd0bf5c	0.10192749
7	0x3e0de0d0	0.1385529
8	0x3d967f47	0.07348495
9	0x3e12a930	0.14322352
10	0x3e23153e	0.15926072
11	0x3e3d1b66	0.18467483
12	0x3da3395d	0.079699256
13	0x3e2955d3	0.16536646
14	0x3df76544	0.12079862
15	0x3e2004e2	0.15626863
16	0x3e6818fb	0.2266578
17	0x3dd839f9	0.105579324
18	0x3dd095af	0.101848
19	0x3e0d991a	0.13827935
20	0x3dee0b51	0.11623252
21	0x3dcafb5e	0.09911226
22	0x3d8486bf	0.06471013
23	0x3dd2a096	0.102845356
24	0x3d8fe46a	0.070259884
25	0x3e10fff1	0.14160134
26	0x3e469782	0.19393733
27	0x3dd972a3	0.10617568
28	0x3d83a62e	0.06428181
29	0x3dc48162	0.0959499
30	0x3dc7a5fe	0.09748457
31	0x3e454e03	0.1926804

encoder.batch_norm3.bias f4 [32]
0	0xbd358323	-0.044314515
1	0xbd8386cd	-0.064221956
2	0xbc6ae19b	-0.014336015
3	0xbb5e8b38	-0.0033957493
4	0xbb2c5450	-0.0026295371
5	0x3d8c3ac4	0.06847146
6	0xbd53dbcd	-0.05172329
7	0xbdcd4b42	-0.1002412
8	0x3d3701ba	0.04467938
9	0xbdc8cedf	-0.098050825
10	0xbdbc8283	-0.09204581
11	0xbe014410	-0.1262362
12	0x3cd881d3	0.026429093
13	0xbda82b05	-0.0821133
14	0xbd9b4f27	-0.075834565
15	0xbd921c12	-0.0713426
16	0xbe2ace5f	-0.16680287
17	0x3d6dc7aa	0.058051743
18	0xbd27005a	-0.04077182
19	0xbdb7a92e	-0.08967815
20	0xbb6ba4ff	-0.00359565
21	0xbcd24acd	-0.025670433
22	0xbc3ddda1	-0.011588485
23	0xbd56ff10	-0.05248934
24	0x3c1877ca	0.009305904
25	0xbdb02454	-0.08600679
26	0xbdea916b	-0.114535175
27	0xbca6117a	-0.020272005
28	0xbc8df05d	-0.017326528
29	0x3cef19f9	0.02918719
30	0xbd2eb90f	-0.042656954
31	0xbe11ebc7	-0.14250098

encoder.batch_norm3.running_mean f4 [32]
0	0xc0b47e38	-5.6404076
1	0xbf952123	-1.1650738
2	0xbe301003	-0.17193608
3	0xbf50c764	-0.81554246
4	0x40438cd4	3.0554705
5	0x3fa4b255	1.2866923
6	0xbf43eaeb	-0.7653033
7	0xbf8ad538	-1.0846319
8	0xc0c453b2	-6.1352167
9	0x3fc08d17	1.5043057
10	0xc0cd3f52	-6.4139795
11	0xc08c3e4a	-4.3826036
12	0xbfdf3273	-1.7437271
13	0xbefb0456	-0.49026746
14	0x3face299	1.3506652
15	0x3fd3a709	1.653535
16	0x3f9270f8	1.1440725
17	0x3fd6a73e	1.6769788
18	0xc024fcd0	-2.5779305
19	0xc00399b6	-2.0562568
20	0xc0de0e4c	-6.939245
21	0xbc191ff5	-0.009345998
22	0x3f3f82b0	0.7480879
23	0xbfe25c21	-1.7684366
24	0xbec6a3d8	-0.38796878
25	0xbe9c743e	-0.30557436
26	0xc0ac0988	-5.3761635
27	0xbe1d2aee	-0.15348408
28	0xbf211ae9	-0.62931687
29	0xbfb31b49	-1.3992702
30	0xbfd0e673	-1.6320328
31	0xc0720ab9	-3.7819045

encoder.batch_norm3.running_var f4 [32]
0	0x416755c7	14.458442
1	0x416d6a37	14.838431
2	0x418f5819	17.918016
3	0x411077f5	9.029286
4	0x419383e4	18.4394
5	0x41f87e05	31.061533
6	0x41864bd1	16.78702
7	0x41d66222	26.797916
8	0x4110cae0	9.04953
9	0x41329587	11.161506
10	0x41c8e563	25.112005
11	0x41c660ea	24.797321
12	0x418adb26	17.357006
13	0x41a04601	20.034182
14	0x41d587e6	26.691357
15	0x41a353d3	20.41593
16	0x42053575	33.302204
17	0x41d3da6b	26.48165
18	0x41a5e41a	20.736378
19	0x41da3f38	27.280869
20	0x414060af	12.023604
21	0x41948fa8	18.570145
22	0x40e9455c	7.2897167
23	0x41859dda	16.702076
24	0x4156592a	13.396769
25	0x416d238f	14.821181
26	0x41effd0a	29.998554
27	0x4193cfe3	18.476507
28	0x41043729	8.263467
29	0x419fdce4	19.982857
30	0x41ac172f	21.51132
31	0x41d62000	26.765625

encoder.linear1.weight f4 [128, 512]
0	0xbd99a363	-0.07501867
1	0xbcb9f9f0	-0.022702187
2	0xbcfc2a5d	-0.03078192
3	0xbab5147d	-0.001381531
4	0xbad966a3	-0.0016586374
5	0xbb68277d	-0.0035423927
6	0xbbce6900	-0.006299138
7	0xbd85c10f	-0.06530964
8	0xbcf36ebf	-0.029715894
9	0x3d21b95e	0.03948342
10	0x3d310907	0.0432215
11	0x3d32877f	0.04358625
12	0xbd67994a	-0.056542672
13	0xbcb90e47	-0.022589816
14	0xbceec358	-0.029145882
15	0x3ce2f25b	0.027703455
16	0xbdcb47e0	-0.099258184
17	0xbd60da66	-0.05489578
18	0xbd16ee88	-0.036848575
19	0xbbcdd26e	-0.0062811887
20	0xbd200182	-0.039063938
21	0x3c827901	0.01592684
22	0x3c733cd3	0.014846045
23	0x3d75840a	0.059940375
24	0xbc907420	-0.017633498
25	0x3bf2a7d3	0.00740526
26	0xbd842dbf	-0.06454038
27	0x3b1096b2	0.0022062478
28	0x3c54654b	0.012963603
29	0xbd86d703	-0.06583979
30	0xbc7d36e8	-0.015454985
31	0xbcd3a6d1	-0.02583638
32	0xbd89fc3f	-0.06737565
33	0x3cc8f942	0.024532918
34	0xbd592044	-0.053009287
35	0xbc712792	-0.014718907
36	0xbbccdc05	-0.0062518143
37	0xbb6b60cc	-0.003591585
38	0x3d763f06	0.060118698
39	0xbd1fdb93	-0.03902776
40	0x3d0023df	0.03128421
41	0xbc37ddf6	-0.011222353
42	0x3d317ba1	0.043330792
43	0xbd6bf8ce	-0.057610326
44	0xbcd3a66a	-0.025836188
45	0xbd9f7ee6	-0.07787876
46	0x3c9e2e77	0.019309266
47	0xbdc40988	-0.095721304
48	0x3d261dbf	0.04055571
49	0xbc574d4b	-0.013140987
50	0xbd8a10b1	-0.06741465
51	0xbcb25568	-0.02176924
52	0x36a2b142	4.8486118e-06
53	0xbc26703a	-0.010158593
54	0xbd005814	-0.031333998
55	0xbd2c5261	-0.04207075
56	0xbc4120df	-0.011787622
57	0xbb267a52	-0.0025402498
58	0xbcfad011	-0.030616792
59	0xbc87f594	-0.016596593
60	0xbd7229cf	-0.059121903
61	0xbd0834fc	-0.033253655
62	0x3d1eee8f	0.038801726
63	0xbdd4b0df	-0.10385298
64	0xbc2878ba	-0.01028269
65	0x3bb02311	0.005375274
66	0xbb611a82	-0.0034348075
67	0xbd229b64	-0.039698973
68	0x3c5ba11c	0.013405111
69	0xbd386443	-0.045017492
70	0xbd6d7579	-0.05797336
71	0xbd8fc7b6	-0.07020514
72	0xbd46b40e	-0.048511557
73	0xbdc56df8	-0.096401155
74	0x3c77cd1d	0.015124586
75	0xbc407d33	-0.0117486
76	0xbd87e10f	-0.066347234
77	0x3c60d478	0.0137225315
78	0xbde63369	-0.112402745
79	0x3c9269ef	0.017872779
80	0xbce4adf5	-0.02791498
81	0xbdcb5eec	-0.09930214
82	0xbd8fa49c	-0.070138186
83	0xbe016063	-0.12634425
84	0xbd898d30	-0.067163825
85	0xbc958129	-0.018250065
86	0xbd82c33b	-0.063848935
87	0x3c6f8a27	0.01462034
88	0xbd2e94e8	-0.042622477
89	0xbdd2f956	-0.10301463
90	0xbd214e83	-0.039381515
91	0x3a9fbfde	0.0012187918
92	0xbd5d41e0	-0.0540179
93	0xbc4b6723	-0.012414726
94	0xbd65e225	-0.05612387
95	0xbd231b5f	-0.039821025
96	0xbcc203fd	-0.023683542
97	0xbd977aee	-0.07396494
98	0xbd063889	-0.03276876
99	0x3cada50e	0.021196868
100	0xbd7cd2b1	-0.06172437
101	0x3d3139e7	0.04326811
102	0xbd35fa14	-0.044427946
103	0xbb39cd2f	-0.0028351059
104	0x3d087bea	0.0333213
105	0xbc8c21b8	-0.017105922
106	0xbc87f8fe	-0.01659822
107	0xbd13df1d	-0.03610145
108	0x3caaef95	0.020866195
109	0xbdbefb6d	-0.093252994
110	0x3d230017	0.039795008
111	0xbbea9034	-0.0071583036
112	0xbdb39bd0	-0.08769953
113	0xbddff64a	-0.10935648
114	0x3d098108	0.03357032
115	0xbdbb56ac	-0.09147391
116	0xbcaffca3	-0.021482771
117	0xbd235788	-0.0398784
118	0x3d5bbb05	0.053645153
119	0xbcd7cc0d	-0.026342416
120	0x3bfa6020	0.0076408535
121	0xbae43d14	-0.0017413222
122	0x3d4448c2	0.04792095
123	0xbd0dc45d	-0.034611095
124	0xbc03ada3	-0.008037004
125	0x3d9c27f1	0.07624806
126	0xbc60533d	-0.013691721
127	0xbd368877	-0.044563737
128	0xbcbfcc2a	-0.023412783
129	0xbd935387	-0.07193666
130	0xbb7efee1	-0.0038909244
131	0xbda88ce6	-0.08229999
132	0x3cf3c992	0.029759202
133	0xbdb765d2	-0.089549676
134	0xbd1e5c75	-0.038662393
135	0x3c9f5e69	0.019454198
136	0xbd39a723	-0.04532541
137	0xbd1aa6d1	-0.037756745
138	0x3d3ca249	0.046053205
139	0xb9a33834	-0.00031131657
140	0xbcc4d069	-0.024025159
141	0xbbec2788	-0.007206861
142	0xbd2430e4	-0.04008569
143	0x3d5602b0	0.052248657
144	0x3c248c3d	0.010043201
145	0x3d9d5049	0.07681329
146	0xbdafd60f	-0.0858575
147	0xbcd9dbb3	-0.026594019
148	0xbd97633c	-0.07391974
149	0x3d5b4b84	0.053538814
150	0xbd43632f	-0.04770201
151	0xbd9bb5c2	-0.07603027
152	0xbd46577a	-0.048423268
153	0x3d938757	0.072035484
154	0xbd7aafc4	-0.06120278
155	0xbcda3f16	-0.02664141
156	0xbcfe138f	-0.031015186
157	0xbd793c9d	-0.06084882
158	0xbc69d4c5	-0.01427192
159	0xbd8798be	-0.0662093
160	0xbdbf74d3	-0.09348454
161	0xbd909b43	-0.07060864
162	0xbd320c2f	-0.04346865
163	0xbc9976ae	-0.018733349
164	0xbdb06abf	-0.0861411
165	0x3d220a75	0.039560754
166	0x3bb30fdd	0.0054645375
167	0x3dcbb452	0.09946503
168	0xba878683	-0.001033977
169	0x3cb4f29a	0.022088338
170	0x3c45bbf8	0.012068741
171	0xbd243c23	-0.040096413
172	0xbc393aac	-0.011305492
173	0x3d08d0be	0.033402197
174	0x3d4901de	0.049074046
175	0x3d1b4f9c	0.03791772
176	0xbba2c9e6	-0.004967916
177	0xbce34913	-0.027744805
178	0xbd2f2357	-0.042758312
179	0xbd45b216	-0.04826554
180	0xbd0bfe9b	-0.034178358
181	0xbd230235	-0.039797027
182	0xbde364c3	-0.11103203
183	0xbd2bab3c	-0.04191135
184	0xbd1e2a43	-0.038614523
185	0xbbe179d0	-0.0068809763
186	0x3c61eb06	0.013788944
187	0xbd869b3c	-0.06572577
188	0xbcf6ace7	-0.030111743
189	0xbd317589	-0.04332498
190	0xbca47484	-0.02007509
191	0xbca55c15	-0.02018551
192	0x3d24a91b	0.040200334
193	0xbd1f66d5	-0.038916428
194	0xbd4339e1	-0.04766262
195	0xbdb4cab7	-0.08827727
196	0x3d03eb1a	0.032206632
197	0xbd7d5a47	-0.061853673
198	0xbd9500bf	-0.07275533
199	0x3c71344d	0.014721942
200	0xbd99fc84	-0.07518867
201	0xbda930e7	-0.082612805
202	0xbc5b77cc	-0.013395261
203	0x3be96ec9	0.0071238023
204	0xbdca31f1	-0.09872807
205	0xbcee0543	-0.029055243
206	0xbd79d371	-0.060992662
207	0x3d28fb72	0.041255422
208	0xbd68630f	-0.056735095
209	0x3cd400b3	0.02587924
210	0xbc297116	-0.010341903
211	0xbd802a2b	-0.06258043
212	0x3bb37ba5	0.005477386
213	0x3d92d967	0.071703725
214	0xbd35b5ab	-0.044362705
215	0xbd883e5e	-0.066525206
216	0x3cb8b13c	0.02254545
217	0xbcb1709f	-0.021660147
218	0xbc5c1453	-0.01343258
219	0xbd4c3794	-0.04985769
220	0xbd0d88a7	-0.03455415
221	0x3d9bc037	0.076050214
222	0xbcf08f29	-0.02936514
223	0xbd2cc54d	-0.04218035
224	0x3c81ae71	0.01583025
225	0xbd455093	-0.048172545
226	0xbc941cb8	-0.0180801
227	0xbdc075f0	-0.09397495
228	0xbca89b17	-0.020581765
229	0x399e093f	0.00030142997
230	0xbb7e723d	-0.0038825416
231	0x3c8d2191	0.01722792
232	0xbd35d6d8	-0.044394344
233	0x3d072f85	0.033004303
234	0xbc4ba039	-0.012428337
235	0xbd860ffe	-0.06546019
236	0xbd0101ec	-0.031495973
237	0x3ddadc43	0.10686543
238	0xbd118d20	-0.035534978
239	0x3bd2aa6b	0.006429007
240	0xbca74d5f	-0.020422636
241	0xbd73a236	-0.05948087
242	0xbd17b62f	-0.03703898
243	0xbd97cb06	-0.074117705
244	0xbd3a5da0	-0.045499444
245	0xbc9991b2	-0.01874623
246	0xbca317eb	-0.019908866
247	0xbd9423b6	-0.07233374
248	0x3d6a5bea	0.057216562
249	0x3d8b97e6	0.06816082
250	0xbd94f61d	-0.07273505
251	0x3cd14301	0.025544645
252	0x3d4e1775	0.05031534
253	0xbd51f5f4	-0.05125995
254	0xbc1b44fc	-0.009476896
255	0xbdbb50f6	-0.091463014

encoder.linear1.bias f4 [128]
0	0xbd0b91fa	-0.03407476
1	0xbd7d9eb7	-0.06191894
2	0xbbfd7407	-0.007734779
3	0x3c4fdfa7	0.0126876
4	0x3a445a9e	0.00074903097
5	0xbcae807a	-0.021301497
6	0x3eaff15d	0.34363833
7	0xbd681e53	-0.056669544
8	0xbd4ac31e	-0.049502485
9	0xbd004fff	-0.03132629
10	0xbd522037	-0.051300254
11	0xbd7ebe0e	-0.06219297
12	0xbd592a28	-0.05301872
13	0xbd47fe64	-0.04882659
14	0xbd461765	-0.048362155
15	0xbd4be84b	-0.04978208
16	0xba5ded69	-0.0008465858
17	0xbd568116	-0.0523692
18	0xbc0bfa8d	-0.008543623
19	0xbd9c74f5	-0.07639495
20	0xbda35717	-0.079755954
21	0xbce9e476	-0.028551321
22	0xbd5d7c55	-0.05407365
23	0xbd06f7c8	-0.032951146
24	0x3c440cde	0.011965958
25	0xbcd04186	-0.025421869
26	0xbd0b1168	-0.033952147
27	0xba5513df	-0.0008128266
28	0x3e50f491	0.20405795
29	0xbd683777	-0.05669352
30	0xbd09971f	-0.033591386
31	0xbd06936a	-0.03285543
32	0xbd8e533c	-0.069494694
33	0x3cb31f86	0.021865617
34	0xbd2ab8c3	-0.04168011
35	0xbc20474a	-0.009782622
36	0x3be3bd8b	0.0069500855
37	0x3eb5bdb2	0.3549629
38	0x3be552bb	0.0069983876
39	0x3e4e90af	0.2017238
40	0xbc9d1aea	-0.019177873
41	0x3df07ed6	0.11742942
42	0x3c24afb4	0.0100516565
43	0xbce88ce1	-0.028387489
44	0xbae4e746	-0.0017463944
45	0x3cb45fc9	0.02201833
46	0xbca3f8b7	-0.020016057
47	0xbca36307	-0.01994468
48	0xbd863517	-0.06553095
49	0xbd8c2960	-0.06843829
50	0xbc76a3ee	-0.015053732
51	0xbca853f9	-0.020547854
52	0xbc8a13a0	-0.016855061
53	0xbc0f463a	-0.008744771
54	0xbce76107	-0.028244508
55	0xbca1f845	-0.019771704
56	0xbd1203c4	-0.035648122
57	0xbd748682	-0.05969859
58	0xbd8e037d	-0.06934259
59	0xbbfa7d57	-0.007644336
60	0x3eca4e0e	0.39512676
61	0xbd35a0a4	-0.044342652
62	0xbd41b930	-0.04729575
63	0xbd532839	-0.05155203
64	0x3e657f30	0.224118
65	0x3e8bbd9e	0.27293104
66	0xbd853c0e	-0.06505595
67	0xbcfa7a19	-0.030575799
68	0x3ee3d62a	0.44499332
69	0xbaad80d2	-0.0013237244
70	0xbcaf6e4c	-0.021414898
71	0xbcd858d1	-0.026409538
72	0xbcad5b7a	-0.021161783
73	0xbb3ae22e	-0.0028516161
74	0xbc07f7f3	-0.008298862
75	0x3c3cee9b	0.011531497
76	0xbcdae7bb	-0.026721826
77	0x3f0663a1	0.5249577
78	0x3b1308b5	0.002243561
79	0x3c143161	0.009044976
80	0xbda13ac0	-0.07872534
81	0x3e1cb277	0.15302454
82	0xbd07c30f	-0.033145007
83	0x3c3e8395	0.011628051
84	0xbd3bf904	-0.045891777
85	0xbd057b43	-0.032588255
86	0x3dc5e7e8	0.09663373
87	0xbd40417d	-0.046937454
88	0xbd0d437c	-0.034488186
89	0xbce516c0	-0.02796495
90	0xbd350cc8	-0.044201642
91	0xbd70bb24	-0.05877222
92	0x3cb64584	0.022249945
93	0x3e5f37cb	0.21798627
94	0xbcfa6c88	-0.03056933
95	0xbd19ec74	-0.037579015
96	0x3b45119c	0.003007031
97	0xbc9d48a7	-0.019199682
98	0xbdab4b34	-0.08363953
99	0xbc535980	-0.012899756
100	0x3ead31a2	0.3382693
101	0xbc0bd2a1	-0.008534105
102	0xbbc7542c	-0.006083032
103	0xbc4fe372	-0.0126885045
104	0x3c058145	0.008148496
105	0xbbed6e4e	-0.0072458154
106	0xbd3f7ccf	-0.046749886
107	0x3e910463	0.2832366
108	0xbca14754	-0.019687332
109	0xbc398c56	-0.011324963
110	0xbca6d8a8	-0.020366982
111	0xbd60c6e4	-0.054877177
112	0xbd07fd57	-0.033200588
113	0xbd1649e3	-0.036691558
114	0xbb5cbc8a	-0.0033681714
115	0xbcfb37d6	-0.030666273
116	0xbd267396	-0.040637575
117	0xbbd99e66	-0.006641197
118	0x3e3f545b	0.18684523
119	0xbd013237	-0.03154203
120	0x3e6fbe80	0.23412514
121	0xbc2ccd6c	-0.010547023
122	0x3c93e996	0.018055718
123	0xbbd0c268	-0.0063708313
124	0xbc22df00	-0.009940863
125	0xbcf157bc	-0.02946078
126	0xbc9a2bb6	-0.018819671
127	0x3e40c64d	0.18825646

encoder.linear_mu.weight f4 [128, 128]
0	0x3dc7cf69	0.09756357
1	0x3c2f54ad	0.010701341
2	0xbd9e7771	-0.077376254
3	0x3d9010d0	0.07034457
4	0x3d9e14e6	0.0771883
5	0x3d186878	0.037209004
6	0x3acab0dd	0.0015464086
7	0x3d654711	0.055975977
8	0xbd724e16	-0.0591565
9	0xbad38996	-0.0016139026
10	0xbd849173	-0.06473055
11	0x3d89675f	0.067091696
12	0xbcf1b317	-0.029504342
13	0xbd59ee02	-0.053205498
14	0x3c1545d2	0.009110885
15	0x3c331c89	0.010932096
16	0xbd1b54d7	-0.037922706
17	0x3c57d60c	0.013173591
18	0xbdb3b371	-0.0877446
19	0x3c1e9405	0.009678845
20	0x3d7a06f8	0.061041802
21	0xbdc6aebf	-0.09701299
22	0xbd939a03	-0.0720711
23	0x3d4856ab	0.048910778
24	0x3d82cc6d	0.063866474
25	0xbd4de6a2	-0.050268777
26	0x3d6e0fc2	0.058120497
27	0xbda402d1	-0.0800835
28	0xbc098861	-0.008394332
29	0xbd83fa7b	-0.0644426
30	0xbd889f03	-0.06670954
31	0x3d51017e	0.051026814
32	0x3c83770a	0.016047973
33	0xbdacc8a3	-0.08436706
34	0x3d8a80eb	0.067628704
35	0xbd16adec	-0.03678696
36	0xbd1aa9a6	-0.037759446
37	0x3c3da3df	0.011574714
38	0xbd0485e6	-0.032354258
39	0x3b57ee0c	0.0032948283
40	0xbd8fe491	-0.070260175
41	0x3b9fc7ff	0.0048761363
42	0xbc7372ca	-0.014858911
43	0x3d4cf5d7	0.05003914
44	0x3d3cd12f	0.04609793
45	0xbc5ef971	-0.013609276
46	0xbd04ac2a	-0.03239075
47	0xbd22fb33	-0.039790343
48	0x3d53f82c	0.051750347
49	0x3b471603	0.003037811
50	0x3b909bd4	0.0044131074
51	0x3caf4e61	0.021399679
52	0xbbf20a8c	-0.007386511
53	0x3c0a7430	0.008450553
54	0x3cad2d23	0.021139687
55	0xbd37cee7	-0.04487505
56	0xb978ac71	-0.00023715362
57	0x3d5d5234	0.054033473
58	0x3d6ede86	0.058317684
59	0xbc37fb90	-0.011229411
60	0xbb8d8cbd	-0.004319756
61	0x3d5437af	0.051810917
62	0x3d22f461	0.03978384
63	0x3d752a77	0.05985495
64	0x3bae8e37	0.005327012
65	0xbb90b234	-0.0044157747
66	0xbdcf4bf9	-0.101219125
67	0x3d5eef9c	0.054427728
68	0xbb5d77f7	-0.0033793428
69	0x3d25131d	0.04030143
70	0xbd116df9	-0.03550527
71	0x3d281d92	0.041043825
72	0x3c4e75f9	0.012601369
73	0x3d9997f7	0.07499688
74	0xbcf209dc	-0.029545717
75	0xbd660cd7	-0.05616459
76	0x3d7459e4	0.05965604
77	0xb9eccff9	-0.0004516838
78	0x3cc19e4a	0.023635048
79	0xbdb3d881	-0.08781529
80	0x3c897c68	0.016782954
81	0xbc50261d	-0.012704399
82	0xbd31c098	-0.043396562
83	0xbd5000e9	-0.050782118
84	0x3db5c2e3	0.08875062
85	0xbdab289f	-0.08357357
86	0x3be7ba17	0.007071744
87	0x3d23e8dd	0.040016998
88	0xbd2c9994	-0.04213865
89	0x3d0be447	0.03415325
90	0x3ca7e3a0	0.020494282
91	0xbbdbed8c	-0.0067116674
92	0x3d7defa1	0.061996106
93	0xbb899294	-0.0041983817
94	0x3d136e84	0.035994068
95	0xbd16aea3	-0.03678764
96	0x3d4ab21a	0.049486257
97	0xbd800dc6	-0.06252627
98	0xbe0ac032	-0.13549879
99	0xbcf99d1d	-0.030470425
100	0xbb4ef8fa	-0.0031581507
101	0x3beb2ff3	0.007177347
102	0x3d6fcb45	0.058543462
103	0x3db8e32e	0.09027706
104	0xba82a181	-0.0009966345
105	0xbcef5301	-0.029214384
106	0xbd9c164d	-0.07621441
107	0x3bbc9e19	0.0057561514
108	0xbd0c7ef2	-0.034300752
109	0xbd2fdc04	-0.042934433
110	0xbaddec19	-0.0016931324
111	0xbd9ca85a	-0.07649298
112	0x3daa091f	0.08302521
113	0xbc442757	-0.01197227
114	0x3d891a67	0.06694489
115	0x3d1c8642	0.038213976
116	0xbb641a7e	-0.003480583
117	0xbc855008	-0.016273513
118	0x3ac66b73	0.0015138224
119	0xbcb79760	-0.022411048
120	0x3c38a5f0	0.011270031
121	0x3c10fe36	0.008849671
122	0x3d7b92a7	0.061419155
123	0x3d78d565	0.060750384
124	0x3be5bcd8	0.0070110373
125	0xbd94bcbe	-0.07262562
126	0x3daec334	0.08533326
127	0x3b0c595e	0.0021415572
128	0xbc3810fb	-0.011234517
129	0xbca172a0	-0.019707978
130	0xbcb99d12	-0.022657905
131	0x3bad0efb	0.005281327
132	0x3d9d4d94	0.076808125
133	0x3b320e50	0.0027169175
134	0x3b11be7b	0.002223878
135	0xbd21fa4f	-0.039545354
136	0xbce82b98	-0.0283411
137	0x3d82b608	0.06382376
138	0x3a199983	0.0005859362
139	0xbd38bf77	-0.04510447
140	0xbced244f	-0.028947977
141	0xbca886a7	-0.02057202
142	0x3c896326	0.01677091
143	0xbca02b4d	-0.019551897
144	0xbd7f7f7b	-0.062377434
145	0xbd3b462e	-0.045721225
146	0x3d09f5ce	0.033681683
147	0xbd142104	-0.0361643
148	0x3d17acc6	0.037030004
149	0x3cc89346	0.024484288
150	0xbca51e31	-0.020155998
151	0x3bb58469	0.005539466
152	0x3cbc420c	0.022980712
153	0x3abdd788	0.0014483789
154	0x3d2c88e4	0.042122737
155	0x3848223f	4.771561e-05
156	0x3b9846d0	0.0046471134
157	0xbcc4c6e4	-0.02402062
158	0x3d42d21d	0.04756366
159	0xbd433a83	-0.047663223
160	0x3c8ff488	0.017572656
161	0xbd6ebccd	-0.058285523
162	0x3d111e93	0.03542955
163	0xbd151f9b	-0.036407094
164	0x3b91503e	0.0044346144
165	0x3c57b383	0.0131653575
166	0x3daa6290	0.083195806
167	0x3c301fac	0.010749739
168	0x3b009970	0.0019622706
169	0x3b62f30c	0.003462973
170	0x3d46631e	0.04843437
171	0xbd4a369b	-0.049368482
172	0xbd5066ba	-0.050879218
173	0x3da8cf9c	0.08242723
174	0x3d0fa777	0.035071816
175	0x3d16d48e	0.0368238
176	0xb7b496a2	-2.1527816e-05
177	0x3b7e4bbf	0.0038802472
178	0xbd4fd828	-0.050743252
179	0xbdc953a6	-0.09830408
180	0x3d2fbad2	0.042902775
181	0xbce0b193	-0.027428424
182	0xbb4caa61	-0.0031229483
183	0x3d36e992	0.044656344
184	0x3b9151ac	0.004434785
185	0xbcdb6505	-0.026781568
186	0x3cbc65e2	0.0229978
187	0xbd52d297	-0.051470365
188	0x3b25d88d	0.0025306076
189	0xbc24f3cd	-0.010067892
190	0xbdc7b56f	-0.097514026
191	0xbd751b53	-0.05984051
192	0xbbab2293	-0.0052226274
193	0xb9309c10	-0.00016842806
194	0xbd479126	-0.04872241
195	0x3d23c347	0.039981153
196	0xba8928b7	-0.0010464404
197	0x3c8a09e0	0.016850412
198	0x3cdb0083	0.026733642
199	0x3c6b8a50	0.014376238
200	0x3b76a4a5	0.0037634757
201	0x3d32f913	0.043694567
202	0xbd39b277	-0.045336213
203	0x3d1cbc2b	0.03826539
204	0xbca94891	-0.020664485
205	0xba06e5e5	-0.0005145951
206	0x3cb7f479	0.02245544
207	0x3d93f760	0.072249174
208	0xbd81bd4b	-0.06334933
209	0xbb5a85f4	-0.0033344002
210	0xbb8f83fc	-0.0043797474
211	0xbc7ac036	-0.015304616
212	0x3ce42a67	0.02785225
213	0x3d102a84	0.035196796
214	0x3a0337a8	0.0005005547
215	0xbd212065	-0.039337534
216	0x3d6cfeae	0.05786007
217	0x3d123011	0.03569037
218	0x3d934063	0.07190015
219	0x3e23dbca	0.16001812
220	0xbd041e1c	-0.032255277
221	0xbc3847c1	-0.011247576
222	0x3c8797db	0.016551903
223	0xbd2df861	-0.0424732
224	0x3d8e5eea	0.06951697
225	0xbd60a6b8	-0.054846495
226	0xbe1af7c1	-0.15133573
227	0x3c4accc4	0.0123779215
228	0xbc1b0da3	-0.0094637005
229	0xbd3a87f4	-0.04553981
230	0x3cc4c12f	0.024017898
231	0xbd5b2443	-0.05350138
232	0x3d1c0400	0.038089752
233	0x3a75cbe2	0.0009376389
234	0xbc357bc2	-0.011076869
235	0xbb4a6f02	-0.003088892
236	0x3d40f37c	0.047107205
237	0x3d797309	0.06090072
238	0x3dc37dc3	0.095454715
239	0x3d508989	0.050912414
240	0x3daed5f2	0.085369006
241	0xbd21a9dd	-0.039468635
242	0xbd5ee124	-0.05441393
243	0x3c67d931	0.014150904
244	0xbc8df92d	-0.01733073
245	0xbc1e82b1	-0.009674714
246	0xbb92da16	-0.0044815643
247	0xbb8fdc15	-0.0043902495
248	0xbc20c63b	-0.009812887
249	0xbbbe2271	-0.0058024456
250	0x3db53101	0.088472374
251	0x3d93db55	0.07219569
252	0xbda789fb	-0.081806146
253	0x3d971117	0.073763065
254	0x3c5c95e3	0.01346347
255	0x3c43aa4d	0.011942458

encoder.linear_mu.bias f4 [128]
0	0xbc3ccfc5	-0.0115241455
1	0x3c2ac14d	0.010422063
2	0xb98cdd88	-0.00026867935
3	0x3ad20d17	0.001602563
4	0x3c3c1e65	0.011481856
5	0xbc1bc11e	-0.009506492
6	0xbb8d392e	-0.004309795
7	0xbd379a1d	-0.04482471
8	0x3acb38b4	0.001550457
9	0xbae6ea0f	-0.0017617362
10	0xbc4d0d53	-0.012515384
11	0xbb172fbc	-0.0023069223
12	0x3b1aafa1	0.0023603218
13	0xbb9bfe71	-0.0047605564
14	0x3bee98ca	0.0072813975
15	0x3b78a981	0.003794283
16	0x3babf1b1	0.0052473177
17	0x3c991b3d	0.018689746
18	0xbc87500b	-0.01651766
19	0x3b53b280	0.003230244
20	0xbc2f261f	-0.010690241
21	0x3aa7a4ab	0.0012790164
22	0xba247e54	-0.0006274928
23	0x3bd0bb8d	0.006370014
24	0xbb9ffe5c	-0.004882617
25	0x3b7f413e	0.00389488
26	0xbc6b2946	-0.014353102
27	0x3bf3a29b	0.0074351556
28	0xbda99949	-0.0828119
29	0xbc2606ff	-0.010133504
30	0xbca3b5e4	-0.019984193
31	0x3c24039a	0.010010624
32	0x3d071b62	0.0329851
33	0xba829a98	-0.0009964285
34	0xb904b3c4	-0.00012655469
35	0x3c66ec0c	0.014094364
36	0x3c595d23	0.013266834
37	0x3bdcb306	0.0067352084
38	0xbc5f00e9	-0.013611057
39	0x3ade7e59	0.001697491
40	0xbc8be5b3	-0.017077303
41	0x3c56f812	0.013120668
42	0x3b1f3b7a	0.0024296925
43	0x3c907565	0.017634103
44	0xbb99f64a	-0.0046985494
45	0x3ad03cea	0.0015887294
46	0x3c9f8e81	0.01947713
47	0x3ae5cd3c	0.0017532478
48	0x3c0fc5d3	0.008775192
49	0x3cb473bd	0.022027845
50	0xbb71c40a	-0.003689053
51	0x3d4ca6e0	0.049963832
52	0x3c15102b	0.009098093
53	0xbc1c26c1	-0.009530724
54	0x3c976c98	0.018484399
55	0xbc63596d	-0.013876301
56	0x3bb11776	0.005404408
57	0xbc07cf6b	-0.008289198
58	0xbbf1ba4f	-0.007376946
59	0x3b4e2ce7	0.003145987
60	0xb820ed18	-3.8367783e-05
61	0xbb519f7a	-0.0031985925
62	0xbada9b74	-0.0016678409
63	0xb924d635	-0.00015720057
64	0x3bae0a91	0.005311318
65	0xbb457122	-0.0030127247
66	0x3bdabb5b	0.0066751665
67	0x3c282fc9	0.010265299
68	0x3c4c5e22	0.012473615
69	0xbc5fe79e	-0.013666062
70	0x3c3a0f19	0.011356139
71	0x3b3aaf80	0.0028485954
72	0x3b911bd1	0.004428365
73	0xbc41ba27	-0.011824167
74	0xbbbb0a29	-0.0057079983
75	0xbe11ea80	-0.14249611
76	0xbc17813c	-0.0092471205
77	0xbc2e4c8d	-0.010638368
78	0x3b43d542	0.002988175
79	0x3ed46c82	0.41489035
80	0x3b3fe8b9	0.0029283
81	0xbc6d4f32	-0.014484214
82	0xbbce311a	-0.0062924745
83	0x3bde3f7e	0.006782471
84	0x3c043cb3	0.008071112
85	0xba9ce01f	-0.0011968649
86	0x3c28c154	0.010299999
87	0xbc40bb82	-0.011763455
88	0xbadc1e7c	-0.0016793753
89	0xb90a54cc	-0.00013192295
90	0x3bc5e303	0.006039025
91	0xbe0765a3	-0.13222365
92	0xbccc7b79	-0.02496122
93	0x3b938498	0.0045018904
94	0x3ab95e71	0.0014142526
95	0x3bb75187	0.0055944356
96	0x3b97851e	0.004624023
97	0x39dab155	0.00041712323
98	0x3af2b147	0.0018515968
99	0x3b96db4a	0.004603778
100	0xbc40ec6b	-0.011775116
101	0x3b90879f	0.0044106985
102	0xbb33d27e	-0.0027438696
103	0x3c7304ef	0.014832719
104	0xbabb9212	-0.00143105
105	0x3ec694b3	0.38785324
106	0x3aeb8e55	0.0017971495
107	0x3c4ec400	0.012619972
108	0x3c4ec6d7	0.012620649
109	0x3b68f837	0.0035548338
110	0x3d103e73	0.035215806
111	0x3c29bd4f	0.010360076
112	0xbbc1bbb7	-0.00591227
113	0x3c6ba0c4	0.014381591
114	0xbcce3218	-0.025170371
115	0x3dfd83e3	0.12378671
116	0x3d4d4a40	0.05011964
117	0x3b52a376	0.0032140887
118	0xb805d560	-3.1908392e-05
119	0xbca3d065	-0.019996831
120	0x3bf106d7	0.0073555517
121	0x3bb01998	0.0053741448
122	0xbbc517f2	-0.0060148174
123	0x3c98acf2	0.018637154
124	0xbbc13f6a	-0.005897452
125	0xbdcc6819	-0.099807926
126	0x3b8bc14d	0.0042649866
127	0xbbd4fbb5	-0.0064997324

encoder.linear_sigma.weight f4 [128, 128]
0	0x3cd14964	0.02554769
1	0x3d90db20	0.07073045
2	0xbd8b0d4e	-0.06789647
3	0xbd13501a	-0.035965063
4	0x3a9547b8	0.0011389172
5	0xbcd14fc8	-0.025550738
6	0xba445ff6	-0.0007491106
7	0xbd5be5fd	-0.05368613
8	0x3d36dafd	0.044642437
9	0xbd606601	-0.05478478
10	0x3c0eda45	0.008719032
11	0xbdc6a17c	-0.096987695
12	0x3c728d1d	0.014804152
13	0x3d098475	0.033573586
14	0xbc9c149f	-0.019052802
15	0x3da98097	0.0827648
16	0x3cde1fd0	0.027114779
17	0x3d8d3db3	0.06896534
18	0xbdc4a48c	-0.09601697
19	0x3cf354d9	0.029703544
20	0x3ce29bbd	0.027662152
21	0xbcac9fba	-0.021072257
22	0x3d91186b	0.070847355
23	0x3ce98172	0.028504107
24	0x3d617552	0.055043526
25	0x3ca470ef	0.020073382
26	0x3d963d3a	0.07335897
27	0xbb7ee563	-0.003889405
28	0x39bcefa5	0.00036036703
29	0xb8ae875d	-8.32218e-05
30	0xbd228f88	-0.039687663
31	0x3d08e7b7	0.033424105
32	0xbd490ce2	-0.04908455
33	0xbd167307	-0.036730792
34	0x3d7c5d26	0.06161227
35	0x3c9e2d09	0.019308584
36	0xbdc01288	-0.093785346
37	0xba0fc297	-0.0005484013
38	0x3d796272	0.0608849
39	0x3a9715f1	0.0011526925
40	0x3d2a308f	0.041550215
41	0x3ad327f1	0.0016109926
42	0xbc90c1d2	-0.017670546
43	0xbbaf6c8d	-0.0053535164
44	0x3d0696a8	0.03285852
45	0xbd2b38df	-0.041802283
46	0xbd86561f	-0.06559395
47	0xbd66ea83	-0.05637599
48	0xbccdeba8	-0.025136784
49	0x3c50e7c0	0.012750566
50	0xbc74f5e4	-0.014951203
51	0xbc040123	-0.008056912
52	0xbd1e2a0f	-0.03861433
53	0x3d3f073e	0.046637766
54	0x3ca594b3	0.020212507
55	0xbcea3680	-0.02859044
56	0xbcbdba26	-0.023160052
57	0xbc24063d	-0.010011253
58	0x3d701626	0.058614872
59	0xbdad9022	-0.08474757
60	0x3a9e7b3b	0.0012091169
61	0xbd8d60b9	-0.06903214
62	0x3b800010	0.0039062575
63	0x3d567c2b	0.05236451
64	0xba48c88b	-0.0007659278
65	0x3a317e92	0.00067708746
66	0x3d30e00f	0.04318243
67	0x3d7deab7	0.06199142
68	0x3a465ae2	0.0007566643
69	0xbcbd0176	-0.023071986
70	0xbcce8885	-0.025211582
71	0x3b66e7be	0.0035233344
72	0xbd000acb	-0.031260293
73	0xbcf8d5b6	-0.030375343
74	0xbd455278	-0.04817435
75	0x3ccf0e45	0.025275359
76	0x3c1de841	0.009637893
77	0xbac9d0ce	-0.0015397312
78	0xbc59ff88	-0.013305552
79	0x3cb3d425	0.021951744
80	0xbc43e19a	-0.011955643
81	0xbabe760a	-0.0014531028
82	0x3d81d7aa	0.06339963
83	0x3c9ba6c4	0.019000418
84	0x3c8bfb0c	0.017087482
85	0x3d86c069	0.06579668
86	0xbb3a37c1	-0.002841458
87	0xbd4459f4	-0.04793735
88	0x3be2df7a	0.006923613
89	0xbd82c85a	-0.0638587
90	0xbde84bf5	-0.11342613
91	0xbce05a34	-0.027386762
92	0xbd92cb3b	-0.071676694
93	0xb9868526	-0.00025657675
94	0xbc80276f	-0.015643803
95	0xbd3da13e	-0.04629635
96	0x3b999944	0.00468746
97	0xbd62534e	-0.055255227
98	0xbd9ba4a2	-0.075997606
99	0xbd9c384a	-0.07627924
100	0x3a6cc72f	0.0009032366
101	0x3d5afa24	0.05346121
102	0x3d7318c1	0.05934978
103	0xbce7434c	-0.028230332
104	0x3da2118d	0.07913504
105	0x3d9ef980	0.07762432
106	0x3c80e26d	0.015732968
107	0xba9e6832	-0.0012085496
108	0xbcb3887a	-0.021915663
109	0xbd8d34e7	-0.06894856
110	0xbd17d6cf	-0.03707009
111	0x3d7367d5	0.059425194
112	0xbd275039	-0.04084799
113	0xbd5dcfe5	-0.05415334
114	0xba35d2ff	-0.0006936043
115	0xbd42dd2f	-0.04757422
116	0xbd957476	-0.07297604
117	0x3d109546	0.03529861
118	0x3a41b367	0.0007389099
119	0xbe044764	-0.12917858
120	0xba438997	-0.0007459162
121	0x3d8c4bf4	0.068504244
122	0xbd03fb2c	-0.032221958
123	0xbd43a381	-0.04776335
124	0xba839b9a	-0.001004088
125	0x3d867364	0.06564978
126	0xbcd7c8c1	-0.026340844
127	0x3aff534a	0.0019479778
128	0x3c9d5523	0.019205635
129	0xbc4f69e4	-0.012659524
130	0xbc96c86f	-0.018406121
131	0xbc515695	-0.01277699
132	0xbd6d8e1b	-0.05799685
133	0x3bc24c26	0.0059294878
134	0xba3f43ee	-0.0007296194
135	0xbc654a42	-0.013994755
136	0xbd38cb85	-0.045115966
137	0xbcb80343	-0.022462493
138	0x3d879de2	0.06621911
139	0x3d98ca99	0.074605174
140	0xbdd87600	-0.10569382
141	0x3d87b6fb	0.06626698
142	0x3ccd30ff	0.025047777
143	0xbc149254	-0.0090680905
144	0xbd552606	-0.052038215
145	0xbdacc3c8	-0.0843578
146	0x3d35faf4	0.04442878
147	0x398d1216	0.0002690709
148	0xbd02e997	-0.03196105
149	0xbbf1d146	-0.0073796837
150	0x3c8755db	0.016520431
151	0x3d2e4c4d	0.042553235
152	0x3d65aba6	0.0560719
153	0xbd5e6e0e	-0.054304175
154	0xbd215fee	-0.039398126
155	0xbd58db8f	-0.052943762
156	0xb954fb8a	-0.00020311601
157	0x3d497b1c	0.049189672
158	0x3bb6a350	0.0055736676
159	0x3d90f43d	0.07077835
160	0x3d307600	0.043081284
161	0xbdac8d3e	-0.08425377
162	0xbd916c91	-0.071007855
163	0xbd928f66	-0.07156257
164	0xbd30c065	-0.04315223
165	0xba550b84	-0.0008127021
166	0xbdabb346	-0.08383803
167	0x3aa55d4c	0.0012616306
168	0x3d9facfc	0.07796666
169	0xb8aaa7b6	-8.13747e-05
170	0x3c88f8c8	0.01672019
171	0xbd6f3499	-0.05839977
172	0x3da743e2	0.081672445
173	0xbd8cfed8	-0.06884545
174	0x3d961bb7	0.07329505
175	0xbda87d83	-0.082270645
176	0xbda61f4a	-0.08111437
177	0x3d2d4724	0.042304173
178	0x3bce46c3	0.0062950565
179	0x3d8b6e57	0.06808155
180	0x3b961688	0.0045803227
181	0x3cea4332	0.028596494
182	0xbcb7d1c7	-0.022438897
183	0x3ca12c40	0.01967442
184	0xbbff9d21	-0.0078007136
185	0x3ca3294a	0.01991715
186	0xbd8628c5	-0.06550745
187	0x3d37332d	0.04472654
188	0x3a425d9e	0.0007414463
189	0xbc994a46	-0.018712174
190	0xbcf24757	-0.029575033
191	0x3cd2d853	0.025737917
192	0xbabd732f	-0.0014453883
193	0xba890d20	-0.0010456182
194	0xbc3e20d0	-0.011604503
195	0x3d56c348	0.05243233
196	0x398b4bc3	0.00026568593
197	0xbd51638d	-0.05112033
198	0x3c55b741	0.013044179
199	0x3cdbfd49	0.026854174
200	0xbd9c1b0c	-0.07622346
201	0x3d7ffcde	0.062497012
202	0xbd464c3e	-0.048412554
203	0xba104609	-0.00055036
204	0x3cb3130c	0.021859668
205	0x3a727115	0.0009248418
206	0x3d8a026f	0.067387454
207	0xbd6cac0d	-0.057781268
208	0x3cc5c430	0.024141401
209	0x3a8be484	0.0010672961
210	0xbdaa51e8	-0.083164036
211	0xbd9c8bf5	-0.07643882
212	0xbdc49d5d	-0.09600327
213	0x3bd061c9	0.006359313
214	0xbb1f693c	-0.00243242
215	0x3d574322	0.052554257
216	0x3c276ec6	0.010219282
217	0xbd85e709	-0.06538207
218	0x3c38c1f8	0.0112767145
219	0xbc24ecb9	-0.010066205
220	0x3c786db3	0.015162873
221	0xb78eafc0	-1.7009559e-05
222	0xbd1b3e69	-0.037901316
223	0x3c4040be	0.011734186
224	0xbad7ff93	-0.0016479365
225	0xbd9fffc8	-0.07812458
226	0xbd6dd2cf	-0.05806237
227	0xbc39f36c	-0.01134954
228	0xbabfb0dd	-0.0014624853
229	0x3d108da5	0.035291333
230	0x3c778116	0.01510646
231	0xbda53d28	-0.08068305
232	0x3da0e93e	0.078569874
233	0xbc3fa9af	-0.011698171
234	0x3d4098c6	0.047020696
235	0xba091fc2	-0.00052308675
236	0xbdc6392f	-0.09678876
237	0xbcf0fd62	-0.029417697
238	0xbd8fd20a	-0.07022484
239	0xbd8cfc5e	-0.06884073
240	0x3bfc47ee	0.0076990044
241	0xbdc4809c	-0.09594843
242	0x3d9711fa	0.07376476
243	0xbc841f79	-0.016128289
244	0xbd8a9cb2	-0.067681685
245	0x3c552905	0.013010268
246	0xba2b852c	-0.00065429765
247	0x3d7d3397	0.061816778
248	0x3a4cb5b8	0.00078090606
249	0x3d29da91	0.041468207
250	0xbca7f2c6	-0.020501506
251	0x3d2f3b7c	0.042781338
252	0xbd8719ab	-0.06596693
253	0xbbf4f115	-0.0074750283
254	0x3d45bf69	0.048278246
255	0x3abeaae2	0.0014546777
