checkpoints_anomalies/model-20.pt (torch, 799377 bytes, 45 tensors)

encoder.conv1.weight f4 [8, 1, 3, 3]
-0.059093516 0.2484257 -0.4337775 -0.2862419 -0.2627917 -0.48532844 0.07545947 -0.1699265
-0.27350706 0.20023084 -0.13130638 1.2594968 -0.08932244 -0.07103495 0.1153011 0.18119977
-0.27129725 0.38129154 -0.23546253 -0.45245662 -0.29860148 0.24903831 -0.036633115 0.15205823
0.74247736 -0.096902534 0.1916094 -0.2796036 -0.28668693 -0.052727792 -0.3325224 -0.29287115
-0.067061186 -0.47195494 -0.35622206 0.3078863 0.27531424 0.08010955 -0.59334415 0.25006157
0.35099232 -0.34316272 0.29304177 -0.14107758 -0.2446905 -0.04675945 0.49667564 -0.36931586
-0.095200196 0.32954133 -0.17950864 0.35102373 0.33322436 -0.09568804 0.6259262 -0.059929363
-0.13746113 0.36926758 -0.028325249 -0.2301703 0.24782664 0.08499923 0.5399893 0.25316846
-0.34104803 0.25505438 1.1222408 0.21260072 0.30060902 0.5746472 0.13624434 -0.23511866
00000000: 0b0c 72bd 4f63 7e3e 1618 debe 4c8e 92be
00000010: a28c 86be f87c f8be 7f8a 9a3d 3601 2ebe
00000020: 1e09 8cbe 5009 4d3e 2e75 06be 3137 a13f
00000030: afee b6bd c67a 91bd fc22 ec3d 6f8c 393e
00000040: 79e7 8abe a538 c33e 171d 71be 65a8 e7be
00000050: 4be2 98be e603 7f3e 9b0c 16bd 27b5 1b3e
00000060: ff12 3e3f d674 c6bd 4135 443e 3428 8fbe
00000070: a1c8 92be 19f9 57bd 6040 aabe 35f3 95be
00000080: 6057 89bd 14a4 f1be bd62 b6be 46a3 9d3e
00000090: fdf5 8c3e 7a10 a43d 67e5 17bf 1208 803e
000000a0: 44b5 b33e 06b3 afbe 9209 963e a476 10be
000000b0: 2590 7abe d686 3fbd 454c fe3e f816 bdbe
000000c0: 52f8 c2bd a4b9 a83e 1dd1 37be 62b9 b33e
000000d0: 629c aa3e 17f8 c3bd b33c 203f 7e78 75bd
000000e0: 9cc2 0cbe a410 bd3e 5a0a e8bc c3b1 6bbe
000000f0: 44c6 7d3e 1414 ae3d bd3c 0a3f 4c9f 813e
00000100: d99d aebe 7d96 823e 96a5 8f3f 01b4 593e
00000110: 6de9 993e 141c 133f a383 0b3e f2c2 70be

encoder.conv1.bias f4 [8]
0.2896158 0.22107948 -0.005610233 -0.40540114 0.019256115 -0.067253664 0.38232338 0.15468085
00000000: 8648 943e a962 623e 0cd6 b7bb bd90 cfbe
00000010: 00bf 9d3c 4abc 89bd e4bf c33e a864 1e3e

encoder.conv2.weight f4 [16, 8, 3, 3]
-0.068966694 0.0074339965 0.28287667 -0.15047401 -0.14058906 0.10813312 -0.17450543 0.04945456
0.2393106 0.19733319 -0.29994762 -0.79614943 0.21288238 0.13520227 -0.40295705 0.3654991
0.21190771 -0.32079047 0.15214805 -0.03723208 0.10652614 0.30585924 -0.35690483 -0.30678445
0.4034816 -0.26448458 -0.14427316 -0.33717817 -0.051898006 0.23513395 -0.40427968 -0.12330598
0.28967533 -0.20732483 -0.20527141 0.24016307 -0.23970476 0.1280694 0.47481847 -0.08569833
-0.067935705 0.09582741 -0.37429476 -0.23120898 0.32900777 -0.27553314 -0.20630693 0.468791
0.037672866 -0.12707525 0.4132756 0.35182112 0.05659934 0.23291807 0.19430985 0.031554945
-0.14109527 0.25803244 0.1326576 -0.13980973 0.34758595 -0.08456447 -0.40647408 0.4284312
-0.10721066 -0.26152402 0.32658684 -0.14978842 -0.1401318 0.52716345 0.14686929 0.059889615
-0.013919425 0.044688955 0.011046651 -0.044650216 -0.0008461587 -0.090727925 0.307303 0.113844715
0.17166401 0.38849282 0.66777503 0.8359434 0.21480624 0.059320617 0.44967523 0.36443463
0.04681409 0.45902252 0.09386464 -0.42982888 -0.2411322 -0.093433574 -0.01384259 -0.03993495
0.39819586 -0.052248348 0.030927405 0.047887776 0.063859284 0.10982654 0.17542903 0.06859363
0.111390665 0.067715354 0.007107286 -0.30406937 -0.06617973 0.1263732 0.035101593 0.17319296
0.0938468 -0.0013505982 -0.12813653 0.029529871 0.17784432 0.03665432 -0.049129684 -0.40484923
-0.12251707 -0.049454726 0.09282107 0.86792326 0.061577585 -0.030812677 0.25490394 0.052755117
-0.06788304 0.21723877 -0.01361016 -0.041861586 0.51687396 0.20111369 -0.005238061 0.2881199
0.28928086 0.30391884 0.37593722 0.16476941 0.14856532 0.83401823 0.38620967 0.4592074
-0.16140163 0.11649973 0.33140135 0.22904502 0.5146963 0.31026646 0.031249192 -0.108637884
-0.38488054 0.1655933 -0.023051422 -0.6668928 -0.086885504 -0.13009603 -0.11198729 -0.010477692
0.30403727 0.6107418 -0.04253698 0.0067766863 0.058504287 0.06349504 -0.014235267 0.09672866
-0.14634155 -0.0009285193 0.1643207 -0.16189298 0.2250069 -0.15608342 0.26887032 0.44444427
0.06788309 0.14112496 0.12776034 -0.19522288 -0.07377513 -0.044567354 0.18760742 -0.18657675
-0.28148326 -0.1811581 -0.104066156 -0.18558413 -0.49031347 0.04500617 -0.19605659 -0.17951554
-0.4290961 0.11344635 -0.64423835 -0.26960158 0.108004145 0.07497037 0.26973626 0.15097447
-0.557408 -0.3097928 -0.66607684 -0.37311023 -0.34751567 -0.03812193 0.06000823 0.1519541
0.07310825 -0.19803676 0.027972888 0.13453251 0.01348224 0.11010907 0.104325995 0.059477028
0.15551046 0.404304 0.274863 0.23594771 0.56266636 0.47036433 -0.002864142 0.023566581
-0.10000455 -0.19671142 -0.13173674 -0.0002266069 -0.46011496 -0.1728121 -0.25869668 -0.05621657
0.12370911 0.19350104 0.025149195 -0.0010289244 -0.08154059 0.35945955 0.30793715 0.2409691
0.31362402 0.342942 -0.0042664954 0.05596341 0.6301791 0.14212087 0.10040264 0.43198523
0.14927413 -0.26585153 0.08846011 0.09035076 0.030266076 0.12789331 0.0975523 -0.08368936
00000000: 693e 8dbd e298 f33b 36d5 903e dc15 1abe
00000010: 94f6 0fbe e674 dd3d 8db1 32be dd90 4a3d
00000020: d70d 753e b611 4a3e bc92 99be 73d0 4bbf
00000030: d7fd 593e 7772 0a3e 6350 cebe b322 bb3e
00000040: 56fe 583e a63e a4be b3cc 1b3e aa80 18bd
00000050: 602a da3d 9599 9c3e 3bbc b6be da12 9dbe
00000060: 2495 ce3e 866a 87be 58bc 13be 9ea2 acbe
00000070: 0193 54bd f4c6 703e bffd cebe d887 fcbd
00000080: 5350 943e f64c 54be ab32 52be 4fed 753e
00000090: 2a75 75be a024 033e 681b f33e 9b82 afbd
000000a0: e021 8bbd 2941 c43d 90a3 bfbe 0cc2 6cbe
000000b0: b573 a83e ae12 8dbe 2042 53be 6005 f03e
000000c0: dd4e 1a3d 0420 02be dc98 d33e e621 b43e
000000d0: b6d4 673d 1382 6e3e 29f9 463e c23f 013d
000000e0: 477b 10be d41c 843e 65d7 073e 482a 0fbe
000000f0: c9f6 b13e 2330 adbd 5f1d d0be 565b db3e
00000100: 4391 dbbd 7ae6 85be 6436 a73e 2362 19be
00000110: b67e 0fbe 2ff4 063f e764 163e d04e 753d
00000120: 4d0e 64bc c40b 373d 03fd 343c 25e3 36bd
00000130: c0d0 5dba 90cf b9bd d256 9d3e 6b27 e93d
00000140: b1c8 2f3e 88e8 c63e 4ef3 2a3f 6300 563f
00000150: 2bf6 5b3e 2dfa 723d d53b e63e 2d97 ba3e
00000160: 22c0 3f3d 0005 eb3e 1b3c c03d 8812 dcbe
00000170: 5ceb 76be 1a5a bfbd 08cc 62bc d592 23bd
00000180: 54e0 cb3e 5d02 56bd 785b fd3c f925 443d
00000190: a8c8 823d bdec e03d aba3 333e d17a 8c3d
000001a0: ca20 e43d 59ae 8a3d 3ce4 e83b fbae 9bbe
000001b0: 3d89 87bd fa67 013e b0c6 0f3d 7f59 313e
000001c0: c032 c03d 8e06 b1ba 3936 03be a1e8 f13c
000001d0: d21c 363e d722 163d 353c 49bd 6648 cfbe
000001e0: 3bea fabd 0a91 4abd f918 be3d 3830 5e3f
000001f0: c738 7c3d de6a fcbc c582 823e c015 583d
00000200: 4306 8bbd d773 5e3e 26fd 5ebc 0e77 2bbd
00000210: da51 043f bff0 4d3e 0aa4 abbb 7484 933e
00000220: 9f1c 943e 409b 9b3e d87a c03e 50b9 283e
00000230: 8221 183e 3882 553f 46bd c53e 3b1d eb3e
00000240: 7846 25be 6997 ee3d 70ad a93e c78a 6a3e
00000250: 23c3 033f 3fdb 9e3e 4efe ff3c 8a7d debd
00000260: 100f c5be 4a91 293e 56d6 bcbc 7db9 2abf
00000270: 07f1 b1bd e537 05be 9859 e5bd a0aa 2bbc
00000280: c6aa 9b3e 9359 1c3f 423b 2ebd f70e de3b
00000290: 31a2 6f3d b009 823d 0a3b 69bc ad19 c63d
000002a0: 8fda 15be e067 73ba b043 283e 46c7 25be
000002b0: 3568 663e 55d4 1fbe 5fa9 893e 338e e33e
000002c0: 4a06 8b3d 1083 103e 9bd3 023e 82e8 47be
000002d0: 6a17 97bd 428c 36bd 291c 403e fa0d 3fbe
000002e0: 931e 90be 8281 39be a320 d5bd c409 3ebe
000002f0: 5e0a fbbe 6458 383d 0fc3 48be ecd2 37be
00000300: 7cb2 dbbe 8f56 e83d ceec 24bf 3809 8abe
00000310: 4731 dd3d 118a 993d df1a 8a3e 0d99 1a3e
00000320: 4ab2 0ebf 299d 9ebe 0384 2abf 4e08 bfbe
00000330: 93ed b1be be25 1cbd 31cb 753d db99 1b3e
00000340: c7b9 953d 26ca 4abe 6627 e53c e4c2 093e
00000350: 9de4 5c3c dd80 e13d dea8 d53d 2f9e 733d
00000360: 223e 1f3e ef00 cf3e d8ba 8c3e 479c 713e
00000370: e70a 103f 98d3 f03e 54b4 3bbb b40e c13c
00000380: 2fcf ccbd b86e 49be ffe5 06be 549d 6db9
00000390: 3094 ebbe a8f5 30be e473 84be 5943 66bd
000003a0: 345b fd3d 2325 463e af05 ce3c f9dc 86ba
000003b0: c1fe a6bd 150b b83e f0a9 9d3e 9bc0 763e
000003c0: 5493 a03e 1896 af3e f5cd 8bbb e339 653d
000003d0: 6b53 213f 2288 113e e69f cd3d 2b2d dd3e
000003e0: 51db 183e b11d 88be 932a b53d d209 b93d
000003f0: 90f0 f73c 77f6 023e 80c9 c73d 5465 abbd

encoder.conv2.bias f4 [16]
0.01531413 0.35521722 -0.0146438135 0.17563912 -0.3275133 0.12045038 0.77782434 -0.024875455
0.102906145 0.014360597 0.3772266 -0.26606762 0.0015414819 -0.10023307 0.13948703 -0.19100715
00000000: 1ee8 7a3c 08df b53e 9bec 6fbc beda 333e
00000010: d3af a7be b0ae f63d 7f1f 473f 9cc7 cbbc
00000020: 75c0 d23d b648 6b3c d823 c13e 043a 88be
00000030: 8d0b ca3a ff46 cdbd b0d5 0e3e 6197 43be

encoder.conv3.weight f4 [32, 16, 3, 3]
-0.21905348 -0.16456082 -0.018398972 -0.07716799 -0.32033014 -0.04960234 -0.2680596 -0.22714686
0.066211015 0.15042228 -0.06957401 -0.50919354 -0.021867584 -0.045132652 -0.0077490914 0.092313185
-0.069807515 0.1756663 0.10182119 0.013538051 0.052499417 -0.06106972 0.07514856 -0.000808056
-0.957074 -0.0048862267 -0.109756865 0.0069137327 0.10581203 0.24245425 -0.17832251 -0.10618164
-0.17525241 -0.95984066 -0.01309029 -0.25805783 0.3209626 0.35659915 0.0945584 -0.36820364
-0.13717173 -0.08670688 -0.6290628 -0.11288549 -0.334341 -0.005422706 -0.19779453 -0.17397179
-0.14850038 -0.070408806 0.115818694 -1.0394932 0.14750211 0.43685624 0.03680918 0.018978974
-0.053879168 -0.14476565 0.41170606 0.19311719 -0.13816132 0.32708046 -0.07191823 0.13646038
-0.19275557 0.01463576 -0.0062625394 0.1534617 0.23253332 -0.4175823 0.05695268 -0.3799501
0.046331614 -0.09535692 -0.24479453 -0.34774837 -0.2885237 -0.11106462 -0.2807195 0.18184634
0.17846829 -0.010401719 0.07937247 0.07693182 -0.51333976 -0.002395298 -0.008229999 -1.2493649
-0.040782064 -0.09519275 -0.18994804 -0.20615633 -0.16293731 -0.3298592 -0.30726415 0.24518268
-0.24830642 0.076419115 0.1583249 0.070513286 0.17933048 0.07239405 0.10367593 0.4594718
-0.17981796 -0.14839408 0.20593834 -0.10353917 -0.035732165 0.12931795 0.22357364 -0.13175023
-0.03629669 0.054346073 -0.11243643 -0.26492277 0.04367784 0.32610482 0.14202967 0.13161859
0.3717916 -0.42321935 -0.16656168 -0.108239375 -0.31689054 -0.44342574 0.039236978 0.19573581
0.3530761 -0.7268298 -0.042592283 0.072949365 -0.72993404 -0.22852015 -0.13241689 0.1368077
-0.075188 -0.42943835 -0.0655598 -0.22145046 0.025388451 -0.2536519 -0.28127626 0.110178
-0.39425558 -0.19742668 -0.20660542 -0.61110044 -0.13572343 0.09256369 -1.0046095 -0.3933847
-0.18756625 0.49777067 -0.6242817 0.08404648 -0.38343865 0.3395787 0.21492992 0.05970296
0.20142184 -0.27616492 0.117295764 0.3431207 0.12249119 0.3049799 0.21546507 -0.21167365
0.21514985 -0.32041425 -0.19403389 -0.38465008 0.30864182 0.18241689 0.048224915 -0.075420916
-0.06383149 -0.19182508 -0.094942205 -0.107500546 -0.19045731 -0.20112276 0.118306324 -0.5112208
-0.43285587 -0.278025 0.01300336 -0.34363288 -0.46413 0.04805848 0.1129348 0.037324287
0.018099207 0.08736038 0.28578117 -0.046003837 -0.62343675 -0.3009278 0.24676616 0.45569018
0.10177629 0.30533996 0.059158344 0.23680124 0.11979229 -0.13759442 -0.6368521 -0.28158098
-0.047355056 0.26091453 0.17549597 0.09062065 0.112532586 0.3127949 0.03777805 0.26116252
-0.3207862 0.15585421 -0.13741148 0.22494087 0.029743107 0.36035562 0.021875896 -0.16880704
-0.13929671 -0.11988777 0.19425426 0.21515837 0.2465772 0.064070314 -0.1413282 -0.100394115
-0.28063872 -0.24771623 0.41462603 0.13306996 -0.07366963 0.25631076 0.07554376 0.024117729
-0.01095101 0.3024692 -0.06396771 -0.23267551 0.33770597 0.20069674 0.4057318 -0.0012486542
-0.32776 0.048371006 -0.32340625 -0.16687803 0.4428831 -0.052755345 0.08550122 -0.05071261
00000000: 8e4f 60be a282 28be 71b9 96bc 400a 9ebd
00000010: 5002 a4be d32b 4bbd 1c3f 89be 3099 68be
00000020: a499 873d 4c08 1a3e d27c 8ebd 825a 02bf
00000030: a623 b3bc 04dd 38bd 17ec fdbb b20e bd3d
00000040: 3ef7 8ebd dee1 333e a187 d03d b4ce 5d3c
00000050: a109 573d 3e24 7abd 7de7 993d b8d3 53ba
00000060: cd02 75bf a41c a0bb 35c8 e0bd 988c e23b
00000070: fab3 d83d ed45 783e 2d9a 36be c275 d9bd
00000080: 5e75 33be 1eb8 75bf a878 56bc 2820 84be
00000090: 3655 a43e 2a94 b63e d6a7 c13d 3085 bcbe
000000a0: bf76 0cbe 6093 b1bd 420a 21bf 8230 e7bd
000000b0: be2e abbe f4b0 b1bb a68a 4abe a925 32be
000000c0: 7c10 18be 7e32 90bd 5a32 ed3d 1d0e 85bf
000000d0: cb0a 173e 9fab df3e 39c5 163d cb79 9b3c
000000e0: 67b0 5cbd 723d 14be 23cb d23e 83c0 453e
000000f0: 297a 0dbe 1777 a73e dd49 93bd 45bc 0b3e
00000100: b761 45be d4ca 6f3c fd35 cdbb 1025 1d3e
00000110: 371d 6e3e 59cd d5be 3747 693d d288 c2be
00000120: 38c6 3d3d 7d4a c3bd 6bab 7abe 130c b2be
00000130: 61b9 93be d975 e3bd 77ba 8fbe ed35 3a3e
00000140: 64c0 363e f96b 2abc 098e a23d 6e8e 9d3d
00000150: 3c6a 03bf 6ffa 1cbb 1ed7 06bc 30eb 9fbf
00000160: 180b 27bd 6bf4 c2bd bd81 42be a51a 53be
00000170: 0ad9 26be 4ee3 a8be ba51 9dbe 2b11 7b3e
00000180: 0a44 7ebe a081 9c3d ec1f 223e 4569 903d
00000190: 69a2 373e 5543 943d 0c54 d43d e33f eb3e
000001a0: 3322 38be 9ef4 17be 80e1 523e 580c d4bd
000001b0: e45b 12bd ed6b 043e 7df0 643e 88e9 06be
000001c0: d7ab 14bd fd99 5e3d 1245 e6bd f5a3 87be
000001d0: 89e7 323d 36f7 a63e 3a70 113e 06c7 063e
000001e0: 785b be3e 35b0 d8be 258f 2abe 9bac ddbd
000001f0: 7a3f a2be b308 e3be f4b6 203d f86e 483e
00000200: 64c6 b43e 8511 3abf 3f75 2ebd 7a66 953d
00000210: f5dc 3abf 3001 6abe 4b98 07be 5117 0c3e
00000220: 2bfc 99bd 58df dbbe 3744 86bd e9c3 62be
00000230: 71fb cf3c a9de 81be 7103 90be 01a5 e13d
00000240: dedb c9be 382a 4abe 5f90 53be 1471 1cbf
00000250: 15fb 0abe 0892 bd3d 0b97 80bf b869 c9be
00000260: 5e11 40be ccdb fe3e edd0 1fbf 9020 ac3d
00000270: 1252 c4be 42dd ad3e 9716 5c3e 178b 743d
00000280: 8741 4e3e 7d65 8dbe c338 f03d 84ad af3e
00000290: a9dc fa3d 5326 9c3e e0a2 5c3e fac0 58be
000002a0: 3e50 5c3e 560d a4be d2b0 46be dbf0 c4be
000002b0: 4d06 9e3e 7ecb 3a3e 7d87 453d 4876 9abd
000002c0: 16ba 82bd cb6d 44be 0f71 c2bd 3f29 dcbd
000002d0: 3e07 43be 20f3 4dbe 964a f23d 5edf 02bf
000002e0: 499f ddbe 4b59 8ebe 0b0c 553c a6f0 afbe
000002f0: 73a2 edbe f8d8 443d 5c4a e73d 5ae1 183d
00000300: ca44 943c 00ea b23d e951 923e 856e 3cbd
00000310: 8d99 1fbf 3513 9abe 45b0 7c3e 3950 e93e
00000320: 1670 d03d 8555 9c3e 0550 723d 067c 723e
00000330: a955 f53d 8de5 0cbe bd08 23bf 622b 90be
00000340: 60f7 41bd 9796 853e 37b5 333e 5297 b93d
00000350: 7c77 e63d a726 a03e 28bd 1a3d 18b7 853e
00000360: 173e a4be 3f98 1f3e 98b5 0cbe e656 663e
00000370: d1a7 f33c 8880 b83e 1435 b33c c1db 2cbe
00000380: cca3 0ebe b887 f5bd 97ea 463e 7a52 5c3e
00000390: bc7e 7c3e 4c37 833d 57b8 10be 6e9b cdbd
000003a0: e1af 8fbe 53a9 7dbe dd49 d43e 7e43 083e
000003b0: 1ae0 96bd 2a3b 833e b0b6 9a3d 8b92 c53c
000003c0: dd6b 33bc 3edd 9a3e 8101 83bd 7d42 6ebe
000003d0: cce7 ac3e 7283 4d3e 14bc cf3e e2a9 a3ba
000003e0: 29d0 a7be ad20 463d 8195 a5be 13e2 2abe
000003f0: 93c1 e23e fd15 58bd 431b af3d 07b8 4fbd

encoder.conv3.bias f4 [32]
0.010002121 0.22246018 -0.03018257 0.30587327 -0.4228331 -0.23086926 0.06978698 -0.04402228
-0.08450488 -0.2064467 0.26699215 0.0067228572 0.03792357 0.26039094 0.11305662 -0.36631438
0.413895 -0.16853586 -0.53767633 0.7884384 0.38689104 0.18782791 -0.012531955 -0.07547751
0.31322116 -0.047579963 -0.10180064 -0.036316674 0.5880944 -0.27243567 -0.020250928 -0.15719585
00000000: f0df 233c 9acc 633e 7041 f7bc 6c9b 9c3e
00000010: 957d d8be fe68 6cbe 7aec 8e3d b550 34bd
00000020: e510 adbd c466 53be 32b3 883e 6a4b dc3b
00000030: bf55 1b3d f651 853e 3b8a e73d 8f8d bbbe
00000040: 0cea d33e aa94 2cbe 28a5 09bf 19d7 493f
00000050: 9516 c63e f655 403e d452 4dbc f493 9abd
00000060: 865e a03e 35e3 42bd db7c d0bd cbc0 14bd
00000070: 5b8d 163f b07c 8bbe 46e5 a5bc f3f7 20be

encoder.batch_norm1.weight f4 [8]
0.84078777 1.9033295 0.45021215 0.8923169 0.53486884 0.8590195 1.2525477 1.9585109
00000000: de3d 573f 4da0 f33f 3582 e63e e16e 643f
00000010: 2aed 083f b4e8 5b3f 7c53 a03f 7cb0 fa3f

encoder.batch_norm1.bias f4 [8]
0.14816342 -0.27061695 0.15296012 0.09393908 0.025940234 0.030087445 -0.099550545 -0.2878856
00000000: 27b8 173e 4e8e 8abe 94a1 1c3e 2263 c03d
00000010: 9d80 d43c f279 f63c 28e1 cbbd be65 93be

encoder.batch_norm1.running_mean f4 [8]
-1.1649137 1.6113511 0.18422545 -2.0160418 -0.052650925 0.56830657 1.6319699 2.1582663
00000000: e41b 95bf c140 ce3f 99a5 3c3e d406 01c0
00000010: 7fa8 57bd 8a7c 113f 64e4 d03f 0921 0a40

encoder.batch_norm1.running_var f4 [8]
0.15003027 0.1408004 0.0350543 0.20297244 0.044796288 0.044549953 0.105861366 0.30885866
00000000: 89a1 193e fb2d 103e 1995 0f3d 02d8 4f3e
00000010: 507c 373d 037a 363d d8cd d83d b922 9e3e

encoder.batch_norm2.weight f4 [16]
1.1796288 1.2852979 0.7883981 1.0748919 1.0624554 1.0963116 0.79188305 0.7985451
1.202839 0.9852563 0.7425524 0.73860466 1.0962502 0.950624 0.9378802 1.1447859
00000000: 14fe 963f a484 a43f 75d4 493f 0f96 893f
00000010: 8afe 873f f053 8c3f d9b8 4a3f 746d 4c3f
00000020: a1f6 993f c239 7c3f ea17 3e3f 3215 3d3f
00000030: ed51 8c3f 185c 733f eb18 703f 5888 923f

encoder.batch_norm2.bias f4 [16]
0.1283582 -0.19520603 -0.2771614 0.52839565 -0.09401159 -0.14455526 -0.1721409 0.12771548
-0.09719185 0.19179733 0.5462532 0.17601766 0.06776985 -0.4084232 -0.121854365 0.35338926
00000000: 5570 033e 17e4 47be 19e8 8dbe f044 073f
00000010: 2689 c0bd 4b06 14be b445 30be d9c7 023e
00000020: 850c c7bd 8566 443e 40d7 0b3f f93d 343e
00000030: ebca 8a3d d81c d1be c88e f9bd 70ef b43e

encoder.batch_norm2.running_mean f4 [16]
0.18256411 4.297017 -0.399594 1.2745801 -1.2109853 -0.42067477 -0.120395236 0.27095217
-0.19408065 -1.4209623 -2.7731414 -1.2933906 -0.78282356 0.3952019 0.11082779 -1.1465995
00000000: 16f2 3a3e 2a81 8940 9697 ccbe 7125 a33f
00000010: 9101 9bbf af62 d7be c791 f6bd 3eba 8a3e
00000020: 14bd 46be 18e2 b5bf 267b 31c0 d38d a5bf
00000030: 2067 48bf e757 ca3e aef9 e23d c6c3 92bf

encoder.batch_norm2.running_var f4 [16]
3.2448306 1.55091 2.536324 7.2425966 1.9413078 2.4144552 2.3032284 1.5698442
2.3603508 7.277512 2.559052 3.2917707 1.9130152 2.5850413 2.842592 4.9404182
00000000: 4eab 4f40 3884 c63f 2253 2240 5ac3 e740
00000010: c67c f83f 6f86 1a40 1868 1340 a8f0 c83f
00000020: fd0f 1740 61e1 e840 82c7 2340 5fac 5240
00000030: afdd f43f 5171 2540 07ed 3540 e817 9e40

encoder.batch_norm3.weight f4 [32]
0.20080991 0.15939665 0.1395936 0.101370364 0.12156831 0.15821828 0.13634384 0.18771371
0.11601046 0.21667361 0.2190063 0.24232769 0.11543496 0.20413646 0.15516472 0.2545316
0.28661937 0.14819558 0.16052596 0.22238709 0.19032952 0.1306354 0.083782434 0.15652858
0.100853264 0.2033445 0.25352138 0.1855905 0.094962336 0.12749271 0.1326764 0.27972597
00000000: 1da1 4d3e e038 233e a0f1 0e3e 449b cf3d
00000010: cef8 f83d f903 223e b89d 0b3e 0638 403e
00000020: e496 ed3d b0df 5d3e 3043 603e c024 783e
00000030: 2a69 ec3d 2609 513e 80e3 1e3e f751 823e
00000040: c6bf 923e 95c0 173e eb60 243e 71b9 633e
00000050: bee5 423e 49c5 053e 2096 ab3d 0749 203e
00000060: 288c ce3d 8a39 503e 8ecd 813e 700b 3e3e
00000070: 9d7b c23d 738d 023e 52dc 073e 3e38 8f3e

encoder.batch_norm3.bias f4 [32]
-0.06500657 -0.11221649 -0.028015073 -0.01508194 -0.00805635 0.09167897 -0.05964257 -0.13185142
0.07363057 -0.15709761 -0.10050018 -0.16232637 0.04243934 -0.10321542 -0.10859701 -0.13917634
-0.20923032 0.064141236 -0.0685718 -0.13961108 -0.0077494765 -0.01686739 -0.0059315804 -0.06449555
0.0035865419 -0.12858869 -0.14264506 -0.07275721 -0.021689259 0.03812838 -0.050483458 -0.21060097
00000000: 2a22 85bd c2d1 e5bd de7f e5bc 3e1a 77bc
00000010: c8fe 03bc 2fc2 bb3d c44b 74bd 0f04 07be
00000020: a0cb 963d 32de 20be 0ad3 cdbd e238 26be
00000030: e0d4 2d3d 9b62 d3bd 1c68 debd 3e84 0ebe
00000040: 7940 56be 7b5c 833d 5f6f 8cbd 35f6 0ebe
00000050: 52ef fdbb 7b2d 8abc b45d c2bb 3e16 84bd
00000060: 300c 6b3b c1ac 03be 8c11 12be bb01 95bd
00000070: acad b1bc 812c 1c3d bec7 4ebd c8a7 57be

encoder.batch_norm3.running_mean f4 [32]
-4.411368 -0.61148876 -0.66397816 -0.82881206 2.9778495 0.88981265 -1.1225518 -1.3090616
-5.50724 0.87061906 -5.4387727 -3.6117165 -1.7659937 -0.3131941 1.1951897 0.48194122
1.1772461 1.0333756 -2.8294542 -1.9826648 -6.1212454 -0.5315368 0.031729996 -2.1122513
-0.12910363 -1.2422506 -4.3474197 -1.2073364 -0.3900907 -1.4364885 -1.4938422 -3.35827
00000000: ed29 8dc0 878a 1cbf 79fa 29bf 072d 54bf
00000010: 1695 3e40 c3ca 633f c7af 8fbf 558f a7bf
00000020: 4f3b b0c0 e4e0 5e3f 6d0a aec0 5d26 67c0
00000030: 150c e2bf fa5a a0be fafb 983f 00c1 f63e
00000040: 00b0 963f a745 843f c715 35c0 f6c7 fdbf
00000050: 3ee1 c3c0 cc12 08bf 50f7 013d 202f 07c0
00000060: be33 04be 1102 9fbf 101e 8bc0 008a 9abf
00000070: f8b9 c7be dbde b7bf 3936 bfbf e5ed 56c0

encoder.batch_norm3.running_var f4 [32]
10.727407 12.428955 14.60909 7.260722 13.774588 21.509296 12.772598 18.928194
8.062148 10.849715 19.94259 16.44706 13.203525 14.738298 16.44609 21.542894
21.100163 18.83455 19.060093 25.083538 11.014259 13.560138 4.739589 16.162693
10.317587 12.656843 20.5183 22.232689 5.6468635 14.438281 16.65429 20.155155
00000000: 76a3 2b41 00dd 4641 d5be 6941 d657 e840
00000010: b664 5c41 0a13 ac41 905c 4c41 f16c 9741
00000020: 8ffe 0041 6f98 2d41 6d8a 9f41 9493 8341
00000030: a341 5341 12d0 6b41 9891 8341 d957 ac41
00000040: 22cd a841 29ad 9641 127b 9841 16ab c841
00000050: 683a 3041 53f6 5841 b7aa 9740 324d 8141
00000060: d614 2541 6e82 4a41 7a25 a441 8cdc b141
00000070: 1bb3 b440 3303 6741 fc3b 8541 c23d a141

encoder.linear1.weight f4 [128, 512]
-0.04702682 -0.021513326 -0.036179643 0.010854755 -0.0058342814 -0.027700644 -0.0031325577 -0.023201866
-0.017472107 0.029579023 0.00436198 0.020145547 -0.01152506 -0.028261684 0.03836447 -0.012697428
-0.025124261 -0.028420053 -0.0042677284 -0.002671158 -0.0355492 0.0076388237 -0.004637307 0.022081044
-0.013823152 0.0043383897 -0.04174291 -0.03884899 -0.040111426 -0.015394149 -0.0044733756 0.030361645
-0.052853394 -0.005757121 0.013961207 -0.012628519 -0.023986164 -0.0058521708 0.020695101 -0.024894878
0.0012405996 0.0017200023 -0.035185505 -0.011491373 -0.018636333 -0.026285458 -0.022937633 -0.04139791
0.028832782 -0.009842928 0.005008533 -0.031178558 0.0014200895 -0.014443151 0.017125037 -0.028896157
-0.019832192 0.011674848 0.0032987723 -0.006235309 -0.028216887 -0.030142874 0.032593444 -0.029987369
0.016884714 -0.016009364 -0.0053048423 0.011134604 0.024801567 -0.0016321393 -0.03213499 -0.057606578
-0.04996107 -0.028076965 -0.0034011079 -0.016701503 -0.022056514 0.014273803 -0.04264704 0.004431906
0.014741035 -0.047565255 -0.03282747 -0.06492756 -0.049167685 0.03233422 -0.025104413 0.031840973
-0.027874198 -0.034149572 -0.0041976403 0.008479898 -0.004828516 -0.025228564 -0.024950685 -0.018187417
-0.020009657 -0.036307327 0.013461868 0.024125127 -0.024054859 0.033602245 0.0017044797 0.023698546
0.0020046036 -0.041629497 0.031121347 -0.02987638 -0.012547754 -0.036655795 0.039215695 0.019002272
-0.051043082 -0.027791377 0.03237074 -0.046207488 -0.0483574 0.023079276 0.009796821 -0.027098281
0.011953593 -0.0027110644 0.035748392 -0.038778283 0.034361105 0.024668291 -0.006812047 -0.003196345
0.021921055 -0.021868685 0.012609778 -0.04940767 0.027913585 -0.02939096 -0.019506712 0.010649138
-0.027704854 0.00061947847 0.004088018 0.02452282 0.009622877 0.006377136 -0.020376049 0.0006865132
-0.007865335 0.029184733 -0.03969695 0.0029012049 -0.032745015 0.026786188 -0.049378432 -0.018921515
-0.02364214 0.027717788 0.026060209 -0.038117528 -0.018181728 -0.03433982 0.0078780735 0.0056661763
-0.053705137 -0.009284665 -0.0024040036 -0.012408095 -0.045178216 0.017216956 -0.03594194 0.048999954
0.025709782 -0.002200258 -0.029223703 -0.019716144 0.0073016486 -0.009519999 0.026333801 0.019331196
0.014404673 -0.0049005984 -0.018616054 -0.03799872 0.0063570747 0.041058566 -0.04217178 0.025196344
-0.010292352 0.017210614 0.009534939 -0.02763511 -0.0040526977 -0.017636256 -0.034761764 -0.037077658
0.020415818 0.019794561 0.003443208 -0.046486877 0.047425207 0.00988474 -0.051388014 -0.012426673
-0.035855602 -0.03279458 0.03597824 -0.0017360329 -0.05049629 -0.0042276694 -0.013535489 0.020801034
-0.01112535 -0.0139812445 0.030892532 -0.025697147 -0.0029512919 0.030074134 0.0046887486 -0.04260045
-0.004416009 -0.03562725 -0.0036774746 0.0038350008 -0.033258375 0.025115592 -0.017586194 0.016430546
0.029773215 0.0063528363 0.018958962 -0.018050615 -0.013074301 0.0048654745 0.013208108 0.019660821
-0.003087783 0.024275448 0.003991805 -0.03969961 0.03218569 0.03211052 0.026445372 -0.013423959
0.029791169 -0.0015921327 -0.017066168 -0.054364342 -0.072177544 -0.017456712 0.0024750857 -0.024940291
0.00050473295 0.02774656 -0.03872425 0.017859304 -0.019174486 -0.0055775647 0.003234979 -0.040228542
00000000: 329f 40bd b73c b0bc 1b31 14bd 24d8 313c
00000010: 802d bfbb 76ec e2bc 994b 4dbb d711 bebc
00000020: aa21 8fbc b54f f23c f1ee 8e3b 4608 a53c
00000030: 9bd3 3cbc 0c85 e7bc 1024 1d3d e008 50bc
00000040: 65d1 cdbc 2cd1 e8bc 4dd8 8bbb 980e 2fbb
00000050: 0a9c 11bd 194f fa3b 8df4 97bb 4ee3 b43c
00000060: 807a 62bc 0d29 8e3b 9dfa 2abd 1e20 1fbd
00000070: e14b 24bd be37 7cbc 6595 92bb fcb8 f83c
00000080: cd7c 58bd 3ba6 bcbb 8cbd 643c d9e7 4ebc
00000090: a27e c4bc 91c3 bfbb c688 a93c 58f0 cbbc
000000a0: 9d9b a23a b371 e13a ad1e 10bd 5046 3cbc
000000b0: 39ab 98bc 9a54 d7bc b4e7 bbbc db90 29bd
000000c0: ba32 ec3c 3b44 21bc 9f1e a43b 2d6a ffbc
000000d0: 4c22 ba3a f7a2 6cbc ce49 8c3c a2b7 ecbc
000000e0: 1f77 a2bc dd47 3f3c 3730 583b 9051 ccbb
000000f0: 1a27 e7bc 30ee f6bc b480 053d 12a8 f5bc
00000100: d051 8a3c 1226 83bc 3ed4 adbb ea6d 363c
00000110: a82c cb3c 82ed d5ba fb9f 03bd e0f4 6bbd
00000120: fba3 4cbd aa01 e6bc 1fe5 5ebb 97d1 88bc
00000130: ddaf b4bc abdc 693c aaae 2ebd 8639 913b
00000140: 6284 713c c9d3 42bd 1976 06bd bef8 84bd
00000150: 0e64 49bd e370 043d c5a7 cdbc ae6b 023d
00000160: 6e58 e4bc 6ce0 0bbd 5c8c 89bb 45ef 0a3c
00000170: 8738 9ebb 22ac cebc 6165 ccbc c7fd 94bc
00000180: 4beb a3bc feb6 14bd 2b8f 5c3c 0fa2 c53c
00000190: b20e c5bc 82a2 093d d968 df3a 7423 c23c
000001a0: ab5f 033b b183 2abd 32f2 fe3c 4fbf f4bc
000001b0: 1895 4dbc 6324 16bd a3a0 203d a7aa 9b3c
000001c0: 8d12 51bd beaa e3bc 2e97 043d 1044 3dbd
000001d0: 6912 46bd c010 bd3c d882 203c 37fd ddbc
000001e0: 01d9 433c 1dac 31bb e86c 123d fad5 1ebd
000001f0: 3bbe 0c3d 2815 ca3c 9837 dfbb c579 51bb
00000200: c993 b33c f525 b3bc 3e99 4e3c b25f 4abd
00000210: 08ab e43c 4fc5 f0bc 8acc 9fbc b979 2e3c
00000220: 4af5 e2bc 7f64 223a c8f4 853b 15e4 c83c
00000230: 46a9 1d3c 4bf7 d03b aceb a6bc 1ff7 333a
00000240: 9bdd 00bc d214 ef3c 4599 22bd 2422 3e3b
00000250: a31f 06bd b56e db3c 0a41 4abd 4b01 9bbc
00000260: 29ad c1bc 6a10 e33c 387c d53c 2021 1cbd
00000270: d9f1 94bc e9a7 0cbd 0913 013c 55ab b93b
00000280: ebf9 5bbd b51e 18bc 7d8c 1dbb 534b 4bbc
00000290: cb0c 39bd 930a 8d3c db37 13bd 2db4 483d
000002a0: 529d d23c 3432 10bb 8c66 efbc c083 a1bc
000002b0: ab42 ef3b c5f9 1bbc fcb9 d73c 755c 9e3c
000002c0: 9401 6c3c 3395 a0bb b280 98bc 8ca4 1bbd
000002d0: 024f d03b 072d 283d 51bc 2cbd 9068 ce3c
000002e0: 41a1 28bc 46fd 8c3c 6f38 1c3c 0763 e2bc
000002f0: 7ecc 84bb e979 90bc 5a62 0ebd bede 17bd
00000300: 133f a73c 3428 a23c 72a7 613b 0669 3ebd
00000310: ef40 423d 9bf3 213c 3d7c 52bd 3f99 4bbc
00000320: 53dd 12bd 9c53 06bd eb5d 133d 998b e3ba
00000330: 33d5 4ebd 4388 8abb f5c3 5dbc ee66 aa3c
00000340: 1a47 36bc 9711 65bc 5612 fd3c d382 d2bc
00000350: 766a 41bb 085e f63c 13a4 993b cf7d 2ebd
00000360: 2bb4 90bb e1ed 11bd c901 71bb a354 7b3b
00000370: ef39 08bd 37bf cd3c ec10 90bc 5a99 863c
00000380: f5e6 f33c 742b d03b d34f 9b3c e2de 93bc
00000390: 9835 56bc 8f6e 9f3b d266 583c bb0f a13c
000003a0: 675c 4abb 4edd c63c b0cd 823b 0f9c 22bd
000003b0: 24d5 033d 5286 033d f7a3 d83c 2af0 5bbc
000003c0: 9c0c f43c 1caf d0ba 59ce 8bbc 25ad 5ebd
000003d0: d2d1 93bd 6101 8fbc 0c35 223b 954f ccbc
000003e0: 0e50 043a c14c e33c 529d 1ebd ad4d 923c
000003f0: d013 9dbc 01c4 b6bb f101 543b afc6 24bd

encoder.linear1.bias f4 [128]
0.0041370196 -0.06191894 -0.007734779 0.0126876 0.00074903097 -0.021301497 0.30758858 -0.056669544
-0.049502485 -0.03132629 -0.051300254 -0.06219297 -0.05301872 -0.04882659 -0.048362155 -0.04978208
-0.0008465858 -0.0523692 -0.008543623 -0.07639495 -0.079755954 -0.028551321 -0.05407365 -0.032951146
0.011965958 -0.025421869 -0.033952147 -0.0008128266 0.13795388 -0.05669352 -0.033591386 -0.03285543
-0.069494694 0.021865617 -0.04168011 -0.009782622 0.0069500855 0.32693705 0.0069983876 0.17762643
-0.019177873 0.09312851 0.0100516565 -0.028387489 -0.0017463944 0.02201833 -0.020016057 -0.01994468
-0.06553095 -0.06843829 -0.015053732 -0.020547854 -0.007325678 -0.008744771 -0.028244508 -0.019771704
-0.035648122 -0.05969859 -0.06934259 -0.007644336 0.31007287 -0.044342652 -0.04729575 -0.05155203
0.16805935 0.22668363 -0.06505595 -0.030575799 0.40153003 -0.0013237244 -0.021414898 -0.026409538
-0.021161783 -0.0028516161 -0.008298862 0.011531497 -0.026721826 0.46206456 0.002243561 0.009044976
-0.07872534 0.11058739 -0.033145007 0.011628051 -0.045891777 -0.032588255 0.08879776 -0.046937454
-0.034488186 -0.02796495 -0.044201642 -0.04024914 0.022249945 0.19428343 -0.03056933 -0.037579015
0.003007031 -0.019199682 -0.08363953 -0.012899756 0.26509646 -0.008534105 -0.006083032 -0.0126885045
0.008148496 -0.0072458154 -0.046749886 0.23652731 -0.019687332 -0.011324963 -0.020366982 -0.054877177
-0.033200588 -0.036691558 -0.0033681714 -0.030666273 -0.040637575 -0.006641197 0.15117055 0.00022377617
0.17968132 -0.010547023 0.018055718 -0.0063708313 -0.009940863 -0.02946078 -0.018819671 0.14384723
00000000: d68f 873b b79e 7dbd 0774 fdbb a7df 4f3c
00000010: 9e5a 443a 7a80 aebc 407c 9d3e 531e 68bd
00000020: 1ec3 4abd ff4f 00bd 3720 52bd 0ebe 7ebd
00000030: 282a 59bd 64fe 47bd 6517 46bd 4be8 4bbd
00000040: 69ed 5dba 1681 56bd 8dfa 0bbc f574 9cbd
00000050: 1757 a3bd 76e4 e9bc 557c 5dbd c8f7 06bd
00000060: de0c 443c 8641 d0bc 6811 0bbd df13 55ba
00000070: c843 0d3e 7737 68bd 1f97 09bd 6a93 06bd
00000080: 3c53 8ebd 861f b33c c3b8 2abd 4a47 20bc
00000090: 8bbd e33b 4b64 a73e bb52 e53b b4e3 353e
000000a0: ea1a 9dbc 29ba be3d b4af 243c e18c e8bc
000000b0: 46e7 e4ba c95f b43c b7f8 a3bc 0763 a3bc
000000c0: 1735 86bd 6029 8cbd eea3 76bc f953 a8bc
000000d0: 3e0c f0bb 3a46 0fbc 0761 e7bc 45f8 a1bc
000000e0: c403 12bd 8286 74bd 7d03 8ebd 577d fabb
000000f0: dfc1 9e3e a4a0 35bd 30b9 41bd 3928 53bd
00000100: c017 2c3e c11f 683e 0e3c 85bd 197a fabc
00000110: 5895 cd3e d280 adba 4c6e afbc d158 d8bc
00000120: 7a5b adbc 2ee2 3abb f3f7 07bc 9bee 3c3c
00000130: bbe7 dabc ba93 ec3e b508 133b 6131 143c
00000140: c03a a1bd a47b e23d 0fc3 07bd 9583 3e3c
00000150: 04f9 3bbd 437b 05bd 9adb b53d 7d41 40bd
00000160: 7c43 0dbd c016 e5bc c80c 35bd 48dc 24bd
00000170: 8445 b63c 3cf2 463e 886c fabc 74ec 19bd
00000180: 9c11 453b a748 9dbc 344b abbd 8059 53bc
00000190: b9ba 873e a1d2 0bbc 2c54 c7bb 72e3 4fbc
000001a0: 4581 053c 4e6e edbb cf7c 3fbd 3734 723e
000001b0: 5447 a1bc 568c 39bc a8d8 a6bc e4c6 60bd
000001c0: 57fd 07bd e349 16bd 8abc 5cbb d637 fbbc
000001d0: 9673 26bd 669e d9bb 74cc 1a3e 75a5 6a39
000001e0: 61fe 373e 6ccd 2cbc 96e9 933c 68c2 d0bb
000001f0: 00df 22bc bc57 f1bc b62b 9abc b04c 133e

encoder.linear_mu.weight f4 [128, 128]
0.056372877 0.010701341 -0.077376254 0.07034457 0.0771883 0.037209004 0.060636245 0.055975977
-0.0591565 -0.0016139026 -0.06473055 0.067091696 -0.029504342 -0.053205498 0.009110885 0.010932096
-0.037922706 0.013173591 -0.0877446 0.009678845 0.061041802 -0.09701299 -0.0720711 0.048910778
0.063866474 -0.050268777 0.058120497 -0.0800835 0.049125426 -0.0644426 -0.06670954 0.051026814
0.016047973 -0.08436706 0.067628704 -0.03678696 -0.037759446 0.03437357 -0.032354258 0.0517787
-0.070260175 3.219858e-05 -0.014858911 0.05003914 0.04609793 -0.013609276 -0.03239075 -0.039790343
0.051750347 0.003037811 0.0044131074 0.021399679 -0.0071101515 0.008450553 0.021139687 -0.04487505
-0.00023715362 0.054033473 0.058317684 -0.011229411 0.047665525 0.051810917 0.03978384 0.05985495
-0.024011083 0.011936524 -0.101219125 0.054427728 -0.022709914 0.04030143 -0.03550527 0.041043825
0.012601369 0.07499688 -0.029545717 -0.05616459 0.05965604 -0.014917834 0.023635048 -0.08781529
0.016782954 -0.03158332 -0.043396562 -0.050782118 0.08875062 -0.08357357 -0.00067038636 0.040016998
-0.04213865 0.03415325 0.020494282 -0.0022765235 0.061996106 0.0017177451 0.035994068 -0.03678764
0.049486257 -0.06252627 -0.13549879 -0.030470425 -0.039675757 0.007177347 0.058543462 0.09027706
-0.0009966345 -0.029214384 -0.07621441 -0.042704057 -0.034300752 -0.042934433 -0.0016931324 -0.07649298
0.08302521 -0.01197227 0.06694489 0.038213976 -0.003480583 -0.016273513 -0.012456138 -0.054108247
-0.0807582 0.008849671 0.061419155 0.060750384 0.0070110373 -0.07262562 0.08533326 0.0011910032
0.034610253 -0.019707978 -0.022657905 0.005281327 0.076808125 0.0027169175 0.0394961 -0.039545354
-0.0283411 0.06382376 0.0005859362 -0.04510447 -0.028947977 -0.02057202 0.01677091 -0.019551897
-0.062377434 -0.045721225 0.033681683 -0.0361643 0.037030004 0.024484288 -0.020155998 0.005539466
0.022980712 0.0014483789 0.042122737 4.771561e-05 0.03410836 -0.02402062 0.04756366 -0.047663223
0.017572656 -0.058285523 0.03542955 -0.036407094 0.0044346144 0.03051468 0.083195806 0.034392454
0.0019622706 -0.0021622695 0.04843437 -0.049368482 -0.050879218 0.08242723 0.035071816 0.0368238
-2.1527816e-05 0.0038802472 -0.050743252 -0.09830408 0.042956598 -0.027428424 -0.0031229483 0.044656344
0.004434785 -0.026781568 0.0229978 -0.051470365 0.03897365 -0.010067892 -0.097514026 -0.05984051
-0.019160083 0.014124119 -0.04872241 0.039981153 -0.016953336 0.016850412 0.026733642 0.014376238
0.0037634757 0.043694567 -0.045336213 0.03826539 -0.020664485 -0.017352244 0.02245544 0.072249174
-0.06334933 -0.008922741 -0.0043797474 -0.015304616 0.02785225 0.035196796 -0.0083810985 -0.039337534
0.05786007 0.03569037 0.07190015 0.14084508 -0.032255277 -0.0025246218 0.016551903 -0.0424732
0.06951697 -0.054846495 -0.15133573 0.0123779215 -0.026247688 -0.04553981 0.024017898 -0.05350138
0.038089752 0.0009376389 -0.011076869 -0.03904193 0.047107205 0.06090072 0.095454715 0.050912414
0.085369006 -0.039468635 -0.05441393 0.014150904 -0.01733073 -0.009674714 -0.0036005503 0.027248265
-0.07196598 -0.0058024456 0.088472374 0.07219569 -0.081806146 0.073763065 0.01346347 0.008160162
00000000: 3fe7 663d ad54 2f3c 7177 9ebd d010 903d
00000010: e614 9e3d 7868 183d b65d 783d 1147 653d
00000020: 164e 72bd 9689 d3ba 7391 84bd 5f67 893d
00000030: 17b3 f1bc 02ee 59bd d245 153c 891c 333c
00000040: d754 1bbd 0cd6 573c 71b3 b3bd 0594 1e3c
00000050: f806 7a3d bfae c6bd 039a 93bd ab56 483d
00000060: 6dcc 823d a2e6 4dbd c20f 6e3d d102 a4bd
00000070: be37 493d 7bfa 83bd 039f 88bd 7e01 513d
00000080: 0a77 833c a3c8 acbd eb80 8a3d ecad 16bd
00000090: a6a9 1abd 4dcb 0c3d e685 04bd e715 543d
000000a0: 91e4 8fbd f60c 0738 ca72 73bc d7f5 4c3d
000000b0: 2fd1 3c3d 71f9 5ebc 2aac 04bd 33fb 22bd
000000c0: 2cf8 533d 0316 473b d49b 903b 614e af3c
000000d0: 46fc e8bb 3074 0a3c 232d ad3c e7ce 37bd
000000e0: 71ac 78b9 3452 5d3d 86de 6e3d 90fb 37bc
000000f0: ed3c 433d af37 543d 61f4 223d 772a 753d
00000100: e4b2 c4bc 6991 433c f94b cfbd 9cef 5e3d
00000110: 240a babc 1d13 253d f96d 11bd 921d 283d
00000120: f975 4e3c f797 993d dc09 f2bc d70c 66bd
00000130: e459 743d ee69 74bc 4a9e c13c 81d8 b3bd
00000140: 687c 893c 835d 01bd 98c0 31bd e900 50bd
00000150: e3c2 b53d 9f28 abbd debc 2fba dde8 233d
00000160: 9499 2cbd 47e4 0b3d a0e3 a73c ba31 15bb
00000170: a1ef 7d3d f625 e13a 846e 133d a3ae 16bd
00000180: 1ab2 4a3d c60d 80bd 32c0 0abe 1d9d f9bc
00000190: 0c83 22bd f32f eb3b 45cb 6f3d 2ee3 b83d
000001a0: 81a1 82ba 0153 efbc 4d16 9cbd 73ea 2ebd
000001b0: f27e 0cbd 04dc 2fbd 19ec ddba 5aa8 9cbd
000001c0: 1f09 aa3d 5727 44bc 671a 893d 4286 1c3d
000001d0: 7e1a 64bb 0850 85bc d414 4cbc 9ca0 5dbd
000001e0: 8e64 a5bd 36fe 103c a792 7b3d 65d5 783d
000001f0: d8bc e53b bebc 94bd 34c3 ae3d 701b 9c3a
00000200: 7bc3 0d3d a072 a1bc 129d b9bc fb0e ad3b
00000210: 944d 9d3d 500e 323b aac6 213d 4ffa 21bd
00000220: 982b e8bc 08b6 823d 8399 193a 77bf 38bd
00000230: 4f24 edbc a786 a8bc 2663 893c 4d2b a0bc
00000240: 7b7f 7fbd 2e46 3bbd cef5 093d 0421 14bd
00000250: c6ac 173d 4693 c83c 311e a5bc 6984 b53b
00000260: 0c42 bc3c 88d7 bd3a e488 2c3d 3f22 4838
00000270: 35b5 0b3d e4c6 c4bc 1dd2 423d 833a 43bd
00000280: 88f4 8f3c cdbc 6ebd 931e 113d 9b1f 15bd
00000290: 3e50 913b ecf9 f93c 9062 aa3d 1adf 0c3d
000002a0: 7099 003b ddb4 0dbb 1e63 463d 9b36 4abd
000002b0: ba66 50bd 9ccf a83d 77a7 0f3d 8ed4 163d
000002c0: a296 b4b7 bf4b 7e3b 28d8 4fbd a653 c9bd
000002d0: 42f3 2f3d 93b1 e0bc 61aa 4cbb 92e9 363d
000002e0: ac51 913b 0565 dbbc e265 bc3c 97d2 52bd
000002f0: d6a2 1f3d cdf3 24bc 6fb5 c7bd 531b 75bd
00000300: 9bf5 9cbc d968 673c 2691 47bd 47c3 233d
00000310: b9e1 8abc e009 8a3c 8300 db3c 508a 6b3c
00000320: a5a4 763b 13f9 323d 77b2 39bd 2bbc 1c3d
00000330: 9148 a9bc 4b26 8ebc 79f4 b73c 60f7 933d
00000340: 4bbd 81bd b030 12bc fc83 8fbb 36c0 7abc
00000350: 672a e43c 842a 103d e050 09bc 6520 21bd
00000360: aefe 6c3d 1130 123d 6340 933d b139 103e
00000370: 1c1e 04bd 2074 25bb db97 873c 61f8 2dbd
00000380: ea5e 8e3d b8a6 60bd c1f7 1abe c4cc 4a3c
00000390: 6405 d7bc f487 3abd 2fc1 c43c 4324 5bbd
000003a0: 0004 1c3d e2cb 753a c27b 35bc 6eea 1fbd
000003b0: 7cf3 403d 0973 793d c37d c33d 8989 503d
000003c0: f2d5 ae3d dda9 21bd 24e1 5ebd 31d9 673c
000003d0: 2df9 8dbc b182 1ebc 36f7 6bbb c137 df3c
000003e0: e662 93bd 7122 bebb 0131 b53d 55db 933d
000003f0: fb89 a7bd 1711 973d e395 5c3c 33b2 053c

encoder.linear_mu.bias f4 [128]
-0.0051066633 0.0121897245 -0.012239562 0.00795856 9.640154e-05 -0.029828932 -0.008476051 -0.029303387
-0.0009178065 -0.009450779 -7.214385e-05 -0.0030809685 0.005459709 0.012047085 -0.0025913448 0.008209097
-0.02823691 -0.001182892 0.01771177 -0.01538411 0.0054210285 0.008876004 0.00792497 -0.010230866
-0.017915934 0.0043804133 0.029726475 -0.004146543 -0.08855057 0.025114976 -0.006193649 -0.003969671
0.019596668 0.015105697 -0.011077339 -0.002142667 -0.0077262907 -0.017806862 0.0042360467 -0.0014527957
0.0026933642 0.023059912 -0.0075987894 0.0041868053 0.007012443 -0.0040865024 -0.0043438002 -0.0023927768
-0.005050101 -0.016058763 -0.008783867 0.06780129 -0.010369169 0.020532656 0.0018900831 0.0060947146
-0.0016321515 0.013589219 -0.018528217 0.0058195777 -0.013918295 0.016637724 -0.0014118244 0.0007527734
0.013164932 -0.002846669 0.01284434 -0.0031077093 0.0077363085 0.009123297 0.010500604 0.029454786
-0.0024237284 0.0061817407 0.008062561 -0.1386874 0.0015056788 -0.026904214 0.0044454574 0.3515745
0.00021368227 -0.0014866515 0.00957714 0.009588472 -0.011726941 -0.010813783 0.009437124 0.0069575054
0.028002506 -0.007905221 0.0023005742 -0.07757083 0.009236142 -0.0015109888 0.0046567083 -0.0029040144
-0.012367166 -0.00619785 -0.013258308 -0.0018151412 0.00593641 -0.0079255365 -0.02636823 -0.009596454
0.00040390246 0.33863378 -0.06434504 -0.0063324203 -0.0040153833 -0.006246322 0.039354708 -0.0071185366
0.0049994667 0.005113 0.009770061 0.09528418 0.033374045 0.00048066897 -0.005399167 0.0002587274
-0.008149246 0.0020788882 -0.0016531593 0.0076304763 -0.0049606175 -0.08099716 -0.0023788866 -0.0044402257
00000000: cc55 a7bb 69b7 473c 7288 48bc 9f64 023c
00000010: 2f2b ca38 ce5b f4bc 22df 0abc a80d f0bc
00000020: f498 70ba 71d7 1abc ef4b 97b8 13ea 49bb
00000030: 5ce7 b23b 2361 453c 8dd3 29bb 737f 063c
00000040: 1851 e7bc 450b 9bba 4618 913c a20d 7cbc
00000050: e2a2 b13b a96c 113c bcd7 013c 5d9f 27bc
00000060: 70c4 92bc 9289 8f3b f084 f33c b9df 87bb
00000070: 005a b5bd ecbd cd3c 18f4 cabb 0414 82bb
00000080: 3189 a03c e37d 773c ba7d 35bc fd6b 0cbb
00000090: d32c fdbb b2df 91bc 89ce 8a3b bc6b beba
000000a0: 2783 303b 24e8 bc3c 44ff f8bb 7831 893b
000000b0: a3c8 e53b 11e8 85bb 7056 8ebb 22d0 1cbb
000000c0: 517b a5bb ab8d 83bc 35ea 0fbc 67db 8a3d
000000d0: 72e3 29bc 1a34 a83c aabc f73a 2cb6 c73b
000000e0: ebed d5ba 51a5 5e3c 7dc8 97bc 28b2 be3b
000000f0: 8f09 64bc d64b 883c f70c b9ba c555 453a
00000100: bab1 573c 2e8f 3abb 1171 523c b6aa 4bbb
00000110: dc80 fd3b e279 153c ba0a 2c3c 2a4b f13c
00000120: 6ad7 1ebb 3390 ca3b d518 043c 1204 0ebe
00000130: 325a c53a 3a66 dcbc 33ab 913b 9301 b43e
00000140: e60f 6039 bfdb c2ba 70e9 1c3c f718 1d3c
00000150: 5b22 40bc 4b2c 31bc 2b9e 1a3c c9fb e33b
00000160: 8365 e53c e684 01bc 3bc5 163b 75dd 9ebd
00000170: 3053 173c 5f0c c6ba 4d97 983b 4751 3ebb
00000180: a79f 4abc 5617 cbbb 6039 59bc 08ea edba
00000190: 3786 c23b 1cda 01bc 3002 d8bc 723a 1dbc
000001a0: dfc2 d339 6861 ad3e 55c7 83bd 3180 cfbb
000001b0: 7a93 83bb f2ad ccbb 6732 213d 9d42 e9bb
000001c0: 91d2 a33b f48a a73b 9b12 203c 5a24 c33d
000001d0: 39b3 083d 4c02 fc39 7feb b0bb cea5 8739
000001e0: 6a84 05bc f53d 083b d2ae d8ba 1309 fa3b
000001f0: ad8c a2bb d7e1 a5bd 18e7 1bbb 507f 91bb

encoder.linear_sigma.weight f4 [128, 128]
0.0018325176 0.07073045 -0.06789647 -0.035965063 0.0011389172 -0.025550738 0.001088147 -0.05368613
0.044642437 -0.05478478 0.008719032 -0.096987695 0.014804152 0.033573586 -0.019052802 0.0827648
0.027114779 0.06896534 -0.09601697 0.029703544 0.027662152 -0.021072257 0.070847355 0.028504107
0.055043526 0.020073382 0.07335897 -0.003889405 5.8839243e-05 -8.32218e-05 -0.039687663 0.033424105
-0.04908455 -0.036730792 0.06161227 0.019308584 -0.093785346 -0.0034860754 0.0608849 -0.0008304277
0.041550215 -0.0013778678 -0.017670546 -0.0053535164 0.03285852 -0.041802283 -0.06559395 -0.05637599
-0.025136784 0.012750566 -0.014951203 -0.008056912 -0.039367232 0.046637766 0.020212507 -0.02859044
-0.023160052 -0.010011253 0.058614872 -0.08474757 -0.0029121728 -0.06903214 0.0039062575 0.05236451
0.001244074 0.00039165613 0.04318243 0.06199142 -0.0029306011 -0.023071986 -0.025211582 0.0035233344
-0.031260293 -0.030375343 -0.04817435 0.025275359 0.009637893 -0.00048216368 -0.013305552 0.021951744
-0.011955643 -0.00055526564 0.06339963 0.019000418 0.017087482 0.06579668 -0.00023216626 -0.04793735
0.006923613 -0.0638587 -0.11342613 -0.020947276 -0.071676694 -0.00031219394 -0.015643803 -0.04629635
0.00468746 -0.055255227 -0.075997606 -0.07627924 0.0019718802 0.05346121 0.05934978 -0.028230332
0.07913504 0.07762432 0.015732968 -0.0010686982 -0.021915663 -0.06894856 -0.03707009 0.059425194
-0.04084799 -0.05415334 -0.0006936043 -0.04757422 -0.07297604 0.03529861 0.001437194 -0.09748123
0.0010921452 0.068504244 -0.032221958 -0.04776335 -0.001004088 0.06564978 -0.026340844 0.0001332055
0.031804983 -0.012659524 -0.018406121 -0.01277699 -0.05799685 0.0059294878 0.0008685695 -0.013994755
-0.045115966 -0.022462493 0.06621911 0.074605174 -0.10569382 0.06626698 0.025047777 -0.0090680905
-0.052038215 -0.0843578 0.04442878 0.0002690709 -0.03196105 -0.0073796837 0.016520431 0.042553235
0.0560719 -0.054304175 -0.039398126 -0.052943762 -0.0024177697 0.049189672 0.0055736676 0.07077835
0.043081284 -0.08425377 -0.071007855 -0.07156257 -0.04315223 -6.834924e-05 -0.08383803 0.00047284132
0.07796666 -0.0026750076 0.01672019 -0.05839977 0.081672445 -0.06884545 0.07329505 -0.082270645
-0.08111437 0.042304173 0.0062950565 0.06808155 0.004205427 0.028596494 -0.022438897 0.01967442
-0.0078007136 0.01991715 -0.06550745 0.04472654 -0.0010032733 -0.018712174 -0.029575033 0.025737917
0.00047988104 0.0004090293 -0.011604503 0.05243233 -5.2103846e-05 -0.05112033 0.013044179 0.026854174
-0.07622346 0.062497012 -0.048412554 -0.00055036 0.021859668 -0.0021043685 0.067387454 -0.057781268
0.024141401 -0.00020627122 -0.083164036 -0.07643882 -0.09600327 0.006359313 0.000794109 0.052554257
0.010219282 -0.06538207 0.0112767145 -0.021023411 0.015162873 -0.004159761 -0.037901316 0.011734186
-0.0016479365 -0.07812458 -0.05806237 -0.01134954 0.0014850303 0.035291333 0.01510646 -0.08068305
0.078569874 -0.011698171 0.047020696 0.0015054618 -0.09678876 -0.029417697 -0.07022484 -0.06884073
0.0076990044 -0.09594843 0.07376476 -0.016128289 -0.067681685 0.013010268 0.00066335575 0.030415466
-0.00042110146 0.041468207 -0.020501506 0.042781338 -0.06596693 -0.0074750283 0.048278246 -0.0014083077
00000000: 1631 f03a 20db 903d 4e0d 8bbd 1a50 13bd
00000010: b847 953a c84f d1bc 28a0 8e3a fde5 5bbd
00000020: fdda 363d 0166 60bd 45da 0e3c 7ca1 c6bd
00000030: 1d8d 723c 7584 093d 9f14 9cbc 9780 a93d
00000040: d01f de3c b33d 8d3d 8ca4 c4bd d954 f33c
00000050: bd9b e23c ba9f acbc 6b18 913d 7281 e93c
00000060: 5275 613d ef70 a43c 3a3d 963d 63e5 7ebb
00000070: 28ca 7638 5d87 aeb8 888f 22bd b7e7 083d
00000080: e20c 49bd 0773 16bd 265d 7c3d 092d 9e3c
00000090: 8812 c0bd a476 64bb 7262 793d 0fb1 59ba
000000a0: 8f30 2a3d 9299 b4ba d2c1 90bc 8d6c afbb
000000b0: a896 063d df38 2bbd 1f56 86bd 83ea 66bd
000000c0: a8eb cdbc c0e7 503c e4f5 74bc 2301 04bc
000000d0: 893f 21bd 3e07 3f3d b394 a53c 8036 eabc
000000e0: 26ba bdbc 3d06 24bc 2616 703d 2290 adbd
000000f0: 27da 3ebb b960 8dbd 1000 803b 2b7c 563d
00000100: 3210 a33a 3257 cd39 0fe0 303d b7ea 7d3d
00000110: 540f 40bb 7601 bdbc 8588 cebc bee7 663b
00000120: cb0a 00bd b6d5 f8bc 7852 45bd 450e cf3c
00000130: 41e8 1d3c eaca fcb9 88ff 59bc 25d4 b33c
00000140: 9ae1 43bc 3f8f 11ba aad7 813d c4a6 9b3c
00000150: 0cfb 8b3c 69c0 863d a871 73b9 f459 44bd
00000160: 7adf e23b 5ac8 82bd f54b e8bd 9f99 abbc
00000170: 3bcb 92bd f6ad a3b9 6f27 80bc 3ea1 3dbd
00000180: 4499 993b 4e53 62bd a2a4 9bbd 4a38 9cbd
00000190: a93a 013b 24fa 5a3d c118 733d 4c43 e7bc
000001a0: 8d11 a23d 80f9 9e3d 6de2 803c 9013 8cba
000001b0: 7a88 b3bc e734 8dbd cfd6 17bd d567 733d
000001c0: 3950 27bd e5cf 5dbd ffd2 35ba 2fdd 42bd
000001d0: 7674 95bd 4695 103d 3a60 bc3a 3da4 c7bd
000001e0: 5026 8f3a f44b 8c3d 2cfb 03bd 81a3 43bd
000001f0: 9a9b 83ba 6473 863d c1c8 d7bc 14ad 0b39
00000200: f145 023d e469 4fbc 6fc8 96bc 9556 51bc
00000210: 1b8e 6dbd 264c c23b b6b0 633a 424a 65bc
00000220: 85cb 38bd 4303 b8bc e29d 873d 99ca 983d
00000230: 0076 d8bd fbb6 873d ff30 cd3c 5492 14bc
00000240: 0626 55bd c8c3 acbd f4fa 353d 1612 8d39
00000250: 97e9 02bd 46d1 f1bb db55 873c 4d4c 2e3d
00000260: a6ab 653d 0e6e 5ebd ee5f 21bd 8fdb 58bd
00000270: 7273 1ebb 1c7b 493d 50a3 b63b 3df4 903d
00000280: 0076 303d 3e8d acbd 916c 91bd 668f 92bd
00000290: 65c0 30bd b856 8fb8 46b3 abbd b0e7 f739
000002a0: fcac 9f3d 2e4f 2fbb c8f8 883c 9934 6fbd
000002b0: e243 a73d d8fe 8cbd b71b 963d 837d a8bd
000002c0: 4a1f a6bd 2447 2d3d c346 ce3b 576e 8b3d
000002d0: aecd 893b 3243 ea3c c7d1 b7bc 402c a13c
000002e0: 219d ffbb 4a29 a33c c528 86bd 2d33 373d
000002f0: 4480 83ba 464a 99bc 5747 f2bc 53d8 d23c
00000300: 8b98 fb39 fc72 d639 d020 3ebc 48c3 563d
00000310: 148a 5ab8 8d63 51bd 41b7 553c 49fd db3c
00000320: 0c1b 9cbd defc 7f3d 3e4c 46bd 0946 10ba
00000330: 0c13 b33c 72e9 09bb 6f02 8a3d 0dac 6cbd
00000340: 30c4 c53c 824a 58b9 e851 aabd f58b 9cbd
00000350: 5d9d c4bd c961 d03b c12b 503a 2243 573d
00000360: c66e 273c 09e7 85bd f8c1 383c 4a39 acbc
00000370: b36d 783c 9b4e 88bb 693e 1bbd be40 403c
00000380: 93ff d7ba c8ff 9fbd cfd2 6dbd 6cf3 39bc
00000390: 59a5 c23a a58d 103d 1681 773c 283d a5bd
000003a0: 3ee9 a03d afa9 3fbc c698 403d ea52 c53a
000003b0: 2f39 c6bd 62fd f0bc 0ad2 8fbd 5efc 8cbd
000003c0: ee47 fc3b 9c80 c4bd fa11 973d 791f 84bc
000003d0: b29c 8abd 0529 553c 0de5 2d3a db29 f93c
000003e0: 48c7 dcb9 91da 293d c6f2 a7bc 7c3b 2f3d
000003f0: ab19 87bd 15f1 f4bb 69bf 453d f796 b8ba

encoder.linear_sigma.bias f4 [128]
-0.34034604 -0.34574908 -0.34441188 -0.34532547 -0.3448765 -0.3453412 -0.34612727 0.03811073
-0.3444063 -0.34404525 -0.342917 -0.34683573 -0.34485722 -0.34548518 -0.3456499 -0.3442703
-0.32583296 -0.34278032 -0.1274834 -0.34520268 -0.3446234 -0.34545752 -0.34594724 -0.3459013
-0.14431874 -0.34606832 -0.34677225 -0.34514713 -0.35035437 -0.3466565 -0.34436098 -0.3479095
-0.34501216 -0.3453487 -0.3447422 -0.343822 -0.34450275 -0.34291485 -0.3448495 -0.34578812
-0.34357822 -0.34700713 -0.34487608 -0.33228698 -0.3436607 -0.34629533 -0.34658056 -0.34372857
-0.34579015 -0.34250805 -0.3443047 -0.06506825 -0.34418836 -0.34300244 -0.34538886 -0.3444265
-0.34431136 -0.3424545 -0.34651685 -0.34581026 -0.3434169 -0.34542358 -0.34356216 -0.34431446
-0.34501785 -0.3433991 -0.34271476 -0.14452013 -0.34676638 -0.34427246 -0.34361494 -0.3445193
-0.34367213 -0.34569806 -0.346097 -0.25560626 -0.34775108 -0.34349993 -0.3424516 -0.82290256
-0.34395063 -0.3427459 -0.34596673 -0.3430359 -0.34406778 -0.34283933 -0.34444472 -0.346607
-0.34736994 -0.34471196 -0.34570956 -0.29574516 -0.34478414 -0.3433893 -0.34145296 -0.34593728
-0.34731695 -0.34552163 -0.34350303 -0.34641927 -0.34624565 -0.34496507 -0.4934478 -0.3465655
-0.34458292 -0.35957876 -0.31126082 -0.32340297 -0.34277532 -0.34299502 -0.8587921 -0.3425493
-0.3462728 -0.34516144 -0.34708437 -0.19499387 -0.09616059 -0.34563398 -0.34254065 -0.34137905
-0.3448609 -0.34236354 -0.34200424 -0.3479516 -0.34807292 -0.18803278 -0.34425348 -0.34427723
00000000: d641 aebe 0606 b1be c156 b0be 80ce b0be
00000010: a793 b0be 90d0 b0be 9837 b1be ff19 1c3d
00000020: 0656 b0be b326 b0be d192 afbe 7494 b1be
00000030: 2091 b0be 6fe3 b0be 06f9 b0be 3244 b0be
00000040: 94d3 a6be e780 afbe 028b 02be 68be b0be
00000050: 7a72 b0be cfdf b0be ff1f b1be fa19 b1be
00000060: 4bc8 13be de2f b1be 228c b1be 20b7 b0be
00000070: a661 b3be f67c b1be 1550 b0be 3221 b2be
00000080: 6fa5 b0be 8bd1 b0be 0d82 b0be 7009 b0be
00000090: aa62 b0be 8992 afbe 1d90 b0be 240b b1be
000000a0: 7ce9 afbe ebaa b1be 9993 b0be 8521 aabe
000000b0: 4cf4 afbe 9f4d b1be 0273 b1be 31fd afbe
000000c0: 680b b1be 375d afbe b548 b0be 8142 85bd
000000d0: 7539 b0be 049e afbe cfd6 b0be ac58 b0be
000000e0: 9449 b0be 3256 afbe a86a b1be 0b0e b1be
000000f0: 57d4 afbe 5cdb b0be 61e7 afbe fc49 b0be
00000100: 2ea6 b0be 02d2 afbe 4f78 afbe 16fd 13be
00000110: 5d8b b1be 7b44 b0be 4cee afbe d564 b0be
00000120: cbf5 afbe 56ff b0be a033 b1be d3de 82be
00000130: 6e0c b2be 39df afbe d155 afbe bea9 52bf
00000140: 4c1a b0be 647c afbe 8d22 b1be 67a2 afbe
00000150: a729 b0be a388 afbe 0f5b b0be 7976 b1be
00000160: 79da b1be 167e b0be d800 b1be e96b 97be
00000170: 8c87 b0be b9d0 afbe ecd2 aebe b11e b1be
00000180: 87d3 b1be 36e8 b0be a1df afbe de5d b1be
00000190: 1c47 b1be 439f b0be 31a5 fcbe 0971 b1be
000001a0: 2c6d b0be b51a b8be 945d 9fbe 1395 a5be
000001b0: 3f80 afbe 0b9d afbe cdd9 5bbf 9f62 afbe
000001c0: ab4a b1be 00b9 b0be 0bb5 b1be 79ac 47be
000001d0: d8ef c4bd f0f6 b0be 7d61 afbe 3cc9 aebe
000001e0: 9c91 b0be 464a afbe 2e1b afbe b626 b2be
000001f0: 9d36 b2be aa8b 40be fe41 b0be 1b45 b0be
