checkpoints_anomalies/model-90.pt (torch, 834417 bytes, 45 tensors)

encoder.conv1.weight f4 [8, 1, 3, 3]
00000000: 4702 65be 0750 273f 89bf 0ebf 536e 1fbf
00000010: c932 043f 475f 89bf c234 96bd 1cbd 49bc
00000020: 0e52 96be b607 a93e e7c8 e8be 316d 2740
00000030: 0999 c73d 2345 b4be c75f b53e d6e9 603e
00000040: 08c6 2abf b685 0d3f f2a9 c7be 13d7 07bf
00000050: d1b3 58bf 39d9 5fbe fbc0 123d 99fc a63e
00000060: ed04 863f 0c68 d13e d9a1 e03e 0731 afbe
00000070: 896a 35bf fc2f 90be 6b5a dfbe 020e ffbe
00000080: 9a77 88bd a40d 6fbf 1f40 1dbf b10b d23e
00000090: b007 c33e 696f c3bd 88e6 33bf 83c0 a13e
000000a0: 972f c23e fbdc 0abf a9b1 7d3f b926 863d
000000b0: 2334 35bf 92fe 60be ddb3 7f3f d624 f9be
000000c0: 495b 7fbe 4a98 1f3f 1b48 09bf e849 013f
000000d0: c8d8 243f b5b3 15be 894b e03f 2399 303e
000000e0: ee81 77bd d167 de3d 626d bc3e a5a6 b0be
000000f0: aca1 3f3e 6479 04be a692 5c3f cd9f 9f3e
00000100: ccd7 18bf 0e8d 213f da8a 903f 6006 7e3e
00000110: 555c 583e 7cac d13f 7c5c d33e 3a9c a4be
-0.2236415 0.6535649 -0.5576101 -0.62277716 0.5163999 -1.0732201 -0.073342815 -0.012313154
-0.29359478 0.33013695 -0.45465776 2.6160395 0.09745986 -0.35208997 0.35424635 0.21964201
-0.6670842 0.5528215 -0.38996845 -0.5306255 -0.8464938 -0.21860208 0.03582857 0.32614592
1.0470253 0.40899694 0.4387348 -0.34217092 -0.70865685 -0.2816161 -0.4362367 -0.49815375
-0.06663437 -0.9338019 -0.61425966 0.41024545 0.38091803 -0.09542734 -0.7027364 0.31592187
0.37926933 -0.5424344 0.9909921 0.065503545 -0.7078268 -0.21972111 0.99883825 -0.48660916
-0.24937166 0.6234175 -0.5362565 0.50503397 0.6439328 -0.14619334 1.7523052 0.17245917
-0.060426645 0.10859645 0.36802202 -0.3450214 0.18714017 -0.12936932 0.8616127 0.31176606
-0.5970428 0.6310586 1.1292374 0.2480712 0.21128972 1.6380763 0.41281497 -0.3215044

encoder.conv1.bias f4 [8]
00000000: 9d7c ca3f 9bfd 603e 5a5e a0bc a480 d13d
00000010: 41a4 023f feda c43e c2f1 bb3f 279b 1ebe
1.5819279 0.21971743 -0.01957624 0.102296144 0.5103188 0.38448328 1.4683154 -0.15488873

encoder.conv2.weight f4 [16, 8, 3, 3]
00000000: f412 3cbe 52df bdbc 817e 163f c14b b5be
00000010: fdff 82bd 4334 003f bb66 a9bd 6612 193d
00000020: 06b5 343e ab5e 233e 2b5d 03bf 6c76 9cbf
00000030: 73b4 be3e 4b25 1c3e 087b c9be dbbd 883f
00000040: bce5 683e fa7d 31be 45b5 a73d 1549 94be
00000050: 7d85 663e 8f84 c7bb c001 90bf 3476 43bf
00000060: 18f0 093f 3a1a 09bf fd0a 6cbf f881 0cbf
00000070: 16d6 993d ab8c 3a3f f298 1abf dabe 1a3e
00000080: 7def 443f 6875 1bbf 7e0c 8dbe e52c 323f
00000090: fb47 fdbe 42e5 3dbe f9db 303f 50f6 f0be
000000a0: 31be 16bf 7865 3f3e c14f afbd 3145 e1be
000000b0: 5b44 023f 2e0c 70bf 56e6 1cbf 7aea 903f
000000c0: 4f4a a6be 18d6 c6bd 80cd 6f3f f703 143f
000000d0: 8bfd 9e3d 47bf c93e 9eaa bb3e 10c0 2bbe
000000e0: d4f3 88be 94b9 eb3e 0f12 9fbd 0158 b4bc
000000f0: 4f9a 803f 1130 9abd 85ce 7dbe b690 463f
00000100: 3ff6 d6bd 5d2f 0fbf 4817 2e3f c0a6 19bd
00000110: 284d 9b3c b3ae a13f 09ed d63e b10c cc3e
00000120: aaf8 ebbd 25ed c93c 6e4d 283e 6a36 63bd
00000130: 4139 e43d 3ab3 753e 3ae6 183f 4b9f 783d
00000140: bc4d 533e eb02 323f 7d23 0f3f 8c68 b63f
00000150: 8d50 8a3f 636a 8f3e 7a66 983f 167c 233f
00000160: 7531 d7be 2031 713f da4d 583d 463a 82bf
00000170: bb85 cbbe 565a a23d 2dde fd3d 7bbf 38be
00000180: 2ab0 103f 720e d23d 732e 253e 0c11 25be
00000190: 5708 5c3e 3f45 333e 3c83 613e eeba bf3e
000001a0: 2f38 b33e 80fd a1bb f0b7 ea3e c440 44bf
000001b0: a9e4 22be 9eee 853e 5005 413f 2b8e 0c3f
000001c0: 5a0a 003f 7a6b fcbc 875f 813e 137a 26be
000001d0: 21af 613e 315d 0bbf 0b0e dcbc 7910 b83e
000001e0: 7ca3 9abf 577d d3bd 23d5 dcbe 790f 8b3f
000001f0: 79d8 e33e bdc2 fcbe 2021 f63e f27a 38be
00000200: b8bb 953d 59f4 b23e 849a b6be e916 e2be
00000210: 096f 1e3f 13c9 8abd 81c1 363f cbc7 da3e
00000220: 0edf 093c 9b99 dc3f bfbf 493f f829 023f
00000230: 21c8 af3f 711e 983f 5757 ac3f 5fe5 a13f
00000240: 44e4 6abe 33fd 723e 3e6b 123f d3c8 663f
00000250: 9f0b a73e 13e5 b63e 3e99 c53e 6758 14bc
00000260: 153c 23bf 6d3c 113e cdc6 6fbe 23aa b1bf
00000270: 2862 0c3f 290e 4fbe c6e4 35be f918 dabe
00000280: 444f 203e cd16 333f 6822 20bf feea 9b3d
00000290: 1972 303f 388a 033f 01a8 32bc d6b4 363f
000002a0: 615b 3e3d 11d8 243e 121e 4d3e 688e 12bf
000002b0: b246 60be fc89 89be ec71 c73e dcbe f83e
000002c0: 93d6 863e c310 8d3e c674 53be 1806 16bf
000002d0: b905 cb3d e79e afbe e036 82be bacc f3be
000002e0: 0f24 06bf 2331 4cbf 58bb 96be 2704 323e
000002f0: e0c8 84bc dd98 bfbe a562 fcbe a4d3 83be
00000300: 990f 57bf 223b 863d d119 8cbf 572b 8f3d
00000310: c0e2 cd3e 06df 263f de94 563f 494c 1fbe
00000320: 217a 0ac0 dc28 5cbf 3e66 1ac0 ac8f 86bf
00000330: 2146 3bbf c757 10be 3437 be3e 45f7 e43e
00000340: bd67 953e 6d2e 45bf 3a2e 013f 6521 9f3e
00000350: 6eb0 b3be f76e 53be e17f 71be 9f31 0f3f
00000360: b756 503f 1169 ba3e 2857 be3e 2131 9d3f
00000370: a96f 1a3f 79d9 373f cc4d 283e 5d84 e03d
00000380: 496e dbbe 62ee 44be 9ae9 253d cebb 943e
00000390: 3101 b13e 32e7 c23d 7a69 80bb 8f44 c9be
000003a0: 7fbb 14bb 3838 5b3f 1d3c 343e 2a6f cb3e
000003b0: 6f73 33be 5e60 0e3f 5602 013f 4719 c93e
000003c0: 2709 f53e 1cdb b33e 864c 49bd a79d f33e
000003d0: a0de c43f fa8b 133f cd8c 3b3e 2f00 803f
000003e0: 0b6a 133f 2e5d f5be 4888 453e b4e5 c1bc
000003f0: 0d10 0dbf 532b fdbe dad1 8c3e a22a 2abf
-0.18366605 -0.023177776 0.5878678 -0.35409358 -0.06396482 0.50079745 -0.082715474 0.03737106
0.1764718 0.15954082 -0.5131404 -1.222364 0.37247047 0.15248601 -0.39351678 1.0682939
0.22743887 -0.17333212 0.08188871 -0.28962007 0.22511859 -0.0060888003 -1.1250534 -0.7635224
0.5388198 -0.53555644 -0.92204267 -0.54885817 0.07511537 0.7287089 -0.60389626 0.15111867
0.7692793 -0.6072602 -0.27548593 0.69599754 -0.4946898 -0.18544486 0.6908565 -0.47062922
-0.5888396 0.18691051 -0.08560134 -0.439981 0.5088555 -0.93768585 -0.61288965 1.1321557
-0.32478568 -0.09708804 0.93672943 0.5781855 0.07763203 0.39403746 0.36653608 -0.16772485
-0.26748526 0.46040022 -0.07767116 -0.02201462 1.0047091 -0.07528699 -0.24785812 0.7756456
-0.104961865 -0.55931646 0.68004274 -0.03751254 0.01895769 1.2631439 0.41977718 0.39853433
-0.11522038 0.024649212 0.16435787 -0.055471815 0.11143733 0.23994151 0.597263 0.06069879
0.20635122 0.695357 0.55913526 1.4250655 1.0805832 0.28010854 1.1906273 0.63861215
-0.4202992 0.94215584 0.05280862 -1.0174034 -0.39750466 0.079273865 0.12395892 -0.18041794
0.56518805 0.102566615 0.16131 -0.16119784 0.21487556 0.17506884 0.22022718 0.37447304
0.35003802 -0.0049435496 0.45843458 -0.76661325 -0.1590754 0.26158613 0.7539873 0.5490443
0.50015795 -0.030812968 0.25268194 -0.16257505 0.22039463 -0.54439074 -0.026862165 0.35950068
-1.2081141 -0.10326641 -0.4313136 1.0864097 0.44501093 -0.49367324 0.48072147 -0.1801565
0.07311195 0.34952047 -0.3566476 -0.44158104 0.61888176 -0.06776633 0.71389014 0.42730555
0.008414997 1.7234377 0.78808206 0.5084529 1.373295 1.188429 1.3464154 1.2648124
-0.22938639 0.237294 0.5719489 0.90150183 0.32626054 0.35721645 0.38593477 -0.00905428
-0.6376355 0.14183207 -0.2341568 -1.3880047 0.54837275 -0.20220245 -0.17763051 -0.42597178
0.15655237 0.69956666 -0.625525 0.076131806 0.689241 0.5138278 -0.010904313 0.71369684
0.046473864 0.16098048 0.20031002 -0.57248545 -0.21901968 -0.26863086 0.38954103 0.48583114
0.26335582 0.2755185 -0.20650014 -0.5860305 0.09913201 -0.3430092 -0.2543249 -0.4761713
-0.5239877 -0.79762477 -0.29439807 0.17384396 -0.016209066 -0.37421313 -0.4929401 -0.25747406
-0.84008175 0.065542474 -1.0945379 0.06990688 0.4021206 0.65184057 0.83820903 -0.15556444
-2.1637042 -0.85999846 -2.4124904 -1.0512595 -0.73153883 -0.14095984 0.37151492 0.44719902
0.2918071 -0.77023965 0.5046116 0.31080166 -0.35095543 -0.20647798 -0.23583938 0.5593509
0.81382316 0.36408284 0.3717587 1.2280618 0.6032663 0.7181621 0.16435927 0.10962746
-0.42857578 -0.19231561 0.040505983 0.29049534 0.3457122 0.09516753 -0.003918824 -0.3931012
-0.0022694764 0.8563266 0.17601056 0.3973325 -0.17524503 0.55615795 0.5039419 0.39277098
0.47858545 0.35128105 -0.049145244 0.47581217 1.538044 0.5763546 0.1831543 1.0000056
0.57583684 -0.47922653 0.19290268 -0.023669101 -0.55102617 -0.49447116 0.27503854 -0.664713

encoder.conv2.bias f4 [16]
00000000: 3f4d 1cbd 277d c83d e449 f0be 1804 cf3e
00000010: 62d6 523e b849 d13d 87a4 9c3e d422 6abf
00000020: 675f dabe a76a 16bf 2831 863f 8e38 b1be
00000030: e9d6 dabd 915b 403e 8c23 d2be 2976 87be
-0.038159605 0.09789496 -0.46931374 0.4043281 0.20589593 0.10219139 0.30594274 -0.91459394
-0.4265091 -0.5875649 1.0483751 -0.3461346 -0.10685522 0.1878493 -0.41042745 -0.26457337

encoder.conv3.weight f4 [32, 16, 3, 3]
00000000: 6587 babe fa43 d7be 23d4 8abe 869e f03d
00000010: c0c8 bdbe b587 dcbe 2094 debe 06fb 48be
00000020: e8de 2f3e 7697 003f 5ce4 ebbe c1e5 80bf
00000030: ce20 b43d 868a 4e3e 2f83 0d3b a186 ad3e
00000040: 0351 b93d 6b4d 9c3e 33d2 9a3e af8b 8c3e
00000050: 4899 153f f4fe 1ebe 4601 1b3d babe bc3d
00000060: 03e0 f0bf c354 d13e bc55 e6be baec eb3d
00000070: 59f9 973c e0d2 243e 2051 7d3e 0506 6c3e
00000080: 6e98 6fbe 1054 d0bf 8585 5f3c 1aec 49bf
00000090: cf77 473f d69c 753f 6669 c23e 19e7 293e
000000a0: fbb0 5d3e ea5b 51be 6015 53bf 6a3f 62be
000000b0: efa8 76bf e6a6 c3bd 369a 65be 03bd 16bf
000000c0: 417e 26be cfe8 38be 2aa0 5c3e f290 b4bf
000000d0: 9097 0f3f cdf8 373f fb37 9cbd ff48 d7be
000000e0: 9dea 28bd 4f01 16bf 233a 063f 96db 2e3f
000000f0: 4bd3 613e bba4 0e3f 3c17 243e a69e 8a3e
00000100: dc3f 02be 3e2d 7bbc f382 8b3e be27 563f
00000110: ba0c f93e 16b9 23bf 0303 babd 74c1 a3bf
00000120: 91ba 993e 2531 a9bd 97ac 1bbf 6939 3dbf
00000130: c0ce 54bf d33e 86be 94d2 5fbf 7625 903e
00000140: c573 f33e c9a9 733e a5c0 3e3e 297a f13d
00000150: ac70 ffbe 129e b63c 1477 e8bd eadf 2fc0
00000160: 09e0 cd3c 1188 46be d960 48bc e140 febe
00000170: 2f96 bbbe d0ec 1bbf cf95 80bf 9a55 233d
00000180: 7eb7 36bf fff9 143c 44d4 38bd 8965 e53c
00000190: a74c ac3d e101 ca3e 3de7 2e3e c2f5 483f
000001a0: ad44 07bf fb8e 68bf 730e 2a3e 3d15 a3bf
000001b0: 18fd edbd 24c2 223d 639b 383e aeda 783e
000001c0: 9b7d e3be e15d f0be 3f22 dcbe 138a 00bf
000001d0: 052a cf3b d0cc d43e beb5 3a3c 2ad9 39be
000001e0: b247 e83e cccb 05bf d790 0abf fb73 9d3e
000001f0: 5a9b 38bf 2fd3 33bf c70d 30be 9126 043e
00000200: f706 253f 4df1 38bf 1ba5 863d 55c2 613e
00000210: 74ba 6dbf 68f1 cb3d 487f afbe 2c7d 413f
00000220: 1306 0dbd 23c4 45bf 9085 b1be 66a8 0bbf
00000230: 901f 463e cc2c 3cbf f0ac 4abf 97d1 ecbe
00000240: 4318 77bf da9c afbe 6e8b b0be b041 b7bf
00000250: 88d2 18bf 3945 55bd 4fed 93bf e40c 48bf
00000260: ec3e 6cbd 4a13 c23e 90e2 4fbf 9c68 e93e
00000270: 1b1c 1bbf 2ae3 223f 1fc7 c73e c1d3 583e
00000280: cd33 5a3f 6b4a d9be a816 7f3e 0e30 7a3f
00000290: 1bdc ad3e e1a9 a93f 67d1 123f 0a8f 02be
000002a0: 758d 503e a1a2 6cbf eb61 95bf f687 e6be
000002b0: 9009 c93e 30db eb3d 868a 2b3f d720 cd3c
000002c0: c5e0 823d 98bb 9cbe 2446 adbd 71dd b7be
000002d0: 1445 43bf e412 dfbe 13aa 623e d1d8 17bf
000002e0: 69d8 a6bf cf30 11bf 8e9a eebe 882b e3bf
000002f0: 5aa7 1fbf 75ab a33d c661 be3d 10e7 613e
00000300: ecee 02be 9f46 4e3e 01ef 253f 2ea2 c2bd
00000310: 8f6e a3bf 32a0 50bd d47e 4c3f b5f7 5d3f
00000320: 113a a53e 4760 c93e d800 eb3e 219c 2d3f
00000330: a2c1 cf3e 4797 d63e e271 c0bf 3328 2b3e
00000340: ed8f 65be 3e8e 963e d4a3 583f 27ff 143f
00000350: 9e6a 1b3e ad69 eebd 1549 543d 5921 3bbe
00000360: 1a29 573e eb91 023f 4db6 0dbe 6fe5 283f
00000370: c38d 07bd 9440 b93e d04f 9d3e 7385 233d
00000380: 09d8 203f ba14 42be 6e72 c43e 5e9a 2d3d
00000390: dd86 1f3e dedf 833d bd70 a13d 3ed5 e2bd
000003a0: d127 31bf 1341 3ebf 309b 1f3e 1520 98be
000003b0: d068 a33e adf2 933e 6028 ac3d 6cc3 dabe
000003c0: f02d 393e 454e c03d d84d 86bf 0a61 61bf
000003d0: 7a46 c4bd ef76 353e 9d78 a93e 6b45 7bbe
000003e0: 42c8 a1bf 8a48 a8be 6bb4 3cbf 8174 64bd
000003f0: 334d bc3e b37b 73be d7bc 0f3f 1131 393d
-0.36431423 -0.4204405 -0.27114972 0.11748986 -0.37067223 -0.43072286 -0.43472385 -0.19627008
0.17174876 0.5023111 -0.46072662 -1.0070115 0.087953195 0.2017003 0.0021593084 0.33891776
0.09048655 0.30527815 0.30238494 0.2745032 0.58437014 -0.15526944 0.03784301 0.09216066
-1.8818363 0.4088498 -0.44987285 0.115197614 0.018551515 0.16096067 0.24737978 0.23049171
-0.23397991 -1.6275654 0.013642673 -0.7887589 0.7791719 0.9594244 0.37971038 0.16592063
0.21649544 -0.20445219 -0.8245449 -0.22094503 -0.9635152 -0.09553318 -0.22422108 -0.5888216
-0.162591 -0.1805756 0.21545473 -1.4106734 0.5609064 0.71864015 -0.07627865 -0.4204788
-0.04123937 -0.58595747 0.5243246 0.6830381 0.22053258 0.5572011 0.16024488 0.27074164
-0.12719673 -0.015330611 0.27248344 0.8365439 0.48642522 -0.63954294 -0.09082606 -1.2793412
0.3002515 -0.08261327 -0.60810226 -0.73915726 -0.83127975 -0.26219806 -0.8743069 0.2815358
0.47549263 0.23795237 0.18628176 0.11790878 -0.4989065 0.02229217 -0.11350837 -2.7480416
0.025131242 -0.19387843 -0.0122301215 -0.49658874 -0.36638018 -0.6090822 -1.0045718 0.039876558
-0.71373737 0.009092807 -0.045124307 0.028002517 0.08413058 0.39454558 0.17080398 0.78499997
-0.52839166 -0.9084317 0.16607074 -1.2740856 -0.116205394 0.03973593 0.18028025 0.2430217
-0.44431767 -0.46946624 -0.42994878 -0.50210685 0.006322148 0.4156251 0.01139587 -0.18149248
0.453672 -0.52264094 -0.5412726 0.3075255 -0.7211205 -0.70244116 -0.17192756 0.12905337
0.6446375 -0.72243196 0.0657446 0.22046788 -0.9286263 0.09958154 -0.34276795 0.7558162
-0.03442962 -0.77252406 -0.34672213 -0.5455383 0.19347978 -0.73505855 -0.7917013 -0.46253654
-0.96521395 -0.34299356 -0.34481376 -1.4316921 -0.59696245 -0.05206797 -1.1556796 -0.7814467
-0.057677194 0.3790534 -0.8120508 0.45587623 -0.6058976 0.63627875 0.39019105 0.21174528
0.8523529 -0.4243959 0.24910986 0.97729576 0.3395699 1.3254968 0.5735077 -0.12749878
0.20366462 -0.9243565 -1.1670507 -0.45025605 0.39265108 0.11516416 0.67008245 0.025040073
0.06390528 -0.30611873 -0.08460644 -0.35911134 -0.7627728 -0.435691 0.2213519 -0.5931521
-1.3034793 -0.567151 -0.4660229 -1.774766 -0.62364733 0.07991687 0.092959926 0.220608
-0.12786454 0.20144127 0.64817816 -0.095035896 -1.2768115 -0.050934024 0.79881024 0.86706096
0.32270864 0.39331266 0.4589908 0.6781636 0.40577418 0.4191229 -1.5034754 0.16714554
-0.22418185 0.29405397 0.8462498 0.5820183 0.1517739 -0.1164125 0.05182751 -0.1827444
0.21011773 0.51003903 -0.13839073 0.6597509 -0.03309418 0.36182082 0.30724955 0.03992219
0.62829643 -0.18953219 0.38368553 0.042383544 0.1557879 0.06439184 0.07882831 -0.11075829
-0.6920138 -0.74318045 0.15586543 -0.29711977 0.31915903 0.28896084 0.084061384 -0.4272722
0.1808393 0.09389929 -1.0492506 -0.88038695 -0.09583755 0.17721151 0.33099833 -0.245382
-1.2639239 -0.32867843 -0.73712796 -0.05577517 0.36777648 -0.23777656 0.5614752 0.04521281

encoder.conv3.bias f4 [32]
00000000: 742b 27bd a6fb c1be 6e61 833c 4070 bd3e
00000010: 71be 89bf 5374 58be f41f 5f3e 07db e9bd
00000020: 4dee fa3d af3f 4b3c b6a2 dd3e 4833 2bbf
00000030: 23cb dfbe 36ab b23e b08c ae3d 1b89 923e
00000040: 63d5 133f e627 2b3e 99da 82bf 63af 563f
00000050: 31d3 203f f99f 603f 9c60 ca3c b90f 333f
00000060: bd7f 61bc 41fc 89be 3ef8 07be 0a09 7fbe
00000070: 1f97 ab3f 0181 cbbc acd3 163f 69b2 c0be
-0.040812925 -0.37887305 0.016037669 0.36999702 -1.0761243 -0.21138124 0.21789533 -0.11418729
0.122524835 0.01240532 0.432882 -0.66875124 -0.4370967 0.3489625 0.08522928 0.28620228
0.5774748 0.16714439 -1.0222961 0.8386137 0.6282225 0.877441 0.02470427 0.69945866
-0.013763365 -0.26950267 -0.1327829 -0.24905792 1.3405493 -0.024841787 0.58916736 -0.37636116

encoder.batch_norm1.weight f4 [8]
00000000: cf9c 2a3f 833d 1740 5c29 bb3e fa9e 693f
00000010: e35d d33e 24b8 323f 3e42 ef3f f192 1a40
0.6664552 2.3631294 0.36554992 0.91258204 0.41282567 0.69812226 1.869209 2.4152186

encoder.batch_norm1.bias f4 [8]
00000000: bb1d 5f3e b701 17bf f8d1 5a3e 446c 713e
00000010: ea7c fa3d 8651 3d3d 077d b6be 1364 04bf
0.21788685 -0.5898699 0.21369159 0.23576456 0.12230857 0.046220325 -0.35642263 -0.517152

encoder.batch_norm1.running_mean f4 [8]
00000000: 48c7 d53d a8fc 2540 c27c 4e3e 2369 3cc0
00000010: 429f 143f 23cf af3f 4608 8140 d7e9 4340
0.104384005 2.593546 0.20164779 -2.943917 0.5805551 1.3735088 4.03226 3.0611475

encoder.batch_norm1.running_var f4 [8]
00000000: aafb 1d3e 8540 ec3e a2d0 013e 9f93 383f
00000010: 066a 113e c889 f13d 8efb e93e 9a82 503f
0.15428033 0.46142974 0.12677243 0.7210025 0.14200601 0.11793858 0.45699733 0.8144928

encoder.batch_norm2.weight f4 [16]
00000000: 05ba 973f 1171 f23f af65 6a3f c706 ab3f
00000010: f0c5 7f3f 2fe7 913f 202e 693f 82bd 5f3f
00000020: 091f b93f 477d 9b3f 2f15 4b3f b815 513f
00000030: 6301 783f a601 563f 581c 853f 733f 9b3f
1.1853644 1.8940755 0.91561407 1.3361443 0.99911404 1.1398677 0.91086006 0.8739854
1.4462596 1.2147607 0.793292 0.81673765 0.96877116 0.83596265 1.0399275 1.2128738

encoder.batch_norm2.bias f4 [16]
00000000: 451e 323e 83ad 4cbf 4a30 05bf 3fd3 2e3f
00000010: 670e c0bd 8a3c 10be 3c06 e1be f296 1dbd
00000020: b954 10be a1e5 043f 22c9 0c3f 4166 263e
00000030: 6a33 f13d 607c ddbe 3e47 c7bd 00e4 3d3f
0.1739436 -0.7995226 -0.5202681 0.68291086 -0.09377747 -0.14085594 -0.4395007 -0.03847403
-0.14094819 0.51912886 0.54994404 0.16249944 0.117773846 -0.43258953 -0.09730385 0.74176025

encoder.batch_norm2.running_mean f4 [16]
00000000: f152 923f 3d2b f940 082c 4dc0 944a 4b40
00000010: 064c 1ebf d619 a2bf 778a 3ac0 86c8 893f
00000020: 26cf 2a3f a8d1 51be 3d1c 29c0 df61 a6be
00000030: 563d 89bf 1906 dcbd 1edc b9be 0ae8 49c0
1.1431562 7.786528 -3.2058125 3.176427 -0.6183475 -1.2664135 -2.9147012 1.076432
0.66722333 -0.20490134 -2.6423485 -0.32496545 -1.0721843 -0.107433505 -0.3630075 -3.1547875

encoder.batch_norm2.running_var f4 [16]
00000000: a4b2 0341 37bd 9c40 cff5 0f41 0bad da41
00000010: cb4e 9740 b303 d340 0132 d940 6b11 f540
00000020: 88b4 da40 4a61 b441 de93 a940 444e ab40
00000030: da95 6740 ad1a e340 dba3 eb40 8037 cf41
8.231113 4.8980975 8.997512 27.334494 4.7283683 6.5942016 6.787354 7.658376
6.8345375 22.547504 5.2993 5.353304 3.6185212 7.0970063 7.363752 25.9021

encoder.batch_norm3.weight f4 [32]
00000000: 24fb 573d e76f 5b3d 35d7 2e3d 9c5e 233d
00000010: 678e 353d 7eeb 593d ddb4 493d b5d5 cd3d
00000020: 56db 073d 84dc 973d 2d48 e93d e98f 043e
00000030: e84b 2c3d 7490 ba3d f501 a13d 07bf 8a3d
00000040: 2f45 e63d 7951 5e3d 079f 5d3d e176 693d
00000050: 1780 4c3d 3216 853d 54e5 0f3d 0c2b 6a3d
00000060: 9b08 1e3d 4891 943d b4cc e63d 2a97 353d
00000070: 1700 2e3d 01c5 4b3d 3d12 773d a234 bf3d
0.05272974 0.053573515 0.042685706 0.03988515 0.04432526 0.0532031 0.04924475 0.10050527
0.03316816 0.07415107 0.113907196 0.12945522 0.042064577 0.091095835 0.078617014 0.06774717
0.112436645 0.054276917 0.05410674 0.056998137 0.049926843 0.06498374 0.035130814 0.05716996
0.038582426 0.07254273 0.11269513 0.044333614 0.042480554 0.049748424 0.060320128 0.09336211

encoder.batch_norm3.bias f4 [32]
00000000: 6de6 86bc e1f8 e8bc 035b bdbb acc2 1a3b
00000010: e123 083b d001 1e3d 8e6d 42bc 50a7 94bd
00000020: 62dc 9dbb b084 45bd eada acbd 79c0 a0bd
00000030: db88 973c 4ffd 5abd 974c 50bd 6c57 c2bc
00000040: 5e30 99bd 2792 da3c 1092 f8bc f195 88bc
00000050: 7d9c 82bc 7692 edbc 8c48 18bb 58fd 05bd
00000060: 3a39 a43a 1506 efbc 2031 6ebd aa78 183b
00000070: 01c5 a8bc d692 7d3c 6b67 dabc cd78 87bd
-0.016467297 -0.028438987 -0.0057786717 0.0023614569 0.0020773339 0.038575947 -0.01186694 -0.07258475
-0.0048175314 -0.048222244 -0.08440192 -0.07849211 0.018497875 -0.05346423 -0.05085429 -0.023723327
-0.074799284 0.026681019 -0.030343086 -0.01667306 -0.01594376 -0.029000502 -0.00232366 -0.03271231
0.0012529262 -0.029177705 -0.058152318 0.002326528 -0.020601751 0.015476903 -0.026660642 -0.06614838

encoder.batch_norm3.running_mean f4 [32]
00000000: d577 34c1 9abf 70c0 9d77 2540 b60e 27bf
00000010: 8ad4 9d40 5ec9 ae40 7b3c 45be 4acd 26c0
00000020: 25db eec0 72ca 8b40 ba28 38c1 f87f e8c0
00000030: f5ae 27c0 69ac 3ebf dea9 4abf 2684 d240
00000040: a835 2540 b3e1 8940 4b9f 94c0 5eff 9ebf
00000050: f5d3 d8c0 7e66 1d3e b19f 6540 c8e4 afbf
00000060: 8bc1 f0bf 69ce 3d40 a07a 15c1 ab3e 0840
00000070: ca79 9bc0 854b fabf 77dd 17bf f1d2 ddc0
-11.279256 -3.7616944 2.5854256 -0.6525682 4.9321947 5.462081 -0.19261353 -2.6062799
-7.464251 4.3684626 -11.509943 -7.265621 -2.6200535 -0.7448183 -0.79165447 6.5786314
2.5814 4.308801 -4.644445 -1.2421682 -6.7758737 0.15371129 3.5878718 -1.3741693
-1.8809065 2.9657233 -9.342438 2.128825 -4.858617 -1.9554297 -0.59322304 -6.9319997

encoder.batch_norm3.running_var f4 [32]
00000000: 4381 1042 dfd7 2742 53f5 2442 789e da41
00000010: 2fe7 5242 1fb4 dc42 7727 2c42 8c62 b142
00000020: e750 9141 5018 0142 2f48 9c42 c23a b142
00000030: ce44 3842 a4b5 6742 087c c942 0f76 2542
00000040: d746 a642 8968 9942 082e 2142 b9da 8342
00000050: 3ab4 e341 20a0 6842 b1a8 bf41 c505 4242
00000060: 5625 0c42 e57f 1a42 8674 bc42 8bf0 0842
00000070: 0c06 f441 e709 5a42 fe4a 5d42 0307 8142
36.126232 41.96081 41.239574 27.327377 52.725765 110.3518 43.03854 88.692474
18.164503 32.273743 78.14098 88.61476 46.067192 57.927383 100.74225 41.36529
83.13836 76.70417 40.294952 65.92719 28.463001 58.156372 23.957369 48.505634
35.03646 38.624897 94.227585 34.234905 30.502953 54.50967 55.323235 64.513695

encoder.linear1.weight f4 [128, 512]
00000000: 63a3 99bd f0f9 b9bc 5d2a fcbc 7d14 b5ba
00000010: a366 d9ba 7d27 68bb 0069 cebb 0fc1 85bd
00000020: bf6e f3bc 5eb9 213d 0709 313d 7f87 323d
00000030: 4a99 67bd 470e b9bc 58c3 eebc 5bf2 e23c
00000040: e047 cbbd 66da 60bd 88ee 16bd 6ed2 cdbb
00000050: 8201 20bd 0179 823c d33c 733c 0a84 753d
00000060: 2074 90bc d3a7 f23b bf2d 84bd b296 103b
00000070: 4b65 543c 03d7 86bd e836 7dbc d1a6 d3bc
00000080: 3ffc 89bd 42f9 c83c 4420 59bd 9227 71bc
00000090: 05dc ccbb cc60 6bbb 063f 763d 93db 1fbd
000000a0: df23 003d f6dd 37bc a17b 313d cef8 6bbd
000000b0: 6aa6 d3bc e67e 9fbd 772e 9e3c 8809 c4bd
000000c0: bf1d 263d 4b4d 57bc b110 8abd 6855 b2bc
000000d0: 42b1 a236 3a70 26bc 1458 00bd 6152 2cbd
000000e0: df20 41bc 527a 26bb 11d0 fabc 94f5 87bc
000000f0: cf29 72bd fc34 08bd 8fee 1e3d dfb0 d4bd
00000100: ba78 28bc 1123 b03b 821a 61bb 649b 22bd
00000110: 1ca1 5b3c 4364 38bd 7975 6dbd b6c7 8fbd
00000120: 0eb4 46bd f86d c5bd 1dcd 773c 337d 40bc
00000130: 0fe1 87bd 78d4 603c 6933 e6bd ef69 923c
00000140: f5ad e4bc ec5e cbbd 9ca4 8fbd 6360 01be
00000150: 308d 89bd 2981 95bc 3bc3 82bd 278a 6f3c
00000160: e894 2ebd 56f9 d2bd 834e 21bd debf 9f3a
00000170: e041 5dbd 2367 4bbc 25e2 65bd 5f1b 23bd
00000180: fd03 c2bc ee7a 97bd 8938 06bd 0ea5 ad3c
00000190: b1d2 7cbd e739 313d 14fa 35bd 2fcd 39bb
000001a0: ea7b 083d b821 8cbc fef8 87bc 1ddf 13bd
000001b0: 95ef aa3c 6dfb bebd 1700 233d 3490 eabb
000001c0: d09b b3bd 4af6 dfbd 0881 093d ac56 bbbd
000001d0: a3fc afbc 8857 23bd 05bb 5b3d 0dcc d7bc
000001e0: 2060 fa3b 143d e4ba c248 443d 5dc4 0dbd
000001f0: a3ad 03bc f127 9c3d 3d53 60bc 7788 36bd
00000200: 2acc bfbc 8753 93bd e1fe 7ebb e68c a8bd
00000210: 92c9 f33c d265 b7bd 755c 1ebd 695e 9f3c
00000220: 23a7 39bd d1a6 1abd 49a2 3c3d 3438 a3b9
00000230: 69d0 c4bc 8827 ecbb e430 24bd b002 563d
00000240: 3d8c 243c 4950 9d3d 0fd6 afbd b3db d9bc
00000250: 3c63 97bd 844b 5b3d 2f63 43bd c2b5 9bbd
00000260: 7a57 46bd 5787 933d c4af 7abd 163f dabc
00000270: 8f13 febc 9d3c 79bd c5d4 69bc be98 87bd
00000280: d374 bfbd 439b 90bd 2f0c 32bd ae76 99bc
00000290: bf6a b0bd 750a 223d dd0f b33b 52b4 cb3d
000002a0: 8386 87ba 9af2 b43c f8bb 453c 233c 24bd
000002b0: ac3a 39bc bed0 083d de01 493d 9c4f 1b3d
000002c0: e6c9 a2bb 1349 e3bc 5723 2fbd 16b2 45bd
000002d0: 9bfe 0bbd 3502 23bd c364 e3bd 3cab 2bbd
000002e0: 432a 1ebd d079 e1bb 06eb 613c 3c9b 86bd
000002f0: e7ac f6bc 8975 31bd 8474 a4bc 155c a5bc
00000300: 1ba9 243d d566 1fbd e139 43bd b7ca b4bd
00000310: 1aeb 033d 475a 7dbd bf00 95bd 4d34 713c
00000320: 84fc 99bd e730 a9bd cc77 5bbc c96e e93b
00000330: f131 cabd 4305 eebc 71d3 79bd 72fb 283d
00000340: 0f63 68bd b300 d43c 1671 29bc 2b2a 80bd
00000350: a57b b33b 67d9 923d abb5 35bd 5e3e 88bd
00000360: 3cb1 b83c 9f70 b1bc 5314 5cbc 9437 4cbd
00000370: a788 0dbd 37c0 9b3d 298f f0bc 4dc5 2cbd
00000380: 71ae 813c 9350 45bd b81c 94bc f075 c0bd
00000390: 179b a8bc 3f09 9e39 3d72 7ebb 9121 8d3c
000003a0: d8d6 35bd 852f 073d 39a0 4bbc fe0f 86bd
000003b0: ec01 01bd 43dc da3d 208d 11bd 6baa d23b
000003c0: 5f4d a7bc 36a2 73bd 2fb6 17bd 06cb 97bd
000003d0: a05d 3abd b291 99bc eb17 a3bc b623 94bd
000003e0: ea5b 6a3d e697 8b3d 1df6 94bd 0143 d13c
000003f0: 7517 4e3d f4f5 51bd fc44 1bbc f650 bbbd
-0.07501867 -0.022702187 -0.03078192 -0.001381531 -0.0016586374 -0.0035423927 -0.006299138 -0.06530964
-0.029715894 0.03948342 0.0432215 0.04358625 -0.056542672 -0.022589816 -0.029145882 0.027703455
-0.099258184 -0.05489578 -0.036848575 -0.0062811887 -0.039063938 0.01592684 0.014846045 0.059940375
-0.017633498 0.00740526 -0.06454038 0.0022062478 0.012963603 -0.06583979 -0.015454985 -0.02583638
-0.06737565 0.024532918 -0.053009287 -0.014718907 -0.0062518143 -0.003591585 0.060118698 -0.03902776
0.03128421 -0.011222353 0.043330792 -0.057610326 -0.025836188 -0.07787876 0.019309266 -0.095721304
0.04055571 -0.013140987 -0.06741465 -0.02176924 4.8486118e-06 -0.010158593 -0.031333998 -0.04207075
-0.011787622 -0.0025402498 -0.030616792 -0.016596593 -0.059121903 -0.033253655 0.038801726 -0.10385298
-0.01028269 0.005375274 -0.0034348075 -0.039698973 0.013405111 -0.045017492 -0.05797336 -0.07020514
-0.048511557 -0.096401155 0.015124586 -0.0117486 -0.066347234 0.0137225315 -0.112402745 0.017872779
-0.02791498 -0.09930214 -0.070138186 -0.12634425 -0.067163825 -0.018250065 -0.063848935 0.01462034
-0.042622477 -0.10301463 -0.039381515 0.0012187918 -0.0540179 -0.012414726 -0.05612387 -0.039821025
-0.023683542 -0.07396494 -0.03276876 0.021196868 -0.06172437 0.04326811 -0.044427946 -0.0028351059
0.0333213 -0.017105922 -0.01659822 -0.03610145 0.020866195 -0.093252994 0.039795008 -0.0071583036
-0.08769953 -0.10935648 0.03357032 -0.09147391 -0.021482771 -0.0398784 0.053645153 -0.026342416
0.0076408535 -0.0017413222 0.04792095 -0.034611095 -0.008037004 0.07624806 -0.013691721 -0.044563737
-0.023412783 -0.07193666 -0.0038909244 -0.08229999 0.029759202 -0.089549676 -0.038662393 0.019454198
-0.04532541 -0.037756745 0.046053205 -0.00031131657 -0.024025159 -0.007206861 -0.04008569 0.052248657
0.010043201 0.07681329 -0.0858575 -0.026594019 -0.07391974 0.053538814 -0.04770201 -0.07603027
-0.048423268 0.072035484 -0.06120278 -0.02664141 -0.031015186 -0.06084882 -0.01427192 -0.0662093
-0.09348454 -0.07060864 -0.04346865 -0.018733349 -0.0861411 0.039560754 0.0054645375 0.09946503
-0.001033977 0.022088338 0.012068741 -0.040096413 -0.011305492 0.033402197 0.049074046 0.03791772
-0.004967916 -0.027744805 -0.042758312 -0.04826554 -0.034178358 -0.039797027 -0.11103203 -0.04191135
-0.038614523 -0.0068809763 0.013788944 -0.06572577 -0.030111743 -0.04332498 -0.02007509 -0.02018551
0.040200334 -0.038916428 -0.04766262 -0.08827727 0.032206632 -0.061853673 -0.07275533 0.014721942
-0.07518867 -0.082612805 -0.013395261 0.0071238023 -0.09872807 -0.029055243 -0.060992662 0.041255422
-0.056735095 0.02587924 -0.010341903 -0.06258043 0.005477386 0.071703725 -0.044362705 -0.066525206
0.02254545 -0.021660147 -0.01343258 -0.04985769 -0.03455415 0.076050214 -0.02936514 -0.04218035
0.01583025 -0.048172545 -0.0180801 -0.09397495 -0.020581765 0.00030142997 -0.0038825416 0.01722792
-0.044394344 0.033004303 -0.012428337 -0.06546019 -0.031495973 0.10686543 -0.035534978 0.006429007
-0.020422636 -0.05948087 -0.03703898 -0.074117705 -0.045499444 -0.01874623 -0.019908866 -0.07233374
0.057216562 0.06816082 -0.07273505 0.025544645 0.05031534 -0.05125995 -0.009476896 -0.091463014

encoder.linear1.bias f4 [128]
00000000: fa91 0bbd b79e 7dbd 0774 fdbb a7df 4f3c
00000010: 6e62 b1bc 7a80 aebc d3f8 c13e 531e 68bd
00000020: 1ec3 4abd ff4f 00bd 3720 52bd 0ebe 7ebd
00000030: 282a 59bd 64fe 47bd 6517 46bd 4be8 4bbd
00000040: 69ed 5dba 1681 56bd 8dfa 0bbc f574 9cbd
00000050: 1757 a3bd 76e4 e9bc 557c 5dbd c8f7 06bd
00000060: de0c 443c 8641 d0bc 6811 0bbd df13 55ba
00000070: 348c dc3e 7737 68bd 1f97 09bd 6a93 06bd
00000080: 3c53 8ebd 6e34 22bc c3b8 2abd 4a47 20bc
00000090: 454a cbbc 4c44 ca3e bb52 e53b a00c 743e
000000a0: ea1a 9dbc a632 f73d b4af 243c e18c e8bc
000000b0: 46e7 e4ba 54bb 9d3d b7f8 a3bc 0763 a3bc
000000c0: 1735 86bd 6029 8cbd eea3 76bc f953 a8bc
000000d0: a013 8abc 3a46 0fbc 0761 e7bc 45f8 a1bc
000000e0: c403 12bd 8286 74bd 7d03 8ebd 577d fabb
000000f0: 9f87 1e3f a4a0 35bd 30b9 41bd 3928 53bd
00000100: ad04 c03e 638c 083f 0e3c 85bd 197a fabc
00000110: 8c43 003f d280 adba 4c6e afbc d158 d8bc
00000120: 7a5b adbc 2ee2 3abb f3f7 07bc 9bee 3c3c
00000130: bbe7 dabc 33e0 1d3f b508 133b 6131 143c
00000140: c03a a1bd 6095 a83e 0fc3 07bd 9583 3e3c
00000150: 04f9 3bbd 437b 05bd 084b 853e 7d41 40bd
00000160: 7c43 0dbd c016 e5bc c80c 35bd 24bb 70bd
00000170: 59db 123c 4488 b53e 886c fabc 74ec 19bd
00000180: 9c11 453b a748 9dbc 344b abbd 8059 53bc
00000190: 8896 123f a1d2 0bbc 2c54 c7bb 72e3 4fbc
000001a0: 4581 053c 4e6e edbb cf7c 3fbd 0540 be3e
000001b0: 5447 a1bc 568c 39bc a8d8 a6bc e4c6 60bd
000001c0: 57fd 07bd e349 16bd 8abc 5cbb d637 fbbc
000001d0: 9673 26bd 669e d9bb a304 ae3e 3732 01bd
000001e0: 0a3f a13e 6ccd 2cbc 96e9 933c 68c2 d0bb
000001f0: 00df 22bc bc57 f1bc b62b 9abc e159 783e
-0.03407476 -0.06191894 -0.007734779 0.0126876 -0.02165338 -0.021301497 0.3788515 -0.056669544
-0.049502485 -0.03132629 -0.051300254 -0.06219297 -0.05301872 -0.04882659 -0.048362155 -0.04978208
-0.0008465858 -0.0523692 -0.008543623 -0.07639495 -0.079755954 -0.028551321 -0.05407365 -0.032951146
0.011965958 -0.025421869 -0.033952147 -0.0008128266 0.43075716 -0.05669352 -0.033591386 -0.03285543
-0.069494694 -0.0099001955 -0.04168011 -0.009782622 -0.024815688 0.3950523 0.0069983876 0.23832941
-0.019177873 0.12070207 0.0100516565 -0.028387489 -0.0017463944 0.07701746 -0.020016057 -0.01994468
-0.06553095 -0.06843829 -0.015053732 -0.020547854 -0.016855061 -0.008744771 -0.028244508 -0.019771704
-0.035648122 -0.05969859 -0.06934259 -0.007644336 0.6192569 -0.044342652 -0.04729575 -0.05155203
0.37503567 0.53339213 -0.06505595 -0.030575799 0.5010307 -0.0013237244 -0.021414898 -0.026409538
-0.021161783 -0.0028516161 -0.008298862 0.011531497 -0.026721826 0.61670226 0.002243561 0.009044976
-0.07872534 0.32926464 -0.033145007 0.011628051 -0.045891777 -0.032588255 0.26033807 -0.046937454
-0.034488186 -0.02796495 -0.044201642 -0.05877222 0.008963429 0.35455525 -0.03056933 -0.037579015
0.003007031 -0.019199682 -0.08363953 -0.012899756 0.5726094 -0.008534105 -0.006083032 -0.0126885045
0.008148496 -0.0072458154 -0.046749886 0.37158218 -0.019687332 -0.011324963 -0.020366982 -0.054877177
-0.033200588 -0.036691558 -0.0033681714 -0.030666273 -0.040637575 -0.006641197 0.33987913 -0.03154203
0.31493407 -0.010547023 0.018055718 -0.0063708313 -0.009940863 -0.02946078 -0.018819671 0.24253036

encoder.linear_mu.weight f4 [128, 128]
00000000: 69cf c73d ad54 2f3c 7177 9ebd d010 903d
00000010: 0bd2 b13d 7868 183d 841f ad3b 1147 653d
00000020: 164e 72bd 9689 d3ba 7391 84bd 5f67 893d
00000030: 17b3 f1bc 02ee 59bd d245 153c 891c 333c
00000040: d754 1bbd 0cd6 573c 71b3 b3bd 0594 1e3c
00000050: f806 7a3d bfae c6bd 039a 93bd ab56 483d
00000060: 6dcc 823d a2e6 4dbd c20f 6e3d d102 a4bd
00000070: d28a 323c 7bfa 83bd 039f 88bd 7e01 513d
00000080: 0a77 833c f755 edbd eb80 8a3d ecad 16bd
00000090: 4c8a 8bbd ca64 b83b e685 04bd 1d5d a43b
000000a0: 91e4 8fbd b636 c3bb ca72 73bc d7f5 4c3d
000000b0: 2fd1 3c3d 2749 c0bb 2aac 04bd 33fb 22bd
000000c0: 2cf8 533d 0316 473b d49b 903b 614e af3c
000000d0: 8c0a f2bb 3074 0a3c 232d ad3c e7ce 37bd
000000e0: 71ac 78b9 3452 5d3d 86de 6e3d 90fb 37bc
000000f0: 0b88 5a3b af37 543d 61f4 223d 772a 753d
00000100: 6c07 10b9 4fd6 f9bb f94b cfbd 9cef 5e3d
00000110: 3c31 a0bb 1d13 253d f96d 11bd 921d 283d
00000120: f975 4e3c f797 993d dc09 f2bc d70c 66bd
00000130: e459 743d 8bcc df3b 4a9e c13c 81d8 b3bd
00000140: 687c 893c e9e3 cd3b 98c0 31bd e900 50bd
00000150: e3c2 b53d 9f28 abbd 8e5e c2bb dde8 233d
00000160: 9499 2cbd 47e4 0b3d a0e3 a73c 8ced dbbb
00000170: 5020 383d f989 febb 846e 133d a3ae 16bd
00000180: 1ab2 4a3d c60d 80bd 32c0 0abe 1d9d f9bc
00000190: bbd3 a1bb f32f eb3b 45cb 6f3d 2ee3 b83d
000001a0: 81a1 82ba 0153 efbc 4d16 9cbd 3582 abbb
000001b0: f27e 0cbd 04dc 2fbd 19ec ddba 5aa8 9cbd
000001c0: 1f09 aa3d 5727 44bc 671a 893d 4286 1c3d
000001d0: 7e1a 64bb 0850 85bc f9a1 0bbb 6097 b7bc
000001e0: 58eb 65bc 36fe 103c a792 7b3d 65d5 783d
000001f0: d8bc e53b bebc 94bd 34c3 ae3d 5511 f63b
00000200: fb10 38bc a072 a1bc 129d b9bc fb0e ad3b
00000210: 17f2 c63c 500e 323b e5f7 41bb 4ffa 21bd
00000220: 982b e8bc 08b6 823d 8399 193a 77bf 38bd
00000230: 4f24 edbc a786 a8bc 2663 893c 4d2b a0bc
00000240: 7b7f 7fbd 2e46 3bbd cef5 093d 0421 14bd
00000250: c6ac 173d 4693 c83c 311e a5bc 6984 b53b
00000260: 0c42 bc3c 88d7 bd3a e488 2c3d 3f22 4838
00000270: d387 703a e4c6 c4bc 1dd2 423d 833a 43bd
00000280: 88f4 8f3c 4a5f dabc 931e 113d 9b1f 15bd
00000290: e229 123d fde3 903a 9062 aa3d 2348 d23b
000002a0: 7099 003b 131c 62bb 1e63 463d 9b36 4abd
000002b0: ba66 50bd 9d17 04bc 77a7 0f3d 8ed4 163d
000002c0: a296 b4b7 bf4b 7e3b 28d8 4fbd a653 c9bd
000002d0: d2ba 2f3d 93b1 e0bc 61aa 4cbb 92e9 363d
000002e0: ac51 913b 0565 dbbc e265 bc3c 97d2 52bd
000002f0: abb7 fe3a cdf3 24bc 6fb5 c7bd 531b 75bd
00000300: 3cad 123b 1af0 cc3a 2691 47bd 47c3 233d
00000310: c10b 4639 e009 8a3c 8300 db3c 508a 6b3c
00000320: a5a4 763b 13f9 323d 77b2 39bd 2bbc 1c3d
00000330: 9148 a9bc bc4d 58bb 79f4 b73c 60f7 933d
00000340: 4bbd 81bd 6dcc f93b fc83 8fbb 36c0 7abc
00000350: 672a e43c 842a 103d 3efa 56bc 6520 21bd
00000360: aefe 6c3d 1130 123d 6340 933d cadb 233e
00000370: 16e1 67bd ce84 a63a db97 873c 61f8 2dbd
00000380: ea5e 8e3d b8a6 60bd c1f7 1abe c4cc 4a3c
00000390: 1e8c cb39 f487 3abd 2fc1 c43c 4324 5bbd
000003a0: 0004 1c3d e2cb 753a c27b 35bc e41e 7bbb
000003b0: 7cf3 403d 0973 793d c37d c33d 8989 503d
000003c0: f2d5 ae3d dda9 21bd 24e1 5ebd 31d9 673c
000003d0: 2df9 8dbc b182 1ebc 28d0 9d3a 15dc 8fbb
000003e0: 9489 a5ba 7122 bebb 0131 b53d 55db 933d
000003f0: fb89 a7bd 1711 973d e395 5c3c 1a57 e93b
0.09756357 0.010701341 -0.077376254 0.07034457 0.08682641 0.037209004 0.005283298 0.055975977
-0.0591565 -0.0016139026 -0.06473055 0.067091696 -0.029504342 -0.053205498 0.009110885 0.010932096
-0.037922706 0.013173591 -0.0877446 0.009678845 0.061041802 -0.09701299 -0.0720711 0.048910778
0.063866474 -0.050268777 0.058120497 -0.0800835 0.010897355 -0.0644426 -0.06670954 0.051026814
0.016047973 -0.11588662 0.067628704 -0.03678696 -0.068134874 0.0056272494 -0.032354258 0.005015983
-0.070260175 -0.00595745 -0.014858911 0.05003914 0.04609793 -0.0058680954 -0.03239075 -0.039790343
0.051750347 0.003037811 0.0044131074 0.021399679 -0.007386511 0.008450553 0.021139687 -0.04487505
-0.00023715362 0.054033473 0.058317684 -0.011229411 0.0033345248 0.051810917 0.03978384 0.05985495
-0.00013735675 -0.0076244245 -0.101219125 0.054427728 -0.0048886817 0.04030143 -0.03550527 0.041043825
0.012601369 0.07499688 -0.029545717 -0.05616459 0.05965604 0.0068298033 0.023635048 -0.08781529
0.016782954 0.0062832725 -0.043396562 -0.050782118 0.08875062 -0.08357357 -0.005931682 0.040016998
-0.04213865 0.03415325 0.020494282 -0.0067116674 0.04495269 -0.0077679125 0.035994068 -0.03678764
0.049486257 -0.06252627 -0.13549879 -0.030470425 -0.0049385703 0.007177347 0.058543462 0.09027706
-0.0009966345 -0.029214384 -0.07621441 -0.0052340277 -0.034300752 -0.042934433 -0.0016931324 -0.07649298
0.08302521 -0.01197227 0.06694489 0.038213976 -0.003480583 -0.016273513 -0.002130626 -0.022411048
-0.014033161 0.008849671 0.061419155 0.060750384 0.0070110373 -0.07262562 0.08533326 0.0075093904
-0.011234517 -0.019707978 -0.022657905 0.005281327 0.02428536 0.0027169175 -0.002959722 -0.039545354
-0.0283411 0.06382376 0.0005859362 -0.04510447 -0.028947977 -0.02057202 0.01677091 -0.019551897
-0.062377434 -0.045721225 0.033681683 -0.0361643 0.037030004 0.024484288 -0.020155998 0.005539466
0.022980712 0.0014483789 0.042122737 4.771561e-05 0.0009175513 -0.02402062 0.04756366 -0.047663223
0.017572656 -0.026656765 0.03542955 -0.036407094 0.035684474 0.0011054274 0.083195806 0.006417291
0.0019622706 -0.0034501597 0.04843437 -0.049368482 -0.050879218 -0.0080622705 0.035071816 0.0368238
-2.1527816e-05 0.0038802472 -0.050743252 -0.09830408 0.042902775 -0.027428424 -0.0031229483 0.044656344
0.004434785 -0.026781568 0.0229978 -0.051470365 0.00194334 -0.010067892 -0.097514026 -0.05984051
0.0022381088 0.0015635521 -0.04872241 0.039981153 0.0001888713 0.016850412 0.026733642 0.014376238
0.0037634757 0.043694567 -0.045336213 0.03826539 -0.020664485 -0.0033005318 0.02245544 0.072249174
-0.06334933 0.0076232464 -0.0043797474 -0.015304616 0.02785225 0.035196796 -0.013121186 -0.039337534
0.05786007 0.03569037 0.07190015 0.16001812 -0.056611143 0.0012704374 0.016551903 -0.0424732
0.06951697 -0.054846495 -0.15133573 0.0123779215 0.00038823573 -0.04553981 0.024017898 -0.05350138
0.038089752 0.0009376389 -0.011076869 -0.0038317973 0.047107205 0.06090072 0.095454715 0.050912414
0.085369006 -0.039468635 -0.05441393 0.014150904 -0.01733073 -0.009674714 0.0012040185 -0.0043902495
-0.0012629502 -0.0058024456 0.088472374 0.07219569 -0.081806146 0.073763065 0.01346347 0.007120979

encoder.linear_mu.bias f4 [128]
00000000: f215 703b 8d96 d039 fa54 8739 a0a8 2bbb
00000010: 2606 ebbb 3e18 80bb 967d db3a d8d8 02be
00000020: ea69 1abc 53d2 dfbb 443d 70bc 5090 903b
00000030: 680d d3ba 4894 2bbb bbe6 a83b c4aa b73a
00000040: 3082 37bc 761f 843c 204d 10be 9ad3 c2ba
00000050: 3e62 64bb 610d 7cbb c6f9 673b 3c77 da3b
00000060: 4458 873d b3cb 26bc 7ec6 20bc 7a34 163c
00000070: df6b 7dbd cffe 043b d521 9cbb c6ce 05bc
00000080: d3f6 f6bb 654e eb3a bf21 7dba 4523 23bb
00000090: 3b0c ddbb 6685 59bc 0b91 20b9 fa99 37bc
000000a0: e4f5 7a3b ddc1 963b f329 54bc 0277 e13b
000000b0: e09d e83b b6db 1b3c e412 0dba b932 663c
000000c0: 19e1 f93b 728e 9e3b ddda 0cbc ba64 d43c
000000d0: 4e0a 193c 99e5 0e3c 7d82 4fbc c8c9 063c
000000e0: 2d0d 1eba 0d45 2cbc 009a 12bb fef8 e43b
000000f0: 9a52 92bb 253d 7b3c 1ba2 523c 01c8 8dbb
00000100: 067d 5abc 5efc 7abc 9dac f3bb f0ab 7b3d
00000110: 239e c33b 099a 52bb d953 613b 4cc8 273b
00000120: 447d 04bc 9712 183b 4e34 5d3c a6e9 7dbd
00000130: f761 8b3a 7747 35bc 64a0 ba3b d7aa 143f
00000140: 9b5d 08bb 2481 a93a 7edc 0ebc fd98 3dbb
00000150: b0a1 213c 3a0b 33ba ae5c 8c3c b76a 503c
00000160: 8ad4 41bb 656a 81bc f965 573c 99e2 f8bd
00000170: 0a13 2abb 7e4a 04bc ed50 abbc b16a 163c
00000180: 818c 07bc 1d9f cc3a 4766 133c e2ab 473a
00000190: 73cc 523c f819 89bc 8a69 753d 1783 bfba
000001a0: a7fb 6bbc 4dda 0e3f c5e2 00bc 7b7f 413e
000001b0: e9c3 0bbb 988c a1bb aa76 0fbb 1655 f8ba
000001c0: 8c27 97ba 6794 70bc 93bf 1b3b 5889 2a3e
000001d0: 0f89 583d 08b3 1bbb 4e77 00bc d1a6 7e3b
000001e0: 09be 4b3c a6a8 f9bb 0488 9ebc 8086 2ebc
000001f0: 06b7 40bc 1403 1bbe 25fe 923b f18e 933b
0.0036634174 0.0003978502 0.0002581252 -0.0026193038 -0.007172364 -0.00390914 0.0016745802 -0.12778032
-0.009424666 -0.0068304925 -0.014663044 0.0044117346 -0.0016102018 -0.0026180912 0.0051544583 0.0014012684
-0.011200473 0.016128283 -0.14091921 -0.0014864088 -0.0034848596 -0.0038460123 0.003539668 0.006667046
0.06608632 -0.010180402 -0.009812949 0.009167785 -0.061870452 0.002029348 -0.0047647753 -0.008166974
-0.007536748 0.001795244 -0.00096562126 -0.0024892848 -0.0067458428 -0.013276434 -0.00015312822 -0.0112061445
0.0038293535 0.004600747 -0.012949455 0.006880642 0.0070988983 0.009512832 -0.0005381538 0.014050179
0.0076257107 0.004838758 -0.008597103 0.025926936 0.009340836 0.008721733 -0.012665388 0.008226819
-0.0006029185 -0.01051451 -0.0022369623 0.00698769 -0.0044654133 0.015334402 0.012856032 -0.004326821
-0.013335472 -0.015318958 -0.0074363486 0.06144327 0.005969779 -0.003213527 0.0034382252 0.0025601564
-0.008086506 0.002320444 0.01350124 -0.061990403 0.0010634054 -0.011064402 0.0056953896 0.5807318
-0.0020807746 0.0012932164 -0.008719562 -0.00289303 0.009865209 -0.0006829981 0.017134037 0.012720755
-0.0029576146 -0.015797803 0.013146871 -0.12152595 -0.002595129 -0.008074401 -0.020912612 0.009180711
-0.008273245 0.0015611384 0.008996553 0.000761686 0.012866127 -0.016736016 0.059915103 -0.0014611211
-0.01440326 0.5580185 -0.007866566 0.18896286 -0.0021326488 -0.00493009 -0.0021890798 -0.0018946256
-0.0011532172 -0.014683819 0.002376531 0.16653955 0.052865084 -0.0023757834 -0.007840944 0.0038856755
0.012435445 -0.0076189814 -0.019351967 -0.0106521845 -0.011762386 -0.15137893 0.004485863 0.004503124

encoder.linear_sigma.weight f4 [128, 128]
00000000: 6449 d13c 20db 903d 4e0d 8bbd 1a50 13bd
00000010: aa86 163d c84f d1bc 279a 00bb fde5 5bbd
00000020: fdda 363d 0166 60bd 45da 0e3c 7ca1 c6bd
00000030: 1d8d 723c 7584 093d 9f14 9cbc 9780 a93d
00000040: d01f de3c b33d 8d3d 8ca4 c4bd d954 f33c
00000050: bd9b e23c ba9f acbc 6b18 913d 7281 e93c
00000060: 5275 613d ef70 a43c 3a3d 963d 63e5 7ebb
00000070: f11a 9239 5d87 aeb8 888f 22bd b7e7 083d
00000080: e20c 49bd 1a69 abbb 265d 7c3d 092d 9e3c
00000090: 3e02 94bd 1fdd 773a 7262 793d a2ae 9f3a
000000a0: 8f30 2a3d eb85 f8ba d2c1 90bc 8d6c afbb
000000b0: a896 063d 2fd4 50bb 1f56 86bd 83ea 66bd
000000c0: a8eb cdbc c0e7 503c e4f5 74bc 2301 04bc
000000d0: 0f2a 1ebd 3e07 3f3d b394 a53c 8036 eabc
000000e0: 26ba bdbc 3d06 24bc 2616 703d 2290 adbd
000000f0: 2828 36b8 b960 8dbd 1000 803b 2b7c 563d
00000100: 9884 97ba c7ab 133b 0fe0 303d b7ea 7d3d
00000110: 3f14 05bb 7601 bdbc 8588 cebc bee7 663b
00000120: cb0a 00bd b6d5 f8bc 7852 45bd 450e cf3c
00000130: 41e8 1d3c 4831 f9b9 88ff 59bc 25d4 b33c
00000140: 9ae1 43bc 40ce 843a aad7 813d c4a6 9b3c
00000150: 0cfb 8b3c 69c0 863d 763b 0e3b f459 44bd
00000160: 7adf e23b 5ac8 82bd f54b e8bd 345a e0bc
00000170: fd60 d7bd 1cdd e1ba 6f27 80bc 3ea1 3dbd
00000180: 4499 993b 4e53 62bd a2a4 9bbd 4a38 9cbd
00000190: 9df4 9a3a 24fa 5a3d c118 733d 4c43 e7bc
000001a0: 8d11 a23d 80f9 9e3d 6de2 803c 238e 6c39
000001b0: 7a88 b3bc e734 8dbd cfd6 17bd d567 733d
000001c0: 3950 27bd e5cf 5dbd ffd2 35ba 2fdd 42bd
000001d0: 7674 95bd 4695 103d 1219 bdb8 6447 04be
000001e0: ef35 d23a f44b 8c3d 2cfb 03bd 81a3 43bd
000001f0: 9a9b 83ba 6473 863d c1c8 d7bc 5784 00bb
00000200: 2355 9d3c e469 4fbc 6fc8 96bc 9556 51bc
00000210: 0f78 423c 264c c23b 2865 123a 424a 65bc
00000220: 85cb 38bd 4303 b8bc e29d 873d 99ca 983d
00000230: 0076 d8bd fbb6 873d ff30 cd3c 5492 14bc
00000240: 0626 55bd c8c3 acbd f4fa 353d 1612 8d39
00000250: 97e9 02bd 46d1 f1bb db55 873c 4d4c 2e3d
00000260: a6ab 653d 0e6e 5ebd ee5f 21bd 8fdb 58bd
00000270: 069f 06bb 1c7b 493d 50a3 b63b 3df4 903d
00000280: 0076 303d 06c3 ecbd 916c 91bd 668f 92bd
00000290: c7a4 42bc f75a 4b3a 46b3 abbd 7fab 2abb
000002a0: fcac 9f3d 42e8 b6ba c8f8 883c 9934 6fbd
000002b0: e243 a73d b20b e239 b71b 963d 837d a8bd
000002c0: 4a1f a6bd 2447 2d3d c346 ce3b 576e 8b3d
000002d0: 8816 963b 3243 ea3c c7d1 b7bc 402c a13c
000002e0: 219d ffbb 4a29 a33c c528 86bd 2d33 373d
000002f0: 6d03 1dba 464a 99bc 5747 f2bc 53d8 d23c
00000300: eba4 89ba 74af d938 d020 3ebc 48c3 563d
00000310: ae7e 293b 8d63 51bd 41b7 553c 49fd db3c
00000320: 0c1b 9cbd defc 7f3d 3e4c 46bd 0946 10ba
00000330: 0c13 b33c b57c d8ba 6f02 8a3d 0dac 6cbd
00000340: 30c4 c53c e46a dc38 e851 aabd f58b 9cbd
00000350: 5d9d c4bd c961 d03b 9281 da39 2243 573d
00000360: c66e 273c 09e7 85bd f8c1 383c b9ec 24bc
00000370: ad83 f53c 42df ae39 693e 1bbd be40 403c
00000380: 93ff d7ba c8ff 9fbd cfd2 6dbd 6cf3 39bc
00000390: 75d3 5d3b a58d 103d 1681 773c 283d a5bd
000003a0: 3ee9 a03d afa9 3fbc c698 403d 3c1e 9e3a
000003b0: 2f39 c6bd 62fd f0bc 0ad2 8fbd 5efc 8cbd
000003c0: ee47 fc3b 9c80 c4bd fa11 973d 791f 84bc
000003d0: b29c 8abd 0529 553c 4368 4dba 9733 7d3d
000003e0: d04f 723a 91da 293d c6f2 a7bc 7c3b 2f3d
000003f0: ab19 87bd 15f1 f4bb 69bf 453d 118c 123a
0.02554769 0.07073045 -0.06789647 -0.035965063 0.03674952 -0.025550738 -0.0019623132 -0.05368613
0.044642437 -0.05478478 0.008719032 -0.096987695 0.014804152 0.033573586 -0.019052802 0.0827648
0.027114779 0.06896534 -0.09601697 0.029703544 0.027662152 -0.021072257 0.070847355 0.028504107
0.055043526 0.020073382 0.07335897 -0.003889405 0.00027867363 -8.32218e-05 -0.039687663 0.033424105
-0.04908455 -0.005231035 0.06161227 0.019308584 -0.0722699 0.0009455252 0.0608849 0.0012182782
0.041550215 -0.0018960809 -0.017670546 -0.0053535164 0.03285852 -0.0031864753 -0.06559395 -0.05637599
-0.025136784 0.012750566 -0.014951203 -0.008056912 -0.03861433 0.046637766 0.020212507 -0.02859044
-0.023160052 -0.010011253 0.058614872 -0.08474757 -4.342958e-05 -0.06903214 0.0039062575 0.05236451
-0.0011559902 0.0022532807 0.04318243 0.06199142 -0.0020306257 -0.023071986 -0.025211582 0.0035233344
-0.031260293 -0.030375343 -0.04817435 0.025275359 0.009637893 -0.00047529698 -0.013305552 0.021951744
-0.011955643 0.0010132268 0.06339963 0.019000418 0.017087482 0.06579668 0.0021702922 -0.04793735
0.006923613 -0.0638587 -0.11342613 -0.027386762 -0.10516546 -0.0017232033 -0.015643803 -0.04629635
0.00468746 -0.055255227 -0.075997606 -0.07627924 0.0011822168 0.05346121 0.05934978 -0.028230332
0.07913504 0.07762432 0.015732968 0.00022559664 -0.021915663 -0.06894856 -0.03707009 0.059425194
-0.04084799 -0.05415334 -0.0006936043 -0.04757422 -0.07297604 0.03529861 -9.016892e-05 -0.12917858
0.0016037802 0.068504244 -0.032221958 -0.04776335 -0.001004088 0.06564978 -0.026340844 -0.001961013
0.019205635 -0.012659524 -0.018406121 -0.01277699 0.0118694445 0.0059294878 0.00055845315 -0.013994755
-0.045115966 -0.022462493 0.06621911 0.074605174 -0.10569382 0.06626698 0.025047777 -0.0090680905
-0.052038215 -0.0843578 0.04442878 0.0002690709 -0.03196105 -0.0073796837 0.016520431 0.042553235
0.0560719 -0.054304175 -0.039398126 -0.052943762 -0.0020541563 0.049189672 0.0055736676 0.07077835
0.043081284 -0.11560635 -0.071007855 -0.07156257 -0.011880106 0.000775739 -0.08383803 -0.002604216
0.07796666 -0.0013954716 0.01672019 -0.05839977 0.081672445 0.00043114793 0.07329505 -0.082270645
-0.08111437 0.042304173 0.0062950565 0.06808155 0.0045803227 0.028596494 -0.022438897 0.01967442
-0.0078007136 0.01991715 -0.06550745 0.04472654 -0.0005989585 -0.018712174 -0.029575033 0.025737917
-0.001050142 0.00010380047 -0.011604503 0.05243233 0.002586286 -0.05112033 0.013044179 0.026854174
-0.07622346 0.062497012 -0.048412554 -0.00055036 0.021859668 -0.0016516658 0.067387454 -0.057781268
0.024141401 0.000105103274 -0.083164036 -0.07643882 -0.09600327 0.006359313 0.00041676738 0.052554257
0.010219282 -0.06538207 0.0112767145 -0.010066205 0.029970014 0.00033354206 -0.037901316 0.011734186
-0.0016479365 -0.07812458 -0.05806237 -0.01134954 0.0033847962 0.035291333 0.01510646 -0.08068305
0.078569874 -0.011698171 0.047020696 0.0012063454 -0.09678876 -0.029417697 -0.07022484 -0.06884073
0.0076990044 -0.09594843 0.07376476 -0.016128289 -0.067681685 0.013010268 -0.00078356656 0.061816778
0.00092434604 0.041468207 -0.020501506 0.042781338 -0.06596693 -0.0074750283 0.048278246 0.00055903295

encoder.linear_sigma.bias f4 [128]
00000000: 076d b1be 9dcf b0be c5e7 b0be 5411 b1be
00000010: e053 b0be 43ba b1be 62a6 b1be d657 5b3b
00000020: 561b b1be d73e b2be 8429 b1be df77 b2be
00000030: 52b3 b1be c6a4 b1be a32a b1be 3d2b b1be
00000040: ee56 b1be b942 b1be 8913 7abe 7843 b1be
00000050: 3d91 b1be f588 b0be 1d58 b1be 6c8d b1be
00000060: dd92 00bf 8df6 b1be 2e9b b0be 4d74 b1be
00000070: 7789 84bf 5c0a b1be 36e4 b0be 9f24 b2be
00000080: 9319 b1be 04f3 b0be e2d6 b0be a577 b0be
00000090: b023 b2be 255c b0be 2ff2 b0be b2d6 b0be
000000a0: 46ad b0be d4dc b0be 4717 b1be 193e b1be
000000b0: cfd7 b0be 8939 b0be 6795 b1be 279b b1be
000000c0: 4183 b1be 93c7 b0be 5714 b1be a803 86be
000000d0: 553d b0be 40c7 b1be e0f0 b0be f342 b1be
000000e0: 9635 b1be 580c b1be 15a1 b1be 61b9 b1be
000000f0: 5c4e b1be 834d b1be cba2 b0be 5a71 b1be
00000100: bcae b1be fec0 b1be d0e0 b0be e0a7 d2be
00000110: 2c4b b1be 5d9c b1be ef92 b1be 993e b2be
00000120: d61f b2be 6e6f b1be 9453 b0be f571 8cbe
00000130: d746 b0be 254e b0be ae39 b1be d282 88bf
00000140: 7362 b1be fc35 b1be 6c05 b1be 2b2a b2be
00000150: 16ca b0be 7847 b1be 294f b1be 6404 b1be
00000160: 8f6d b1be 8429 b0be da42 b0be 6ce4 9cbe
00000170: ab8d b1be 4116 b1be 0377 b1be 6d90 b2be
00000180: 8c1d b1be d6b4 b1be 8793 b1be b5f8 b0be
00000190: 1868 b1be d889 b1be bc55 95bf 68c7 b1be
000001a0: 65d8 b0be 93fe 74bf 9c9d afbe 757f 2bbf
000001b0: a58c b0be 37b6 b0be 9251 bfbf dadf b0be
000001c0: 8ecc b1be 0e3a b1be c43f b0be 51ec debe
000001d0: f2d3 d4be 0f03 b1be 0369 b1be 0ff6 b0be
000001e0: 7d9d b1be 1575 b0be 0dae b1be fac7 b0be
000001f0: 53e1 b0be f04b e7be b066 b0be 5ad2 b0be
-0.34653494 -0.34533396 -0.34551826 -0.34583533 -0.34438992 -0.3471242 -0.34697253 0.0033469102
-0.34591168 -0.34813568 -0.34601986 -0.3485708 -0.34707123 -0.34696025 -0.34602842 -0.346033
-0.34636635 -0.34621218 -0.24421515 -0.34621787 -0.3468112 -0.3447949 -0.34637538 -0.3467821
-0.50224096 -0.34758416 -0.34493393 -0.34659043 -1.0354451 -0.34578216 -0.3454911 -0.34793565
-0.34589824 -0.34560406 -0.34538943 -0.34466282 -0.34792852 -0.344453 -0.3455977 -0.345388
-0.34507197 -0.34543478 -0.34588072 -0.3461769 -0.3453965 -0.34418896 -0.34684297 -0.34688684
-0.3467045 -0.34527263 -0.3458583 -0.26174664 -0.34421793 -0.34722328 -0.34558773 -0.3462139
-0.34611195 -0.3457973 -0.34693208 -0.34711745 -0.34630096 -0.3462945 -0.344992 -0.34656793
-0.34703624 -0.34717554 -0.34546518 -0.41143703 -0.34627664 -0.34689608 -0.34682414 -0.34813383
-0.34789914 -0.34655327 -0.34438765 -0.27430692 -0.34429047 -0.3443462 -0.3461432 -1.0664923
-0.34645423 -0.346115 -0.3457445 -0.34797797 -0.3452918 -0.3462484 -0.34630707 -0.34573662
-0.346539 -0.34406674 -0.34426004 -0.30643022 -0.34678397 -0.3458729 -0.3466111 -0.34875813
-0.34592855 -0.3470828 -0.34682867 -0.34564748 -0.3464973 -0.3467548 -1.1666789 -0.34722447
-0.34540096 -0.9570095 -0.34299934 -0.6699136 -0.34482303 -0.3451402 -1.4946768 -0.34545785
-0.34726375 -0.34614605 -0.3442365 -0.4353967 -0.4156795 -0.34572646 -0.3465043 -0.34562728
-0.34690467 -0.34464327 -0.34703103 -0.3452757 -0.3454691 -0.45175123 -0.34453344 -0.34535486
