checkpoints/model-70.pt (torch, 179535 bytes, 8 tensors)

conv1.weight f4 [10, 1, 5, 5]
0	0x3e83d10a	0.25745422
1	0x3e79a829	0.24380554
2	0x3e7f762b	0.24947421
3	0x3e7c4dd1	0.2463906
4	0x3dc475bb	0.09592768
5	0x3e6db3fa	0.23213187
6	0x3e8f8507	0.2803118
7	0x3dbfe384	0.09369567
8	0x3e0c0615	0.13674195
9	0x3d2fca07	0.042917278
10	0x3e4d9d1b	0.20079462
11	0xbd9f3be4	-0.07775095
12	0x3e6a4a3f	0.22879885
13	0x3d980c24	0.07424191
14	0xbe8e84c5	-0.2783567
15	0xbe8c8420	-0.27444553
16	0xbdc38ac7	-0.09547954
17	0xbe39ddc4	-0.18151003
18	0x3c9b6bcd	0.018972302
19	0xbec50851	-0.38482907
20	0xbe8bd4fe	-0.27310938
21	0xbb0547ae	-0.0020336914
22	0xbe8a3281	-0.26991656
23	0xbe32f9db	-0.17478125
24	0xbecd7da2	-0.40134913
25	0xbef87cd4	-0.48532736
26	0xbd711a49	-0.058862958
27	0x3e7b932c	0.2456786
28	0x3e935218	0.2877357
29	0x3c8ab082	0.016929869
30	0xbeec82db	-0.46193585
31	0xbe58a726	-0.21157512
32	0x3d6733c0	0.056445837
33	0x3dee9211	0.11648954
34	0x3e86ab76	0.2630269
35	0xbdd96df6	-0.106166765
36	0x3cdb396f	0.026760785
37	0xbd307486	-0.043079875
38	0x3dcabdd5	0.09899489
39	0x3ddbb444	0.10727742
40	0xbe882787	-0.26592657
41	0x3d212437	0.039341178
42	0x3e0db84c	0.13839835
43	0x3dc101c6	0.094241664
44	0xbded8563	-0.11597707
45	0xbe828e6c	-0.25499284
46	0xbd2a9ed6	-0.041655384
47	0x3e83147c	0.25601566
48	0xbbe1b222	-0.00688769
49	0x3e58964e	0.21151087
50	0x3e6f9f55	0.23400624
51	0x3e3cf495	0.18452676
52	0x3e512f5b	0.20428221
53	0x3dcc09a4	0.09962776
54	0x3e615ca6	0.22007999
55	0xbda1d86b	-0.079026066
56	0x3c54b469	0.012982466
57	0x3e011cea	0.12608686
58	0x3de5b4b7	0.11216109
59	0x3cd86d17	0.026419206
60	0xbe918652	-0.2842279
61	0xbb1a7b72	-0.0023572114
62	0x3df08572	0.11744203
63	0x3e5ce35c	0.21571106
64	0x3de10f61	0.109892614
65	0xbd41284e	-0.04715758
66	0xbe5a5417	-0.2132114
67	0xbcba4f06	-0.02274276
68	0xbd52b661	-0.05144346
69	0x3e63036c	0.22169274
70	0xbe3ebf48	-0.18627656
71	0xbd9cc2fd	-0.076543786
72	0xbd5a3d49	-0.053281102
73	0xbe0b280e	-0.13589498
74	0x3d8c61a2	0.068545595
75	0x3eb9b053	0.36267337
76	0x3ea91c15	0.33029237
77	0x3e340daa	0.17583337
78	0x3eb49536	0.3527009
79	0x3eb33d1c	0.3500756
80	0x3db1e570	0.0868634
81	0x3d9ab7ee	0.07554613
82	0xbdf6e408	-0.12055212
83	0x3dfd3b8f	0.123648755
84	0x3e183b66	0.14866409
85	0x3e490e6e	0.1963441
86	0xbe2f8346	-0.1713992
87	0x3e579585	0.21053131
88	0x3e1956cc	0.14974517
89	0xbe454317	-0.19263874
90	0x3dcf781b	0.1013033
91	0x3e1e06af	0.15432237
92	0xbcd4aafd	-0.02596044
93	0xbe1ccaa2	-0.15311673
94	0xbe585ba2	-0.21128705
95	0xbdbc6273	-0.09198465
96	0xbdcbffa5	-0.0996087
97	0xbe669102	-0.22516254
98	0xbd8f3dec	-0.069942325
99	0xbe9c74b3	-0.30557784
100	0x3ea59a40	0.32344246
101	0x3e6480e9	0.223148
102	0x3e05c527	0.13063489
103	0xbe644c14	-0.22294647
104	0xbe7aa4a7	-0.24476872
105	0x3e397307	0.18110286
106	0x3dcf11b8	0.101108015
107	0x3e69ac3a	0.22819605
108	0xbe43c2f1	-0.19117333
109	0xbebec97d	-0.37263098
110	0x3ec8bdbd	0.3920726
111	0x3ddc479b	0.10755845
112	0x3d8f3af1	0.06993664
113	0x3d9d2187	0.076724105
114	0xbee95605	-0.4557344
115	0x3e8b64fe	0.27225488
116	0x3e776e23	0.24163108
117	0x3c7b686c	0.01534472
118	0x3d0eb09b	0.034836393
119	0xbef49fd3	-0.47778186
120	0x3e44ca5f	0.19217823
121	0xbda67625	-0.08128003
122	0x3dca197e	0.098681435
123	0xbe5d5686	-0.21615037
124	0xbed18b03	-0.4092637
125	0x3cda9b58	0.026685402
126	0xbdea2c68	-0.11434251
127	0xbe749a1b	-0.23886912
128	0xbe2158d5	-0.15756543
129	0xbdedd96d	-0.11613736
130	0x3e1dc58c	0.1540739
131	0x3d9a082c	0.0752109
132	0x3c108f0e	0.008823169
133	0xbdbba96e	-0.091631755
134	0xbd6dd85f	-0.058067676
135	0x3e6e79c1	0.23288633
136	0xbdc0a612	-0.094066754
137	0xbd744033	-0.059631538
138	0xbd03b90a	-0.03215889
139	0x3c520cb7	0.012820414
140	0x3df5cd67	0.12002068
141	0x3d888d9c	0.06667635
142	0x3d4f6d14	0.050641134
143	0x3c98acb8	0.018637046
144	0x3d543f9f	0.051818486
145	0x3e3722b4	0.17884332
146	0x3d08f571	0.033437196
147	0x3de5c079	0.11218352
148	0xbdd1cefb	-0.102445565
149	0x3d12d2f9	0.03584573
150	0x3d8ea717	0.069654636
151	0x3dc3c601	0.095592506
152	0x3e2a2f9e	0.16619727
153	0x3dc91677	0.09818738
154	0x3df7c84d	0.12098751
155	0xbc3c95be	-0.011510311
156	0x3dcfe6b7	0.10151427
157	0x3dd92e15	0.106044926
158	0x3e3d98f7	0.18515383
159	0x3d9ed63f	0.07755708
160	0xbda32922	-0.0796683
161	0xbdfcd61e	-0.12345527
162	0xbd1a5208	-0.037675887
163	0x3d39c8e0	0.045357585
164	0x3e8e1aec	0.27754915
165	0xbca0b8cc	-0.019619368
166	0x3ce4e7eb	0.027942618
167	0xbc939c9e	-0.018019017
168	0x3d0501bc	0.032472357
169	0xbdb4e051	-0.088318475
170	0x3dfde992	0.123980656
171	0x3d5288ec	0.05140011
172	0xbe0321a8	-0.12805808
173	0x3debc351	0.11511863
174	0xbe123a0b	-0.14279954
175	0x3e3d1da9	0.18468346
176	0x3e0544b7	0.13014494
177	0xbcb4676d	-0.022021974
178	0x3e4427d1	0.19155814
179	0x3dbaf86b	0.09129413
180	0xbd1a80bd	-0.03772043
181	0x3b2a09c9	0.0025945774
182	0x3ec4b921	0.38422492
183	0x3d9f1180	0.0776701
184	0xbde29c2f	-0.11064946
185	0x3d929cdb	0.07158824
186	0x3e811da1	0.25217918
187	0x3e8d1963	0.2755843
188	0xbdc13153	-0.09433236
189	0xbe681360	-0.22663641
190	0x3e0ca6a6	0.13735446
191	0xbda2db70	-0.07952011
192	0xbdeff2ed	-0.11716256
193	0xbe6ec297	-0.23316418
194	0xbe079500	-0.13240433
195	0xbef10837	-0.4707658
196	0xbe601195	-0.21881707
197	0xbeb30531	-0.34964898
198	0xbdc8a531	-0.09797133
199	0x3e3f6b6b	0.1869332
200	0xbcb4d5a5	-0.02207453
201	0x3ea49641	0.32145885
202	0x3d72f041	0.059311155
203	0x3ea8f2b4	0.32997668
204	0x3e7e6cc4	0.24846178
205	0xbcfb7d1d	-0.030699307
206	0x3dc36e36	0.095425054
207	0xbda3871c	-0.079847544
208	0x3e07ae7f	0.13250159
209	0x3e04938f	0.12946914
210	0xbe0c5965	-0.13705976
211	0x3cad35a2	0.021143738
212	0x3e43324d	0.19062157
213	0xbc562bce	-0.013071967
214	0x3e01397e	0.12619588
215	0xbd77626c	-0.060396597
216	0xbdff311d	-0.124605395
217	0x3e17f81b	0.14840738
218	0xbe18b3de	-0.14912364
219	0x3e52ab5a	0.20573178
220	0x3d3c403c	0.045959696
221	0xbe2d07b9	-0.16897477
222	0xbdc895f6	-0.09794228
223	0xbd321e17	-0.043485727
224	0x3e1b9e33	0.15197067
225	0xbdcedf3e	-0.10101174
226	0x3e624678	0.22097194
227	0x3e2e7b74	0.17039281
228	0x3e0849cb	0.133094
229	0x3e8cc5a7	0.27494547
230	0x3b3b5a58	0.0028587785
231	0xbe315168	-0.1731621
232	0x3e42d4eb	0.19026534
233	0x3d473f9b	0.048644643
234	0x3e37e3a4	0.17957932
235	0xbe541c17	-0.2071384
236	0xbe9247d0	-0.28570414
237	0xbe988173	-0.29786262
238	0xbd85240d	-0.06501017
239	0x3ce9d439	0.028543578
240	0xbd2abb6e	-0.041682653
241	0xbde89584	-0.11356643
242	0xbe741259	-0.23835124
243	0xbe9141ea	-0.283706
244	0xbbea30b1	-0.0071469177
245	0x3e8801d8	0.26563907
246	0x3e729236	0.23688588
247	0xbc9125ed	-0.01771828
248	0x3e0096bd	0.12557502
249	0xbcf51afa	-0.02992009

conv1.bias f4 [10]
0	0x3be0698e	0.0068485206
1	0x3db1831c	0.08667585
2	0xbf0bd17d	-0.5461653
3	0xbea226b5	-0.31670156
4	0x3ca1c4cc	0.01974716
5	0xbdb6708c	-0.08908185
6	0xbf08af1b	-0.5339219
7	0x3e475b2b	0.19468372
8	0xbeb5afb6	-0.3548562
9	0xbd26e70c	-0.040747687

conv2.weight f4 [20, 10, 5, 5]
0	0x3e12a9a0	0.1432252
1	0x3e0757c2	0.1321707
2	0x3d5d6692	0.054052897
3	0x3c7129bc	0.014719423
4	0x3e0241b3	0.12720375
5	0x3e373cbf	0.17894267
6	0x3e2f046c	0.1709153
7	0x3e0b5193	0.13605337
8	0x3cb77c36	0.022398096
9	0x3dbe5221	0.092930086
10	0xbe4b3461	-0.198442
11	0xbda72590	-0.08161461
12	0xbd3d39b7	-0.04619762
13	0x3ca5d6c9	0.02024402
14	0x3d9fe52b	0.07807382
15	0xbe4fe356	-0.20301566
16	0xbcb6c7d2	-0.022312079
17	0xbd09952e	-0.033589534
18	0x3ba4c072	0.005027824
19	0x3d3eb426	0.04655852
20	0x3d9dea80	0.07710743
21	0x3df7a3f5	0.12091819
22	0x3e1199ce	0.14218828
23	0xbcd431d0	-0.025902659
24	0x3d6d25b5	0.05789729
25	0x3e558a57	0.20853554
26	0x3dd33710	0.10313237
27	0xbdb0e863	-0.08638074
28	0xbd3a3648	-0.045461923
29	0x3dd13e2c	0.102169365
30	0x3db2a41b	0.08722707
31	0xbd29b4aa	-0.04143206
32	0xbea9cc61	-0.3316374
33	0xbe8c2cb2	-0.2737785
34	0xbcdc78fd	-0.02691316
35	0xbe3206de	-0.17385432
36	0xbf1ac187	-0.6045155
37	0xbef993ad	-0.4874548
38	0xbd88ca82	-0.0667925
39	0x3daabef1	0.083372004
40	0xbec22010	-0.37915087
41	0xbf19a04e	-0.6001023
42	0xbe7ca779	-0.24673261
43	0x3d8857da	0.06657381
44	0x3e4f172b	0.20223682
45	0xbeaba397	-0.33523247
46	0xbe534d57	-0.20634972
47	0x3e396f52	0.18108872
48	0x3e4a9635	0.19783862
49	0x3ea38f65	0.3194534
50	0xbe02a289	-0.12757315
51	0xbe3c0eb8	-0.1836499
52	0xbdc74d9a	-0.09731598
53	0xbd8e5187	-0.06949144
54	0xbd70640f	-0.058689173
55	0xbd920048	-0.0712896
56	0xbe15e687	-0.1463872
57	0xbdd4b5d7	-0.10386246
58	0xbcfffa42	-0.031247262
59	0xbdc8fa4f	-0.098133676
60	0xbd3ae6e7	-0.045630362
61	0xbde2a316	-0.110662624
62	0xbd30fa05	-0.043207187
63	0xbe0df888	-0.13864338
64	0xbdcbfcb5	-0.099603094
65	0x3d9b4a60	0.07582545
66	0x3cd84479	0.026399838
67	0x3cc6a5a3	0.024248904
68	0xbbab8140	-0.0052339137
69	0xbcd8cd34	-0.026465036
70	0x3de95da0	0.11394811
71	0x3cd0d01e	0.025489863
72	0x3c183dd9	0.009292089
73	0xbdbe9d40	-0.09307337
74	0xbd1c9c2f	-0.038234886
75	0xbd9f2212	-0.0777017
76	0xbda8c9d6	-0.08241622
77	0xbdbb10d1	-0.09134067
78	0xbd5c5e42	-0.05380083
79	0x3d271bcb	0.04079799
80	0xbd09d32c	-0.033648655
81	0x3bbab3eb	0.0056977174
82	0xbc9da6e0	-0.019244611
83	0xbcfaaefb	-0.030601015
84	0xbd27a0d7	-0.040924873
85	0xbdc8f273	-0.098118685
86	0xbd1287f6	-0.035774194
87	0xbdab2e2c	-0.08358416
88	0x3d7e466a	0.06207887
89	0x3d7d790f	0.06188303
90	0x3cf3c177	0.029755337
91	0x3ca79ab0	0.020459503
92	0x3d92c4b3	0.07166424
93	0xb9d60f3d	-0.00040828614
94	0x3d56f555	0.05248006
95	0x3d1dbbd7	0.038509216
96	0x3d78a561	0.060704593
97	0x3dbd3da7	0.09240275
98	0xbccd9e2e	-0.02509984
99	0x3d2c43f3	0.04205699
100	0x3dc9b400	0.098487854
101	0xbe2ff6d2	-0.17183998
102	0xbe2ed9d4	-0.17075282
103	0xbd923f23	-0.071409486
104	0x3d4a889e	0.049446695
105	0xbe4765c2	-0.19472411
106	0xbea7d23b	-0.3277758
107	0xbe2dddfa	-0.16979209
108	0xbdc50c50	-0.09621489
109	0x3cc81130	0.024422258
110	0xbe3e6943	-0.18594842
111	0xbde0884d	-0.10963497
112	0x3bfa9f06	0.0076483516
113	0x3d876e4d	0.06612835
114	0x3d982bbe	0.07430218
115	0xbcc1a3f2	-0.023637746
116	0x3de48ad7	0.11159294
117	0x3d947b3f	0.0725007
118	0x3de67616	0.11252992
119	0x3d97e9cd	0.07417641
120	0xbc47e4b9	-0.012200528
121	0x3dc49d3c	0.096003026
122	0x3dd50b5a	0.10402556
123	0x3dde7b0b	0.10863312
124	0xbd215a8f	-0.039393004
125	0x3e16d526	0.14729747
126	0x3de98cae	0.11403786
127	0x3d3e9fad	0.046538997
128	0x3d7cdfb4	0.061736777
129	0x3d48424e	0.048891358
130	0x3dcb32cb	0.09921797
131	0xbc10fe8c	-0.008849751
132	0xbdac1f3f	-0.08404397
133	0x3c405a75	0.011740317
134	0xbd30d1c2	-0.04316879
135	0x3ddc3841	0.10752917
136	0x3da1d441	0.07901812
137	0xbc5cffea	-0.013488749
138	0xbd131c90	-0.03591591
139	0xbd9f5da1	-0.0778153
140	0x3dd7f263	0.105442785
141	0x3d3ff58e	0.04686504
142	0x3d101a23	0.035181176
143	0xbd56e601	-0.052465443
144	0x3b78440e	0.003788236
145	0x3dc86fbc	0.09786937
146	0x3e1ae666	0.15126953
147	0x3e10b1b8	0.14130294
148	0x3ddd5ef6	0.10809128
149	0x3d9f4c8c	0.07778272
150	0xbdfda34c	-0.12384662
151	0xbe1d278a	-0.15347114
152	0xbe22893a	-0.1587266
153	0xbd6a6a75	-0.05723043
154	0x3c6e94a0	0.014561802
155	0xbc844938	-0.016148195
156	0x3c83a80d	0.016071344
157	0xbb2a0af0	-0.002594646
158	0xbd928092	-0.07153429
159	0xbce92f0d	-0.028464818
160	0x3c08d401	0.008351327
161	0x3ca27e4f	0.01983562
162	0x3d2abeaf	0.041685756
163	0x3d5c7e7b	0.05383156
164	0xbc999a4e	-0.018750336
165	0x3d0b1af9	0.03396127
166	0x3d52a937	0.051430907
167	0x3dd926bd	0.10603092
168	0xbd711a3e	-0.058862917
169	0xbd4b0c6a	-0.049572386
170	0x3d86a362	0.065741315
171	0x3dd99c71	0.10625542
172	0x3bca5d10	0.0061756447
173	0x3d6fc17e	0.058534138
174	0x3c831724	0.016002245
175	0x3d8f7ad7	0.07005852
176	0x3d7bde4d	0.0614913
177	0x3d8cec96	0.06881063
178	0x3c875000	0.01651764
179	0x3e02eb97	0.12785183
180	0x3d64a2bf	0.05581927
181	0x3e7580de	0.2397494
182	0x3d8a583c	0.067551106
183	0x3c8ed6f8	0.01743649
184	0x3d9b9731	0.07597197
185	0xbedf933a	-0.43667012
186	0x3d7cd8da	0.061730243
187	0x3da435fe	0.08018111
188	0x3d201174	0.039079145
189	0x3da50cc7	0.08059078
190	0xbeed90ad	-0.4639944
191	0xbe450eb9	-0.19243897
192	0xbdb279a1	-0.08714605
193	0xbd93fc1c	-0.072258204
194	0xbe29d013	-0.1658328
195	0x3e0abb74	0.1354807
196	0x3de4f47b	0.111794434
197	0x3ca02abd	0.01955163
198	0xbc76ba4e	-0.015059067
199	0x3d374508	0.044743568
200	0xbd7192fa	-0.05897806
201	0xbd7efa35	-0.062250335
202	0xbcec7b3c	-0.028867356
203	0xbd856b63	-0.06514623
204	0xbc152122	-0.009102138
205	0xbdb1fb75	-0.0869054
206	0xbd588f80	-0.052871227
207	0x3ca25aef	0.019818751
208	0xbd85f11b	-0.06540128
209	0xbc2f2906	-0.010690933
210	0xbbf7fe59	-0.0075681624
211	0xbdc4e748	-0.09614426
212	0xbd89a07f	-0.06720065
213	0xbd76f894	-0.060295656
214	0x3d628fcf	0.055312928
215	0x3dd19a64	0.10234526
216	0x3bd209f0	0.006409876
217	0x3d4f4466	0.05060234
218	0x3c53b63f	0.012921869
219	0x3dd82389	0.10553653
220	0x3da67baa	0.08129056
221	0x3cd00b8b	0.02539613
222	0x3d8c7bb4	0.06859532
223	0x3ca88e22	0.020575587
224	0x3d39117a	0.045182683
225	0xbe2dd1c0	-0.16974545
226	0x3e0d1234	0.13776475
227	0x3ea0935e	0.31362432
228	0x3e9dc0f5	0.30811277
229	0x3e770c9d	0.24125905
230	0x3f1760c9	0.5913206
231	0x3f1e13b1	0.61748797
232	0x3f0f3cc4	0.55952096
233	0x3e9c0e22	0.30479532
234	0x3e3299af	0.17441438
235	0x3f555811	0.83337504
236	0x3ec7a700	0.38994598
237	0x3d9e1fc2	0.07720901
238	0xbe8e91db	-0.27845654
239	0xbed77a1f	-0.42085359
240	0x3f1848fb	0.5948636
241	0x3ef8ab46	0.4856817
242	0xbd8c3744	-0.068464786
243	0xbede88c9	-0.43463734
244	0xbe889825	-0.26678577
245	0x3d582d46	0.05277755
246	0xbe83ad69	-0.2571824
247	0xbf0db7ef	-0.55358785
248	0xbeff443a	-0.4985674
249	0xbe962881	-0.29327777
250	0xbc419f86	-0.0118178185
251	0xbd1cadf3	-0.03825183
252	0x3d937015	0.07199112
253	0x3dc8cc0d	0.098045446
254	0x3d9e1a45	0.07719854
255	0xbe104665	-0.14089353

conv2.bias f4 [20]
0	0x3e217098	0.15765607
1	0xbd5f62ab	-0.054537456
2	0x3d14b1a2	0.036302216
3	0x3d217695	0.03941973
4	0x3d3d4782	0.046210773
5	0xbc07d716	-0.008291027
6	0xbb87ea9e	-0.0041478416
7	0x3cd2ad96	0.025717538
8	0x3da35e55	0.07976977
9	0x3d5a6d69	0.053326998
10	0xbbde844c	-0.0067906734
11	0xbd06ada5	-0.032880444
12	0x3c2526f0	0.010080084
13	0x3dbebb1e	0.093130335
14	0x3d794407	0.06085589
15	0x3d0b620b	0.034029048
16	0xbb03a7e5	-0.0020089087
17	0xbdd046fd	-0.1016979
18	0x3cae0191	0.021240981
19	0xbde4b4b4	-0.11167279

fc1.weight f4 [50, 720]
0	0xbd022b4f	-0.031779584
1	0x3c1e553d	0.009663877
2	0x3b4dd598	0.003140783
3	0xbcf89744	-0.030345567
4	0xbc575b92	-0.013144391
5	0x3c33f6d7	0.010984144
6	0x3a04f7cf	0.0005072327
7	0x3c247127	0.010036743
8	0x3ca5c190	0.0202339
9	0x3c906bea	0.017629582
10	0xbc8455a5	-0.01615412
11	0x3c4788ad	0.012178582
12	0x3bbcd0af	0.0057621817
13	0x3ce20140	0.027588487
14	0xbd04f99f	-0.03246462
15	0xbcffe284	-0.03123594
16	0x3c4bf649	0.012448856
17	0xbac4bf66	-0.0015010654
18	0x3cd0a3eb	0.025468787
19	0x3c45ee85	0.012080793
20	0xbc5cfa96	-0.013487479
21	0x3ad50843	0.0016253073
22	0x3c62da4d	0.013845992
23	0x3d050f68	0.032485396
24	0xbcdee125	-0.027206967
25	0xbc9c61d4	-0.019089617
26	0xbd0bef4b	-0.034163754
27	0x3bf63ab4	0.007514322
28	0x3cf13732	0.029445264
29	0x3d00e567	0.031468775
30	0x3d0c346a	0.034229673
31	0x3c4b52f2	0.012409912
32	0xbd233fbd	-0.039855707
33	0xbc8c506b	-0.01712819
34	0x3ce82916	0.028339904
35	0xbc7f16ea	-0.015569428
36	0xbbbd0667	-0.0057685855
37	0xbd0502d9	-0.03247342
38	0x3c76cd46	0.015063589
39	0xbbc7a198	-0.0060922615
40	0x3c16177c	0.009160873
41	0x3cd72af5	0.0262656
42	0xbd131fcb	-0.035918992
43	0x3c2564f2	0.010094868
44	0xb982e58a	-0.00024966552
45	0xbd2a84f0	-0.041630685
46	0x3c435bbb	0.011923726
47	0xbcc8bad9	-0.024503158
48	0x3c869add	0.016431266
49	0xbc2c48ab	-0.010515372
50	0x3c0cb2cd	0.008587551
51	0xbd013d32	-0.0315525
52	0xbd1110b6	-0.035416327
53	0x3ce6071b	0.02807956
54	0x3c9638b7	0.01833759
55	0xbd1f8a8d	-0.03895049
56	0x3bcfe306	0.006344202
57	0xbd2c62c5	-0.04208638
58	0x3cef1cdf	0.029188571
59	0xbd219af3	-0.03945441
60	0xbcfaac38	-0.030599698
61	0x3cafcf6a	0.021461207
62	0xbbb5538e	-0.005533642
63	0xbc92b815	-0.017910043
64	0x3ce5bacf	0.028043179
65	0xbcce15ac	-0.025156818
66	0xbcba1d87	-0.022719158
67	0x3b0fa89d	0.002192057
68	0x3cadacfb	0.021200648
69	0xbbe335b4	-0.006933892
70	0x3c660c86	0.014041072
71	0xbc7087b4	-0.014680792
72	0xbc7aaa5f	-0.015299409
73	0xbd071b84	-0.032985225
74	0xbca05734	-0.019572832
75	0x3d043a2c	0.03228204
76	0x3d048559	0.032353733
77	0xbd0ffac2	-0.03515125
78	0x3c5489c0	0.012972295
79	0xbc4b1072	-0.012394058
80	0xbceddc1e	-0.029035624
81	0x3bc49d7b	0.0060002184
82	0x3b69fade	0.0035702507
83	0x3b094bfe	0.0020949836
84	0x3ccccdb9	0.02500044
85	0xbcc5a825	-0.02412803
86	0x3c6ee97a	0.014582032
87	0x3c5b20e2	0.013374539
88	0xba61eff7	-0.00086188264
89	0x3cd2f206	0.025750171
90	0x3c9ca84c	0.019123219
91	0xbb05f9d8	-0.0020443108
92	0xbc06d6f1	-0.008229957
93	0xbc8832f6	-0.016625863
94	0xbd02424a	-0.0318015
95	0xbcd2668c	-0.025683664
96	0xbc6143e8	-0.0137491
97	0xbbf61438	-0.0075097345
98	0x3c158a70	0.009127244
99	0xbcace8d9	-0.021107124
100	0xbcfb9837	-0.03071223
101	0xbc4efa94	-0.012632985
102	0xbc893539	-0.016749011
103	0x3c08bb00	0.0083453655
104	0xbbd21a43	-0.006411822
105	0x3ce032e1	0.027368011
106	0x3c50899d	0.012728122
107	0xbadb12bb	-0.0016713956
108	0xbd20dd5a	-0.039273597
109	0xbc9bdb08	-0.01902534
110	0xbb76e121	-0.0037670808
111	0xbbadd65b	-0.005305094
112	0xbcbe7f87	-0.02325417
113	0x3cb64429	0.022249298
114	0xbc86bc61	-0.016447248
115	0x3cc93357	0.024560614
116	0x3b65ad05	0.0035045755
117	0xbbee4848	-0.0072718
118	0xbca8f528	-0.020624712
119	0xbd1586e5	-0.0365056
120	0x3ce8f237	0.02843581
121	0xbce161a3	-0.027512377
122	0xbced6db2	-0.02898297
123	0x3c6e6394	0.014550108
124	0x3ca0efe9	0.019645648
125	0xbb90035a	-0.004394931
126	0xbcbbbb36	-0.022916418
127	0xbc1f3a3a	-0.009718472
128	0xbc7b3e8b	-0.015334736
129	0xbcb1018c	-0.021607183
130	0xbae00762	-0.0017092044
131	0x3cdb7852	0.026790772
132	0x3c326eec	0.010890704
133	0xbd20f9b3	-0.03930063
134	0xbd2afe35	-0.041746337
135	0xbab21084	-0.0013585244
136	0xbca63f95	-0.02029399
137	0xbd082af8	-0.033244103
138	0xbcf16cf2	-0.029470894
139	0xbd270b8b	-0.040782493
140	0xbc0ed4c0	-0.008717716
141	0x3c0e69f6	0.008692255
142	0x3c378de7	0.011203266
143	0xbc466826	-0.012109792
144	0xbd03090a	-0.031991042
145	0xbce8f3df	-0.0284366
146	0xbd14b93d	-0.03630947
147	0x3c398913	0.011324185
148	0xbc2f5d29	-0.010703363
149	0xbce8e728	-0.028430536
150	0xbc6ddb87	-0.014517671
151	0xbd1f1ef6	-0.038847886
152	0xbccab352	-0.02474371
153	0xbc8da784	-0.017291792
154	0x3d01d61f	0.031698342
155	0x3ad06e07	0.0015901931
156	0xbca82ef5	-0.020530203
157	0xbc9395a5	-0.018015692
158	0x3d09172e	0.03346937
159	0xbae3927e	-0.0017362384
160	0xbd268d43	-0.04066206
161	0x3cde107e	0.027107473
162	0xbccc2705	-0.02492095
163	0x3cda8687	0.026675476
164	0xbcffc628	-0.031222418
165	0xbbbd7eb1	-0.005782925
166	0x3cb039e8	0.021511987
167	0xbcc66eff	-0.024222849
168	0xbcb513d1	-0.022104176
169	0xbc4ad6f3	-0.012380349
170	0xbcdb96b9	-0.026805269
171	0x3cd546b3	0.026034689
172	0xbc8aeba7	-0.01695807
173	0xbc93b3a2	-0.018029992
174	0xbd169fad	-0.036773372
175	0x3c8e609b	0.01738005
176	0xbd1442bc	-0.036196455
177	0x3c2a866a	0.010408023
178	0x3ccc5e80	0.024947405
179	0x3cfe3457	0.031030817
180	0x3d0449f6	0.032297097
181	0xbd1c08b3	-0.038094234
182	0x3bcc6a2d	0.006238243
183	0xbce946b0	-0.02847609
184	0xbb88d556	-0.0041758223
185	0x3c44e4de	0.012017457
186	0xbcb740ac	-0.022369705
187	0xbbf71d14	-0.007541308
188	0x3bdfdb37	0.0068315524
189	0x3b91b8e9	0.004447092
190	0xbce107ef	-0.027469603
191	0xbcf5ae85	-0.029990444
192	0xbafdcd84	-0.0019363617
193	0x3b891df5	0.0041844794
194	0xbd208160	-0.03918588
195	0xbc9ac4d2	-0.01889268
196	0xbc360117	-0.011108658
197	0x3bfb2533	0.0076643466
198	0xbd24be81	-0.04022074
199	0xbd05baf4	-0.032648996
200	0xbd04a0fa	-0.03238008
201	0xbc27075f	-0.0101946285
202	0xbb4610a4	-0.003022232
203	0x3c783251	0.015148715
204	0xbd12127b	-0.035662156
205	0x3c656391	0.014000789
206	0x3ce12f14	0.027488269
207	0xbce1df1c	-0.027572207
208	0xbc0e1969	-0.00867305
209	0xbbde5c6e	-0.006785921
210	0x3c05ef68	0.008174755
211	0x3d0af46a	0.033924498
212	0x3cf4fc42	0.029905442
213	0x3cc05dd9	0.02348225
214	0x3cad7a21	0.0211764
215	0x3ce22f36	0.027610403
216	0xbd1c734b	-0.03819589
217	0x3cddc7fc	0.027072899
218	0x3c592377	0.013253084
219	0x3c130c8c	0.008975159
220	0xbc460ea4	-0.012088452
221	0xbc9c7628	-0.01909931
222	0xbd00b1a9	-0.03141943
223	0x3c65ca79	0.014025324
224	0xba4076b0	-0.00073419046
225	0xbd02d1be	-0.031938307
226	0xbcfed028	-0.031105116
227	0xbd2c773b	-0.042105895
228	0x3cb8959c	0.022532277
229	0xbce43f85	-0.02786232
230	0xbd2621a0	-0.04055941
231	0xbcf1df4e	-0.029525425
232	0xbce857b8	-0.02836214
233	0x3ca45dd3	0.02006427
234	0x3cac7bad	0.021055067
235	0xbd2c0457	-0.041996326
236	0x3cf3629c	0.029710107
237	0xbc9674e5	-0.018366287
238	0xbc491a53	-0.012274343
239	0x3c1f3003	0.009716037
240	0xbc1ba754	-0.009500343
241	0x3ce7a210	0.02827552
242	0xbcc9fa25	-0.024655411
243	0xbcde852a	-0.027163107
244	0x3c477174	0.012173045
245	0xbd102703	-0.035193454
246	0x3aa1d282	0.0012346061
247	0xbd20fd83	-0.039304268
248	0x3af93ca4	0.0019015265
249	0x3d0095cd	0.03139286
250	0xbcb77c09	-0.022398012
251	0xba02b285	-0.0004985708
252	0xbcac48de	-0.02103084
253	0x3ceb58d4	0.02872888
254	0xbc2502ba	-0.010071451
255	0xbc72bf24	-0.014816079

fc1.bias f4 [50]
0	0x3c3da7de	0.011575667
1	0x3e1222bf	0.14271067
2	0xbd2d1912	-0.042260237
3	0xbdcf2399	-0.101142116
4	0xbe05d681	-0.13070108
5	0x3c817962	0.01580495
6	0x3ca0efdc	0.019645624
7	0xbdc7b778	-0.09751791
8	0xbcb25c02	-0.021772388
9	0x3dcbb605	0.09946827
10	0x3d809fba	0.062804654
11	0xbc9e1148	-0.01929535
12	0x3d821aa0	0.063527346
13	0x3d902771	0.07038773
14	0x3b851c5a	0.0040622177
15	0xbcfb03c8	-0.030641451
16	0xbcf53ecf	-0.029937176
17	0xbd2425c5	-0.040075082
18	0xbd7f8ab8	-0.062388152
19	0xbcb77f0e	-0.022399452
20	0x3de58184	0.11206344
21	0xbd19ba21	-0.037531022
22	0x3e1360b7	0.14392363
23	0x3df05d41	0.11736537
24	0xbd678dc1	-0.05653167
25	0x3d136a46	0.035990022
26	0x3d098c34	0.033580974
27	0x3cea1d42	0.028578404
28	0x3d6df08d	0.058090735
29	0x3d86b6a3	0.06577804
30	0xbc9a83a3	-0.018861597
31	0x3d310a9a	0.043223
32	0xbe4523dc	-0.1925196
33	0x3cbbb4de	0.022913393
34	0xbdc6ded5	-0.097104706
35	0x3daf6ec2	0.08566047
36	0x3db09be3	0.08623483
37	0x3d6826ad	0.05667751
38	0xbd838100	-0.06421089
39	0x3d02b3a2	0.031909592
40	0x3e2b4b84	0.16728026
41	0x3d91e9e9	0.07124693
42	0xbd113568	-0.035451323
43	0x3b94538c	0.004526561
44	0x3c9c6313	0.019090211
45	0x3db9f433	0.090797804
46	0x3d8ab044	0.06771901
47	0x3b93fd9c	0.0045163166
48	0xbd80e643	-0.06293919
49	0xbd71bf87	-0.059020545

fc2.weight f4 [32, 50]
0	0xbd84694a	-0.06465395
1	0xbe792d15	-0.24333604
2	0x3d125501	0.035725597
3	0xbe823d5f	-0.25437447
4	0x3e8b9bb8	0.2726724
5	0x3e51efe3	0.20501666
6	0xbca444d3	-0.02005235
7	0xbea34c8b	-0.31894335
8	0x3e3cb2eb	0.18427627
9	0xbcb29d5f	-0.021803556
10	0xbeb1bcd6	-0.34714383
11	0x3e4b6b44	0.19865137
12	0xbe7020f1	-0.23450066
13	0xbe86478f	-0.2622647
14	0xbe3ebf6e	-0.18627712
15	0xbebab869	-0.3646882
16	0xbc97aa9b	-0.018513968
17	0xbdf8ecd5	-0.12154547
18	0x3da8d465	0.08243636
19	0x3e791e3e	0.24327943
20	0x3e124593	0.14284353
21	0x3da6a63f	0.08137178
22	0x3e07dbca	0.13267437
23	0xbeb5312c	-0.35389078
24	0xbe3c5854	-0.1839307
25	0xbe3c57b4	-0.18392831
26	0x3e756250	0.23963284
27	0xbeb19aca	-0.34688407
28	0xbe2a48a8	-0.16629279
29	0xbdc43f76	-0.09582417
30	0xbdc36d50	-0.09542334
31	0xbea6dc8a	-0.32590133
32	0xbe944818	-0.28961253
33	0xbde54f55	-0.11196772
34	0xbe198938	-0.14993751
35	0xbee54635	-0.44780126
36	0xbea057d3	-0.31317005
37	0xbebb3387	-0.3656275
38	0xbea07ae6	-0.31343764
39	0xbe7091f4	-0.23493177
40	0xbd9ef963	-0.077624105
41	0xbe85148a	-0.25992233
42	0xbd521e38	-0.05129835
43	0xbe033857	-0.1281446
44	0xbe8f60ef	-0.28003642
45	0xbeb538e8	-0.3539498
46	0x3e4356e8	0.19076121
47	0xbd12142a	-0.03566376
48	0xbec1da6f	-0.37861964
49	0xbe9b2a1a	-0.30305558
50	0x3e000017	0.12500034
51	0x3e38d484	0.18049818
52	0x3d306bf3	0.0430717
53	0x3e1f3499	0.15547408
54	0x3e5a8e90	0.21343446
55	0x3dc9789c	0.098374575
56	0x3d4afcbb	0.04955743
57	0x3e1a330c	0.15058535
58	0x3d978569	0.07398493
59	0x3e4f2a65	0.20231016
60	0xbe37b885	-0.17941482
61	0xbe93d23b	-0.2887133
62	0xbeb54549	-0.35404423
63	0x3dbad3d1	0.09122432
64	0x3a8a1315	0.0010534251
65	0x3da1fbf7	0.079093866
66	0xbd9f3f83	-0.07775786
67	0xbc902921	-0.017597737
68	0xbe4eeabd	-0.20206733
69	0x3dba2af0	0.09090221
70	0xbe1a4542	-0.15065482
71	0xbdd424e6	-0.103586
72	0xbdf0a541	-0.1175027
73	0xbe79776e	-0.24361965
74	0x3e36c249	0.17847551
75	0xbe212bd9	-0.15739383
76	0xbe87fd2e	-0.26560348
77	0xbe919b51	-0.2843881
78	0x3ddaa882	0.106766716
79	0xbe9d7094	-0.30749953
80	0xbda00246	-0.078129336
81	0xbe1a25d3	-0.15053491
82	0xbe4930a2	-0.19647458
83	0x3e8592c3	0.26088533
84	0x3e43df7c	0.19128221
85	0xbe7b56cf	-0.24544834
86	0xbe593694	-0.21212226
87	0x3e1085e3	0.14113574
88	0x3d6fdc8d	0.058559943
89	0x3e4da65c	0.20082992
90	0xbecaecaa	-0.39633685
91	0xbe22d50c	-0.15901583
92	0x3d91bc62	0.07116009
93	0x3dfb46ef	0.12269389
94	0x3e811b30	0.25216055
95	0xbe02783b	-0.12741177
96	0x3d82a19d	0.063784815
97	0x3b85dfae	0.0040855026
98	0x3e80d8db	0.25165448
99	0xbef56b9d	-0.47933665
100	0x3dc9be3a	0.09850736
101	0x3e0a90a9	0.13531746
102	0x3de75b96	0.112967655
103	0x3e10b43d	0.14131255
104	0x3da3e78f	0.08003151
105	0x3d7573f7	0.059925046
106	0x3dc75efc	0.09734914
107	0x3d8a759f	0.06760716
108	0x3e0aa7b4	0.13540536
109	0x3c0954ec	0.008382063
110	0xbee4be88	-0.44676614
111	0xbeff7af2	-0.49898487
112	0x3d3eef2c	0.04661481
113	0xbe6fb29d	-0.2340798
114	0xbede0e98	-0.4337051
115	0xbe0deb55	-0.13859303
116	0xbdf939c5	-0.12169222
117	0xbde6d8dd	-0.11271832
118	0xbec9f5c1	-0.39445308
119	0x3a16f1e9	0.00057580933
120	0xbef8bdb2	-0.48582226
121	0xbd6e92ca	-0.058245458
122	0xbe8c717b	-0.2743033
123	0xbe68af72	-0.22723177
124	0x3e1ffba1	0.15623333
125	0xbe8bf0cb	-0.27332148
126	0xbed79df7	-0.42112705
127	0xbebeb654	-0.3724848
128	0x3caf07c7	0.021366013
129	0xbe9802c9	-0.29689625
130	0xbd2bfee1	-0.04199112
131	0xbe56170a	-0.20907226
132	0xbee01ce0	-0.4377203
133	0x3e82d5a5	0.25553623
134	0x3e3a9bdc	0.18223518
135	0xbd89a797	-0.06721418
136	0x3d14564d	0.036215115
137	0x3df7c491	0.12098039
138	0xbeb7a8e3	-0.35871038
139	0x3e2d0660	0.16896963
140	0xbe8a88a3	-0.2705737
141	0xbea4bb90	-0.3217435
142	0xbe0164fd	-0.1263618
143	0x3d65c398	0.056094736
144	0x3e748be6	0.23881492
145	0xbf27ff0f	-0.65623564
146	0xbebd7eb1	-0.3701072
147	0x3db96a63	0.09053495
148	0x3e5d39d1	0.21604086
149	0xbf072e44	-0.5280497
150	0x3d322275	0.043489892
151	0xbed68fd6	-0.41906613
152	0xbcef7906	-0.029232513
153	0x3e6b9d78	0.23009288
154	0xbee3a598	-0.44462276
155	0xbf3f6a44	-0.74771523
156	0xbe0b573e	-0.13607499
157	0xbf77d8a3	-0.96814936
158	0xbedf8081	-0.43652728
159	0x3df5c3d3	0.12000241
160	0x3d4ffd32	0.050778575
161	0xbe120b3e	-0.14262101
162	0xbf283768	-0.65709543
163	0x3e595ba1	0.2122636
164	0x3e1da0e3	0.15393405
165	0xbef1c9a3	-0.4722415
166	0xbd4dc315	-0.050234873
167	0x3dddf33b	0.10837408
168	0xbeab35a6	-0.33439368
169	0xbf5faf1d	-0.87376577
170	0x3db1a84c	0.08674678
171	0xbdeab608	-0.11460501
172	0xbef4501b	-0.47717366
173	0xbf20d32a	-0.6282221
174	0xbef79190	-0.48353243
175	0xbefa2508	-0.48856378
176	0x3e155df8	0.14586627
177	0x3e0fcb35	0.14042361
178	0x3e4a7e35	0.19774707
179	0xbf1f973f	-0.6234016
180	0xbdb2d193	-0.08731379
181	0xbf5d9964	-0.8656218
182	0xbf064942	-0.5245553
183	0xbf5409ee	-0.8282765
184	0xbf18acb2	-0.5963851
185	0xbf5d9b0d	-0.86564714
186	0xbec7d2fc	-0.39028156
187	0xbe9d6690	-0.3074231
188	0x3e3edf2b	0.1863982
189	0xbea6939c	-0.32534492
190	0xbf0dc93d	-0.5538519
191	0xbf07fd42	-0.53120816
192	0x3d49c3b4	0.049258903
193	0x3c70b254	0.014690954
194	0x3c074ce8	0.008258082
195	0x3d4be25e	0.049776427
196	0x3e4e37f3	0.2013853
197	0x3dc6b5c1	0.097026356
198	0xbf5ed2ae	-0.8704022
199	0xbf437fc1	-0.7636681
200	0xbe0aedc2	-0.1356726
201	0xbc2df13b	-0.010616596
202	0x3d908b1f	0.07057785
203	0xbde8f03b	-0.11373945
204	0xbe4bc7d7	-0.19900452
205	0x3e3e6658	0.18593729
206	0xbd85a25d	-0.06525109
207	0x3e62326e	0.2208955
208	0xbe573267	-0.2101532
209	0xbdc1e9b5	-0.09468404
210	0x3e1b2fa5	0.15154894
211	0x3e2cd466	0.16877899
212	0xbe385f50	-0.18005109
213	0xbdcf8a15	-0.10133759
214	0xbddffb29	-0.10936577
215	0xbe3cadb0	-0.18425632
216	0xbd4890d8	-0.04896626
217	0x3df66439	0.12030835
218	0x3e5c5896	0.21518168
219	0xbe492d8c	-0.19646281
220	0xbe476533	-0.19472198
221	0xbddb3ef8	-0.1070537
222	0x3e22d63b	0.15902035
223	0x3e355d89	0.17711462
224	0xbe84eeca	-0.25963432
225	0xbe4bff4a	-0.19921604
226	0x3e067de2	0.13133958
227	0xbe583109	-0.21112455
228	0xbe037b33	-0.12839966
229	0xbe6e05e0	-0.23244429
230	0xbd41d8c2	-0.047325857
231	0xbeb10caf	-0.3457999
232	0xbe3ce39e	-0.18446204
233	0xbe638f97	-0.22222744
234	0xbe509a90	-0.20371461
235	0x3e437984	0.19089323
236	0x3dd9403f	0.10607957
237	0xbe2c52a8	-0.16828406
238	0x3e0aa0b5	0.13537867
239	0x3e4efaa4	0.202128
240	0xbe62f5e3	-0.22164111
241	0x3e207815	0.15670808
242	0xbd8a6756	-0.06757991
243	0x3d9095e2	0.07059838
244	0xbdc7ad67	-0.09749871
245	0xbe8f6eb7	-0.28014156
246	0x3d4dc66b	0.050238054
247	0xbde08f57	-0.1096484
248	0xbe142f94	-0.14471275
249	0xbe0814eb	-0.1328923
250	0xbcb2b2ba	-0.02181374
251	0x3e8b76e3	0.2723914
252	0xbd9cf60d	-0.07664118
253	0xbeba2fc1	-0.36364558
254	0xbe82e168	-0.25562596
255	0x3da0582c	0.078293175

fc2.bias f4 [32]
0	0x3e5c68a6	0.21524295
1	0xbf186a0d	-0.5953682
2	0xbff8b4de	-1.9430196
3	0x3f79eb8c	0.9762504
4	0xbedc1888	-0.42987466
5	0x3f266932	0.65004265
6	0xbf3e36e2	-0.74302495
7	0x3d271107	0.040787723
8	0x3ed54b9b	0.41659245
9	0xbf31e2c6	-0.69486654
10	0x3d0583c7	0.032596376
11	0xbdd9c1f9	-0.106327005
12	0x3f09b7eb	0.5379626
13	0x3f8715c9	1.0553523
14	0xbead8d42	-0.33896834
15	0xbf30b4df	-0.6902599
16	0x3ed6c00a	0.4194339
17	0x3efe6df3	0.4969326
18	0xbed3afb2	-0.41344982
19	0x3efe0cd4	0.49619162
20	0x3f18e261	0.59720427
21	0xbf248420	-0.64264107
22	0xbf4086fa	-0.7520596
23	0xbedbbde6	-0.4291832
24	0xbe49a687	-0.19692431
25	0x3ec6e51c	0.38846672
26	0xbe87f53e	-0.26554292
27	0xbea849e2	-0.32868868
28	0xbf894f50	-1.0727329
29	0x3e1f83ac	0.15577573
30	0x3e9f0dd9	0.31065252
31	0x3e1ffa82	0.15622905
