checkpoints/model-20.pt (torch, 175823 bytes, 8 tensors)

conv1.weight f4 [10, 1, 5, 5]
0	0x3e747cd6	0.23875746
1	0x3e787fff	0.24267577
2	0x3e8008ff	0.25006863
3	0x3e76bf71	0.24096467
4	0x3dd4b836	0.10386698
5	0x3e54685b	0.20742933
6	0x3e8ae293	0.27125987
7	0x3db229d2	0.08699383
8	0x3df63b5d	0.120230414
9	0x3d22083a	0.039558627
10	0x3e5e347e	0.21699712
11	0xbd89556d	-0.06705747
12	0x3e67aaa7	0.22623692
13	0x3d8d643d	0.069038846
14	0xbe80f624	-0.2518779
15	0xbe4ca8a4	-0.19986206
16	0xbd847455	-0.06467501
17	0xbe3be4bb	-0.18348972
18	0x3d0fdd40	0.03512311
19	0xbe9fd5a4	-0.31217682
20	0xbe66de69	-0.2254578
21	0xbc6b61be	-0.014366565
22	0xbea35e5d	-0.3190793
23	0xbe4983eb	-0.19679229
24	0xbeb25da6	-0.34837073
25	0xbec2dd55	-0.38059488
26	0xbd257453	-0.04039414
27	0x3e6cfd8f	0.231436
28	0x3e890042	0.2675801
29	0x3d1036a5	0.035208363
30	0xbec803a1	-0.3906527
31	0xbe6e9988	-0.23300755
32	0x3acdd557	0.0015703839
33	0x3daa7efa	0.08325
34	0x3e9436d7	0.2894809
35	0xbd883214	-0.06650177
36	0xbc8aaeca	-0.016929049
37	0xbdcddb7d	-0.1005163
38	0x3da3d7d9	0.08000154
39	0x3e180952	0.14847305
40	0xbe7f2372	-0.24915865
41	0xbc95dcfc	-0.01829385
42	0x3dad8c9b	0.08474084
43	0x3da6ebab	0.08150419
44	0xbda8efbb	-0.0824885
45	0xbe62dd5a	-0.22154751
46	0xbd902daf	-0.070399635
47	0x3e79296d	0.24332209
48	0x3c85a606	0.016314518
49	0x3e84257c	0.25809848
50	0x3e82aa9c	0.2552079
51	0x3e25993e	0.16171739
52	0x3e1524ca	0.14564815
53	0x3d94eb67	0.07271462
54	0x3e650188	0.22363865
55	0x3daec12c	0.08532938
56	0x3d8ae328	0.06781608
57	0x3e029c7b	0.12755005
58	0x3ddeea15	0.10884491
59	0xbbb79c5f	-0.0056033577
60	0xbdee24d3	-0.116281174
61	0x3d762f06	0.06010344
62	0x3e07e2e0	0.1327014
63	0x3e4c2f19	0.19939841
64	0x3d20132b	0.03908078
65	0x3dc4dfae	0.09612976
66	0xbe021e8c	-0.12706965
67	0x3cf31581	0.02967334
68	0xbd509862	-0.050926574
69	0x3e395c65	0.18101652
70	0xbd8b4315	-0.06799904
71	0x3d91f0f1	0.07126034
72	0x3dd2bd08	0.10289961
73	0xbd6c1a14	-0.057642058
74	0x3d98157b	0.07425972
75	0x3ee035da	0.43791085
76	0x3eca83bb	0.39553627
77	0x3e3d2141	0.18469717
78	0x3ec5136f	0.3849139
79	0x3ebabcaa	0.36472064
80	0x3e5b0af4	0.21390897
81	0x3e2560b9	0.16150178
82	0xbd91c62d	-0.07117877
83	0x3e4f73ce	0.2025902
84	0x3e5da70d	0.21645756
85	0x3e925430	0.28579855
86	0xbdef71a3	-0.11691596
87	0x3e88636c	0.26638353
88	0x3e6efd73	0.2333887
89	0xbde82218	-0.11334628
90	0x3e22316c	0.15839165
91	0x3e591e6f	0.21203016
92	0x3d59ece5	0.053204436
93	0xbd84bca2	-0.06481291
94	0xbe186f00	-0.14886093
95	0xbd31bf6e	-0.043395452
96	0xbcb9a8f6	-0.022663575
97	0xbe07a79f	-0.13247536
98	0x3b0d0cbc	0.0021522483
99	0xbe93657f	-0.28788373
100	0x3e9da8fc	0.30792987
101	0x3e78c07f	0.24292181
102	0x3e3f394a	0.18674198
103	0xbe1921aa	-0.14954248
104	0xbe258c46	-0.16166791
105	0x3df844a3	0.121224664
106	0x3d689c14	0.056789473
107	0x3e63d60d	0.22249623
108	0xbe1878ae	-0.14889786
109	0xbe87c0d3	-0.265143
110	0x3ea262bc	0.31715953
111	0x3d2f9fea	0.042877115
112	0x3d3eea6e	0.04661029
113	0x3df18f26	0.117948815
114	0xbea63ac7	-0.3246672
115	0x3e55f63c	0.20894712
116	0x3e45ce09	0.19316877
117	0x3bed233d	0.0072368667
118	0x3da041e2	0.07825066
119	0xbebdaa5b	-0.37044033
120	0x3e002388	0.12513554
121	0xbde8444e	-0.11341153
122	0x3deba099	0.11505241
123	0xbe28a88c	-0.16470546
124	0xbea8f6e2	-0.33000857
125	0x3e0e39f5	0.13889296
126	0x3d8c9c14	0.06865707
127	0xbd5c64de	-0.053807132
128	0xbcb1c775	-0.021701554
129	0xbd0be097	-0.034149732
130	0x3e43862d	0.19094153
131	0x3e18cf94	0.14922935
132	0x3da1f1ab	0.07907423
133	0xbcfa6204	-0.030564316
134	0x3a60d893	0.0008577194
135	0x3e778147	0.24170409
136	0xbd898d54	-0.06716409
137	0xbba83230	-0.005132936
138	0x3d7f8a26	0.062387608
139	0x3dff2796	0.12458722
140	0x3ded886b	0.11598285
141	0x3de07efa	0.10961719
142	0x3e05cbd0	0.1306603
143	0x3dd1c788	0.10243136
144	0x3e099b13	0.13438062
145	0x3e4d0114	0.20019943
146	0x3d9ec7a8	0.07752925
147	0x3e1d10a3	0.15338378
148	0xbddf3005	-0.10897831
149	0x3ce8806a	0.028381545
150	0x3de89895	0.11357228
151	0x3e089b30	0.1334045
152	0x3e365293	0.17804937
153	0x3ddf6967	0.10908776
154	0x3dd405b0	0.10352647
155	0x3de4ecec	0.11178002
156	0x3e3a4e2e	0.18193886
157	0x3e1e1777	0.15438639
158	0x3e79bb0e	0.24387762
159	0x3dc0fe51	0.09423507
160	0x3c0de2c6	0.008660024
161	0xbdbbe48f	-0.091744535
162	0xbcc641d4	-0.024201311
163	0x3db714c8	0.089395106
164	0x3e984456	0.29739636
165	0x3d6c97a8	0.05776182
166	0x3dce6d63	0.100794576
167	0x3d25b443	0.040455114
168	0x3dd17e3c	0.102291554
169	0xbd503229	-0.050829086
170	0x3e2b48d9	0.16727008
171	0x3ddf440b	0.1090165
172	0xbd8591e2	-0.065219656
173	0x3e4d84b0	0.20070148
174	0xbdda56d6	-0.10661094
175	0x3e58ca32	0.21170881
176	0x3e0decd2	0.13859871
177	0xbcb890eb	-0.02253004
178	0x3e4d1e62	0.20031121
179	0x3df6203e	0.120178685
180	0xbd07516c	-0.033036634
181	0xbd1aaa02	-0.03775979
182	0x3eabe176	0.3357045
183	0x3d8f0a57	0.06984394
184	0xbd3c72bf	-0.046007868
185	0x3d1bd4ad	0.03804462
186	0x3e33d5b6	0.17561993
187	0x3e5ea3ea	0.21742216
188	0xbd850d00	-0.0649662
189	0xbdf9b6fa	-0.12193103
190	0x3ddf11e7	0.108920865
191	0xbdfc3185	-0.123141326
192	0xbdfbae53	-0.12289109
193	0xbe3d567f	-0.18490027
194	0xbdceddf9	-0.10100932
195	0xbec2fd9a	-0.38084108
196	0xbe322359	-0.17396297
197	0xbeb6b3dc	-0.35684097
198	0xbe23038d	-0.15919323
199	0x3dc6b335	0.0970215
200	0xbca3f27f	-0.020013092
201	0x3eb2433f	0.3481693
202	0x3d60727b	0.054796677
203	0x3ebaa4f0	0.36453962
204	0x3e9a799e	0.30170912
205	0x3de8ee76	0.11373608
206	0x3e3a44d7	0.18190323
207	0xbd625a35	-0.05526181
208	0x3e2a6ddb	0.16643469
209	0x3e2c8c83	0.16850476
210	0x3cb5dc1f	0.022199688
211	0x3e02e850	0.12783933
212	0x3e864a0f	0.26228377
213	0x3d04e9e0	0.032449603
214	0x3e32ebb8	0.17472732
215	0x3db3a7ef	0.08772265
216	0xbb65360f	-0.0034974848
217	0x3e80f335	0.25185552
218	0xbd8ebcd2	-0.06969608
219	0x3e9cd3de	0.30630392
220	0x3e00e992	0.125891
221	0xbde755b2	-0.11295642
222	0xbd1ae945	-0.03782012
223	0x3ca17e71	0.019713612
224	0x3e63bc34	0.22239763
225	0xbd89e6a0	-0.06733441
226	0x3e7a79f1	0.2446058
227	0x3e0e56bd	0.13900276
228	0x3da6835d	0.08130524
229	0x3e81ee27	0.25377008
230	0x3cc1f1aa	0.023674805
231	0xbe2c7667	-0.16842042
232	0x3e2b1e44	0.16710764
233	0xbc084d57	-0.0083192205
234	0x3e1a71e2	0.15082505
235	0xbe52a3de	-0.20570323
236	0xbe797109	-0.24359526
237	0xbe8061ac	-0.25074518
238	0xbdb79d03	-0.089654945
239	0xbc6d6875	-0.0144902365
240	0xbd7bff48	-0.061522752
241	0xbd94848b	-0.07251843
242	0xbe2e6a1a	-0.17032662
243	0xbe8c7874	-0.27435648
244	0xbd7e59b8	-0.06209728
245	0x3e7cfcb6	0.24705777
246	0x3e7f1172	0.24908999
247	0x3bbc2c2e	0.0057425713
248	0x3e161e5e	0.14660022
249	0xbd8faddf	-0.07015585

conv1.bias f4 [10]
0	0x3bc72aaf	0.0060780863
1	0x3d1af963	0.03783549
2	0xbeb0527c	-0.3443793
3	0xbde7c580	-0.11316967
4	0x3ce29de2	0.027663175
5	0xbc997a1d	-0.018734986
6	0xbeae7888	-0.34076333
7	0x3e58281e	0.21109053
8	0xbe6f62b3	-0.23377495
9	0x3cca1c29	0.024671631

conv2.weight f4 [20, 10, 5, 5]
0	0x3d569887	0.052391555
1	0x3df19abc	0.11797091
2	0x3dbefff2	0.093261614
3	0x3de056b6	0.10954039
4	0x3e19a040	0.15002537
5	0x3dca8d2e	0.09890209
6	0x3dbd06a1	0.0922978
7	0x3dcaec1b	0.09908315
8	0x3d43d9bc	0.04781507
9	0x3db17fe0	0.08666968
10	0xbe9098e6	-0.28241652
11	0xbe48e56d	-0.19618769
12	0xbdafefa4	-0.0859063
13	0xbd3b3edd	-0.045714248
14	0xbd9e16a4	-0.07719162
15	0xbcb44b7d	-0.022008652
16	0x3cf9e806	0.030506145
17	0xbcb66542	-0.02226508
18	0xbd6715d7	-0.056417312
19	0x3d343b65	0.044001956
20	0x3e0a9efd	0.13537212
21	0x3e477a81	0.19480325
22	0x3e5c6846	0.21524152
23	0x3d46b645	0.04851367
24	0x3e175333	0.14777832
25	0x3e413c39	0.1887063
26	0x3c734f5c	0.014850464
27	0xbdd50b12	-0.10402502
28	0xbd795857	-0.060875263
29	0xbd82b1be	-0.06381558
30	0x3dd00c97	0.10158651
31	0x3b8c370d	0.0042790235
32	0xbe82ead6	-0.2556979
33	0xbe8d31b7	-0.27576992
34	0xbe409dd8	-0.18810213
35	0xbdcf0adb	-0.101094924
36	0xbe86ac1d	-0.26303187
37	0xbec7271a	-0.3889702
38	0xbe2ae88b	-0.1669027
39	0xbdad919e	-0.0847504
40	0xbeb35f7f	-0.35033795
41	0xbef098a7	-0.46991464
42	0xbeeccefd	-0.4625167
43	0xbe226d08	-0.15861905
44	0x3d4605c6	0.04834535
45	0xbe954a1a	-0.29158098
46	0xbe88e08e	-0.26733822
47	0xbe8d7651	-0.2762933
48	0xbd002a0f	-0.03129011
49	0x3e3873dd	0.18012948
50	0xb8e5e414	-0.00010962054
51	0xbd85f49f	-0.065407984
52	0xbbc7fd33	-0.0061031817
53	0x3c6827de	0.014169661
54	0x3cb9a4cf	0.022661595
55	0xbd6c6c5f	-0.05772054
56	0xbdb7446b	-0.089485966
57	0xbd7ae29a	-0.06125126
58	0x3cd818a1	0.026378931
59	0xbd72bba6	-0.059260987
60	0xbd7ae097	-0.06124934
61	0xbd80c417	-0.06287401
62	0xbb84e371	-0.0040554334
63	0xbd9c2247	-0.076237254
64	0xbd878e41	-0.0661893
65	0x3d925967	0.071459584
66	0x3ba20c5e	0.004945322
67	0xbc7d385b	-0.015455331
68	0x3d3e1208	0.046403915
69	0x3cd8a62e	0.026446428
70	0x3d620b2b	0.05518643
71	0x3cf6797f	0.03008723
72	0x3d2a1fe2	0.041534312
73	0xbd1a3b09	-0.037653957
74	0xbc8b3107	-0.016991151
75	0xbd80eaa3	-0.062947534
76	0xbcd38772	-0.025821421
77	0xbd041f36	-0.032256328
78	0x3bac2acb	0.0052541248
79	0x3d85f1e0	0.065402746
80	0xbd431273	-0.047625016
81	0x3d0ac242	0.033876665
82	0x3c38f03d	0.011287746
83	0xbb3abbfc	-0.0028493395
84	0xbd0979ec	-0.03356354
85	0xbda868aa	-0.08223088
86	0xbc96d979	-0.018414246
87	0xbd9a9a1d	-0.07548926
88	0x3d38a5c2	0.045079954
89	0xbba2a4cc	-0.004963493
90	0x3c94d918	0.018169925
91	0xbc20b15b	-0.00980791
92	0x3d37669b	0.044775587
93	0xbd206c2a	-0.039165653
94	0x3d0eff13	0.034911226
95	0x3ced59ee	0.028973546
96	0x3d765a09	0.060144458
97	0x3dc6c6eb	0.09705909
98	0xbc7227dc	-0.014780011
99	0x3cdf9486	0.027292501
100	0xbd5b8748	-0.05359581
101	0xbd03710a	-0.032090224
102	0xbd74d5e0	-0.05977428
103	0x3d185b17	0.037196245
104	0x3dcdda39	0.10051388
105	0xbd9d62b5	-0.076848425
106	0xbe1ca87f	-0.15298651
107	0xbdd738fd	-0.105089165
108	0xbd716f97	-0.05894431
109	0x3d0c1763	0.03420199
110	0xbd953a81	-0.07286549
111	0xbd8dcda8	-0.069239914
112	0xbc5616ac	-0.013066929
113	0xb9a2b53b	-0.00031034075
114	0xbce06f2b	-0.027396759
115	0x3c77eb87	0.015131838
116	0x3d808931	0.06276167
117	0x3c955cdd	0.018232757
118	0xbc37ce74	-0.011218656
119	0x3c4db2d1	0.01255484
120	0x3da1f88f	0.07908737
121	0x3d2bc9b0	0.04194039
122	0x3ce47fb0	0.027892917
123	0xbbf4c690	-0.0074699596
124	0xbd60673a	-0.054785945
125	0xbd5baf10	-0.05363375
126	0x3cbc13af	0.022958605
127	0x3c9669d7	0.018361015
128	0x3d59ec60	0.05320394
129	0x3d3b74f1	0.04576582
130	0x3bf615f2	0.0075099403
131	0xbc17cab2	-0.009264635
132	0xbd5963a0	-0.053073525
133	0x3caddce0	0.021223485
134	0xbd56519b	-0.05232392
135	0x3d6d5efe	0.05795192
136	0x3d6100c8	0.054932386
137	0x3bd924df	0.00662671
138	0xbca1abcb	-0.019735238
139	0xbd1e660d	-0.038671542
140	0x3ce5dfc0	0.028060794
141	0x3cd9e284	0.026597269
142	0x3d2d25e9	0.042272482
143	0xbd4b47df	-0.04962909
144	0xbbbfa109	-0.0058480543
145	0xbc2dd144	-0.010608975
146	0x3d215ead	0.03939693
147	0x3ced2951	0.028950365
148	0xbcd2fa5d	-0.025754148
149	0xbccf8873	-0.025333619
150	0xbd52c890	-0.051460803
151	0xbd7d5dc7	-0.06185701
152	0xbdac6f5a	-0.08419676
153	0x3c5a49dd	0.013323274
154	0x3d36810f	0.044556674
155	0xbb933099	-0.0044918773
156	0x3d025132	0.031815715
157	0xbacd89cb	-0.0015681324
158	0xbd7f1e10	-0.06228453
159	0xbd571a51	-0.05251533
160	0x3c8cd067	0.017189218
161	0x3d66bdde	0.056333415
162	0x3d5cf1ab	0.05394141
163	0x3d6298f1	0.055321638
164	0xbd8441c1	-0.06457854
165	0x3d07d846	0.03316524
166	0x3d2d84a5	0.042362828
167	0x3d9c8fe8	0.076446354
168	0xbd5d5d18	-0.05404386
169	0xbd849c10	-0.06475079
170	0x3d0a5709	0.03377441
171	0x3dc19b4d	0.094534494
172	0xbcb35c78	-0.021894678
173	0x3cde792f	0.027157394
174	0xbd3ae664	-0.045629874
175	0x3dc88010	0.09790051
176	0x3d8044ee	0.06263147
177	0x3df5bc89	0.11998851
178	0x3df78976	0.120867655
179	0x3e3a7612	0.18209103
180	0x3db9a1c5	0.09064058
181	0x3e59b5cc	0.21260756
182	0x3da82465	0.08210067
183	0x3dec554e	0.11539708
184	0x3e069388	0.13142216
185	0xbeb2ba42	-0.34907728
186	0xbe4acb72	-0.1980417
187	0xbbe787b7	-0.007065739
188	0xbd177cae	-0.03698414
189	0xbd83d04a	-0.06436212
190	0xbe5d1dd4	-0.2159341
191	0xbda20560	-0.079111814
192	0xbd5a1d62	-0.053250678
193	0xbdc38b40	-0.09548044
194	0xbe03b8ed	-0.12863512
195	0x3e0b485b	0.1360182
196	0x3e6cd805	0.2312928
197	0x3e173fd3	0.14770441
198	0x3d7b91de	0.061418407
199	0x3d9d859e	0.07691501
200	0xbb9d5bf6	-0.0048022224
201	0x3b075f44	0.0020656148
202	0x3ce81bd6	0.028333586
203	0xbc040f5c	-0.008060303
204	0x3aa43822	0.0012528936
205	0xbd752505	-0.059849758
206	0xbc9895b6	-0.018626075
207	0x3d1c7639	0.038198683
208	0xbd3498ff	-0.04409122
209	0xbd363d1d	-0.044491876
210	0x3c85f81c	0.01635366
211	0xbda10173	-0.078616045
212	0xbd857873	-0.065171145
213	0xbd889354	-0.066687256
214	0xbcbdd579	-0.02317308
215	0x3db865f8	0.09003824
216	0xbc4e51de	-0.012592761
217	0x3cb48e9e	0.022040661
218	0xbb245867	-0.0025077106
219	0x3d43d129	0.047806893
220	0x3d1317dd	0.03591143
221	0xbb1b7902	-0.002372325
222	0x3d1baf14	0.038008764
223	0xbc890180	-0.016724348
224	0xbd207c19	-0.03918085
225	0xbd9abf44	-0.07556012
226	0x3dcdd7a4	0.10050896
227	0x3e778afd	0.24174114
228	0x3e924cf2	0.2857433
229	0x3ea7fbf3	0.3280941
230	0x3f1a1629	0.60190064
231	0x3f1649cb	0.5870635
232	0x3f0b654f	0.5445146
233	0x3ef287cd	0.47369233
234	0x3ee4e719	0.44707564
235	0x3f1b46e0	0.6065502
236	0x3edadcab	0.4274648
237	0x3eb72516	0.35770482
238	0x3e4d6ddd	0.20061441
239	0xbd39728f	-0.045275267
240	0xbd2eacbc	-0.0426452
241	0x3d19430c	0.037417457
242	0x3c42278f	0.011850252
243	0xbdb77eb1	-0.08959711
244	0xbd7a052a	-0.06104008
245	0x3cd3b34a	0.025842328
246	0xbd186ed0	-0.037215054
247	0xbe5231dc	-0.20526832
248	0xbe19c2e8	-0.15015757
249	0xbdb07543	-0.08616116
250	0x3d024ad3	0.03180964
251	0x3d4bf514	0.04979427
252	0x3dbed897	0.09318655
253	0x3d986f0f	0.07443058
254	0x3d40411a	0.046937086
255	0xbd16d5ca	-0.03682498

conv2.bias f4 [20]
0	0x3dab6452	0.08368744
1	0xbd1e1abd	-0.03859972
2	0x3d0e7b3d	0.034785498
3	0x3d18a36e	0.037265234
4	0x3d421e40	0.04739213
5	0x3c7a4f02	0.015277626
6	0xbc3aec42	-0.011408867
7	0x3d32479c	0.043525323
8	0x3d20704c	0.039169595
9	0x3d7e4af7	0.06208321
10	0xbcca5a9c	-0.024701409
11	0xbb8beac7	-0.004269931
12	0x3c0f9005	0.008762364
13	0x3d69c25c	0.05707012
14	0x3dadfab7	0.08495086
15	0x3dad135c	0.08450958
16	0xbc0e5f61	-0.008689732
17	0xbd80a3bf	-0.06281232
18	0x3ca23bc8	0.019803897
19	0xbdb32f11	-0.087492116

fc1.weight f4 [50, 720]
0	0xbd022b4f	-0.031779584
1	0x3c1e553d	0.009663877
2	0x3b4dd598	0.003140783
3	0xbcf89744	-0.030345567
4	0xbc575b92	-0.013144391
5	0x3c33f6d7	0.010984144
6	0x3a04f7cf	0.0005072327
7	0x3c247127	0.010036743
8	0x3ca5c190	0.0202339
9	0x3c906bea	0.017629582
10	0xbc8455a5	-0.01615412
11	0x3c4788ad	0.012178582
12	0x3bbcd0af	0.0057621817
13	0x3ce20140	0.027588487
14	0xbd04f99f	-0.03246462
15	0xbcffe284	-0.03123594
16	0x3c4bf649	0.012448856
17	0xbac4bf66	-0.0015010654
18	0x3cd0a3eb	0.025468787
19	0x3c45ee85	0.012080793
20	0xbc5cfa96	-0.013487479
21	0x3ad50843	0.0016253073
22	0x3c62da4d	0.013845992
23	0x3d050f68	0.032485396
24	0xbcdee125	-0.027206967
25	0xbc9c61d4	-0.019089617
26	0xbd0bef4b	-0.034163754
27	0x3bf63ab4	0.007514322
28	0x3cf13732	0.029445264
29	0x3d00e567	0.031468775
30	0x3d0c346a	0.034229673
31	0x3c4b52f2	0.012409912
32	0xbd233fbd	-0.039855707
33	0xbc8c506b	-0.01712819
34	0x3ce82916	0.028339904
35	0xbc7f16ea	-0.015569428
36	0xbbbd0667	-0.0057685855
37	0xbd0502d9	-0.03247342
38	0x3c76cd46	0.015063589
39	0xbbc7a198	-0.0060922615
40	0x3c16177c	0.009160873
41	0x3cd72af5	0.0262656
42	0xbd131fcb	-0.035918992
43	0x3c2564f2	0.010094868
44	0xb982e58a	-0.00024966552
45	0xbd2a84f0	-0.041630685
46	0x3c435bbb	0.011923726
47	0xbcc8bad9	-0.024503158
48	0x3c869add	0.016431266
49	0xbc2c48ab	-0.010515372
50	0x3c0cb2cd	0.008587551
51	0xbd013d32	-0.0315525
52	0xbd1110b6	-0.035416327
53	0x3ce6071b	0.02807956
54	0x3c9638b7	0.01833759
55	0xbd1f8a8d	-0.03895049
56	0x3bcfe306	0.006344202
57	0xbd2c62c5	-0.04208638
58	0x3cef1cdf	0.029188571
59	0xbd219af3	-0.03945441
60	0xbcfaac38	-0.030599698
61	0x3cafcf6a	0.021461207
62	0xbbb5538e	-0.005533642
63	0xbc92b815	-0.017910043
64	0x3ce5bacf	0.028043179
65	0xbcce15ac	-0.025156818
66	0xbcba1d87	-0.022719158
67	0x3b0fa89d	0.002192057
68	0x3cadacfb	0.021200648
69	0xbbe335b4	-0.006933892
70	0x3c660c86	0.014041072
71	0xbc7087b4	-0.014680792
72	0xbc7aaa5f	-0.015299409
73	0xbd071b84	-0.032985225
74	0xbca05734	-0.019572832
75	0x3d043a2c	0.03228204
76	0x3d048559	0.032353733
77	0xbd0ffac2	-0.03515125
78	0x3c5489c0	0.012972295
79	0xbc4b1072	-0.012394058
80	0xbceddc1e	-0.029035624
81	0x3bc49d7b	0.0060002184
82	0x3b69fade	0.0035702507
83	0x3b094bfe	0.0020949836
84	0x3ccccdb9	0.02500044
85	0xbcc5a825	-0.02412803
86	0x3c6ee97a	0.014582032
87	0x3c5b20e2	0.013374539
88	0xba61eff7	-0.00086188264
89	0x3cd2f206	0.025750171
90	0x3c9ca84c	0.019123219
91	0xbb05f9d8	-0.0020443108
92	0xbc06d6f1	-0.008229957
93	0xbc8832f6	-0.016625863
94	0xbd02424a	-0.0318015
95	0xbcd2668c	-0.025683664
96	0xbc6143e8	-0.0137491
97	0xbbf61438	-0.0075097345
98	0x3c158a70	0.009127244
99	0xbcace8d9	-0.021107124
100	0xbcfb9837	-0.03071223
101	0xbc4efa94	-0.012632985
102	0xbc893539	-0.016749011
103	0x3c08bb00	0.0083453655
104	0xbbd21a43	-0.006411822
105	0x3ce032e1	0.027368011
106	0x3c50899d	0.012728122
107	0xbadb12bb	-0.0016713956
108	0xbd20dd5a	-0.039273597
109	0xbc9bdb08	-0.01902534
110	0xbb76e121	-0.0037670808
111	0xbbadd65b	-0.005305094
112	0xbcbe7f87	-0.02325417
113	0x3cb64429	0.022249298
114	0xbc86bc61	-0.016447248
115	0x3cc93357	0.024560614
116	0x3b65ad05	0.0035045755
117	0xbbee4848	-0.0072718
118	0xbca8f528	-0.020624712
119	0xbd1586e5	-0.0365056
120	0x3ce8f237	0.02843581
121	0xbce161a3	-0.027512377
122	0xbced6db2	-0.02898297
123	0x3c6e6394	0.014550108
124	0x3ca0efe9	0.019645648
125	0xbb90035a	-0.004394931
126	0xbcbbbb36	-0.022916418
127	0xbc1f3a3a	-0.009718472
128	0xbc7b3e8b	-0.015334736
129	0xbcb1018c	-0.021607183
130	0xbae00762	-0.0017092044
131	0x3cdb7852	0.026790772
132	0x3c326eec	0.010890704
133	0xbd20f9b3	-0.03930063
134	0xbd2afe35	-0.041746337
135	0xbab21084	-0.0013585244
136	0xbca63f95	-0.02029399
137	0xbd082af8	-0.033244103
138	0xbcf16cf2	-0.029470894
139	0xbd270b8b	-0.040782493
140	0xbc0ed4c0	-0.008717716
141	0x3c0e69f6	0.008692255
142	0x3c378de7	0.011203266
143	0xbc466826	-0.012109792
144	0xbd03090a	-0.031991042
145	0xbce8f3df	-0.0284366
146	0xbd14b93d	-0.03630947
147	0x3c398913	0.011324185
148	0xbc2f5d29	-0.010703363
149	0xbce8e728	-0.028430536
150	0xbc6ddb87	-0.014517671
151	0xbd1f1ef6	-0.038847886
152	0xbccab352	-0.02474371
153	0xbc8da784	-0.017291792
154	0x3d01d61f	0.031698342
155	0x3ad06e07	0.0015901931
156	0xbca82ef5	-0.020530203
157	0xbc9395a5	-0.018015692
158	0x3d09172e	0.03346937
159	0xbae3927e	-0.0017362384
160	0xbd268d43	-0.04066206
161	0x3cde107e	0.027107473
162	0xbccc2705	-0.02492095
163	0x3cda8687	0.026675476
164	0xbcffc628	-0.031222418
165	0xbbbd7eb1	-0.005782925
166	0x3cb039e8	0.021511987
167	0xbcc66eff	-0.024222849
168	0xbcb513d1	-0.022104176
169	0xbc4ad6f3	-0.012380349
170	0xbcdb96b9	-0.026805269
171	0x3cd546b3	0.026034689
172	0xbc8aeba7	-0.01695807
173	0xbc93b3a2	-0.018029992
174	0xbd169fad	-0.036773372
175	0x3c8e609b	0.01738005
176	0xbd1442bc	-0.036196455
177	0x3c2a866a	0.010408023
178	0x3ccc5e80	0.024947405
179	0x3cfe3457	0.031030817
180	0x3d0449f6	0.032297097
181	0xbd1c08b3	-0.038094234
182	0x3bcc6a2d	0.006238243
183	0xbce946b0	-0.02847609
184	0xbb88d556	-0.0041758223
185	0x3c44e4de	0.012017457
186	0xbcb740ac	-0.022369705
187	0xbbf71d14	-0.007541308
188	0x3bdfdb37	0.0068315524
189	0x3b91b8e9	0.004447092
190	0xbce107ef	-0.027469603
191	0xbcf5ae85	-0.029990444
192	0xbafdcd84	-0.0019363617
193	0x3b891df5	0.0041844794
194	0xbd208160	-0.03918588
195	0xbc9ac4d2	-0.01889268
196	0xbc360117	-0.011108658
197	0x3bfb2533	0.0076643466
198	0xbd24be81	-0.04022074
199	0xbd05baf4	-0.032648996
200	0xbd04a0fa	-0.03238008
201	0xbc27075f	-0.0101946285
202	0xbb4610a4	-0.003022232
203	0x3c783251	0.015148715
204	0xbd12127b	-0.035662156
205	0x3c656391	0.014000789
206	0x3ce12f14	0.027488269
207	0xbce1df1c	-0.027572207
208	0xbc0e1969	-0.00867305
209	0xbbde5c6e	-0.006785921
210	0x3c05ef68	0.008174755
211	0x3d0af46a	0.033924498
212	0x3cf4fc42	0.029905442
213	0x3cc05dd9	0.02348225
214	0x3cad7a21	0.0211764
215	0x3ce22f36	0.027610403
216	0xbd1c734b	-0.03819589
217	0x3cddc7fc	0.027072899
218	0x3c592377	0.013253084
219	0x3c130c8c	0.008975159
220	0xbc460ea4	-0.012088452
221	0xbc9c7628	-0.01909931
222	0xbd00b1a9	-0.03141943
223	0x3c65ca79	0.014025324
224	0xba4076b0	-0.00073419046
225	0xbd02d1be	-0.031938307
226	0xbcfed028	-0.031105116
227	0xbd2c773b	-0.042105895
228	0x3cb8959c	0.022532277
229	0xbce43f85	-0.02786232
230	0xbd2621a0	-0.04055941
231	0xbcf1df4e	-0.029525425
232	0xbce857b8	-0.02836214
233	0x3ca45dd3	0.02006427
234	0x3cac7bad	0.021055067
235	0xbd2c0457	-0.041996326
236	0x3cf3629c	0.029710107
237	0xbc9674e5	-0.018366287
238	0xbc491a53	-0.012274343
239	0x3c1f3003	0.009716037
240	0xbc1ba754	-0.009500343
241	0x3ce7a210	0.02827552
242	0xbcc9fa25	-0.024655411
243	0xbcde852a	-0.027163107
244	0x3c477174	0.012173045
245	0xbd102703	-0.035193454
246	0x3aa1d282	0.0012346061
247	0xbd20fd83	-0.039304268
248	0x3af93ca4	0.0019015265
249	0x3d0095cd	0.03139286
250	0xbcb77c09	-0.022398012
251	0xba02b285	-0.0004985708
252	0xbcac48de	-0.02103084
253	0x3ceb58d4	0.02872888
254	0xbc2502ba	-0.010071451
255	0xbc72bf24	-0.014816079

fc1.bias f4 [50]
0	0x3c3da7de	0.011575667
1	0x3d973ec7	0.07385021
2	0xbd2016fc	-0.03908442
3	0xbd203111	-0.039109293
4	0xbd68660d	-0.05673795
5	0xbc53c454	-0.012925226
6	0x3ca0efdc	0.019645624
7	0xbd299a79	-0.041407082
8	0x3bf87069	0.0075817597
9	0x3ce15707	0.027507318
10	0x3cbb2baa	0.02284797
11	0xbd272625	-0.04080786
12	0x3cffc7c8	0.031223193
13	0xbbfe48b7	-0.007760133
14	0xbb604d3e	-0.0034225727
15	0x3b935bfc	0.0044970494
16	0xbcf53ecf	-0.029937176
17	0xbd2425c5	-0.040075082
18	0xbd3c7a01	-0.04601479
19	0xbd049ef8	-0.032378167
20	0x3c9855ff	0.018595694
21	0xbd19ba21	-0.037531022
22	0x3d972852	0.07380737
23	0xbb57869c	-0.003288663
24	0xbcca36a0	-0.02468425
25	0x3bf5523d	0.00748661
26	0xbc221a10	-0.009893909
27	0x3c754b4c	0.014971565
28	0x3c6e37e6	0.014539694
29	0x3d27f748	0.04100731
30	0xbc9a83a3	-0.018861597
31	0xbba33019	-0.004980099
32	0xbdbc4c59	-0.0919425
33	0x3c25f1d2	0.010128455
34	0xbd22439c	-0.03961526
35	0x3d064aa3	0.032786023
36	0x3d8f3238	0.06992
37	0x3d095bd9	0.03353486
38	0xbd27ca34	-0.04096432
39	0x3cd92754	0.02650801
40	0x3d849d00	0.06475258
41	0x3d29def5	0.041472394
42	0xbd113568	-0.035451323
43	0x3b94538c	0.004526561
44	0x3c5c7d12	0.013457553
45	0x3d3e49b2	0.046457
46	0x3d0e2f5a	0.034713127
47	0x3bfc1230	0.007692598
48	0xbd1c8958	-0.03821692
49	0xbcd613cb	-0.026132485

fc2.weight f4 [32, 50]
0	0xbd84694a	-0.06465395
1	0xbe1705c3	-0.14748292
2	0x3d1455b2	0.036214538
3	0xbdc99ab8	-0.098439634
4	0x3e4ce614	0.20009643
5	0x3e0800db	0.13281576
6	0xbca444d3	-0.02005235
7	0xbe962016	-0.29321355
8	0x3e3c0f36	0.18365178
9	0x3cb75059	0.02237718
10	0xbdfafb99	-0.1225502
11	0x3e01f3ae	0.12690613
12	0xbe49eb57	-0.19718681
13	0x3d927424	0.07151058
14	0xbdc9051c	-0.09815428
15	0xbe84b4ae	-0.25919098
16	0xbc97aa9b	-0.018513968
17	0xbdf8ecd5	-0.12154547
18	0x3e28cc7c	0.16484255
19	0x3e3480ef	0.1762731
20	0x3dade892	0.08491625
21	0x3da6a63f	0.08137178
22	0x3ddc382a	0.107529
23	0xbe81f415	-0.25381532
24	0xbe22ab12	-0.1588557
25	0xbd8c6086	-0.06854348
26	0x3e2ee3ed	0.17079134
27	0xbe197bd1	-0.14988638
28	0xbde432f2	-0.111425295
29	0xbe2c3f1a	-0.16820946
30	0xbdc36d50	-0.09542334
31	0xbe2c88a8	-0.16849005
32	0xbe6975b6	-0.2279881
33	0xbd7bae3a	-0.061445452
34	0xbe4fa2d7	-0.20276962
35	0xbecf289e	-0.40460676
36	0xbe653b8b	-0.22385995
37	0xbe62b44e	-0.22139093
38	0xbe8968d9	-0.26837805
39	0xbd9cc8a5	-0.076554574
40	0x3dcf3612	0.10117735
41	0xbe8fc369	-0.28078774
42	0xbd521e38	-0.05129835
43	0xbe033857	-0.1281446
44	0xbe53144a	-0.20613208
45	0xbe701845	-0.23446758
46	0x3dfba737	0.12287753
47	0xbd0750ac	-0.03303592
48	0xbe781f5a	-0.2423071
49	0xbe1fbbc4	-0.1559897
50	0x3e000017	0.12500034
51	0x3dbae55d	0.09125779
52	0x3d3d141f	0.046161767
53	0x3ddbe706	0.107374236
54	0x3e2eabef	0.17057775
55	0x3d80e39f	0.06293415
56	0x3d4afcbb	0.04955743
57	0x3e2073f2	0.1566923
58	0x3decd7d9	0.11564607
59	0x3e2c16bf	0.16805552
60	0x3ca516a7	0.020152403
61	0xbe4e9115	-0.20172532
62	0xbeaabb9b	-0.33346257
63	0x3d428d26	0.04749789
64	0x3c99f242	0.018792275
65	0xbca896f9	-0.020579802
66	0xbd9f3f83	-0.07775786
67	0xbc902921	-0.017597737
68	0xbe24bdef	-0.16088079
69	0x3d417869	0.047233973
70	0xbe07c705	-0.13259514
71	0xbdd424e6	-0.103586
72	0xbde05062	-0.10952832
73	0xbe5a6049	-0.21325792
74	0x3dd6377e	0.10459803
75	0xbd94c4b4	-0.07264081
76	0xbe1be7c7	-0.15225135
77	0xbe9891e5	-0.2979881
78	0x3dfcf084	0.12350562
79	0xbe309ec0	-0.17248058
80	0xbda00246	-0.078129336
81	0xbe2ef66d	-0.17086191
82	0xbe105c43	-0.14097695
83	0x3e41732b	0.1889159
84	0x3e2f6eb9	0.17132081
85	0xbe821eee	-0.25414222
86	0xbe33d81a	-0.17562905
87	0x3e0d506a	0.13800207
88	0x3d4bbfeb	0.049743574
89	0x3e3811f6	0.17975602
90	0xbea91cf1	-0.33029893
91	0xbe321bb5	-0.17393382
92	0x3d91bc62	0.07116009
93	0x3dfb46ef	0.12269389
94	0x3e47acde	0.19499537
95	0xbe2c2243	-0.16809945
96	0xbe0e5700	-0.13900375
97	0x3bd034ad	0.0063539357
98	0x3e587606	0.21138772
99	0xbee3cfdb	-0.4449452
100	0x3dc9be3a	0.09850736
101	0x3d9f0fb0	0.07766664
102	0x3de80e00	0.11330795
103	0x3d6d2736	0.057898723
104	0x3db9c7bd	0.090713
105	0x3c3891d2	0.011265235
106	0x3dc75efc	0.09734914
107	0x3d968018	0.07348651
108	0x3daf4aad	0.08559165
109	0x3d50f20c	0.051012084
110	0xbe6c8b8f	-0.23100112
111	0xbe97b266	-0.29628295
112	0xbe1c3146	-0.15253171
113	0xbe74380d	-0.23849507
114	0xbe9f0aa1	-0.31062797
115	0xbdfa9152	-0.12234749
116	0xbdf939c5	-0.12169222
117	0xbde6d8dd	-0.11271832
118	0xbe772d6d	-0.24138422
119	0xbe07429c	-0.13209003
120	0xbeb4bb77	-0.35299274
121	0xbd6e92ca	-0.058245458
122	0xbe88a49f	-0.26688096
123	0xbd9f632e	-0.07782589
124	0xbd4340cf	-0.04766923
125	0xbe0eacdc	-0.13933128
126	0xbe2517b6	-0.16122326
127	0xbebf536b	-0.3736833
128	0x3d8adc95	0.06780354
129	0xbe9a3515	-0.30118623
130	0xbd2bfee1	-0.04199112
131	0xbe526887	-0.20547687
132	0xbeabe345	-0.3357183
133	0x3e1891db	0.1489939
134	0x3e2c800a	0.16845718
135	0xbe51a0cc	-0.20471495
136	0xbe0daed9	-0.1383623
137	0x3d213c4e	0.03936415
138	0xbe933153	-0.2874857
139	0x3dc86189	0.09784228
140	0xbe1464f1	-0.14491631
141	0xbea45557	-0.3209636
142	0xbe0164fd	-0.1263618
143	0x3d65c398	0.056094736
144	0x3e1f6635	0.15566333
145	0xbf013d3e	-0.50484073
146	0xbea1898e	-0.31550258
147	0x3dbb806e	0.091553554
148	0x3da6950a	0.08133896
149	0xbe51e0ed	-0.20495959
150	0x3d322275	0.043489892
151	0xbe27bdfc	-0.16381067
152	0xbce7faf1	-0.0283179
153	0x3e25b7d1	0.16183402
154	0xbe5cad1c	-0.21550411
155	0xbec2cff0	-0.3804927
156	0xbe0b573e	-0.13607499
157	0xbed40e57	-0.4141719
158	0xbea6a143	-0.32544908
159	0x3da2dbdb	0.0795209
160	0x3e4572ca	0.1928207
161	0xbdf78491	-0.12085832
162	0xbe9149e2	-0.2837668
163	0x3e4482a1	0.19190456
164	0x3e129abc	0.14316839
165	0xbe908f39	-0.2823427
166	0xbd4dc315	-0.050234873
167	0x3dddf33b	0.10837408
168	0xbe735528	-0.23762953
169	0xbeb6ee0b	-0.35728487
170	0x3d938b27	0.072042756
171	0xbdeab608	-0.11460501
172	0xbe8ea71e	-0.27861875
173	0xbedaa208	-0.42701745
174	0xbe66acf1	-0.2252691
175	0xbea97a72	-0.3310123
176	0x3dcd1dbc	0.10015437
177	0x3e01ec2c	0.12687749
178	0x3e21e96a	0.15811697
179	0xbe5a5a45	-0.21323498
180	0xbdb2d193	-0.08731379
181	0xbed268a5	-0.41095462
182	0xbe6f02e5	-0.23340948
183	0xbe87345d	-0.26407138
184	0xbea66a5c	-0.3250302
185	0xbf0797e0	-0.5296612
186	0xbe1c784a	-0.15280262
187	0xbe10a8c1	-0.14126875
188	0x3e3933a4	0.18086106
189	0xbe0e0c18	-0.13871801
190	0xbeef0bd8	-0.46688724
191	0xbd647dbc	-0.055783972
192	0x3d49c3b4	0.049258903
193	0x3c70b254	0.014690954
194	0x3e2b2cf4	0.16716367
195	0x3dfde706	0.1239758
196	0x3e24d0d2	0.16095284
197	0x3dcc6002	0.099792495
198	0xbeca8784	-0.39556515
199	0xbf1cde94	-0.6127713
200	0xbe0aedc2	-0.1356726
201	0x3d7ce648	0.06174305
202	0x3d93ef3c	0.07223365
203	0xbdc0d69f	-0.09415936
204	0xbe1b680e	-0.15176412
205	0x3e0776c9	0.13228907
206	0xbd85a25d	-0.06525109
207	0x3e222644	0.1583491
208	0xbe1d3c10	-0.15354943
209	0xbd91321f	-0.07089638
210	0x3da68c1e	0.08132194
211	0x3e33f517	0.17573963
212	0xbe0da97d	-0.13834186
213	0x3ccca190	0.024979383
214	0xbdff7e42	-0.12475254
215	0xbd761949	-0.060082708
216	0xbd4890d8	-0.04896626
217	0x3df66439	0.12030835
218	0x3e3cbea9	0.18432106
219	0xbe41de02	-0.18932346
220	0xbdca387d	-0.098740555
221	0xbddb3ef8	-0.1070537
222	0x3deda8c2	0.116044536
223	0x3e249043	0.16070656
224	0xbe33a5c7	-0.17543708
225	0xbdd80f05	-0.1054974
226	0xbd77395e	-0.060357444
227	0xbe664b83	-0.22489743
228	0xbd9b2535	-0.07575456
229	0xbe3dcbd8	-0.18534791
230	0xbd41d8c2	-0.047325857
231	0xbddab5e8	-0.10679227
232	0xbe0b07d5	-0.13577206
233	0xbe204eab	-0.1565501
234	0xbe2a1c27	-0.16612302
235	0x3e15ed9d	0.14641424
236	0xbdd5ef95	-0.10446087
237	0xbe29eac4	-0.16593462
238	0x3e10fbb4	0.14158517
239	0x3e6e7b7c	0.23289293
240	0xbe066b43	-0.13126855
241	0x3e104dca	0.14092174
242	0xbd8a6756	-0.06757991
243	0x3d9095e2	0.07059838
244	0xbddca4f8	-0.10773653
245	0xbe73aa71	-0.23795487
246	0x3dd3a188	0.10333544
247	0xbddbf308	-0.10739714
248	0xbe26e359	-0.16297664
249	0xbe0d3a82	-0.1379185
250	0xbcb2b2ba	-0.02181374
251	0x3e7f9b89	0.24961676
252	0xbd9979d4	-0.0749394
253	0xbe5d5f70	-0.21618438
254	0xbe2c80ed	-0.16846056
255	0x3d9729fe	0.07381056

fc2.bias f4 [32]
0	0xbd1701a9	-0.036866818
1	0xbda89fa1	-0.08233572
2	0xbf74b533	-0.9558899
3	0x3e3fdba4	0.1873613
4	0xbe4a28ce	-0.19742128
5	0x3ea96e85	0.33092132
6	0xbeb2ef08	-0.3494799
7	0x3e186678	0.14882839
8	0x3d80351d	0.062601306
9	0xbec92a3f	-0.39290044
10	0x3d09dfe7	0.033660796
11	0xbe561aae	-0.20908615
12	0x3cf695ed	0.030100787
13	0x3ef63a33	0.48091277
14	0xbe9bb7df	-0.3041372
15	0xbea75067	-0.3267853
16	0x3e57ca93	0.2107337
17	0x3eb3927d	0.350727
18	0xbdce2001	-0.10064698
19	0x3e70c8df	0.23514126
20	0x3ea50de4	0.3223716
21	0xbec001aa	-0.3750127
22	0xbe7e4511	-0.24831034
23	0xbe8ce309	-0.27516964
24	0xbe0b060c	-0.13576525
25	0x3ebecae6	0.37264174
26	0xbc241d0b	-0.01001669
27	0xbe0dd370	-0.13850188
28	0xbf34a35c	-0.70561767
29	0x3eb111c2	0.3458386
30	0x3dab26df	0.083570234
31	0x3d9e8d11	0.0774175
