checkpoints/model-80.pt (torch, 180367 bytes, 8 tensors)

conv1.weight f4 [10, 1, 5, 5]
0.25886485 0.24119137 0.24504529 0.24527702 0.09805151 0.23862618 0.28108805 0.09154754
0.14130208 0.05533706 0.19979809 -0.08115424 0.22517154 0.07864426 -0.26799637 -0.29291812
-0.10660783 -0.18663964 0.016528934 -0.3913137 -0.27735683 0.004631636 -0.25682527 -0.16778561
-0.40972698 -0.49166712 -0.054138713 0.24740964 0.2878362 0.010542365 -0.46307835 -0.20168172
0.06341304 0.11562326 0.2528042 -0.10644352 0.03603592 -0.03680576 0.09710012 0.09746553
-0.2650043 0.048071876 0.14260975 0.09207173 -0.122636124 -0.25738704 -0.03699512 0.25374877
-0.014138566 0.20349129 0.22203274 0.18712601 0.21483576 0.10708997 0.21955134 -0.09817858
0.013395453 0.13485855 0.12042436 0.032969505 -0.29954386 -0.004993127 0.12138703 0.22271584
0.118437365 -0.060603715 -0.22337556 -0.028721096 -0.047984622 0.22954597 -0.19623105 -0.09437031
-0.073321454 -0.14208086 0.07440158 0.34333742 0.31195533 0.1625092 0.33666593 0.33457834
0.07220879 0.06428551 -0.13096906 0.107769296 0.13001813 0.1920505 -0.1756307 0.20121148
0.1339058 -0.21195738 0.103474796 0.15119095 -0.036072712 -0.16621906 -0.22311652 -0.0923076
-0.107028574 -0.23785894 -0.081463926 -0.31198135 0.32241544 0.21767512 0.12295881 -0.22914073
-0.25356343 0.18691584 0.10459753 0.22867982 -0.19335324 -0.38483113 0.39926657 0.11250762
0.07077158 0.0743802 -0.46878406 0.27559936 0.2427889 0.013251387 0.033190347 -0.4846095
0.19726919 -0.07930046 0.096362226 -0.2176014 -0.41289285 -0.014144587 -0.16628116 -0.29767618
-0.20703271 -0.155907 0.17140691 0.09068246 0.020634754 -0.082657166 -0.054728687 0.2637904
-0.06728287 -0.041843195 -0.026268741 0.010335643 0.14376074 0.079833224 0.053382114 0.015307892
0.044167213 0.19567329 0.039703343 0.11302039 -0.0985774 0.038312998 0.060715083 0.08948335
0.16316758 0.09324756 0.11871479 -0.022303183 0.0964616 0.105285406 0.18231803 0.07797838
-0.08170026 -0.122349545 -0.03655433 0.041977573 0.27641317 -0.013084634 0.029504504 -0.01999004
0.026652316 -0.09098811 0.13951646 0.05833614 -0.13022493 0.10735971 -0.14378549 0.17435817
0.12197442 -0.028558448 0.18705387 0.09053813 -0.04024038 0.0037798276 0.38435373 0.07505397
-0.113950774 0.07800518 0.26139352 0.27825823 -0.10138682 -0.23250711 0.1462517 -0.07085192
-0.11822465 -0.24103628 -0.12573504 -0.47860906 -0.22104883 -0.3467141 -0.089062065 0.20621864
-0.028364645 0.31285855 0.055375412 0.3177671 0.22924668 -0.045659564 0.08987506 -0.076381326
0.1329955 0.1280553 -0.14723258 0.013051891 0.18629383 -0.011501329 0.12793025 -0.061447162
-0.13180622 0.13989727 -0.15174761 0.19992723 0.0557277 -0.16599685 -0.099260025 -0.046223566
0.14982213 -0.104336254 0.21766068 0.16928524 0.1324168 0.2693466 0.0048641926 -0.16712265
0.19568 0.05536301 0.17723641 -0.2027774 -0.28210807 -0.29703572 -0.0558934 0.02960953
-0.04005092 -0.11358083 -0.24270363 -0.2806814 -0.0041208626 0.26314443 0.23524816 -0.021403242
0.12019054 -0.030209824
00000000: ef89 843e dffa 763e 27ed 7a3e e629 7b3e
00000010: 3bcf c83d 6c5a 743e c6ea 8f3e 477d bb3d
00000020: 7eb1 103e 1da9 623d df97 4c3e 3234 a6bd
00000030: 5e93 663e 3e10 a13d d236 89be 5df9 95be
00000040: 3555 dabd 761e 3fbe b067 873c 455a c8be
00000050: b701 8ebe fbc4 973b 9a7e 83be fecf 2bbe
00000060: bcc7 d1be cbbb fbbe 8ec0 5dbd f458 7d3e
00000070: 445f 933e e2b9 2c3c 9b18 edbe a785 4ebe
00000080: b2de 813d e3cb ec3d 8d6f 813e 0fff d9bd
00000090: 679a 133d a3c1 16bd 6ddc c63d 029c c73d
000000a0: a5ae 87be 04e7 443d 4a08 123e 1a90 bc3d
000000b0: a628 fbbd 3cc8 83be 3288 17bd 5ceb 813e
000000c0: 72a5 67bc 0560 503e 8d5c 633e f69d 3f3e
000000d0: e8fd 5b3e fc51 db3d 11d2 603e da11 c9bd
000000e0: 9a78 5b3c 5c18 0a3e 0ca1 f63d 080b 073d
000000f0: d05d 99be 639d a3bb c399 f83d 9f0f 643e
00000100: 4a8f f23d 9a3b 78bd 90bc 64be 8148 ebbc
00000110: 868b 44bd 190e 6b3e cbf0 48be 3945 c1bd
00000120: 8f29 96bd a57d 11be db5f 983d ecc9 af3e
00000130: 9cb8 9f3e d068 263e 7a5f ac3e da4d ab3e
00000140: 34e2 933d 1fa8 833d c11c 06be 26b6 dc3d
00000150: 7923 053e e3a8 443e 89d8 33be 620a 4e3e
00000160: 9a1e 093e 5b0b 59be 98ea d33d cdd1 1a3e
00000170: fbc0 13bd 5435 2abe a878 64be c40b bdbd
00000180: cc31 dbbd 4b91 73be 8fd6 a6bd 05bc 9fbe
00000190: a313 a53e 3ae6 5e3e d4d1 fb3d dea3 6abe
000001a0: 11d3 81be de66 3f3e 3b37 d63d 0b2b 6a3e
000001b0: 64fe 45be 9608 c5be ab6c cc3e 656a e63d
000001c0: b1f0 903d a554 983d 7704 f0be 5c1b 8d3e
000001d0: a79d 783e 581c 593c 9af2 073d bd1e f8be
000001e0: ef00 4a3e 4868 a2bd 8f59 c53d e7d2 5ebe
000001f0: b166 d3be b3be 67bc 9c45 2abe 0369 98be
00000200: 6200 54be 16a6 1fbe 4b85 2f3e bab7 b93d
00000210: 370a a93c 2948 a9bd 302b 60bd 890f 873e
00000220: 9acb 89bd c563 2bbd 8b31 d7bc d456 293c
00000230: 0436 133e 9a7f a33d 34a7 5a3d f4cd 7a3c
00000240: aee8 343d 945e 483e f99f 223d 3c77 e73d
00000250: f3e2 c9bd 17ee 1c3d 61b0 783d 0c43 b73d
00000260: 6715 273e 94f8 be3d bd20 f33d 2ab5 b6bc
00000270: a98d c53d e09f d73d 94b1 3a3e 21b3 9f3d
00000280: 7752 a7bd 6692 fabd feb9 15bd adf0 2b3d
00000290: 0786 8d3e ef60 56bc 6eb3 f13c 27c2 a3bc
000002a0: f555 da3c f957 babd 67dd 0e3e e0f1 6e3d
000002b0: af59 05be 68df db3d 813c 13be f38a 323e
000002c0: bacd f93d 68f3 e9bc 0d8b 3f3e 0e6c b93d
000002d0: 19d3 24bd fcb6 773b 03ca c43e e5b5 993d
000002e0: 065f e9bd 2ec1 9f3d 5fd5 853e dd77 8e3e
000002f0: e5a3 cfbd 5816 6ebe 01c3 153e d01a 91bd
00000300: c41f f2bd 37d2 76be b0c0 00be 3f0c f5be
00000310: a05a 62be 8384 b1be 2c66 b6bd fb2a 533e
00000320: f95c e8bc ff2e a03e 54d1 623d 5fb2 a23e
00000330: a4bf 6a3e 8605 3bbd 6a10 b83d d06d 9cbd
00000340: f92f 083e ee20 033e 23c4 16be 99d7 553c
00000350: cfc3 3e3e 1270 3cbc 2600 033e 05b0 7bbd
00000360: 36f8 06be 3b41 0f3e ba63 1bbe b9b9 4c3e
00000370: bb42 643d 14fb 29be d748 cbbd ec54 3dbd
00000380: f96a 193e 3fae d5bd 71e2 5e3e 1c59 2d3e
00000390: 4598 073e cce7 893e ce63 9f3b 3322 2bbe
000003a0: 5760 483e 53c4 623d 767d 353e e1a4 4fbe
000003b0: 7870 90be 1115 98be 7af0 64bd af8f f23c
000003c0: 6f0c 24bd 119d e8bd 4d87 78be 79b5 8fbe
000003d0: 4d08 87bb deba 863e e5e4 703e da55 afbc
000003e0: 7526 f63d 987a f7bc

conv1.bias f4 [10]
0.0056701577 0.09480443 -0.5601849 -0.34530264 0.019215304 -0.07643503 -0.55308473 0.19235078
-0.36517972 -0.049763173
00000000: bbcc b93b d328 c23d 4768 0fbf 82cb b0be
00000010: 6a69 9d3c f889 9cbd f696 0dbf 9af7 443e
00000020: d6f8 babe 78d4 4bbd

conv2.weight f4 [20, 10, 5, 5]
0.15726258 0.13904881 0.047982384 0.0029780217 0.11838119 0.19399372 0.18254901 0.14147463
0.017638305 0.08630544 -0.13699819 -0.06886006 -0.05516894 0.016787022 0.082151406 -0.2025727
-0.027039312 -0.04851508 -0.0013074537 0.046598844 0.06994914 0.10911658 0.12326065 -0.035691403
0.032315854 0.19783193 0.11860584 -0.09107412 -0.055868976 0.085085206 0.08276688 -0.020625498
-0.33571586 -0.27128595 -0.010990286 -0.17849047 -0.62175256 -0.47948158 -0.060600966 0.102388225
-0.37322727 -0.61821276 -0.22994658 0.07637559 0.20783101 -0.3459074 -0.2383845 0.20536594
0.21047506 0.31289405 -0.14278832 -0.19426668 -0.10902857 -0.07622207 -0.083062574 -0.06920408
-0.15868531 -0.11355005 -0.04624591 -0.110701025 -0.037286103 -0.14132224 -0.0643124 -0.15436557
-0.11496043 0.079224326 0.01963354 0.014223426 -0.026753122 -0.054447923 0.12184691 0.005174155
-0.0038537136 -0.10685551 -0.05567201 -0.06974337 -0.08184394 -0.09149188 -0.057711568 0.03971846
-0.03696663 -0.0023474495 -0.028542515 -0.037226215 -0.04698852 -0.10364202 -0.042415295 -0.090498365
0.061566077 0.0690006 0.03675144 0.029643845 0.07340741 0.0052665984 0.062669754 0.036203887
0.0585814 0.08687935 -0.022121478 0.043585546 0.10620484 -0.16289556 -0.18307021 -0.09163374
0.031056212 -0.22876418 -0.33039618 -0.16917582 -0.10282649 0.0118695935 -0.2069171 -0.10608455
0.0061603244 0.07126126 0.072501905 -0.033386506 0.11952134 0.06829094 0.11774936 0.069912
-0.038516596 0.09759104 0.10020938 0.114630245 -0.04454067 0.20385353 0.16666405 0.085652925
0.072063 0.060532037 0.14633065 -0.0034846056 -0.077555254 0.014831763 -0.033254042 0.1410264
0.104484424 -0.008124009 -0.027041996 -0.07453935 0.1252579 0.04738934 0.018474255 -0.059380427
-0.013349217 0.12534744 0.16072173 0.14063223 0.120894015 0.08682537 -0.13360412 -0.16932498
-0.16603032 -0.064535275 0.0040307236 -0.022391273 0.010646172 -0.0059487475 -0.07685671 -0.031095909
1.3860994e-05 0.0068337414 0.037704412 0.0498005 -0.008974749 0.0365469 0.053956345 0.11206817
-0.057118814 -0.05167007 0.06654538 0.099956654 0.012691416 0.06808922 0.017755445 0.06866605
0.05670607 0.056990456 0.003957579 0.12298981 0.043987744 0.2364287 0.06098432 0.0041005053
0.065678604 -0.4232399 0.072902665 0.07777056 0.033716794 0.08167619 -0.48324907 -0.19971119
-0.09626164 -0.076142 -0.15292393 0.13645187 0.10109375 -0.0035247707 -0.018215079 0.050218146
-0.061856505 -0.06884523 -0.03435107 -0.07118563 -0.012087499 -0.09450182 -0.060651757 0.014510099
-0.07114618 -0.006739809 -0.012361156 -0.101899266 -0.06650449 -0.057838082 0.07208834 0.10846335
0.010986752 0.05815804 0.016606709 0.115825914 0.08400905 0.021616293 0.07160746 0.024232553
0.05216756 -0.15633352 0.135072 0.3184003 0.31513867 0.2190369 0.5739439 0.6234175
0.5607862 0.2902848 0.14741576 0.81573254 0.3613529 0.05715343 -0.30402604 -0.41499698
0.6304078 0.4795965 -0.100564025 -0.47513774 -0.27406082 0.07255289 -0.26787114 -0.55750936
-0.4902265 -0.2716801 -0.012142303 -0.0656912 0.061925985 0.09166218 0.0697834 -0.15838932
00000000: 7109 213e d062 0e3e 2d89 443d ea2a 433b
00000010: d671 f23d 4aa6 463e 21ee 3a3e bade 103e
00000020: 357e 903c e8c0 b03d 4149 0cbe 8106 8dbd
00000030: d4f8 61bd f084 893c ff3e a83d 386f 4fbe
00000040: 8c81 ddbc c0b7 46bd de5e abba 6ede 3e3d
00000050: 7f41 8f3d 8378 df3d 1470 fc3d 2631 12bd
00000060: a15d 043d 7494 4a3e 9ee7 f23d 1185 babd
00000070: ded6 64bd 2741 ae3d af81 a93d cef6 a8bc
00000080: f3e2 abbe fee5 8abe 9a10 34bc 35c6 36be
00000090: 2d2b 1fbf 9c7e f5be b838 78bd ebb0 d13d
000000a0: a517 bfbe 3143 1ebf 1e77 6bbe ce6a 9c3d
000000b0: a7d1 543e c61a b1be 111b 74be 734b 523e
000000c0: c686 573e a633 a03e 1a37 12be d8ed 46be
000000d0: 5f4a dfbd 511a 9cbd b61c aabd deba 8dbd
000000e0: 677e 22be ee8c e8bd 5a6c 3dbd 38b7 e2bd
000000f0: 50b9 18bd c7b6 10be 38b6 83bd 0212 1ebe
00000100: 6070 ebbd 5d40 a23d 85d6 a03c 5f09 693c
00000110: 5d29 dbbc c904 5fbd df8a f93d f58b a93b
00000120: 968e 7cbb 10d7 dabd 5508 64bd 9dd5 8ebd
00000130: cc9d a7bd 1860 bbbd f762 6cbd d3af 223d
00000140: 526a 17bd abd7 19bb fed1 e9bc 847a 18bd
00000150: 0977 40bd 4442 d4bd a9bb 2dbd 3557 b9bd
00000160: b62c 7c3d 3050 8d3d ae88 163d a6d7 f23c
00000170: a056 963d 6e93 ac3b 0059 803d 874a 143d
00000180: 0df3 6f3d cded b13d 1a38 b5bc c286 323d
00000190: ec81 d93d 18ce 26be c276 3bbe 78aa bbbd
000001a0: 9969 fe3c 2841 6abe b029 a9be 6d3c 2dbe
000001b0: b296 d2bd af78 423c 14e2 53be db42 d9bd
000001c0: 8cdc c93b 6cf1 913d e17b 943d 4ac0 08bd
000001d0: 9bc7 f43d 1fdc 8b3d 9426 f13d 062e 8f3d
000001e0: 94c3 1dbd d0dd c73d 933a cd3d 43c3 ea3d
000001f0: 4770 36bd fbbe 503e fba9 2a3e cd6a af3d
00000200: c495 933d 71f0 773d b4d7 153e fb5d 64bb
00000210: 4ad5 9ebd ec00 733c 6435 08bd 3969 103e
00000220: eefb d53d 901a 05bc 2d87 ddbc 16a8 98bd
00000230: 9b43 003e 531b 423d 5257 973c e438 73bd
00000240: adb6 5abc 145b 003e 3d94 243e e501 103e
00000250: 4897 f73d 80d1 b13d 85cf 08be 8763 2dbe
00000260: da03 2abe 122b 84bd 2914 843b e76d b7bc
00000270: 486d 2e3c b6ed c2bb 0d67 9dbd d9bc febc
00000280: 848c 6837 94ed df3b f16f 1a3d 9cfb 4b3d
00000290: d30a 13bc 34b2 153d 5401 5d3d ff83 e53d
000002a0: 6bf5 69bd ffa3 53bd f248 883d 13b6 cc3d
000002b0: a8ef 4f3c 5c72 8b3d de73 913c c9a0 8c3d
000002c0: a044 683d d36e 693d 94ae 813b 15e2 fb3d
000002d0: 7e2c 343d 5d1a 723e b2ca 793d 885d 863b
000002e0: 8182 863d e6b2 d8be fe4d 953d 2c46 9f3d
000002f0: 9f1a 0a3d d945 a73d 6c6c f7be 1781 4cbe
00000300: d324 c5bd 56f0 9bbd 1798 1cbe 0aba 0b3e
00000310: 3d0a cf3d d7ff 66bb ca37 95bc 8bb1 4d3d
00000320: 3f5d 7dbd bafe 8cbd b5b3 0cbd c6c9 91bd
00000330: a50a 46bc 2c8a c1bd fa6d 78bd c4bb 6d3c
00000340: 17b5 91bd 9ed9 dcbb 7286 4abc 90b0 d0bd
00000350: 8233 88bd a0e7 6cbd 0da3 933d 0822 de3d
00000360: c701 343c 2037 6e3d cb0a 883c 2336 ed3d
00000370: f00c ac3d a714 b13c efa6 923d 5983 c63c
00000380: a7ad 553d e515 20be 5050 0a3e 5d05 a33e
00000390: db59 a13e 364b 603e fded 123f 4a98 1f3f
000003a0: af8f 0f3f 36a0 943e 28f4 163e d9d3 503f
000003b0: 3f03 b93e b719 6a3d 4da9 9bbe 7c7a d4be
000003c0: 6862 213f ac8d f53e 83f4 cdbd 4145 f3be
000003d0: b351 8cbe 9c96 943d 6826 89be efb8 0ebf
000003e0: f8fe fabe a719 8bbe 83f0 46bc 1c89 86bd
000003f0: 1aa6 7d3d 62b9 bb3d 99ea 8e3d cf30 22be

conv2.bias f4 [20]
0.16486767 -0.053379003 0.0334725 0.03566869 0.04327156 -0.009027129 -0.004407804 0.02113702
0.087489046 0.05026359 -0.0044423044 -0.03320723 0.0015196758 0.098175466 0.055284537 0.023814492
0.0025043637 -0.112542726 0.015858812 -0.11824254
00000000: 12d3 283e f1a3 5abd 761a 093d 5519 123d
00000010: 853d 313d 86e6 13bc 576f 90bb 8b27 ad3c
00000020: 752d b33d 32e1 4d3d c090 91bb 4e04 08bd
00000030: dc2f c73a 3810 c93d 0a72 623d 9c16 c33c
00000040: 4020 243b cd7c e6bd 57ea 813c 2529 f2bd

fc1.weight f4 [50, 720]
-0.031779584 0.009663877 0.003140783 -0.030345567 -0.013144391 0.010984144 0.0005072327 0.010036743
0.0202339 0.017629582 -0.01615412 0.012178582 0.0057621817 0.027588487 -0.03246462 -0.03123594
0.012448856 -0.0015010654 0.025468787 0.012080793 -0.013487479 0.0016253073 0.013845992 0.032485396
-0.027206967 -0.019089617 -0.034163754 0.007514322 0.029445264 0.031468775 0.034229673 0.012409912
-0.039855707 -0.01712819 0.028339904 -0.015569428 -0.0057685855 -0.03247342 0.015063589 -0.0060922615
0.009160873 0.0262656 -0.035918992 0.010094868 -0.00024966552 -0.041630685 0.011923726 -0.024503158
0.016431266 -0.010515372 0.008587551 -0.0315525 -0.035416327 0.02807956 0.01833759 -0.03895049
0.006344202 -0.04208638 0.029188571 -0.03945441 -0.030599698 0.021461207 -0.005533642 -0.017910043
0.028043179 -0.025156818 -0.022719158 0.002192057 0.021200648 -0.006933892 0.014041072 -0.014680792
-0.015299409 -0.032985225 -0.019572832 0.03228204 0.032353733 -0.03515125 0.012972295 -0.012394058
-0.029035624 0.0060002184 0.0035702507 0.0020949836 0.02500044 -0.02412803 0.014582032 0.013374539
-0.00086188264 0.025750171 0.019123219 -0.0020443108 -0.008229957 -0.016625863 -0.0318015 -0.025683664
-0.0137491 -0.0075097345 0.009127244 -0.021107124 -0.03071223 -0.012632985 -0.016749011 0.0083453655
-0.006411822 0.027368011 0.012728122 -0.0016713956 -0.039273597 -0.01902534 -0.0037670808 -0.005305094
-0.02325417 0.022249298 -0.016447248 0.024560614 0.0035045755 -0.0072718 -0.020624712 -0.0365056
0.02843581 -0.027512377 -0.02898297 0.014550108 0.019645648 -0.004394931 -0.022916418 -0.009718472
-0.015334736 -0.021607183 -0.0017092044 0.026790772 0.010890704 -0.03930063 -0.041746337 -0.0013585244
-0.02029399 -0.033244103 -0.029470894 -0.040782493 -0.008717716 0.008692255 0.011203266 -0.012109792
-0.031991042 -0.0284366 -0.03630947 0.011324185 -0.010703363 -0.028430536 -0.014517671 -0.038847886
-0.02474371 -0.017291792 0.031698342 0.0015901931 -0.020530203 -0.018015692 0.03346937 -0.0017362384
-0.04066206 0.027107473 -0.02492095 0.026675476 -0.031222418 -0.005782925 0.021511987 -0.024222849
-0.022104176 -0.012380349 -0.026805269 0.026034689 -0.01695807 -0.018029992 -0.036773372 0.01738005
-0.036196455 0.010408023 0.024947405 0.031030817 0.032297097 -0.038094234 0.006238243 -0.02847609
-0.0041758223 0.012017457 -0.022369705 -0.007541308 0.0068315524 0.004447092 -0.027469603 -0.029990444
-0.0019363617 0.0041844794 -0.03918588 -0.01889268 -0.011108658 0.0076643466 -0.04022074 -0.032648996
-0.03238008 -0.0101946285 -0.003022232 0.015148715 -0.035662156 0.014000789 0.027488269 -0.027572207
-0.00867305 -0.006785921 0.008174755 0.033924498 0.029905442 0.02348225 0.0211764 0.027610403
-0.03819589 0.027072899 0.013253084 0.008975159 -0.012088452 -0.01909931 -0.03141943 0.014025324
-0.00073419046 -0.031938307 -0.031105116 -0.042105895 0.022532277 -0.02786232 -0.04055941 -0.029525425
-0.02836214 0.02006427 0.021055067 -0.041996326 0.029710107 -0.018366287 -0.012274343 0.009716037
-0.009500343 0.02827552 -0.024655411 -0.027163107 0.012173045 -0.035193454 0.0012346061 -0.039304268
0.0019015265 0.03139286 -0.022398012 -0.0004985708 -0.02103084 0.02872888 -0.010071451 -0.014816079
00000000: 4f2b 02bd 3d55 1e3c 98d5 4d3b 4497 f8bc
00000010: 925b 57bc d7f6 333c cff7 043a 2771 243c
00000020: 90c1 a53c ea6b 903c a555 84bc ad88 473c
00000030: afd0 bc3b 4001 e23c 9ff9 04bd 84e2 ffbc
00000040: 49f6 4b3c 66bf c4ba eba3 d03c 85ee 453c
00000050: 96fa 5cbc 4308 d53a 4dda 623c 680f 053d
00000060: 25e1 debc d461 9cbc 4bef 0bbd b43a f63b
00000070: 3237 f13c 67e5 003d 6a34 0c3d f252 4b3c
00000080: bd3f 23bd 6b50 8cbc 1629 e83c ea16 7fbc
00000090: 6706 bdbb d902 05bd 46cd 763c 98a1 c7bb
000000a0: 7c17 163c f52a d73c cb1f 13bd f264 253c
000000b0: 8ae5 82b9 f084 2abd bb5b 433c d9ba c8bc
000000c0: dd9a 863c ab48 2cbc cdb2 0c3c 323d 01bd
000000d0: b610 11bd 1b07 e63c b738 963c 8d8a 1fbd
000000e0: 06e3 cf3b c562 2cbd df1c ef3c f39a 21bd
000000f0: 38ac fabc 6acf af3c 8e53 b5bb 15b8 92bc
00000100: cfba e53c ac15 cebc 871d babc 9da8 0f3b
00000110: fbac ad3c b435 e3bb 860c 663c b487 70bc
00000120: 5faa 7abc 841b 07bd 3457 a0bc 2c3a 043d
00000130: 5985 043d c2fa 0fbd c089 543c 7210 4bbc
00000140: 1edc edbc 7b9d c43b defa 693b fe4b 093b
00000150: b9cd cc3c 25a8 c5bc 7ae9 6e3c e220 5b3c
00000160: f7ef 61ba 06f2 d23c 4ca8 9c3c d8f9 05bb
00000170: f1d6 06bc f632 88bc 4a42 02bd 8c66 d2bc
00000180: e843 61bc 3814 f6bb 708a 153c d9e8 acbc
00000190: 3798 fbbc 94fa 4ebc 3935 89bc 00bb 083c
000001a0: 431a d2bb e132 e03c 9d89 503c bb12 dbba
000001b0: 5add 20bd 08db 9bbc 21e1 76bb 5bd6 adbb
000001c0: 877f bebc 2944 b63c 61bc 86bc 5733 c93c
000001d0: 05ad 653b 4848 eebb 28f5 a8bc e586 15bd
000001e0: 37f2 e83c a361 e1bc b26d edbc 9463 6e3c
000001f0: e9ef a03c 5a03 90bb 36bb bbbc 3a3a 1fbc
00000200: 8b3e 7bbc 8c01 b1bc 6207 e0ba 5278 db3c
00000210: ec6e 323c b3f9 20bd 35fe 2abd 8410 b2ba
00000220: 953f a6bc f82a 08bd f26c f1bc 8b0b 27bd
00000230: c0d4 0ebc f669 0e3c e78d 373c 2668 46bc
00000240: 0a09 03bd dff3 e8bc 3db9 14bd 1389 393c
00000250: 295d 2fbc 28e7 e8bc 87db 6dbc f61e 1fbd
00000260: 52b3 cabc 84a7 8dbc 1fd6 013d 076e d03a
00000270: f52e a8bc a595 93bc 2e17 093d 7e92 e3ba
00000280: 438d 26bd 7e10 de3c 0527 ccbc 8786 da3c
00000290: 28c6 ffbc b17e bdbb e839 b03c ff6e c6bc
000002a0: d113 b5bc f3d6 4abc b996 dbbc b346 d53c
000002b0: a7eb 8abc a2b3 93bc ad9f 16bd 9b60 8e3c
000002c0: bc42 14bd 6a86 2a3c 805e cc3c 5734 fe3c
000002d0: f649 043d b308 1cbd 2d6a cc3b b046 e9bc
000002e0: 56d5 88bb dee4 443c ac40 b7bc 141d f7bb
000002f0: 37db df3b e9b8 913b ef07 e1bc 85ae f5bc
00000300: 84cd fdba f51d 893b 6081 20bd d2c4 9abc
00000310: 1701 36bc 3325 fb3b 81be 24bd f4ba 05bd
00000320: faa0 04bd 5f07 27bc a410 46bb 5132 783c
00000330: 7b12 12bd 9163 653c 142f e13c 1cdf e1bc
00000340: 6919 0ebc 6e5c debb 68ef 053c 6af4 0a3d
00000350: 42fc f43c d95d c03c 217a ad3c 362f e23c
00000360: 4b73 1cbd fcc7 dd3c 7723 593c 8c0c 133c
00000370: a40e 46bc 2876 9cbc a9b1 00bd 79ca 653c
00000380: b076 40ba bed1 02bd 28d0 febc 3b77 2cbd
00000390: 9c95 b83c 853f e4bc a021 26bd 4edf f1bc
000003a0: b857 e8bc d35d a43c ad7b ac3c 5704 2cbd
000003b0: 9c62 f33c e574 96bc 531a 49bc 0330 1f3c
000003c0: 54a7 1bbc 10a2 e73c 25fa c9bc 2a85 debc
000003d0: 7471 473c 0327 10bd 82d2 a13a 83fd 20bd
000003e0: a43c f93a cd95 003d 097c b7bc 85b2 02ba
000003f0: de48 acbc d458 eb3c ba02 25bc 24bf 72bc

fc1.bias f4 [50]
0.011575667 0.14972368 -0.042260237 -0.11509932 -0.14547484 0.021944163 0.019645624 -0.10789876
-0.022988753 0.115893506 0.06452347 -0.014077157 0.07275999 0.076490596 0.0026320536 -0.03758006
-0.029937176 -0.040075082 -0.065564394 -0.016580785 0.13032271 -0.037531022 0.16387202 0.14087938
-0.06462318 0.04427763 0.042904884 0.033650164 0.07285679 0.06993817 -0.018861597 0.058333192
-0.20985098 0.024990397 -0.10335841 0.09992069 0.09716605 0.056046017 -0.075006746 0.03350865
0.19307 0.08320244 -0.035451323 0.004526561 0.021558842 0.1048996 0.07516512 0.0045163166
-0.06435005 -0.06379468
00000000: dea7 3d3c 2a51 193e 1219 2dbd 31b9 ebbd
00000010: 5bf7 14be 3fc4 b33c dcef a03c 06fa dcbd
00000020: e952 bcbc 9359 ed3d e224 843d e0a3 66bc
00000030: 3103 953d 1aa7 9c3d 887e 2c3b 8ded 19bd
00000040: cf3e f5bc c525 24bd a046 86bd 6dd4 87bc
00000050: 5173 053e 21ba 19bd 11ce 273e af42 103e
00000060: 2859 84bd 765c 353d 08bd 2f3d c1d4 093d
00000070: f135 953d be3b 8f3d a383 9abc c9ee 6e3d
00000080: 2de3 56be a9b8 cc3c 93ad d3bd 38a3 cc3d
00000090: fefe c63d 8290 653d 239d 99bd 5e40 093d
000000a0: 24b4 453e 0a66 aa3d 6835 11bd 8c53 943b
000000b0: 2b9c b03c 9ad5 d63d 2cf0 993d 9cfd 933b
000000c0: f6c9 83bd c9a6 82bd

fc2.weight f4 [32, 50]
-0.06465395 -0.26893246 0.035725597 -0.26573166 0.2802787 0.21471912 -0.02005235 -0.31305522
0.17486888 -0.042807706 -0.35460067 0.19990528 -0.24761064 -0.3010047 -0.19677679 -0.38722157
-0.018513968 -0.12154547 0.041245148 0.2514464 0.14552972 0.08137178 0.118781775 -0.3656384
-0.21055204 -0.19838297 0.25395724 -0.35581657 -0.16433178 -0.0923738 -0.09542334 -0.32798088
-0.31379518 -0.121657155 -0.13769427 -0.4588718 -0.3327058 -0.36627963 -0.3135789 -0.25354326
-0.10578367 -0.27865148 -0.05129835 -0.1281446 -0.30316418 -0.39966172 0.19075195 -0.03566376
-0.41468716 -0.30927515 0.12500034 0.18207684 0.0430717 0.16518168 0.21690808 0.10389771
0.04955743 0.15604314 0.068736 0.20973869 -0.20682605 -0.29109633 -0.33836105 0.08507463
-0.012264326 0.077844225 -0.07775786 -0.017597737 -0.20965773 0.07388859 -0.1576987 -0.103586
-0.1275868 -0.24165562 0.17322083 -0.17349446 -0.27150404 -0.2821094 0.111329004 -0.2952806
-0.078129336 -0.14037614 -0.19732165 0.2576251 0.19020995 -0.24487488 -0.21210594 0.14213194
0.0673447 0.18963161 -0.41176942 -0.17258853 0.07116009 0.12269389 0.2564117 -0.11407805
0.07860793 0.0040855026 0.26193607 -0.48271894 0.09850736 0.1454637 0.112967655 0.13266933
0.07833414 0.064336404 0.09734914 0.06611925 0.15944932 -0.0010930861 -0.490739 -0.49999028
0.06558605 -0.26202744 -0.43296534 -0.1144597 -0.12169222 -0.11271832 -0.4059383 -0.0050917775
-0.51373774 -0.058245458 -0.29345092 -0.23909591 0.14990854 -0.3005372 -0.44078156 -0.38436666
0.032467335 -0.32196745 -0.04199112 -0.24034157 -0.42559153 0.26151535 0.17661354 -0.062059764
0.06711531 0.11251972 -0.37700665 0.15641716 -0.27458575 -0.28182754 -0.1263618 0.056094736
0.25346968 -0.680159 -0.3256233 0.09053495 0.24820374 -0.5630014 0.043489892 -0.45041513
-0.029232513 0.22967847 -0.47550553 -0.79394126 -0.13607499 -1.092285 -0.474146 0.11510016
0.023861567 -0.14701344 -0.70882595 0.21718265 0.13693865 -0.4679594 -0.050234873 0.10837408
-0.38594678 -0.9531068 0.08227442 -0.11460501 -0.48179123 -0.66796666 -0.5421581 -0.5128106
0.1518743 0.13959545 0.2021218 -0.6778504 -0.08731379 -0.9470128 -0.5792241 -0.91956997
-0.6330426 -0.8912186 -0.41743734 -0.33716545 0.18912242 -0.32906428 -0.5610159 -0.59724355
0.049258903 0.014690954 -0.017479097 0.029694723 0.19824241 0.097026356 -0.9163808 -0.78423953
-0.1356726 -0.006000392 0.07057785 -0.110832 -0.20399305 0.18783467 -0.06525109 0.21572216
-0.20582251 -0.09825372 0.15313298 0.16137294 -0.16971359 -0.11780403 -0.107004575 -0.20211248
-0.04896626 0.12030835 0.21707296 -0.18945053 -0.20153818 -0.1070537 0.16431907 0.1802782
-0.27047688 -0.2028076 0.13779683 -0.20531167 -0.14113663 -0.22367445 -0.047325857 -0.36232793
-0.19015412 -0.25547972 -0.20793766 0.18511216 0.11590704 -0.17097399 0.13997254 0.19414917
-0.23750666 0.16735606 -0.06757991 0.07059838 -0.092750296 -0.28795886 0.040490285 -0.1096484
-0.15906508 -0.13657492 -0.02181374 0.25648928 -0.07664118 -0.38181674 -0.24237306 0.071549006
00000000: 4a69 84bd 84b1 89be 0155 123d fb0d 88be
00000010: b180 8f3e 54df 5b3e d344 a4bc c648 a0be
00000020: d410 333e 2257 2fbd 388e b5be f8b3 4c3e
00000030: a58d 7dbe 4a1d 9abe db7f 49be e841 c6be
00000040: 9baa 97bc d5ec f8bd acf0 283d 95bd 803e
00000050: be05 153e 3fa6 a63d dc43 f33d f534 bbbe
00000060: f49a 57be e824 4bbe af06 823e 972d b6be
00000070: 9746 28be 7a2e bdbd 506d c3bd 1ced a7be
00000080: c3a9 a0be 6327 f9bd baff 0cbe 3ff1 eabe
00000090: 6a58 aabe 0189 bbbe 6a8d a0be 6cd0 81be
000000a0: 1ca5 d8bd 68ab 8ebe 381e 52bd 5738 03be
000000b0: 5638 9bbe 76a0 ccbe 7b54 433e 2a14 12bd
000000c0: e051 d4be 5059 9ebe 1700 003e 5a72 3a3e
000000d0: f36b 303d 6325 293e 271d 5e3e 53c8 d43d
000000e0: bbfc 4a3d c6c9 1f3e 76c5 8c3d bdc5 563e
000000f0: 35ca 53be 940a 95be a93d adbe 9c3b ae3d
00000100: 50f0 48bc cb6c 9f3d 833f 9fbd 2129 90bc
00000110: 84b0 56be e752 973d c57b 21be e624 d4bd
00000120: 1da6 02be 9274 77be cd60 313e 88a8 31be
00000130: 9402 8bbe a570 90be 7600 e43d 052f 97be
00000140: 4602 a0bd c3be 0fbe b00e 4abe 70e7 833e
00000150: 66c6 423e 7bc0 7abe 4d32 59be 098b 113e
00000160: 05ec 893d ca2e 423e 71d3 d2be 0cbb 30be
00000170: 62bc 913d ef46 fb3d 6548 833e c1a1 e9bd
00000180: 32fd a03d aedf 853b 7c1c 863e f026 f7be
00000190: 3abe c93d 70f4 143e 965b e73d 78da 073e
000001a0: a66d a03d cec2 833d fc5e c73d 8869 873d
000001b0: af46 233e e245 8fba 2442 fbbe bafe ffbe
000001c0: fb51 863d 7628 86be a2ad ddbe d969 eabd
000001d0: c539 f9bd ddd8 e6bd 25d7 cfbe edd8 a6bb
000001e0: 5184 03bf ca92 6ebd 333f 96be 8fd5 74be
000001f0: a081 193e 03e0 99be 1fae e1be b5cb c4be
00000200: 78fc 043d ebd8 a4be e1fe 2bbd 1a1c 76be
00000210: 22e7 d9be 57e5 853e 2eda 343e 6132 7ebd
00000220: c073 893d bd70 e63d 0407 c1be d22b 203e
00000230: 8196 8cbe b34b 90be fd64 01be 98c3 653d
00000240: c7c6 813e e61e 2ebf 19b8 a6be 636a b93d
00000250: 1f29 7e3e dc20 10bf 7522 323d d09c e6be
00000260: 0679 efbc d530 6b3e 7675 f3be bc3f 4bbf
00000270: 3e57 0bbe ffcf 8bbf 44c3 f2be a2b9 eb3d
00000280: 5579 c33c b18a 16be 9e75 35bf 2165 5e3e
00000290: a539 0c3e 6098 efbe 15c3 4dbd 3bf3 dd3d
000002a0: d19a c5be cffe 73bf 7e7f a83d 08b6 eabd
000002b0: 57ad f6be ddff 2abf e0ca 0abf 8e47 03bf
000002c0: f084 1b3e 1cf2 0e3e 04f9 4e3e 9b87 2dbf
000002d0: 93d1 b2bd 6e6f 72bf 0848 14bf f068 6bbf
000002e0: 140f 22bf e726 64bf 59ba d5be f3a0 acbe
000002f0: 4fa9 413e 1d7b a8be bd9e 0fbf f4e4 18bf
00000300: b4c3 493d 54b2 703c 5330 8fbc 5942 f33c
00000310: 0f00 4b3e c1b5 c63d ef97 6abf ecc3 48bf
00000320: c2ed 0abe f09e c4bb 1f8b 903d e3fb e2bd
00000330: 8ee3 50be bb57 403e 5da2 85bd 45e6 5c3e
00000340: 23c3 52be 3f39 c9bd e4ce 1c3e f33e 253e
00000350: 66c9 2dbe 3d43 f1bd 3725 dbbd 93f6 4ebe
00000360: d890 48bd 3964 f63d 6048 5e3e 52ff 41be
00000370: 0660 4ebe f83e dbbd 4243 283e d99a 383e
00000380: f27b 8abe ccac 4fbe 9d1a 0d3e 393d 52be
00000390: 1f86 10be ea0a 65be c2d8 41bd 0c83 b9be
000003a0: c3b7 42be 3dce 82be 9ced 54be 0b8e 3d3e
000003b0: ac60 ed3d ce13 2fbe f654 0f3e 0acf 463e
000003c0: f234 73be 635f 2b3e 5667 8abd e295 903d
000003d0: def3 bdbd 586f 93be 24d9 253d 578f e0bd
000003e0: f5e1 22be 4cda 0bbe bab2 b2bc 9052 833e
000003f0: 0df6 9cbd 7c7d c3be a530 78be 4988 923d

fc2.bias f4 [32]
0.2593174 -0.6527893 -2.0722725 1.1179397 -0.43505922 0.66419053 -0.79127645 0.012725053
0.46208262 -0.74176246 0.00084117457 -0.08134116 0.5889107 1.122671 -0.31838903 -0.7510871
0.44772124 0.54374325 -0.47554645 0.5291224 0.62401056 -0.66590154 -0.8267491 -0.46820784
-0.20364991 0.36753833 -0.29068413 -0.36589578 -1.1314328 0.14679167 0.35444006 0.17085727
00000000: 40c5 843e 331d 27bf 1da0 04c0 a618 8f3f
00000010: 15c0 debe 6408 2a3f 1891 4abf be7c 503c
00000020: 1896 ec3e 25e4 3dbf 4582 5c3a 3296 a6bd
00000030: dac2 163f afb3 8f3f e303 a3be 3f47 40bf
00000040: b83b e53e c232 0b3f d37a f3be 9174 073f
00000050: 28bf 1f3f 8678 2abf d4a5 53bf f0b8 efbe
00000060: 9a89 50be fc2d bc3e 8dd4 94be b156 bbbe
00000070: cad2 90bf 8e50 163e 2b79 b53e 35f5 2e3e
