checkpoints/model-100.pt (torch, 181903 bytes, 8 tensors)

conv1.weight f4 [10, 1, 5, 5]
000000 fa 46 87 3e 3e 12 74 3e e9 c3 71 3e 35 ee 72 3e
       0.26421338 0.23835084 0.2360989 0.23723681
000010 ec 5f c7 3d 89 78 81 3e 71 ee 90 3e 08 15 ad 3d
       0.097350925 0.25287274 0.28306916 0.08451277
000020 ea 40 12 3e 8e 52 9d 3d 13 c0 4f 3e e2 5e ab bd
       0.14282575 0.07681762 0.20288114 -0.08367707
000030 02 f1 5f 3e bc f7 af 3d 0a 28 7a be c5 6f a5 be
       0.21869281 0.085921735 -0.24429336 -0.32311836
000040 6a 3d ff bd de b2 49 be 16 83 3e 3c 9d bd cc be
       -0.12462886 -0.19697139 0.011627933 -0.39988413
000050 3c 26 90 be 90 55 80 3c 6b f8 71 be 41 1b 23 be
       -0.2815417 0.0156658 -0.2362992 -0.15928365
000060 c3 42 da be df d0 fd be b4 1d 23 bd 58 c9 81 3e
       -0.4262906 -0.49573418 -0.03982325 0.25348926
000070 16 e1 94 3e 7b da 0d 3b 42 1b ed be 13 f5 39 be
       0.29077977 0.0021645117 -0.4630986 -0.18159895
000080 2a 70 9d 3d c4 be e9 3d d8 92 6f 3e 15 fc df bd
       0.07687409 0.11413339 0.2339586 -0.10936753
000090 df cd 4e 3d 60 fb e0 bc b3 0c ba 3d 2d e0 9d 3d
       0.050489303 -0.027463615 0.090844534 0.07708774
0000a0 a3 19 87 be 1f db 77 3d 5a 45 16 3e 22 45 ae 3d
       -0.26386747 0.060511705 0.14674893 0.0850928
0000b0 98 03 0b be 4a 16 83 be 8c 97 e0 bc 9f ca 7e 3e
       -0.1357559 -0.25602943 -0.027416013 0.24881981
0000c0 5b 76 e4 bc 26 9f 43 3e 33 23 53 3e 40 ea 4a 3e
       -0.027888468 0.19103679 0.20618896 0.19815922
0000d0 a5 2b 74 3e 97 8b fd 3d 75 26 63 3e 35 d7 fd bd
       0.23844774 0.1238014 0.22182639 -0.12394563
0000e0 29 f6 a2 3c f0 7a 1b 3e d7 ca 07 3e 9d fb 21 3d
       0.019892769 0.15183616 0.13260971 0.039546598
0000f0 af fb a3 be 40 ca 0b bc a7 9a ff 3d df 6a 6a 3e
       -0.32027957 -0.008532107 0.124806695 0.2289233
000100 d0 5d 00 3e a3 19 9d bd 9a ba 76 be 88 6e 2f bd
       0.12535787 -0.076709054 -0.2409462 -0.04283002
000110 36 f9 3b bd ed 6f 75 3e 85 dc 54 be e6 f0 00 be
       -0.045891963 0.23968478 -0.20787247 -0.12591895
000120 bd 39 dd bd 1e 51 1b be 26 bc b4 3d 58 d9 a6 3e
       -0.10802028 -0.15167663 0.08824949 0.32587695
000130 5d 27 95 3e f1 17 18 3e ca 88 a5 3e 6f 26 a5 3e
       0.29131594 0.14852883 0.32330924 0.32255885
000140 7d 33 74 3d 13 81 50 3d 15 6a 12 be 3e 33 bc 3d
       0.059619416 0.050904345 -0.1429828 0.09189461
000150 a1 5b e2 3d e9 d7 43 3e 71 e2 37 be 8f dc 43 3e
       0.11052633 0.19125332 -0.17957474 0.19127105
000160 67 c8 f5 3d e2 7e 69 be 9c 59 dd 3d 6c 5a 16 3e
       0.12001114 -0.22802308 0.10808107 0.1468293
000170 12 6b 41 bd 3f 80 33 be 9a 83 69 be 3b e4 bd bd
       -0.04722125 -0.17529391 -0.22804108 -0.09272047
000180 fb a9 f0 bd 53 03 81 be 70 5c ba bd 83 49 a1 be
       -0.11751171 -0.2519785 -0.09099662 -0.31501397
000190 bc b9 a2 3e a8 63 4f 3e e6 60 dc 3d 91 ca 71 be
       0.3178233 0.2025286 0.107606694 -0.23612429
0001a0 36 16 89 be d8 92 4f 3e 04 42 ea 3d a4 5f 70 3e
       -0.26774758 0.2027086 0.11438373 0.23473984
0001b0 54 34 43 be 90 f5 d2 be 18 37 d7 3e a1 f9 00 3e
       -0.1906293 -0.41202974 0.4203422 0.12595226
0001c0 18 4d 99 3d 3a e5 96 3d 61 4e 00 bf f7 6b 92 3e
       0.074854076 0.0736794 -0.50119597 0.28597996
0001d0 eb da 7c 3e d7 d6 19 3c 8b 6d 10 3d 3a 72 fd be
       0.24692886 0.009389601 0.03526072 -0.4950121
0001e0 17 38 5c 3e 1e e8 8f bd 94 8e bd 3d 1f 81 5a be
       0.21505772 -0.07026695 0.0925571 -0.21338318
0001f0 81 9e d0 be 55 99 5e bd f8 f8 67 be 28 aa bb be
       -0.4074593 -0.054345448 -0.22653568 -0.36653256
000200 e9 7c 85 be 10 7f 5c be 02 33 55 3e 4d 80 fc 3d
       -0.2607186 -0.21532845 0.20820239 0.12329159
000210 1d 15 58 3d 09 e4 54 bd 56 f5 44 bd 46 5f 9f 3e
       0.05275451 -0.051975284 -0.048085533 0.31127375
000220 70 b4 fe bc b7 6a 8e bc 6f d9 77 bc ac 40 af b9
       -0.031091899 -0.01738487 -0.015127524 -0.00033426785
000230 d0 71 32 3e fe f1 bd 3d 0b 95 52 3d f9 8c 97 3b
       0.17426229 0.09274672 0.05141167 0.0046249595
000240 fd d7 9f 3c 71 16 5a 3e c6 95 28 3d 73 12 d5 3d
       0.01951217 0.21297623 0.04115846 0.104039095
000250 cc 89 cf bd 62 75 f6 3c 6b c8 34 3d 8f 5f 9e 3d
       -0.101337045 0.03008527 0.044136446 0.0773307
000260 42 18 1e 3e 39 0f a8 3d 96 26 eb 3d 0d ec 1e bd
       0.15438941 0.082060285 0.11481969 -0.038799334
000270 59 b8 b2 3d f2 27 cf 3d 2f bf 35 3e 15 70 a7 3d
       0.08726568 0.10115041 0.17748712 0.08175675
000280 63 68 ab bd c8 7b ff bd 38 79 25 bd ab 52 13 3d
       -0.083695196 -0.12474781 -0.040398806 0.03596751
000290 f6 92 8e 3e 41 70 81 b9 b0 1f e6 3c ae de ec bc
       0.27846497 -0.00024688433 0.028091282 -0.028914776
0002a0 d5 f1 75 3c 79 fa c3 bd bc 97 29 3e eb d0 86 3d
       0.0150112705 -0.09569258 0.16561788 0.06582817
0002b0 e5 c8 0e be 23 da bb 3d be bb 18 be 3d 56 1a 3e
       -0.13943823 0.09172466 -0.14915368 0.1507196
0002c0 9e 8c d7 3d 00 6a 2b bd 4f 43 34 3e 50 c6 af 3d
       0.105248675 -0.041849136 0.17603801 0.08582747
0002d0 17 9d 41 bd 5f 05 af 3b 1b 5f c4 3e 76 a7 8f 3d
       -0.047268953 0.0053412165 0.3835381 0.070143625
0002e0 1e 2d f1 bd 88 98 af 3d ce fa 8d 3e 24 05 91 3e
       -0.117761835 0.08574015 0.2773041 0.28324234
0002f0 50 38 e6 bd 82 26 75 be ae 26 22 3e 05 73 5e bd
       -0.112412095 -0.23940471 0.15835068 -0.05430891
000300 fa 2d f6 bd b8 92 82 be d2 3a e7 bd bf 79 fd be
       -0.12020488 -0.25502563 -0.11290516 -0.49506947
000310 04 20 63 be 48 d9 ae be b8 30 9a bd 43 f9 70 3e
       -0.22180182 -0.34150147 -0.075288236 0.23532586
000320 d9 08 18 bd cc 68 98 3e d3 5e 40 3d f1 8c 94 3e
       -0.037117813 0.29767454 0.04696543 0.2901378
000330 ca 8a 3f 3e 97 08 86 bd e6 7c a6 3d b3 ef 95 bd
       0.18705288 -0.06544607 0.08129291 -0.073211096
000340 9a 78 00 3e 4f a4 f6 3d d5 71 1a be ac f5 8e 3a
       0.12546006 0.12043058 -0.15082486 0.0010906956
000350 73 36 34 3e 98 14 71 bc 9c ef 05 3e fe e2 39 bd
       0.17598896 -0.014714383 0.13079685 -0.045382492
000360 a6 be 0d be e1 0f 02 3e cf 8d 1f be d9 9e 48 3e
       -0.13842258 0.1270137 -0.1558144 0.19591846
000370 ab e1 a4 3d 03 3f 25 be 04 33 ce bd 5f a3 4e bd
       0.08050855 -0.16137318 -0.10068324 -0.05044877
000380 a7 55 19 3e 02 ee e6 bd 99 58 54 3e 29 74 20 3e
       0.1497408 -0.11275865 0.20736922 0.15669312
000390 a1 af f8 3d 47 1e 80 3e 1e 6e 30 3c c9 6b 1b be
       0.121428736 0.250231 0.0107684415 -0.15177836
0003a0 71 08 51 3e bf be 86 3d dc be 2c 3e 94 88 46 be
       0.20413376 0.06579351 0.16869682 -0.19388038
0003b0 7b bd 89 be be 98 96 be e3 4d 17 bd ba 8b f4 3c
       -0.26902375 -0.29413408 -0.036939513 0.029851783
0003c0 e3 5a 19 bd c8 e9 dc bd 70 47 7e be e8 f9 8b be
       -0.037440192 -0.10786778 -0.24831939 -0.273391
0003d0 3d f7 99 39 42 15 84 3e fe 4d 72 3e 2c 2e c9 bc
       0.0002936664 0.25797468 0.23662564 -0.02455815
0003e0 65 0b e7 3d 7d 86 06 bd
       0.1128147 -0.0328431

conv1.bias f4 [10]
000000 cd 6c 09 3b c8 f8 d5 3d 3e 8a 13 bf 02 b7 c2 be
       0.0020969391 0.10447842 -0.57632816 -0.3803025
000010 a9 f9 a5 3c 41 a0 77 bd ff f1 15 bf 02 fd 3a 3e
       0.020260649 -0.060455564 -0.5857238 0.18260577
000020 06 e9 c4 be 92 6c 90 bd
       -0.38459033 -0.07051958

conv2.weight f4 [20, 10, 5, 5]
000000 e8 62 38 3e 2a 34 22 3e be 83 34 3d bc 59 0c bc
       0.1800648 0.15840212 0.04407095 -0.008566316
000010 7d f3 e8 3d 70 21 65 3e 35 32 4e 3e 81 f4 1d 3e
       0.11374567 0.22376037 0.2013634 0.15425302
000020 58 31 5a 3c c9 8d a4 3d e2 1e c5 bc 50 31 23 bd
       0.0133174285 0.08034856 -0.024062578 -0.03984195
000030 a3 f5 80 bd 63 df 21 3c fe b0 a4 3d ba 21 2a be
       -0.062968515 0.00987992 0.08041571 -0.16614428
000040 55 53 f3 bc 26 20 87 bd 2c d3 92 bc 5b f7 16 3d
       -0.029702822 -0.06597929 -0.01792296 0.03685699
000050 0b 1a 7d 3d 42 0f bd 3d 29 18 c6 3d e8 fe 4e bd
       0.061792415 0.09231426 0.09672577 -0.050536066
000060 61 8e b2 3b 46 43 38 3e a0 3a 20 3e 50 29 d8 bd
       0.005449102 0.17994413 0.15647364 -0.10554755
000070 2a e4 a6 bd 3f 04 56 3d e7 20 b3 3d 3d d3 eb 3c
       -0.081489876 0.052250143 0.0874651 0.02878725
000080 c8 27 b8 be 59 52 88 be 37 bc b0 3c 16 a1 2e be
       -0.3596785 -0.26625326 0.021574123 -0.17053637
000090 32 4e 1f bf 1f 5a f4 be 39 e6 66 bd 5f ec 08 3e
       -0.6222869 -0.47725007 -0.0563719 0.13371418
0000a0 c0 fa b6 be 50 cb 1f bf 4b 3e 5f be f1 40 b3 3d
       -0.35738182 -0.62419605 -0.21801107 0.08752621
0000b0 f5 6b 6d 3e bb 2f ab be fb 06 8f be c9 9e 82 3e
       0.23185714 -0.33434853 -0.27935013 0.25511768
0000c0 5a 88 73 3e 07 65 a1 3e 7c 20 21 be 4e 1c 4c be
       0.23782483 0.3152239 -0.15735048 -0.19932672
0000d0 e3 ce 06 be cd 0d bd bd 33 88 01 be 99 46 40 bd
       -0.13164859 -0.09231148 -0.12649612 -0.046942327
0000e0 ef 58 31 be 07 84 11 be 41 17 b2 bd fc bd 0e be
       -0.17319082 -0.1421052 -0.086958416 -0.13939661
0000f0 1e 12 7e bb bd 97 4b be 0c 62 c8 bd 71 34 28 be
       -0.0038768123 -0.19882102 -0.09784326 -0.16426255
000100 b7 b5 fe bd 90 ac cc 3d 6d 71 df 3b c9 b2 94 bc
       -0.12437003 0.09993851 0.0068189413 -0.018151658
000110 71 98 3d bd e7 4a a0 bd 2d e5 03 3e 49 70 66 bd
       -0.046287958 -0.078267865 0.12880392 -0.056259427
000120 f6 33 02 bd 88 11 dc bd b7 16 5f bd b5 0d 70 bd
       -0.031787835 -0.10745531 -0.054465022 -0.058606822
000130 57 16 97 bd 9e b1 a0 bd 70 2c 5f bd b1 9b 56 3d
       -0.07377308 -0.07846378 -0.05448574 0.052394573
000140 61 82 60 bd 8d cc 93 bc 9f b7 52 bd 92 7d 3d bd
       -0.05481184 -0.018041873 -0.051444646 -0.04626233
000150 2d 95 3e bd fb 72 e4 bd 3b e5 6a bd 0c ee d2 bd
       -0.046528984 -0.11154743 -0.057347517 -0.1029931
000160 bd c4 62 3d 44 e0 91 3d 89 4e 40 3d 20 86 1a 3d
       0.055363405 0.071228534 0.046949897 0.037725568
000170 9b 2f 96 3d 00 76 30 3c 57 6c a3 3d 27 0c c4 3c
       0.07333299 0.010770321 0.079796486 0.023931576
000180 79 05 56 3d 66 46 9a 3d e6 c1 8f bc f1 41 01 3d
       0.052251313 0.07532959 -0.017548513 0.031557027
000190 97 11 c4 3d 01 cc 12 be d9 f7 38 be cb 65 e3 bd
       0.095736675 -0.14335634 -0.18063296 -0.111034
0001a0 e8 9e c4 b9 8d 9e a3 be 49 94 b0 be 59 42 24 be
       -0.00037502428 -0.31956902 -0.34488133 -0.16040935
0001b0 08 63 dc bd ae 6b f2 bb ff df 7f be 54 f9 dc bd
       -0.10761076 -0.0073980903 -0.24987791 -0.10789743
0001c0 b8 50 12 3c f3 da 9d 3d 6e bc 87 3d 2f 17 1c bd
       0.008930378 0.07707777 0.06627737 -0.038108047
0001d0 a1 3c 03 3e 1e 09 88 3d 7e b8 f3 3d e4 ac 77 3d
       0.12816097 0.06642364 0.119004235 0.060467616
0001e0 de 01 92 bd 7a e4 d0 3d 31 f9 cc 3d a0 7f f5 3d
       -0.071292624 0.101998284 0.10008467 0.11987233
0001f0 be 22 50 bd c4 2c 7f 3e b4 59 60 3e 2a 64 04 3e
       -0.050814383 0.2491942 0.21909219 0.12928835
000200 56 3c 9b 3d a2 e2 4c 3d 16 ef 5d 3e 3e cd 3b 3c
       0.075798675 0.05002082 0.21673235 0.011462508
000210 d0 ad 47 bd 5b 2f 2a 3d e0 d3 36 bb 22 90 67 3e
       -0.048749745 0.041549068 -0.0027897283 0.22613576
000220 26 0b 33 3e 31 84 e6 3c b2 a8 fb 3b 27 07 5a bd
       0.17484722 0.028139206 0.007680022 -0.053229477
000230 95 77 22 3e 5d 4d 27 3d 82 00 a6 bc ce 61 a9 bd
       0.1586593 0.040845264 -0.020263914 -0.08270608
000240 71 40 53 bd 3d 8b 3e 3e 4f 5f 1f 3e 5e 04 f3 3d
       -0.051575128 0.18607803 0.15563701 0.11866067
000250 88 47 fa 3d 82 d7 af 3d b8 e7 1a be 73 d1 48 be
       0.12220675 0.08586027 -0.15127456 -0.19611149
000260 ae 76 32 be ef 9e 99 bd 49 cb 39 bc 99 84 39 bd
       -0.17428085 -0.07501017 -0.011339971 -0.04529247
000270 77 b8 43 bb 61 bc 48 bc 8a 85 ba bd cc a4 45 bd
       -0.0029864588 -0.012251944 -0.09107502 -0.048252866
000280 b4 5c de bc 88 be c0 bc 09 8d ef 3c 47 e1 24 3d
       -0.027143814 -0.023528352 0.029242055 0.040253904
000290 80 46 e9 bb 05 0a 18 3d 32 df 6b 3d 7b 0d fe 3d
       -0.007119 0.03711893 0.057585903 0.12404915
0002a0 82 50 5e bd 3c 2f 87 bd c6 bb 7d 3d d3 2f af 3d
       -0.054275997 -0.06600806 0.061946653 0.085540436
0002b0 8f 80 d9 3c aa b6 9e 3d c8 06 84 3c 57 10 7c 3d
       0.02655056 0.07749684 0.016116515 0.06153902
0002c0 04 0b 44 3d 0c 72 43 3d 52 4b 51 bb 7f 27 05 3e
       0.047862068 0.047716185 -0.0031935764 0.13003348
0002d0 e6 a1 68 3c d9 9f 74 3e 2f 2d 66 3d 11 de 2e bc
       0.014198756 0.23889102 0.056195434 -0.010673062
0002e0 6a 69 5e 3d b4 da da be d9 fc d8 3d 2b 8a b7 3d
       0.05429975 -0.42744982 0.10595102 0.089619
0002f0 e9 ac 10 3d 66 c8 a9 3d 7d 08 f6 be d3 ac 44 be
       0.03532115 0.08290176 -0.4805335 -0.19206552
000300 7b 12 db bd 68 08 af bd 12 5c 07 be 21 d9 00 3e
       -0.10696884 -0.08546525 -0.13218716 0.12582828
000310 7f 12 aa 3d cd 62 fb bc fe 53 2e bc 93 9d 92 3d
       0.08304309 -0.03068676 -0.0106401425 0.07158961
000320 3e 1f 83 bd a2 60 a1 bd 1d 63 2f bd 20 97 a8 bd
       -0.06402443 -0.07879759 -0.04281913 -0.0823195
000330 67 2e 94 bc 70 08 e5 bd d2 1c 9e bd c8 38 4b 3a
       -0.018088533 -0.1118325 -0.07720341 0.00077522965
000340 52 82 ad bd 41 41 a4 bb 6c 0f b9 bc d5 6f ea bd
       -0.08472122 -0.0050126617 -0.022590362 -0.114471115
000350 8f 6b 85 bd ef c1 41 bd 9f fc c3 3d 14 d7 f0 3d
       -0.06514656 -0.04730409 0.09569668 0.11759773
000360 a4 96 a7 3c 91 35 9b 3d 16 fc e4 3c c3 48 09 3e
       0.020457573 0.07578576 0.027952235 0.13406663
000370 14 da a4 3d b3 61 f3 3b ca a0 9b 3d ce de 0b 3d
       0.080494076 0.007427418 0.075990275 0.03414803
000380 43 85 82 3d 9d f9 00 be a7 d5 08 3e 85 ca a5 3e
       0.06373074 -0.1259522 0.13362752 0.32381073
000390 02 02 a8 3e 3f e3 3d 3e 93 04 0e 3f 11 ea 24 3f
       0.32814032 0.18543719 0.5547573 0.64419657
0003a0 88 d6 0d 3f eb 42 7c 3e 6f ed b2 3d 5d 63 4b 3f
       0.55405474 0.24634902 0.08736693 0.7944849
0003b0 53 58 a3 3e 5c f1 99 3c 77 a5 af be 37 38 d6 be
       0.31903324 0.018791847 -0.34305927 -0.41839764
0003c0 31 c1 38 3f 7e f4 fa 3e bc 62 05 be 87 bc 05 bf
       0.72169787 0.49014658 -0.13025945 -0.52240795
0003d0 d1 96 84 be 8a dd 13 3e 96 cb 82 be 32 20 0f bf
       -0.25896314 0.14439979 -0.2554595 -0.559085
0003e0 88 55 e8 be 57 44 5c be 74 6b 9c bc 5c f5 ca bd
       -0.45377755 -0.21510445 -0.019094206 -0.0991008
0003f0 ef 03 47 3d 37 5a a6 3d 59 7c 37 3d 71 a7 34 be
       0.048587736 0.08122676 0.04479632 -0.17641999

conv2.bias f4 [20]
000000 48 59 2e 3e eb c7 46 bd 41 ee 01 3d ae 60 01 3d
       0.17026246 -0.0485305 0.031721357 0.03158634
000010 e9 df 11 3d da b9 f7 bb aa fc da 39 3d ea 47 3c
       0.035613928 -0.007559997 0.0004176845 0.012201843
000020 26 97 d3 3d a5 e1 2d 3d f8 5e 7a bb 65 2b 09 bd
       0.10331564 0.04245152 -0.0038203578 -0.03348865
000030 7e a1 8f bc e6 58 c5 3d 10 21 34 3d aa 7d 05 3c
       -0.01753306 0.09636097 0.043976843 0.008147636
000040 d4 e9 24 3c 61 c7 03 be 55 27 89 3b 53 b7 04 be
       0.010065515 -0.12869026 0.004185597 -0.12960558

fc1.weight f4 [50, 720]
000000 4f 2b 02 bd 3d 55 1e 3c 98 d5 4d 3b 44 97 f8 bc
       -0.031779584 0.009663877 0.003140783 -0.030345567
000010 92 5b 57 bc d7 f6 33 3c cf f7 04 3a 27 71 24 3c
       -0.013144391 0.010984144 0.0005072327 0.010036743
000020 90 c1 a5 3c ea 6b 90 3c a5 55 84 bc ad 88 47 3c
       0.0202339 0.017629582 -0.01615412 0.012178582
000030 af d0 bc 3b 40 01 e2 3c 9f f9 04 bd 84 e2 ff bc
       0.0057621817 0.027588487 -0.03246462 -0.03123594
000040 49 f6 4b 3c 66 bf c4 ba eb a3 d0 3c 85 ee 45 3c
       0.012448856 -0.0015010654 0.025468787 0.012080793
000050 96 fa 5c bc 43 08 d5 3a 4d da 62 3c 68 0f 05 3d
       -0.013487479 0.0016253073 0.013845992 0.032485396
000060 25 e1 de bc d4 61 9c bc 4b ef 0b bd b4 3a f6 3b
       -0.027206967 -0.019089617 -0.034163754 0.007514322
000070 32 37 f1 3c 67 e5 00 3d 6a 34 0c 3d f2 52 4b 3c
       0.029445264 0.031468775 0.034229673 0.012409912
000080 bd 3f 23 bd 6b 50 8c bc 16 29 e8 3c ea 16 7f bc
       -0.039855707 -0.01712819 0.028339904 -0.015569428
000090 67 06 bd bb d9 02 05 bd 46 cd 76 3c 98 a1 c7 bb
       -0.0057685855 -0.03247342 0.015063589 -0.0060922615
0000a0 7c 17 16 3c f5 2a d7 3c cb 1f 13 bd f2 64 25 3c
       0.009160873 0.0262656 -0.035918992 0.010094868
0000b0 8a e5 82 b9 f0 84 2a bd bb 5b 43 3c d9 ba c8 bc
       -0.00024966552 -0.041630685 0.011923726 -0.024503158
0000c0 dd 9a 86 3c ab 48 2c bc cd b2 0c 3c 32 3d 01 bd
       0.016431266 -0.010515372 0.008587551 -0.0315525
0000d0 b6 10 11 bd 1b 07 e6 3c b7 38 96 3c 8d 8a 1f bd
       -0.035416327 0.02807956 0.01833759 -0.03895049
0000e0 06 e3 cf 3b c5 62 2c bd df 1c ef 3c f3 9a 21 bd
       0.006344202 -0.04208638 0.029188571 -0.03945441
0000f0 38 ac fa bc 6a cf af 3c 8e 53 b5 bb 15 b8 92 bc
       -0.030599698 0.021461207 -0.005533642 -0.017910043
000100 cf ba e5 3c ac 15 ce bc 87 1d ba bc 9d a8 0f 3b
       0.028043179 -0.025156818 -0.022719158 0.002192057
000110 fb ac ad 3c b4 35 e3 bb 86 0c 66 3c b4 87 70 bc
       0.021200648 -0.006933892 0.014041072 -0.014680792
000120 5f aa 7a bc 84 1b 07 bd 34 57 a0 bc 2c 3a 04 3d
       -0.015299409 -0.032985225 -0.019572832 0.03228204
000130 59 85 04 3d c2 fa 0f bd c0 89 54 3c 72 10 4b bc
       0.032353733 -0.03515125 0.012972295 -0.012394058
000140 1e dc ed bc 7b 9d c4 3b de fa 69 3b fe 4b 09 3b
       -0.029035624 0.0060002184 0.0035702507 0.0020949836
000150 b9 cd cc 3c 25 a8 c5 bc 7a e9 6e 3c e2 20 5b 3c
       0.02500044 -0.02412803 0.014582032 0.013374539
000160 f7 ef 61 ba 06 f2 d2 3c 4c a8 9c 3c d8 f9 05 bb
       -0.00086188264 0.025750171 0.019123219 -0.0020443108
000170 f1 d6 06 bc f6 32 88 bc 4a 42 02 bd 8c 66 d2 bc
       -0.008229957 -0.016625863 -0.0318015 -0.025683664
000180 e8 43 61 bc 38 14 f6 bb 70 8a 15 3c d9 e8 ac bc
       -0.0137491 -0.0075097345 0.009127244 -0.021107124
000190 37 98 fb bc 94 fa 4e bc 39 35 89 bc 00 bb 08 3c
       -0.03071223 -0.012632985 -0.016749011 0.0083453655
0001a0 43 1a d2 bb e1 32 e0 3c 9d 89 50 3c bb 12 db ba
       -0.006411822 0.027368011 0.012728122 -0.0016713956
0001b0 5a dd 20 bd 08 db 9b bc 21 e1 76 bb 5b d6 ad bb
       -0.039273597 -0.01902534 -0.0037670808 -0.005305094
0001c0 87 7f be bc 29 44 b6 3c 61 bc 86 bc 57 33 c9 3c
       -0.02325417 0.022249298 -0.016447248 0.024560614
0001d0 05 ad 65 3b 48 48 ee bb 28 f5 a8 bc e5 86 15 bd
       0.0035045755 -0.0072718 -0.020624712 -0.0365056
0001e0 37 f2 e8 3c a3 61 e1 bc b2 6d ed bc 94 63 6e 3c
       0.02843581 -0.027512377 -0.02898297 0.014550108
0001f0 e9 ef a0 3c 5a 03 90 bb 36 bb bb bc 3a 3a 1f bc
       0.019645648 -0.004394931 -0.022916418 -0.009718472
000200 8b 3e 7b bc 8c 01 b1 bc 62 07 e0 ba 52 78 db 3c
       -0.015334736 -0.021607183 -0.0017092044 0.026790772
000210 ec 6e 32 3c b3 f9 20 bd 35 fe 2a bd 84 10 b2 ba
       0.010890704 -0.03930063 -0.041746337 -0.0013585244
000220 95 3f a6 bc f8 2a 08 bd f2 6c f1 bc 8b 0b 27 bd
       -0.02029399 -0.033244103 -0.029470894 -0.040782493
000230 c0 d4 0e bc f6 69 0e 3c e7 8d 37 3c 26 68 46 bc
       -0.008717716 0.008692255 0.011203266 -0.012109792
000240 0a 09 03 bd df f3 e8 bc 3d b9 14 bd 13 89 39 3c
       -0.031991042 -0.0284366 -0.03630947 0.011324185
000250 29 5d 2f bc 28 e7 e8 bc 87 db 6d bc f6 1e 1f bd
       -0.010703363 -0.028430536 -0.014517671 -0.038847886
000260 52 b3 ca bc 84 a7 8d bc 1f d6 01 3d 07 6e d0 3a
       -0.02474371 -0.017291792 0.031698342 0.0015901931
000270 f5 2e a8 bc a5 95 93 bc 2e 17 09 3d 7e 92 e3 ba
       -0.020530203 -0.018015692 0.03346937 -0.0017362384
000280 43 8d 26 bd 7e 10 de 3c 05 27 cc bc 87 86 da 3c
       -0.04066206 0.027107473 -0.02492095 0.026675476
000290 28 c6 ff bc b1 7e bd bb e8 39 b0 3c ff 6e c6 bc
       -0.031222418 -0.005782925 0.021511987 -0.024222849
0002a0 d1 13 b5 bc f3 d6 4a bc b9 96 db bc b3 46 d5 3c
       -0.022104176 -0.012380349 -0.026805269 0.026034689
0002b0 a7 eb 8a bc a2 b3 93 bc ad 9f 16 bd 9b 60 8e 3c
       -0.01695807 -0.018029992 -0.036773372 0.01738005
0002c0 bc 42 14 bd 6a 86 2a 3c 80 5e cc 3c 57 34 fe 3c
       -0.036196455 0.010408023 0.024947405 0.031030817
0002d0 f6 49 04 3d b3 08 1c bd 2d 6a cc 3b b0 46 e9 bc
       0.032297097 -0.038094234 0.006238243 -0.02847609
0002e0 56 d5 88 bb de e4 44 3c ac 40 b7 bc 14 1d f7 bb
       -0.0041758223 0.012017457 -0.022369705 -0.007541308
0002f0 37 db df 3b e9 b8 91 3b ef 07 e1 bc 85 ae f5 bc
       0.0068315524 0.004447092 -0.027469603 -0.029990444
000300 84 cd fd ba f5 1d 89 3b 60 81 20 bd d2 c4 9a bc
       -0.0019363617 0.0041844794 -0.03918588 -0.01889268
000310 17 01 36 bc 33 25 fb 3b 81 be 24 bd f4 ba 05 bd
       -0.011108658 0.0076643466 -0.04022074 -0.032648996
000320 fa a0 04 bd 5f 07 27 bc a4 10 46 bb 51 32 78 3c
       -0.03238008 -0.0101946285 -0.003022232 0.015148715
000330 7b 12 12 bd 91 63 65 3c 14 2f e1 3c 1c df e1 bc
       -0.035662156 0.014000789 0.027488269 -0.027572207
000340 69 19 0e bc 6e 5c de bb 68 ef 05 3c 6a f4 0a 3d
       -0.00867305 -0.006785921 0.008174755 0.033924498
000350 42 fc f4 3c d9 5d c0 3c 21 7a ad 3c 36 2f e2 3c
       0.029905442 0.02348225 0.0211764 0.027610403
000360 4b 73 1c bd fc c7 dd 3c 77 23 59 3c 8c 0c 13 3c
       -0.03819589 0.027072899 0.013253084 0.008975159
000370 a4 0e 46 bc 28 76 9c bc a9 b1 00 bd 79 ca 65 3c
       -0.012088452 -0.01909931 -0.03141943 0.014025324
000380 b0 76 40 ba be d1 02 bd 28 d0 fe bc 3b 77 2c bd
       -0.00073419046 -0.031938307 -0.031105116 -0.042105895
000390 9c 95 b8 3c 85 3f e4 bc a0 21 26 bd 4e df f1 bc
       0.022532277 -0.02786232 -0.04055941 -0.029525425
0003a0 b8 57 e8 bc d3 5d a4 3c ad 7b ac 3c 57 04 2c bd
       -0.02836214 0.02006427 0.021055067 -0.041996326
0003b0 9c 62 f3 3c e5 74 96 bc 53 1a 49 bc 03 30 1f 3c
       0.029710107 -0.018366287 -0.012274343 0.009716037
0003c0 54 a7 1b bc 10 a2 e7 3c 25 fa c9 bc 2a 85 de bc
       -0.009500343 0.02827552 -0.024655411 -0.027163107
0003d0 74 71 47 3c 03 27 10 bd 82 d2 a1 3a 83 fd 20 bd
       0.012173045 -0.035193454 0.0012346061 -0.039304268
0003e0 a4 3c f9 3a cd 95 00 3d 09 7c b7 bc 85 b2 02 ba
       0.0019015265 0.03139286 -0.022398012 -0.0004985708
0003f0 de 48 ac bc d4 58 eb 3c ba 02 25 bc 24 bf 72 bc
       -0.02103084 0.02872888 -0.010071451 -0.014816079

fc1.bias f4 [50]
000000 de a7 3d 3c fe 74 29 3e 12 19 2d bd ad 1c 0b be
       0.011575667 0.16548535 -0.042260237 -0.13585158
000010 d2 1b 21 be 91 1b fc 3c dc ef a0 3c bf b2 0b be
       -0.15733269 0.030774863 0.019645624 -0.13642405
000020 05 d9 bd bc 1b ee 15 3e 57 45 80 3d 8a 08 c3 3b
       -0.023174772 0.14641611 0.062632255 0.0059519457
000030 15 70 b0 3d ac ed ac 3d 13 5f 1c 3c 3b 87 29 bd
       0.08615128 0.0844377 0.009544152 -0.04138873
000040 cf 3e f5 bc c5 25 24 bd 64 6b 97 bd 72 62 16 bc
       -0.029937176 -0.040075082 -0.0739353 -0.009178745
000050 e5 53 2f 3e 21 ba 19 bd 55 2b 4b 3e 09 65 38 3e
       0.17121847 -0.037531022 0.19840749 0.18007292
000060 0a 06 9b bd 71 77 88 3d 64 40 5a 3d 18 fc 34 3d
       -0.07569511 0.06663407 0.053284064 0.044185728
000070 19 16 de 3d 53 1e ab 3d a3 83 9a bc 42 c5 a1 3d
       0.108440585 0.08355393 -0.018861597 0.07898952
000080 22 10 77 be 49 c8 0d 3d 12 89 e6 bd 88 53 00 3e
       -0.24127248 0.034614835 -0.11256613 0.12531865
000090 d2 e5 fa 3d 67 d3 4d 3d 8e 07 c6 bd e7 98 49 3d
       0.12250866 0.050250437 -0.0966941 0.049218085
0000a0 f6 c0 76 3e 71 93 d7 3d 68 35 11 bd 8c 53 94 3b
       0.24097046 0.10526169 -0.035451323 0.004526561
0000b0 55 bc df 3c b0 1c 09 3e 94 87 b1 3d 9c fd 93 3b
       0.027311483 0.1338985 0.086684376 0.0045163166
0000c0 c4 88 88 bd 58 91 8a bd
       -0.06666711 -0.06766003

fc2.weight f4 [32, 50]
000000 4a 69 84 bd 9d f0 8b be 01 55 12 3d 6a cf 99 be
       -0.06465395 -0.2733201 0.035725597 -0.30041057
000010 c4 32 90 3e 8a 9e 76 3e d3 44 a4 bc 74 8e a8 be
       0.2816373 0.24083915 -0.02005235 -0.32921183
000020 fc 73 2d 3e be a2 be bd cb 9a cb be 16 eb 54 3e
       0.16938776 -0.09308384 -0.39766535 0.20792803
000030 1f b9 85 be 68 b0 b5 be 70 c6 63 be 86 6e e1 be
       -0.261178 -0.3548615 -0.22243667 -0.44029635
000040 9b aa 97 bc d5 ec f8 bd 35 1c 4b bd d5 b4 81 3e
       -0.018513968 -0.12154547 -0.049587447 0.25333276
000050 26 0a 1d 3e 3f a6 a6 3d b0 9c e3 3d ab e9 bd be
       0.15335903 0.08137178 0.1111387 -0.37092337
000060 93 0a 6e be 8d 90 4d be 7e 87 81 3e a1 01 c8 be
       -0.23246221 -0.20074673 0.25298685 -0.39063743
000070 78 36 3d be 91 5d f2 bd 50 6d c3 bd c1 19 a4 be
       -0.1847781 -0.118342526 -0.09542334 -0.320509
000080 5e 27 a8 be 7c 56 0a be eb 75 12 be ee 5d f5 be
       -0.32842535 -0.13509554 -0.14302795 -0.47923225
000090 59 85 b5 be 3a 5d c4 be aa b2 aa be 3b 7d 94 be
       -0.354533 -0.38352376 -0.33339435 -0.29001793
0000a0 6b 4b 1f be 2f 2c 89 be 38 1e 52 bd 57 38 03 be
       -0.15556113 -0.26791522 -0.05129835 -0.1281446
0000b0 d7 2b ba be 73 ed ed be 76 40 49 3e 2a 14 12 bd
       -0.36361572 -0.46470222 0.19653496 -0.03566376
0000c0 ee d9 00 bf fa 4f ae be 17 00 00 3e 16 14 46 3e
       -0.50332534 -0.34045392 0.12500034 0.193436
0000d0 f3 6b 30 3d 9b 9d 2d 3e b3 6b 5c 3e af 72 de 3d
       0.0430717 0.16954653 0.21525459 0.10861718
0000e0 bb fc 4a 3d 3e 33 28 3e dd ca 57 3d 3d f8 5d 3e
       0.04955743 0.16425797 0.0526837 0.21676727
0000f0 39 e0 68 be 89 d9 95 be 92 35 b0 be 94 bb a9 3d
       -0.22741784 -0.2926753 -0.3441587 0.08287731
000100 db 5f aa bc f3 68 c8 3d 83 3f 9f bd 21 29 90 bc
       -0.02079766 0.097856425 -0.07775786 -0.017597737
000110 8a 41 22 be b0 74 b2 3d 16 bf 2a be e6 24 d4 bd
       -0.15845314 0.087136626 -0.16674456 -0.103586
000120 c7 31 12 be 0f 22 85 be d6 da 25 3e d5 77 51 be
       -0.14276801 -0.26002547 0.1619676 -0.20455869
000130 d2 03 9d be 19 2c 94 be 35 a4 fb 3d 49 cc a1 be
       -0.30666977 -0.28939894 0.122871794 -0.3160117
000140 46 02 a0 bd 30 e8 17 be 0f 3f 46 be e4 a2 8a 3e
       -0.078129336 -0.14834666 -0.19359992 0.270774
000150 7b 19 47 3e 65 97 8d be e3 d1 76 be bd 76 0d 3e
       0.19443314 -0.27654567 -0.24103503 0.13814826
000160 6e 20 42 3d 8d 37 4f 3e 79 92 d9 be 53 f5 3f be
       0.04739421 0.20236035 -0.42494562 -0.18745928
000170 62 bc 91 3d ef 46 fb 3d b9 0d 8b 3e 6c 5d 05 be
       0.07116009 0.12269389 0.27158907 -0.13023919
000180 63 37 b6 3d ae df 85 3b eb f7 85 3e f3 b0 03 bf
       0.08897283 0.0040855026 0.2616571 -0.5144188
000190 3a be c9 3d b8 79 23 3e 96 5b e7 3d 81 41 16 3e
       0.09850736 0.15964401 0.112967655 0.14673425
0001a0 bc 30 8d 3d a7 1e 9f 3d fc 5e c7 3d 80 ac c0 3d
       0.06894061 0.07769518 0.09734914 0.09407902
0001b0 15 e5 1e 3e f8 09 0f 3b a8 3d fd be 5c 60 06 bf
       0.15517075 0.002182601 -0.49461102 -0.5249078
0001c0 5e 95 b9 3d 1a 49 91 be 07 84 ed be ec e7 e1 bd
       0.09061693 -0.28376085 -0.4638979 -0.11030564
0001d0 c5 39 f9 bd dd d8 e6 bd c4 d2 f1 be 49 e2 ab bc
       -0.12169222 -0.11271832 -0.47231114 -0.020981925
0001e0 85 54 06 bf ca 92 6e bd f5 49 af be 94 55 8d be
       -0.52472717 -0.058245458 -0.34236112 -0.27604353
0001f0 05 d9 23 3e bd 3f b2 be 6f 9e 01 bf f3 31 c9 be
       0.16000755 -0.34814253 -0.50632375 -0.3929592
000200 46 b5 28 3d e4 c7 ac be e1 fe 2b bd c1 e3 91 be
       0.0411885 -0.33746254 -0.04199112 -0.28494075
000210 7e ba d7 be 1a d2 8e 3e f5 3a 26 3e 54 5e 05 bd
       -0.4213447 0.2789467 0.16233428 -0.03256066
000220 b6 3a ab 3d 80 50 05 3e bc 5b cd be 23 d7 20 3e
       0.083608076 0.1301899 -0.4010905 0.15707068
000230 4c d0 95 be 7c 51 81 be fd 64 01 be 98 c3 65 3d
       -0.2926048 -0.2525748 -0.1263618 0.056094736
000240 16 f5 85 3e 88 e8 2e bf 69 ab 88 be 63 6a b9 3d
       0.26163548 -0.68323565 -0.26693276 0.09053495
000250 60 7d 86 3e 16 4a 2a bf 75 22 32 3d 00 25 07 bf
       0.2626753 -0.66519296 0.043489892 -0.5279083
000260 06 79 ef bc 35 4f 75 3e a9 d4 0f bf ff 35 7c bf
       -0.029232513 0.23955996 -0.5618387 -0.9851989
000270 3e 57 0b be 6c bc ac bf 44 b6 14 bf 3d 18 08 3e
       -0.13607499 -1.3495002 -0.58090615 0.13290496
000280 98 5f a3 bc cf f6 3f be b9 10 4c bf 53 2c 53 3e
       -0.019943044 -0.18746494 -0.79713017 0.20622377
000290 d4 ca 11 3e d1 65 03 bf 15 c3 4d bd 3b f3 dd 3d
       0.14237529 -0.51327235 -0.050234873 0.10837408
0002a0 20 3c f8 be e9 63 8a bf 85 58 82 3d 08 b6 ea bd
       -0.48483372 -1.081174 0.0636454 -0.11460501
0002b0 7b 4d 0a bf 5d 43 31 bf ef a2 2a bf 72 4e 1a bf
       -0.54024476 -0.69243413 -0.66654867 -0.6027595
0002c0 fa 15 09 3e 29 77 fc 3d 46 05 67 3e cf eb 3d bf
       0.1338729 0.123274155 0.22560605 -0.7418794
0002d0 93 d1 b2 bd 70 e1 86 bf 34 f1 24 bf 35 d9 89 bf
       -0.08731379 -1.0537548 -0.64430547 -1.0769411
0002e0 b8 44 43 bf 1d 27 78 bf 3a f9 fd be 81 33 d5 be
       -0.7627673 -0.9693468 -0.49604207 -0.41640857
0002f0 17 8a 4e 3e c4 b9 ac be b7 bc 1d bf ad f8 35 bf
       0.20169865 -0.33735478 -0.6161608 -0.71082574
000300 b4 c3 49 3d 54 b2 70 3c ee 44 d1 bd 6b 66 05 bb
       0.049258903 0.014690954 -0.102182254 -0.0020355235
000310 44 4c 48 3e c1 b5 c6 3d b3 e5 70 bf 40 1c 56 bf
       0.19560343 0.097026356 -0.94100493 -0.83636856
000320 c2 ed 0a be 62 6f 9f bc 1f 8b 90 3d f8 d0 f3 bd
       -0.1356726 -0.019462291 0.07057785 -0.11905092
000330 a0 e2 66 be 02 c3 47 3e 5d a2 85 bd 65 dd 64 3e
       -0.22547388 0.19507983 -0.06525109 0.2235008
000340 17 2d 65 be b2 92 f5 bd 8b eb 1a 3e 76 3f 2e 3e
       -0.22380482 -0.119908705 0.15128915 0.17016396
000350 c6 51 3e be 77 fb 0b be 3e e9 f4 bd 3d d3 4e be
       -0.18585882 -0.13670145 -0.1195855 -0.20197769
000360 d8 90 48 bd 39 64 f6 3d b4 b4 6b 3e 24 89 4e be
       -0.04896626 0.12030835 0.23018152 -0.20169502
000370 6e c2 67 be f8 3e db bd 5f f0 2d 3e 59 c0 39 3e
       -0.22632763 -0.1070537 0.16986226 0.18139781
000380 57 c9 96 be 10 2d 71 be 75 7a 27 3e 26 f1 59 be
       -0.29450485 -0.23552346 0.16355307 -0.21283397
000390 77 f8 17 be dc a7 7a be c2 d8 41 bd e4 1e d1 be
       -0.14840876 -0.24478096 -0.047325857 -0.4084388
0003a0 a8 15 57 be f2 9a 8a be 56 2c 63 be 8c 8b 3f 3e
       -0.21004355 -0.2707134 -0.22184882 0.18705577
0003b0 a9 81 00 3e 41 8b 35 be 95 7f 13 3e 2f d3 2f 3e
       0.12549461 -0.17728902 0.14404137 0.17170404
0003c0 ad ad 78 be 55 a4 34 3e 56 67 8a bd e2 95 90 3d
       -0.24285002 0.17640813 -0.06757991 0.07059838
0003d0 52 cb 00 be 86 0c 9a be 33 fb 48 3d 57 8f e0 bd
       -0.1257756 -0.3008768 0.049067687 -0.1096484
0003e0 1f 0d 26 be d2 fb 2c be ba b2 b2 bc 9a 83 81 3e
       -0.16215943 -0.16892937 -0.02181374 0.25295717
0003f0 0d f6 9c bd 2b 7e da be 94 88 8f be a8 6f 23 3d
       -0.07664118 -0.42674384 -0.28033888 0.039901406

fc2.bias f4 [32]
000000 59 cf af 3e ec 6e 3c bf 70 5f 13 c0 df 83 ae 3f
       0.3433788 -0.73606753 -2.3027 1.3633994
000010 81 5c eb be 69 e5 34 3f c8 6a 5b bf 73 de d0 bc
       -0.45969012 0.7066255 -0.8570981 -0.025496697
000020 36 4c 08 3f 01 ce 53 bf 24 79 91 bd 9a 67 01 bd
       0.5324129 -0.8273621 -0.07103184 -0.031592943
000030 75 72 2a 3f b1 f4 9d 3f d6 2d 94 be 69 81 59 bf
       0.665809 1.2340299 -0.2894122 -0.8496309
000040 ff 88 00 3f 84 b0 1b 3f f9 67 08 bf 71 6e 0d 3f
       0.5020904 0.60816216 -0.5328365 0.55246645
000050 a6 a7 24 3f c6 fd 39 bf a5 ba 73 bf 73 67 08 bf
       0.6431831 -0.7265285 -0.9520667 -0.5328285
000060 e0 46 48 be 0a 65 9f 3e f1 c1 a9 be f9 f2 dd be
       -0.19558287 0.31131774 -0.33155778 -0.43349436
000070 b6 35 9f bf 0d ea 12 3e c6 18 da 3e 2f 3c 51 3e
       -1.2438266 0.14347096 0.42597026 0.20433114
