checkpoints/model-40.pt (torch, 177231 bytes, 8 tensors)

conv1.weight f4 [10, 1, 5, 5]
0.24940859 0.247867 0.25769156 0.24759999 0.095752545 0.21625951 0.2785131 0.09774472
0.12992524 0.031080987 0.20640087 -0.0690361 0.23522703 0.0731388 -0.27475414 -0.23258242
-0.0762854 -0.17824227 0.027982505 -0.35140112 -0.25384194 -0.016734095 -0.30362788 -0.19214176
-0.37627012 -0.44080406 -0.056141883 0.24000296 0.2813559 0.03187161 -0.43884718 -0.23102036
0.029666498 0.10674967 0.28622085 -0.09902395 -0.0019808076 -0.06971617 0.09752657 0.1372929
-0.27044985 0.0058061797 0.11655133 0.09634015 -0.09159132 -0.24828401 -0.058472868 0.2568274
0.013940094 0.24156162 0.26026824 0.17932154 0.17882955 0.09200622 0.23229206 0.0020345054
0.028779874 0.11084456 0.09542567 0.0026893765 -0.2099039 0.01895499 0.11288895 0.19493072
0.06705982 0.009868435 -0.177966 -0.003378799 -0.06049176 0.19058149 -0.145008 -0.013496702
0.016953051 -0.10714614 0.05881902 0.40793929 0.36837402 0.1857207 0.37775177 0.37047708
0.13914397 0.10386777 -0.106856816 0.16095169 0.18811221 0.21421267 -0.16968825 0.22373931
0.19100453 -0.1460859 0.093252406 0.15392856 -0.0030164565 -0.1140937 -0.18088628 -0.09993207
-0.08667801 -0.19526729 -0.043155767 -0.30323422 0.31810036 0.23316455 0.15483764 -0.19697629
-0.2171166 0.15242715 0.08086417 0.22434233 -0.17942552 -0.33516973 0.35809237 0.08041653
0.06039191 0.087403916 -0.4113427 0.24963023 0.22574398 0.014441476 0.045335602 -0.44664502
0.16942416 -0.092038415 0.10513453 -0.20250963 -0.38676354 0.09407364 -0.018265655 -0.13300739
-0.07241674 -0.06224551 0.15107137 0.08571217 0.02877862 -0.06943898 -0.04403397 0.2072413
-0.11148782 -0.055445634 -0.0035048006 0.041670974 0.08894821 0.056120742 0.063337035 0.039931197
0.06644429 0.16871458 0.029401261 0.111270316 -0.12043733 0.012058817 0.10066282 0.11643444
0.16966993 0.107054114 0.11819651 0.05514015 0.13574976 0.115883976 0.20363009 0.0817838
-0.03863017 -0.11629272 -0.041524533 0.060902663 0.28535753 -0.0077353995 0.041116953 -0.0019088804
0.062583975 -0.07157057 0.10414358 0.04944561 -0.10717692 0.15595707 -0.13083325 0.20798199
0.14605281 -0.010444741 0.20220448 0.10161647 -0.03151694 -0.010119358 0.3710302 0.08142207
-0.08228438 0.050414562 0.21467489 0.2552478 -0.071235366 -0.18010877 0.11222496 -0.10801443
-0.11759921 -0.20631303 -0.13053039 -0.43281898 -0.20389701 -0.3585016 -0.13551506 0.12685017
-0.021678478 0.33343947 0.055107865 0.35224473 0.28781396 0.038354594 0.12620264 -0.08398481
0.13764386 0.1425145 -0.06040774 0.06833933 0.2172901 0.00027532218 0.14388719 -0.0034891388
-0.07372381 0.19242461 -0.11857736 0.2496234 0.050895475 -0.1652048 -0.086768545 -0.029489884
0.16859664 -0.08289888 0.23409805 0.15772378 0.11078569 0.27210414 0.013128441 -0.17443356
0.17537805 0.01752383 0.1715226 -0.21210445 -0.27316925 -0.28217492 -0.08828887 0.00748288
-0.05418526 -0.09703925 -0.20440884 -0.28203234 -0.03430567 0.26008174 0.24632788 0.0029486634
0.14742135 -0.042014506
00000000: f764 7f3e d9d0 7d3e 26f0 833e da8a 7d3e
00000010: e919 c43d 2273 5d3e 4599 8e3e 622e c83d
00000020: 1f0b 053e 8e9d fe3c c05a 533e cc62 8dbd
00000030: 5bdf 703e ccc9 953d 93ac 8cbe 162a 6ebe
00000040: 853b 9cbd 2485 36be 913b e53c d9ea b3be
00000050: 92f7 81be f115 89bc 1d75 9bbe cfc0 44be
00000060: 7aa6 c0be 12b1 e1be 08f5 65bd 56c3 753e
00000070: e10d 903e ce8b 023d 94b0 e0be 9a90 6cbe
00000080: 2807 f33c 929f da3d 8a8b 923e 12cd cabd
00000090: 70d0 01bb 5ac7 8ebd 03bc c73d 8396 0c3e
000000a0: 6778 8abe c441 be3b 77b2 ee3d fc4d c53d
000000b0: 3b94 bbbd 2a3e 7ebe 3f81 6fbd e27e 833e
000000c0: fe64 643c ee5b 773e e141 853e 11a0 373e
000000d0: 181f 373e c26d bc3d f8dd 6d3e 5655 053b
000000e0: c5c3 eb3c 7902 e33d 896e c33d 4040 303b
000000f0: 0cf1 56be 7f47 9b3c 5232 e73d eb9b 473e
00000100: a956 893d 37af 213c b83c 36be d76e 5dbb
00000110: 35c6 77bd cb27 433e fa7c 14be 4521 5dbc
00000120: 20e1 8a3c 6f6f dbbd 36ec 703d 6bdd d03e
00000130: 859b bc3e 912d 3e3e ae68 c13e 2caf bd3e
00000140: c27b 0e3e a0b8 d43d bfd7 dabd 85d0 243e
00000150: 7da0 403e 915a 5b3e c2c2 2dbe eb1b 653e
00000160: b196 433e 8b97 15be 1efb be3d 739f 1d3e
00000170: beaf 45bb f5a9 e9bd 413a 39be 2fa9 ccbd
00000180: 3e84 b1bd 26f4 47be 1ac4 30bd 8441 9bbe
00000190: 0dde a23e b0c2 6e3e c28d 1e3e 27b4 49be
000001a0: d053 5ebe dd15 1c3e 1d9c a53d ffb9 653e
000001b0: 53bb 37be 5e9b abbe e257 b73e 6cb1 a43d
000001c0: 825d 773d d300 b33d 839b d2be 119f 7f3e
000001d0: 6e29 673e f19b 6c3c d3b1 393d a8ae e4be
000001e0: 877d 2d3e a37e bcbd c650 d73d af5e 4fbe
000001f0: df05 c6be aea9 c03d dba1 95bc 1733 08be
00000200: 3a4f 94bd 26f5 7ebd 74b2 1a3e dd89 af3d
00000210: 24c1 eb3c 0636 8ebd f75c 34bd 1037 543e
00000220: ba53 e4bd f61a 63bd ccb0 65bb 2faf 2a3d
00000230: 7b2a b63d ddde 653d d9b6 813d e58e 233d
00000240: f213 883d 84c3 2c3e eada f03c b1e1 e33d
00000250: d9a7 f6bd 5892 453c 4f28 ce3d 2e75 ee3d
00000260: f4bd 2d3e 303f db3d 0311 f23d a3da 613d
00000270: fc01 0b3e 9454 ed3d 6884 503e 447e a73d
00000280: ab3a 1ebd e12a eebd a115 2abd 1275 793d
00000290: 621a 923e 3c79 fdbb 406a 283d 6633 faba
000002a0: 072c 803d 9793 92bd 3b49 d53d 7b87 4a3d
000002b0: 937f dbbd 36b3 1f3e 27f9 05be 3bf9 543e
000002c0: de8e 153e 6b20 2bbc b10e 4f3e 4c1c d03d
000002d0: e817 01bd aacb 25bc acf7 bd3e 9dc0 a63d
000002e0: b784 a8bd 807f 4e3d bcd3 5b3e d7af 823e
000002f0: d9e3 91bd 6f6e 38be 33d6 e53d ab36 ddbd
00000300: dbd7 f0bd b943 53be c2a9 05be 739a ddbe
00000310: 61ca 50be 868d b7be 76c4 0abe 03e5 013e
00000320: 1097 b1bc 94b8 aa3e c9b8 613d 6c59 b43e
00000330: 5a5c 933e b519 1d3d 443b 013e 3a00 acbd
00000340: 83f2 0c3e 52ef 113e 1b6e 77bd 7ef5 8b3d
00000350: 4c81 5e3e 1e59 9039 2a57 133e 09aa 64bb
00000360: 82fc 96bd f50a 453e b0d8 f2bd 479d 7f3e
00000370: c677 503d 722b 29be b5b3 b1bd c594 f1bc
00000380: 99a4 2c3e e3c6 a9bd 66b7 6f3e 5882 213e
00000390: 9ce3 e23d 3c51 8b3e ac18 573c b69e 32be
000003a0: 4e96 333e 238e 8f3c 9fa3 2f3e e931 59be
000003b0: d7dc 8bbe 3b79 90be ccd0 b4bd f232 f53b
000003c0: 5df1 5dbd 84bc c6bd 8d50 51be 8b66 90be
000003d0: 1a84 0cbd 6f29 853e 603d 7c3e 5d3e 413b
000003e0: 9ff5 163e 6717 2cbd

conv1.bias f4 [10]
0.0061091 0.055463076 -0.4656409 -0.23101622 0.021486264 -0.09630989 -0.44270998 0.20518403
-0.30178195 -0.012050165
00000000: d82e c83b 402d 633d 7c68 eebe 848f 6cbe
00000010: f603 b03c 1f3e c5bd e2aa e2be c31b 523e
00000020: 2a83 9abe 0e6e 45bc

conv2.weight f4 [20, 10, 5, 5]
0.0736127 0.10066071 0.056820054 0.04969835 0.14659491 0.12495459 0.12666222 0.10758519
0.026876261 0.10302726 -0.33257347 -0.16348003 -0.05033646 0.00807433 0.028313173 -0.116753064
-0.0023984965 -0.009263646 -0.012679345 0.05554037 0.10979862 0.1666318 0.19743031 0.0064194417
0.117812455 0.22588426 0.023129292 -0.10455528 -0.029662753 0.06600887 0.09801522 -0.075929545
-0.32761335 -0.2796114 -0.10794878 -0.14700067 -0.46646577 -0.50014484 -0.11866777 0.0020228745
-0.40115488 -0.5347175 -0.3876729 -0.009946371 0.15980643 -0.3011842 -0.20795338 -0.066548295
0.1189361 0.30547902 -0.0539993 -0.1231495 -0.0504993 -0.02256736 0.0077855727 -0.06774455
-0.111075774 -0.075734176 0.012296157 -0.06017937 -0.07346849 -0.07766051 -0.011898008 -0.0809712
-0.066471 0.06766205 0.0068619265 -0.0069980444 0.04280636 0.030294565 0.07967569 0.042074203
0.03174883 -0.059509728 -0.011120427 -0.08087297 -0.060139604 -0.06979879 -0.025854921 0.058925003
-0.040002953 0.020486966 -0.0043969722 -0.012825857 -0.025172252 -0.09569472 -0.030182445 -0.07629061
0.058213793 0.0258701 0.012921723 -0.0074347514 0.0557105 -0.022274124 0.039576866 0.033552825
0.06252886 0.09729228 -0.028530214 0.030197652 0.024535216 -0.13323866 -0.1305437 -0.020416671
0.09677224 -0.11733334 -0.2797101 -0.15848437 -0.07908587 0.060542703 -0.12635109 -0.11852674
-0.0013846429 0.03199651 0.05630327 -0.011995743 0.07427226 0.06299377 0.05887227 0.07493238
0.033747807 0.06986642 0.08977251 0.058046512 -0.039292287 -0.017973207 0.03142492 0.009635678
0.04751381 0.03795751 0.025917923 -0.0030240219 -0.05823279 0.029644012 -0.04391311 0.0697074
0.053648688 -0.0014666341 -0.025467426 -0.0493517 0.046956442 0.032048553 0.03892079 -0.057607125
-0.0006662044 0.01492874 0.07222257 0.07217397 0.02430307 0.016154716 -0.08025075 -0.10147858
-0.119526885 -0.012098827 0.046413798 -0.00804526 0.023027198 -0.0006665394 -0.05703363 -0.03037743
0.009744802 0.046109535 0.05251614 0.06404974 -0.051370315 0.028199602 0.03902295 0.080229364
-0.054214638 -0.054660592 0.050846152 0.10972536 -0.010499058 0.036950126 -0.011028457 0.066536784
0.056737516 0.09056356 0.058220677 0.15501404 0.07662574 0.24016641 0.08294952 0.06510205
0.109330006 -0.4415655 -0.08786554 0.056380205 0.029520247 0.036198713 -0.33204427 -0.13959527
-0.06607071 -0.08622185 -0.17114596 0.14186402 0.16500628 0.09517708 0.018908422 0.049385015
-0.029926116 -0.02912844 -0.00052385 -0.028279573 0.0053349384 -0.071330205 -0.03445925 0.030575693
-0.04594615 -0.026964955 0.00011226215 -0.088428706 -0.067980014 -0.0600508 0.0014173536 0.08848353
-0.010360165 0.025907287 0.004438043 0.06681222 0.057357818 0.018577857 0.051166534 0.0037280857
0.0032713923 -0.19396736 0.072427936 0.27438045 0.31211454 0.3229432 0.6118847 0.59645754
0.5480171 0.38518548 0.32081506 0.7651946 0.46721613 0.24473885 -0.059076495 -0.3119257
0.23126823 0.29978427 0.026658528 -0.21245211 -0.16191095 0.033805024 -0.1695677 -0.47227257
-0.4214747 -0.27283704 0.034158368 0.02835074 0.09490159 0.09566538 0.06950595 -0.073892295
00000000: 41c2 963d 3427 ce3d 25bc 683d 7f90 4b3d
00000010: fa1c 163e 31e8 ff3d beb3 013e a055 dc3d
00000020: 9b2b dc3c f5ff d23d 1247 aabe 4f67 27be
00000030: 9b2d 4ebd 324a 043c 07f1 e73c 3b1c efbd
00000040: 1830 1dbb 8cc6 17bc 07bd 4fbc 4d7e 633d
00000050: 19de e03d 87a1 2a3e 2c2b 4a3e 2e5a d23b
00000060: a847 f13d 344e 673e a479 bd3c 1421 d6bd
00000070: 4dff f2bc a92f 873d 34bc c83d f380 9bbd
00000080: f0bc a7be 3a29 8fbe 4014 ddbd 5887 16be
00000090: 9ad4 eebe 7e09 00bf 1608 f3bd 3492 043b
000000a0: 2c64 cdbe 3fe3 08bf 107d c6be 1bf6 22bc
000000b0: 4ca4 233e d134 9abe bbf1 54be 794a 88bd
000000c0: c594 f33d bf67 9c3e 5f2e 5dbd ce35 fcbd
000000d0: 5bd8 4ebd 2fdf b8bc 1e1e ff3b a8bd 8abd
000000e0: b27b e3bd 851a 9bbd d275 493c a57e 76bd
000000f0: a676 96bd 790c 9fbd ddef 42bc 3ad4 a5bd
00000100: f321 88bd 6792 8a3d 03da e03b da4f e5bb
00000110: b955 2f3d 4f2c f83c 022d a33d 0056 2c3d
00000120: 100b 023d 79c0 73bd 7432 36bc baa0 a5bd
00000130: f254 76bd abf2 8ebd b3cd d3bc 585b 713d
00000140: 23da 23bd 48d4 a73c 7a14 90bb 8b23 52bc
00000150: 0a36 cebc 98fb c3bd 2d41 f7bc 403e 9cbd
00000160: 9671 6e3d 88ed d33c a2b5 533c 379f f3bb
00000170: b130 643d 3978 b6bc 5a1b 223d b06e 093d
00000180: 220f 803d 2d41 c73d 32b8 e9bc 1161 f73c
00000190: 14fe c83c b76f 08be 3fad 05be dd40 a7bc
000001a0: 8630 c63d 764c f0bd 2a36 8fbe ba49 22be
000001b0: c6f7 a1bd a0fb 773d 2e62 01be 26be f2bd
000001c0: e87c b5ba c60e 033d 429e 663d cb89 44bc
000001d0: 0e1c 983d e102 813d 0d24 713d 2676 993d
000001e0: 243b 0a3d 2016 8f3d a6da b73d 2ec2 6d3d
000001f0: f3f0 20bd 8c3c 93bc 6bb7 003d f6de 1d3c
00000200: d79d 423d 5679 1b3d d351 d43c ab2e 46bb
00000210: 8285 6ebd 00d8 f23c 3cde 33bd c1c2 8e3d
00000220: babe 5b3d 133c c0ba 10a1 d0bc 0225 4abd
00000230: 6655 403d 5845 033d 686b 1f3d 73f5 6bbd
00000240: 38a4 2eba ad97 743c 6de9 933d f2cf 933d
00000250: 3b17 c73c e556 843c 815a a4bd 00d4 cfbd
00000260: 83ca f4bd 293a 46bc 651c 3e3d 44d0 03bc
00000270: 89a3 bc3c b4ba 2eba 189c 69bd 17da f8bc
00000280: a9a8 1f3c 5add 3c3d 2a1b 573d 832c 833d
00000290: ae69 52bd da02 e73c 87d6 1f3d 4b4f a43d
000002a0: 2b10 5ebd c9e3 5fbd 0e44 503d b1b7 e03d
000002b0: 3e04 2cbc 0459 173d b4b0 34bc 7044 883d
000002c0: 9965 683d 6379 b93d ce78 6e3d 00bc 1e3e
000002d0: f5ed 9c3d 2fee 753e 70e1 a93d 3954 853d
000002e0: 69e8 df3d e014 e2be d9f2 b3bd eeee 663d
000002f0: 72d4 f13c 1a45 143d b501 aabe 10f2 0ebe
00000300: 1550 87bd 1595 b0bd e340 2fbe cd44 113e
00000310: 68f7 283e 33ec c23d d6e5 9a3c f147 4a3d
00000320: 9d27 f5bc c49e eebc fa52 09ba 90aa e7bc
00000330: b5d0 ae3b 9215 92bd 2425 0dbd e079 fa3c
00000340: 0832 3cbd 9ce5 dcbc 486e eb38 1c1a b5bd
00000350: 1b39 8bbd d4f7 75bd 7fc6 b93a da36 b53d
00000360: aebd 29bc 853b d43c 016d 913b d8d4 883d
00000370: 08f0 6a3d 9730 983c 0094 513d e652 743b
00000380: db64 563b 619f 46be 1955 943d 987b 8c3e
00000390: 7acd 9f3e d058 a53e 7aa4 1c3f 71b1 183f
000003a0: d94a 0c3f 0837 c53e df41 a43e cbe3 433f
000003b0: f436 ef3e d29c 7a3e 32fa 71bd bab4 9fbe
000003c0: 94d1 6c3e 537d 993e fc62 da3c 0c8d 59be
000003d0: fccb 25be 2377 0a3d 28a3 2dbe b6cd f1be
000003e0: 88cb d7be 4cb1 8bbe a5e9 0b3d d03f e83c
000003f0: c45b c23d 36ec c33d 2359 8e3d d854 97bd

conv2.bias f4 [20]
0.112852305 -0.04669292 0.034164187 0.037746657 0.045893773 0.0091894865 -0.008516441 0.038204867
0.053592984 0.06222341 -0.01380189 -0.019515371 0.018690977 0.0675867 0.07634308 0.06230315
-0.009449573 -0.0666595 0.02670471 -0.095004
00000000: 1c1f e73d 1341 3fbd bfef 0b3d 3d9c 1a3d
00000010: 1cfb 3b3d 808f 163c 8b88 0bbc b57c 1c3d
00000020: 5184 5b3d f9dd 7e3d 5321 62bc b3de 9fbc
00000030: d21d 993c e56a 8a3d c359 9c3d 9631 7f3d
00000040: 62d2 1abc c784 88bd d6c3 da3c 7591 c2bd

fc1.weight f4 [50, 720]
-0.031779584 0.009663877 0.003140783 -0.030345567 -0.013144391 0.010984144 0.0005072327 0.010036743
0.0202339 0.017629582 -0.01615412 0.012178582 0.0057621817 0.027588487 -0.03246462 -0.03123594
0.012448856 -0.0015010654 0.025468787 0.012080793 -0.013487479 0.0016253073 0.013845992 0.032485396
-0.027206967 -0.019089617 -0.034163754 0.007514322 0.029445264 0.031468775 0.034229673 0.012409912
-0.039855707 -0.01712819 0.028339904 -0.015569428 -0.0057685855 -0.03247342 0.015063589 -0.0060922615
0.009160873 0.0262656 -0.035918992 0.010094868 -0.00024966552 -0.041630685 0.011923726 -0.024503158
0.016431266 -0.010515372 0.008587551 -0.0315525 -0.035416327 0.02807956 0.01833759 -0.03895049
0.006344202 -0.04208638 0.029188571 -0.03945441 -0.030599698 0.021461207 -0.005533642 -0.017910043
0.028043179 -0.025156818 -0.022719158 0.002192057 0.021200648 -0.006933892 0.014041072 -0.014680792
-0.015299409 -0.032985225 -0.019572832 0.03228204 0.032353733 -0.03515125 0.012972295 -0.012394058
-0.029035624 0.0060002184 0.0035702507 0.0020949836 0.02500044 -0.02412803 0.014582032 0.013374539
-0.00086188264 0.025750171 0.019123219 -0.0020443108 -0.008229957 -0.016625863 -0.0318015 -0.025683664
-0.0137491 -0.0075097345 0.009127244 -0.021107124 -0.03071223 -0.012632985 -0.016749011 0.0083453655
-0.006411822 0.027368011 0.012728122 -0.0016713956 -0.039273597 -0.01902534 -0.0037670808 -0.005305094
-0.02325417 0.022249298 -0.016447248 0.024560614 0.0035045755 -0.0072718 -0.020624712 -0.0365056
0.02843581 -0.027512377 -0.02898297 0.014550108 0.019645648 -0.004394931 -0.022916418 -0.009718472
-0.015334736 -0.021607183 -0.0017092044 0.026790772 0.010890704 -0.03930063 -0.041746337 -0.0013585244
-0.02029399 -0.033244103 -0.029470894 -0.040782493 -0.008717716 0.008692255 0.011203266 -0.012109792
-0.031991042 -0.0284366 -0.03630947 0.011324185 -0.010703363 -0.028430536 -0.014517671 -0.038847886
-0.02474371 -0.017291792 0.031698342 0.0015901931 -0.020530203 -0.018015692 0.03346937 -0.0017362384
-0.04066206 0.027107473 -0.02492095 0.026675476 -0.031222418 -0.005782925 0.021511987 -0.024222849
-0.022104176 -0.012380349 -0.026805269 0.026034689 -0.01695807 -0.018029992 -0.036773372 0.01738005
-0.036196455 0.010408023 0.024947405 0.031030817 0.032297097 -0.038094234 0.006238243 -0.02847609
-0.0041758223 0.012017457 -0.022369705 -0.007541308 0.0068315524 0.004447092 -0.027469603 -0.029990444
-0.0019363617 0.0041844794 -0.03918588 -0.01889268 -0.011108658 0.0076643466 -0.04022074 -0.032648996
-0.03238008 -0.0101946285 -0.003022232 0.015148715 -0.035662156 0.014000789 0.027488269 -0.027572207
-0.00867305 -0.006785921 0.008174755 0.033924498 0.029905442 0.02348225 0.0211764 0.027610403
-0.03819589 0.027072899 0.013253084 0.008975159 -0.012088452 -0.01909931 -0.03141943 0.014025324
-0.00073419046 -0.031938307 -0.031105116 -0.042105895 0.022532277 -0.02786232 -0.04055941 -0.029525425
-0.02836214 0.02006427 0.021055067 -0.041996326 0.029710107 -0.018366287 -0.012274343 0.009716037
-0.009500343 0.02827552 -0.024655411 -0.027163107 0.012173045 -0.035193454 0.0012346061 -0.039304268
0.0019015265 0.03139286 -0.022398012 -0.0004985708 -0.02103084 0.02872888 -0.010071451 -0.014816079
00000000: 4f2b 02bd 3d55 1e3c 98d5 4d3b 4497 f8bc
00000010: 925b 57bc d7f6 333c cff7 043a 2771 243c
00000020: 90c1 a53c ea6b 903c a555 84bc ad88 473c
00000030: afd0 bc3b 4001 e23c 9ff9 04bd 84e2 ffbc
00000040: 49f6 4b3c 66bf c4ba eba3 d03c 85ee 453c
00000050: 96fa 5cbc 4308 d53a 4dda 623c 680f 053d
00000060: 25e1 debc d461 9cbc 4bef 0bbd b43a f63b
00000070: 3237 f13c 67e5 003d 6a34 0c3d f252 4b3c
00000080: bd3f 23bd 6b50 8cbc 1629 e83c ea16 7fbc
00000090: 6706 bdbb d902 05bd 46cd 763c 98a1 c7bb
000000a0: 7c17 163c f52a d73c cb1f 13bd f264 253c
000000b0: 8ae5 82b9 f084 2abd bb5b 433c d9ba c8bc
000000c0: dd9a 863c ab48 2cbc cdb2 0c3c 323d 01bd
000000d0: b610 11bd 1b07 e63c b738 963c 8d8a 1fbd
000000e0: 06e3 cf3b c562 2cbd df1c ef3c f39a 21bd
000000f0: 38ac fabc 6acf af3c 8e53 b5bb 15b8 92bc
00000100: cfba e53c ac15 cebc 871d babc 9da8 0f3b
00000110: fbac ad3c b435 e3bb 860c 663c b487 70bc
00000120: 5faa 7abc 841b 07bd 3457 a0bc 2c3a 043d
00000130: 5985 043d c2fa 0fbd c089 543c 7210 4bbc
00000140: 1edc edbc 7b9d c43b defa 693b fe4b 093b
00000150: b9cd cc3c 25a8 c5bc 7ae9 6e3c e220 5b3c
00000160: f7ef 61ba 06f2 d23c 4ca8 9c3c d8f9 05bb
00000170: f1d6 06bc f632 88bc 4a42 02bd 8c66 d2bc
00000180: e843 61bc 3814 f6bb 708a 153c d9e8 acbc
00000190: 3798 fbbc 94fa 4ebc 3935 89bc 00bb 083c
000001a0: 431a d2bb e132 e03c 9d89 503c bb12 dbba
000001b0: 5add 20bd 08db 9bbc 21e1 76bb 5bd6 adbb
000001c0: 877f bebc 2944 b63c 61bc 86bc 5733 c93c
000001d0: 05ad 653b 4848 eebb 28f5 a8bc e586 15bd
000001e0: 37f2 e83c a361 e1bc b26d edbc 9463 6e3c
000001f0: e9ef a03c 5a03 90bb 36bb bbbc 3a3a 1fbc
00000200: 8b3e 7bbc 8c01 b1bc 6207 e0ba 5278 db3c
00000210: ec6e 323c b3f9 20bd 35fe 2abd 8410 b2ba
00000220: 953f a6bc f82a 08bd f26c f1bc 8b0b 27bd
00000230: c0d4 0ebc f669 0e3c e78d 373c 2668 46bc
00000240: 0a09 03bd dff3 e8bc 3db9 14bd 1389 393c
00000250: 295d 2fbc 28e7 e8bc 87db 6dbc f61e 1fbd
00000260: 52b3 cabc 84a7 8dbc 1fd6 013d 076e d03a
00000270: f52e a8bc a595 93bc 2e17 093d 7e92 e3ba
00000280: 438d 26bd 7e10 de3c 0527 ccbc 8786 da3c
00000290: 28c6 ffbc b17e bdbb e839 b03c ff6e c6bc
000002a0: d113 b5bc f3d6 4abc b996 dbbc b346 d53c
000002b0: a7eb 8abc a2b3 93bc ad9f 16bd 9b60 8e3c
000002c0: bc42 14bd 6a86 2a3c 805e cc3c 5734 fe3c
000002d0: f649 043d b308 1cbd 2d6a cc3b b046 e9bc
000002e0: 56d5 88bb dee4 443c ac40 b7bc 141d f7bb
000002f0: 37db df3b e9b8 913b ef07 e1bc 85ae f5bc
00000300: 84cd fdba f51d 893b 6081 20bd d2c4 9abc
00000310: 1701 36bc 3325 fb3b 81be 24bd f4ba 05bd
00000320: faa0 04bd 5f07 27bc a410 46bb 5132 783c
00000330: 7b12 12bd 9163 653c 142f e13c 1cdf e1bc
00000340: 6919 0ebc 6e5c debb 68ef 053c 6af4 0a3d
00000350: 42fc f43c d95d c03c 217a ad3c 362f e23c
00000360: 4b73 1cbd fcc7 dd3c 7723 593c 8c0c 133c
00000370: a40e 46bc 2876 9cbc a9b1 00bd 79ca 653c
00000380: b076 40ba bed1 02bd 28d0 febc 3b77 2cbd
00000390: 9c95 b83c 853f e4bc a021 26bd 4edf f1bc
000003a0: b857 e8bc d35d a43c ad7b ac3c 5704 2cbd
000003b0: 9c62 f33c e574 96bc 531a 49bc 0330 1f3c
000003c0: 54a7 1bbc 10a2 e73c 25fa c9bc 2a85 debc
000003d0: 7471 473c 0327 10bd 82d2 a13a 83fd 20bd
000003e0: a43c f93a cd95 003d 097c b7bc 85b2 02ba
000003f0: de48 acbc d458 eb3c ba02 25bc 24bf 72bc

fc1.bias f4 [50]
0.011575667 0.11357215 -0.042260237 -0.06371704 -0.09022865 -0.006140816 0.019645624 -0.064900905
-0.009462309 0.060371023 0.041807655 -0.03508045 0.042357247 0.029815547 0.0006550193 -0.010128115
-0.029937176 -0.040075082 -0.049747568 -0.033947103 0.059278492 -0.037531022 0.1009483 0.03997752
-0.033785548 0.01946756 0.0027040576 0.017790627 0.02983008 0.057503395 -0.018861597 0.012073451
-0.13144957 0.011841324 -0.07076524 0.048722636 0.07005252 0.050981 -0.043688018 0.027842216
0.10309373 0.050525494 -0.035451323 0.004526561 0.012134024 0.056050636 0.048854355 0.007692598
-0.050190896 -0.047064826
00000000: dea7 3d3c 8498 e83d 1219 2dbd 147e 82bd
00000010: ccc9 b8bd e638 c9bb dcef a03c c4ea 84bd
00000020: cd07 1bbc 9b47 773d 813e 2b3d 85b0 0fbd
00000030: cb7e 2d3d bc3f f43c 9ab5 2b3a 65f0 25bc
00000040: cf3e f5bc c525 24bd 1bc4 4bbd 1e0c 0bbd
00000050: 01ce 723d 21ba 19bd fbbd ce3d 78bf 233d
00000060: b762 0abd 6f7a 9f3c 8f36 313b a6bd 913c
00000070: 365e f43c ae88 6b3d a383 9abc b9cf 453c
00000080: b79a 06be 1d02 423c 5eed 90bd 6391 473d
00000090: b277 8f3d 74d1 503d 35f2 32bd 5c15 e43c
000000a0: ce22 d33d d2f3 4e3d 6835 11bd 8c53 943b
000000b0: c9cd 463c 5a95 653d 811b 483d 3012 fc3b
000000c0: f894 4dbd 0cc7 40bd

fc2.weight f4 [32, 50]
-0.06465395 -0.22059768 0.035725597 -0.18716066 0.23971587 0.17084982 -0.02005235 -0.31704205
0.20255966 0.036283962 -0.27411896 0.17424396 -0.19812746 -0.11056639 -0.14477998 -0.29835433
-0.018513968 -0.12154547 0.14383793 0.20736139 0.120179735 0.08137178 0.12274462 -0.2967657
-0.13117002 -0.14114399 0.21248813 -0.26654223 -0.13695389 -0.090472646 -0.09542334 -0.29485932
-0.24466626 -0.0866904 -0.16542979 -0.42951125 -0.30992657 -0.33109844 -0.2873664 -0.156563
0.015587407 -0.2572642 -0.05129835 -0.1281446 -0.21932475 -0.25921774 0.15860769 -0.03303592
-0.2715591 -0.20132247 0.12500034 0.14685753 0.0430717 0.12255412 0.18789554 0.09012139
0.04955743 0.16170554 0.078693956 0.18606578 -0.08611797 -0.26526436 -0.33556718 0.09529574
-0.008192161 0.035685517 -0.07775786 -0.017597737 -0.20164084 0.07560818 -0.14319162 -0.103586
-0.10745508 -0.2343568 0.15538608 -0.13115753 -0.23213838 -0.2976515 0.107232414 -0.2121777
-0.078129336 -0.16539878 -0.18681663 0.22176997 0.17441945 -0.24160124 -0.22922161 0.144465
0.06508968 0.2031075 -0.35865986 -0.16993035 0.07116009 0.12269389 0.2356736 -0.1358432
-0.06063978 0.0063539357 0.23773205 -0.44923413 0.09850736 0.09531474 0.112967655 0.099096656
0.08714944 0.053041223 0.09734914 0.07778274 0.08673324 -0.0058623473 -0.33322927 -0.37647995
-0.05833518 -0.20685373 -0.36065635 -0.1625435 -0.12169222 -0.11271832 -0.3404073 -0.013237596
-0.43244478 -0.058245458 -0.2656916 -0.14981586 0.07371765 -0.2075705 -0.34294322 -0.34250408
0.03469929 -0.30163494 -0.04199112 -0.1818909 -0.4119664 0.203131 0.19543281 -0.14635158
-0.045340415 0.0916303 -0.34049207 0.16298588 -0.19812547 -0.3292023 -0.1263618 0.056094736
0.19421361 -0.6218706 -0.42515147 0.091553554 0.15747315 -0.35672998 0.043489892 -0.2703703
-0.029232513 0.20767634 -0.3032103 -0.54488325 -0.13607499 -0.63254166 -0.36554015 0.10410958
0.13282715 -0.12330691 -0.4610617 0.21985772 0.1574291 -0.4082785 -0.050234873 0.10837408
-0.25535777 -0.5753163 0.07684558 -0.11460501 -0.3884422 -0.5414536 -0.31535697 -0.4291656
0.16415378 0.1575852 0.17523552 -0.44745716 -0.08731379 -0.57286775 -0.3313573 -0.507105
-0.47163674 -0.6982244 -0.28312626 -0.23109226 0.18764104 -0.29976726 -0.53221923 -0.27908036
0.049258903 0.014690954 0.11100925 0.10801352 0.1736435 0.099792495 -0.69000906 -0.69143796
-0.1356726 0.017476276 0.07057785 -0.093348496 -0.17725836 0.14934224 -0.06525109 0.19481179
-0.16375664 -0.080232576 0.13570853 0.17813392 -0.15622954 -0.04844473 -0.10616316 -0.13227409
-0.04896626 0.12030835 0.21191083 -0.17581752 -0.14723547 -0.1070537 0.14709115 0.18200113
-0.20854409 -0.14773196 0.024131443 -0.20722532 -0.10100285 -0.1860171 -0.047325857 -0.24327336
-0.15387602 -0.190468 -0.15942433 0.17612487 0.051507916 -0.17620404 0.13342556 0.2344328
-0.18719624 0.14848642 -0.06757991 0.07059838 -0.06835959 -0.24259107 0.089180894 -0.10739714
-0.14211138 -0.1281343 -0.02181374 0.27366653 -0.07664118 -0.2900856 -0.20210154 0.087841615
00000000: 4a69 84bd 5ce4 61be 0155 123d 0ba7 3fbe
00000010: 1478 753e 41f3 2e3e d344 a4bc 5653 a2be
00000020: cd6b 4f3e 7e9e 143d 5259 8cbe 026d 323e
00000030: ede1 4abe a270 e2bd 3441 14be e6c1 98be
00000040: 9baa 97bc d5ec f8bd 404a 133e 8b56 543e
00000050: cb20 f63d 3fa6 a63d 8861 fb3d adf1 97be
00000060: 6f51 06be 0d88 10be 7d96 593e 3978 88be
00000070: a43d 0cbe b949 b9bd 506d c3bd cdf7 96be
00000080: cb89 7abe bd8a b1bd 6d66 29be e6e8 dbbe
00000090: b2ae 9ebe bc85 a9be b021 93be 0d52 20be
000000a0: 5362 7f3c 22b8 83be 381e 52bd 5738 03be
000000b0: ab96 60be 30b8 84be 0e6a 223e ac50 07bd
000000c0: cb09 8bbe 7a27 4ebe 1700 003e d261 163e
000000d0: f36b 303d a8fd fa3d b067 403e 9091 b83d
000000e0: bbfc 4a3d 2396 253e 4c2a a13d 0788 3e3e
000000f0: 9e5e b0bd bbd0 87be 76cf abbe 6a2a c33d
00000100: 6a38 06bc fa2a 123d 833f 9fbd 2129 90bc
00000110: f07a 4ebe 76d8 9a3d d3a0 12be e624 d4bd
00000120: 6911 dcbd 3bfb 6fbe 871d 1f3e 294e 06be
00000130: afb5 6dbe c765 98be ab9c db3d 1c45 59be
00000140: 4602 a0bd 4c5e 29be dc4c 3fbe ab17 633e
00000150: 039b 323e 5166 77be 12b9 6abe a2ee 133e
00000160: bd4d 853d 6afb 4f3e 44a2 b7be 3902 2ebe
00000170: 62bc 913d ef46 fb3d 6c54 713e 7b1a 0bbe
00000180: 6b61 78bd ad34 d03b 0870 733e 0402 e6be
00000190: 3abe c93d 6034 c33d 965b e73d 30f3 ca3d
000001a0: 687b b23d c141 593d fc5e c73d 8f4c 9f3d
000001b0: 32a1 b13d ef18 c0bb 079d aabe fbc1 c0be
000001c0: dff0 6ebd 77d1 53be f3a7 b8be ce71 26be
000001d0: c539 f9bd ddd8 e6bd de49 aebe 80e2 58bc
000001e0: 6769 ddbe ca92 6ebd bb08 88be 5469 19be
000001f0: 47f9 963d 5c8d 54be 4196 afbe b25c afbe
00000200: d820 0e3d e56f 9abe e1fe 2bbd 9c41 3abe
00000210: 43ed d2be 9301 503e 8a1f 483e 30dd 15be
00000220: dfb6 39bd aba8 bb3d fa54 aebe c5e5 263e
00000230: 67e1 4abe 348d a8be fd64 01be 98c3 653d
00000240: efdf 463e e932 1fbf 74ad d9be 6e80 bb3d
00000250: a440 213e 50a5 b6be 7522 323d fa6d 8abe
00000260: 0679 efbc 1ba9 543e 613e 9bbe 787d 0bbf
00000270: 3e57 0bbe 40ee 21bf 1428 bbbe 6737 d53d
00000280: d703 083e 5588 fcbd 4710 ecbe 6222 613e
00000290: 1835 213e e109 d1be 15c3 4dbd 3bf3 dd3d
000002a0: 41be 82be ee47 13bf 3761 9d3d 08b6 eabd
000002b0: e5e1 c6be b49c 0abf 7876 a1be 98bb dbbe
000002c0: ee17 283e 045e 213e f170 333e 1b19 e5be
000002d0: 93d1 b2bd 76a7 12bf aaa7 a9be a2d1 01bf
000002e0: 5f7a f1be d6be 32bf edf5 90be 73a3 6cbe
000002f0: f924 403e 187b 99be 853f 08bf 9fe3 8ebe
00000300: b4c3 493d 54b2 703c d158 e33d 3136 dd3d
00000310: 9acf 313e 0260 cc3d 6fa4 30bf 1402 31bf
00000320: c2ed 0abe 682a 8f3c 1f8b 903d 7f2d bfbd
00000330: 3783 35be 2ced 183e 5da2 85bd be7c 473e
00000340: d2af 27be fa50 a4bd 2df7 0a3e bd68 363e
00000350: a3fa 1fbe fb6d 46bd 126c d9bd dc72 07be
00000360: d890 48bd 3964 f63d 27ff 583e 8209 34be
00000370: e5c4 16be f83e dbbd 109f 163e 815e 3a3e
00000380: 958c 55be 0c47 17be 4eaf c53c e032 54be
00000390: 95da cebd 447b 3ebe c2d8 41bd a71c 79be
000003a0: ad91 1dbe 0b0a 43be 2240 23be 145a 343e
000003b0: f7f9 523d d56e 34be b6a0 083e 270f 703e
000003c0: 5fb0 3fbe d30c 183e 5667 8abd e295 903d
000003d0: 1d00 8cbd cb69 78be 79a4 b63d 08f3 dbbd
000003e0: a585 11be a335 03be bab2 b2bc 051e 8c3e
000003f0: 0df6 9cbd 1a86 94be b5f3 4ebe 4ee6 b33d

fc2.bias f4 [32]
0.045553155 -0.32846454 -1.4443663 0.5221983 -0.34839123 0.5749234 -0.5489412 0.10790608
0.20986536 -0.53289807 0.04857422 -0.1629933 0.30368605 0.7656151 -0.38897082 -0.50575244
0.34153193 0.41119683 -0.25388575 0.37933263 0.46963277 -0.5365365 -0.4801413 -0.31706527
-0.16930395 0.4252319 -0.13167727 -0.2034777 -0.8827383 0.23069736 0.17239277 0.10188132
00000000: f295 3a3d 812c a8be ffe0 b8bf caae 053f
00000010: 5660 b2be 2e2e 133f 6987 0cbf ddfd dc3d
00000020: f2e6 563e 026c 08bf c3f5 463d b7e7 26be
00000030: bd7c 9b3e 5aff 433f 2f27 c7be fe78 01bf
00000040: 46dd ae3e 6488 d23e 50fd 81be e337 c23e
00000050: b573 f03e 755a 09bf 15d5 f5be 6156 a2be
00000060: 045e 2dbe ffb7 d93e 68d6 06be 755c 50be
00000070: 23fb 61bf ee3b 6c3e bb87 303e 27a7 d03d
