checkpoints/model-30.pt (torch, 176463 bytes, 8 tensors)

conv1.weight f4 [10, 1, 5, 5]
0.245337 0.24726239 0.2569983 0.24630593 0.09982781 0.21170913 0.27621046 0.095533535
0.1271517 0.034754965 0.20997731 -0.06794472 0.23310369 0.07232409 -0.26538983 -0.21975827
-0.07272962 -0.18120123 0.02967262 -0.33631578 -0.24363121 -0.018430687 -0.3124839 -0.19642721
-0.36571285 -0.41627613 -0.050359968 0.23644912 0.27626875 0.03501367 -0.4205532 -0.23306036
0.018055448 0.09853525 0.29072013 -0.088048786 -0.009811612 -0.08231828 0.0924178 0.14557959
-0.26559207 -0.0068592564 0.10310759 0.09199959 -0.08488506 -0.24025099 -0.06543265 0.2518346
0.017406918 0.25129703 0.25983515 0.17114349 0.16425128 0.08687177 0.23487633 0.037717234
0.039904676 0.11002077 0.096411034 -0.0015931231 -0.17134373 0.031612717 0.11352748 0.19044475
0.05035404 0.039091982 -0.16413024 0.0031368055 -0.06302572 0.17962016 -0.12308942 0.015455254
0.050442312 -0.08798801 0.06350742 0.42274767 0.38064098 0.1857568 0.3851953 0.37462163
0.17025626 0.12491974 -0.09531717 0.17997432 0.20496574 0.2388786 -0.15574992 0.2349299
0.2073828 -0.13064755 0.11243394 0.1691677 0.014328281 -0.09607 -0.16903858 -0.081381716
-0.06520884 -0.17291445 -0.026596341 -0.29877716 0.31401053 0.23702157 0.16726932 -0.17950317
-0.19769005 0.13732529 0.06909377 0.22171915 -0.16934928 -0.30979303 0.3396771 0.063852385
0.053785995 0.09837448 -0.37876737 0.2337904 0.21297373 0.01216506 0.058452103 -0.41795513
0.15284349 -0.099978626 0.10969453 -0.18794475 -0.36661378 0.11268908 0.016153397 -0.10184719
-0.053358257 -0.05552898 0.1647767 0.10734087 0.046610598 -0.05610733 -0.032290716 0.21910992
-0.097000316 -0.03616757 0.022830904 0.071188636 0.0961708 0.073549554 0.08738891 0.061367966
0.08672028 0.17896064 0.043754164 0.12059862 -0.12731786 0.004891914 0.109752476 0.12550165
0.17472455 0.11223073 0.11795036 0.08519402 0.15668952 0.13184504 0.22280294 0.090984516
-0.014590103 -0.10701613 -0.036078308 0.07379447 0.2924151 0.018209541 0.06325082 0.015197129
0.08150145 -0.061200827 0.12538986 0.07007287 -0.08942305 0.1783469 -0.11841452 0.21192281
0.14573663 -0.012826476 0.20305598 0.11072748 -0.03085264 -0.020215042 0.3582355 0.07838595
-0.06491021 0.043930642 0.19748892 0.240167 -0.06661889 -0.15374897 0.10724674 -0.11716299
-0.12064294 -0.1970987 -0.119108036 -0.41274193 -0.19317047 -0.36012852 -0.14865111 0.11140066
-0.019393377 0.3401781 0.056027792 0.36133698 0.2993287 0.07469731 0.15043122 -0.071489446
0.15156718 0.15609877 -0.019847127 0.09498651 0.23667544 0.0143013215 0.15835139 0.04057545
-0.04129477 0.21797214 -0.09810423 0.27548528 0.08334568 -0.14206785 -0.06627177 -0.00937686
0.1920893 -0.07406764 0.24055776 0.14920568 0.09639133 0.26390174 0.018225478 -0.1715724
0.17035441 0.0037102331 0.16181904 -0.21106905 -0.26063132 -0.2693045 -0.09187476 -0.00436636
-0.057392586 -0.0842062 -0.18710525 -0.27899972 -0.048524063 0.2569548 0.25178954 0.008552547
0.14975299 -0.05319137
00000000: 9f39 7b3e 5a32 7d3e 4895 833e 9f37 7c3e
00000010: 8672 cc3d 47ca 583e 756b 8d3e 16a7 c33d
00000020: 0e34 023e 395b 0e3d 4b04 573e 9a26 8bbd
00000030: bcb2 6e3e a71e 943d 2de1 87be 5008 61be
00000040: 44f3 94bd d18c 39be ff13 f33c 9531 acbe
00000050: 767a 79be f4fb 96bc e4fd 9fbe 3724 49be
00000060: b73e bbbe 2522 d5be 4146 4ebd b81f 723e
00000070: 1973 8d3e 7e6a 0f3d c052 d7be 60a7 6ebe
00000080: 05e9 933c d9cc c93d 45d9 943e ec52 b4bd
00000090: e2c0 20bc 7d96 a8bd 8b45 bd3d d112 153e
000000a0: affb 87be 9dc3 e0bb 122a d33d 486a bc3d
000000b0: 38d8 adbd 5b04 76be 8e01 86bd 77f0 803e
000000c0: f498 8e3c 01aa 803e 1d09 853e 3d40 2f3e
000000d0: 7d31 283e d4e9 b13d 6c83 703e 637d 1a3d
000000e0: 1673 233d 9252 e13d 2673 c53d 57d0 d0ba
000000f0: bb74 2fbe 567c 013d 1881 e83d f303 433e
00000100: 0a40 4e3d ea1e 203d c211 28be dd92 4d3b
00000110: a113 81bd 59ee 373e 4e16 fcbd 0938 7d3c
00000120: 999c 4e3d 0f33 b4bd 2e10 823d 6272 d83e
00000130: 60e3 c23e 0837 3e3e 5238 c53e 68ce bf3e
00000140: a857 2e3e ecd5 ff3d a635 c3bd 304b 383e
00000150: 8ae2 513e 979c 743e e87c 1fbe 7791 703e
00000160: 285c 543e 79c8 05be c443 e63d 4c3a 2d3e
00000170: 2bc1 6a3c 59c0 c4bd 7318 2dbe 75ab a6bd
00000180: 368c 85bd 7c10 31be 92e0 d9bc 52f9 98be
00000190: fdc5 a03e c8b5 723e a648 2b3e aecf 37be
000001a0: 436f 4abe 009f 0c3e 0981 8d3d 580a 633e
000001b0: e669 2dbe 319d 9ebe 28ea ad3e 0ac5 823d
000001c0: b44e 5c3d 8f78 c93d cced c1be c066 6f3e
000001d0: c915 5a3e f64f 473c 796b 6f3d 37fe d5be
000001e0: 0183 1c3e 98c1 ccbd 87a7 e03d 9774 40be
000001f0: cdb4 bbbe 88c9 e63d 2154 843c 4295 d0bd
00000200: 308e 5abd 5b72 63bd 39bb 283e 88d5 db3d
00000210: c1ea 3e3d cdd0 65bd 4543 04bd 5a5e 603e
00000220: 1aa8 c6bd 7224 14bd e007 bb3c 59cb 913d
00000230: 32f5 c43d 26a1 963d f5f8 b23d fa5c 7b3d
00000240: 679a b13d 7541 373e 9137 333d 69fc f63d
00000250: 9d5f 02be 594c a03b e8c5 e03d 8183 003e
00000260: feea 323e 3ad9 e53d f58f f13d 347a ae3d
00000270: 3873 203e 6302 073e 7426 643e 1756 ba3d
00000280: 540b 6fbc 462b dbbd d9c6 13bd 8e21 973d
00000290: 6fb7 953e 2d2c 953c a589 813d 61fd 783c
000002a0: 3bea a63d b8ad 7abd 3366 003e 5d82 8f3d
000002b0: 6f23 b7bd 92a0 363e 5083 f2bd 4b02 593e
000002c0: fc3b 153e 2426 52bc e8ed 4f3e 17c5 e23d
000002d0: adbe fcbc 049a a5bc a56a b73e d088 a03d
000002e0: a5ef 84bd 9ef0 333d 893a 4a3e 57ee 753e
000002f0: 7c6f 88bd 5f70 1dbe 2ea4 db3d 26f3 efbd
00000300: a513 f7bd 3ed4 49be eaee f3bd e952 d3be
00000310: 7bce 45be c462 b8be ff37 18be 0726 e43d
00000320: dcde 9ebc d32b ae3e 667d 653d 2901 b93e
00000330: 9d41 993e e7fa 983d a40a 1a3e 0f69 92bd
00000340: 6d34 1b3e 5bd8 1f3e 7196 a2bc 4a88 c23d
00000350: 0c5b 723e 1750 6a3c de26 223e 7132 263d
00000360: b424 29bd 1734 5f3e dfea c8bd 680c 8d3e
00000370: 24b1 aa3d 3c7a 11be 7eb9 87bd 67a1 19bc
00000380: 0fb3 443e c6b0 97bd c654 763e 60c9 183e
00000390: d168 c53d 211e 873e 994d 953c adb0 2fbe
000003a0: 6371 2e3e 6227 733b e4b3 253e 7c22 58be
000003b0: 7871 85be 48e2 89be d628 bcbd af13 8fbb
000003c0: 7d14 6bbd 4d74 acbd 8598 3fbe 0dd9 8ebe
000003d0: 2bc1 46bd 948f 833e 8fea 803e fb1f 0c3c
000003e0: d958 193e 32df 59bd

conv1.bias f4 [10]
0.0058350647 0.04569829 -0.41631338 -0.18257807 0.022343228 -0.07293574 -0.39523625 0.20863435
-0.27023593 0.003833054
00000000: 1234 bf3b 212e 3b3d 0727 d5be bff5 3abe
00000010: 2509 b73c 555f 95bd 685c cabe 3ea4 553e
00000020: 5d5c 8abe fa33 7b3b

conv2.weight f4 [20, 10, 5, 5]
0.06283444 0.10664608 0.071194015 0.078482434 0.15283427 0.11112412 0.10684652 0.10041133
0.035892338 0.09519205 -0.32521474 -0.18763596 -0.06332453 -0.012725378 -0.021233968 -0.07058894
0.010107328 -0.011709379 -0.033899583 0.046697613 0.12532562 0.18214174 0.21214789 0.024384663
0.13412538 0.21395884 0.017369669 -0.10424964 -0.02933663 0.020351382 0.10291803 -0.04692578
-0.30819088 -0.27438137 -0.1461714 -0.12200945 -0.38602847 -0.4770504 -0.14745606 -0.039463256
-0.38540748 -0.51789916 -0.4574345 -0.08103578 0.118052624 -0.29103848 -0.22782362 -0.18286707
0.058893185 0.2639434 -0.025716994 -0.094196156 -0.03000597 -0.0025180522 0.017791701 -0.0633033
-0.1001806 -0.06604383 0.024346385 -0.057121124 -0.069771305 -0.06954296 -0.0074602533 -0.074407645
-0.06518677 0.070053466 0.0053549283 -0.013016331 0.04600935 0.032277197 0.06598214 0.0393537
0.040957585 -0.047670186 -0.011710885 -0.0748174 -0.045823015 -0.05385494 -0.010635922 0.064177886
-0.045725327 0.02599325 0.0026931933 -0.0065133083 -0.027281301 -0.09066324 -0.024992364 -0.07418024
0.053798143 0.008776165 0.015532064 -0.009473458 0.05128344 -0.031035474 0.03589735 0.031233797
0.062240425 0.097996965 -0.023714162 0.02972782 -0.020523733 -0.09045061 -0.09930969 0.011699579
0.107161306 -0.10528979 -0.23285402 -0.13772327 -0.06351296 0.05879953 -0.11223431 -0.10770944
-0.0055741835 0.022577139 0.024604104 -0.0059761126 0.06114 0.04740617 0.032975405 0.04895563
0.055539448 0.05317899 0.06861277 0.032455176 -0.048188552 -0.0438993 0.021444827 0.011057217
0.04870656 0.041926492 0.011655143 -0.009022601 -0.055122644 0.027318178 -0.04542494 0.06161068
0.052809186 0.0039650886 -0.02077941 -0.039541382 0.03504796 0.027507868 0.03990724 -0.053475186
-0.004008978 0.00024700374 0.052913018 0.04837214 -0.002222329 -0.0042866967 -0.06736623 -0.08286838
-0.10347852 0.0021067117 0.04701447 -0.0077400464 0.02611159 -0.00066992687 -0.056875672 -0.04152449
0.012628133 0.05192881 0.055836998 0.061959196 -0.060757533 0.030722054 0.04119664 0.077924326
-0.055024695 -0.05942227 0.041540936 0.1037966 -0.015402827 0.03086405 -0.02687135 0.08135961
0.05858213 0.102100715 0.086214386 0.17112026 0.08309603 0.22722697 0.078775354 0.08682611
0.11639334 -0.41368887 -0.1521204 0.027527457 0.0040907282 -0.009858202 -0.26600617 -0.11208344
-0.062222075 -0.09978922 -0.16486634 0.14376512 0.19699983 0.12232149 0.0358766 0.061135504
-0.019289156 -0.014998325 0.012589541 -0.016965631 0.004267852 -0.06670335 -0.02754589 0.035139304
-0.042735875 -0.037225395 0.007149486 -0.08394154 -0.06611032 -0.0617581 -0.014266835 0.088732235
-0.011359199 0.02301 -0.0006298056 0.055749856 0.04570656 0.009328445 0.044785503 -0.007537571
-0.016973587 -0.14854832 0.07548639 0.25880867 0.31315547 0.34164947 0.6109828 0.5889922
0.54938376 0.4345214 0.39138237 0.6969021 0.4525432 0.3072141 0.06813907 -0.19606666
0.07459124 0.16618903 0.025860868 -0.13276944 -0.099743634 0.029779041 -0.10613788 -0.36585906
-0.31643462 -0.18997246 0.036645945 0.040545925 0.09570225 0.08883637 0.06304801 -0.052708533
00000000: 58af 803d 4369 da3d 2bce 913d 66bb a03d
00000010: 9680 1c3e 0b95 e33d 59d2 da3d 75a4 cd3d
00000020: d803 133d 0df4 c23d 8c82 a6be a423 40be
00000030: 4bb0 81bd 1b7e 50bc dcf2 adbc ef90 90bd
00000040: 3599 253c b2d8 3fbc 4ada 0abd ff45 3f3d
00000050: 5c55 003e 5d83 3a3e 4c3d 593e 58c2 c73c
00000060: 2a58 093e 0718 5b3e d64a 8e3c d680 d5bd
00000070: 5f53 f0bc f1b7 a63c b0c6 d23d 3f35 40bd
00000080: 32cb 9dbe b77b 8cbe f5ad 15be 17e0 f9bd
00000090: 86a5 c5be f33f f4be b9fe 16be 39a4 21bd
000000a0: 2154 c5be 0a95 04bf db34 eabe 16f6 a5bd
000000b0: 93c5 f13d ff02 95be 984a 69be 8141 3bbe
000000c0: fb39 713d 9723 873e 72ac d2bc eae9 c0bd
000000d0: 14cf f5bc e805 25bb e7bf 913c 29a5 81bd
000000e0: 7d2b cdbd fd41 87bd 1272 c73c d7f7 69bd
000000f0: 42e4 8ebd 8a6c 8ebd 2475 f4bb 0963 98bd
00000100: a480 85bd 3178 8f3d 6578 af3b 7342 55bc
00000110: 4d74 3c3d 1835 043d a521 873d 5831 213d
00000120: 24c3 273d d041 43bd 03df 3fbc dd39 99bd
00000130: eab0 3bbd ff96 5cbd 4a42 2ebc b26f 833d
00000140: 7b4a 3bbd ccef d43c 4980 303b 976d d5bb
00000150: 097d dfbc a6ad b9bd c9bc ccbc cfeb 97bd
00000160: 715b 5c3d e7c9 0f3c 337a 7e3c 9036 1bbc
00000170: 960e 523d 1b3e febc 1a09 133d 05de ff3c
00000180: d1ef 7e3d a2b2 c83d 3444 c2bc c287 f33c
00000190: 6321 a8bc 2b3e b9bd e162 cbbd 97af 3f3c
000001a0: 6377 db3d 2ca2 d7bd 4971 6ebe 5407 0dbe
000001b0: 1513 82bd c7d7 703d 1adb e5bd c496 dcbd
000001c0: a4a7 b6bb b1f3 b83c 8c8e c93c 44d3 c3bb
000001d0: f06d 7a3d f92c 423d 3811 073d b385 483d
000001e0: 557d 633d 36d2 593d da84 8c3d b8ef 043d
000001f0: 5c61 45bd c1cf 33bd 10ad af3c 5429 353c
00000200: 8880 473d 1dbb 2b3d 37f5 3e3c 88d3 13bc
00000210: 48c8 61bd 5fca df3c 800f 3abd 7b5b 7c3d
00000220: 724e 583d 93ed 813b 9539 aabc 25f6 21bd
00000230: 738e 0f3d 2e58 e13c c675 233d cc08 5bbd
00000240: bf5d 83bb 4880 8139 52bb 583d dd21 463d
00000250: 7ea4 11bb 6b77 8cbb 4ef7 89bd e6b6 a9bd
00000260: 8cec d3bd c210 0a3b 3f92 403d 37a0 fdbb
00000270: f9e7 d53c 089e 2fba 77f6 68bd 9515 2abd
00000280: 3be6 4e3c 4eb3 543d 56b5 643d edc8 7d3d
00000290: e4dc 78bd d1ac fb3c cfbd 283d ca96 9f3d
000002a0: 9361 61bd c464 73bd d426 2a3d 5093 d43d
000002b0: 245c 7cbc 9bd6 fc3c 4e21 dcbc de9f a63d
000002c0: d1f3 6f3d 2e1a d13d 2b91 b03d 263a 2f3e
000002d0: 402e aa3d 30ae 683e f954 a13d e3d1 b13d
000002e0: a25f ee3d 07cf d3be 73c5 1bbe 4381 e13c
000002f0: 840b 863b 4c84 21bc f631 88be 018c e5bd
00000300: 93dc 7ebd 4a5e ccbd b9d2 28be 2a37 133e
00000310: 53ba 493e b083 fa3d 57f3 123d 3969 7a3d
00000320: 4b04 9ebc 89bb 75bc 5d44 4e3c 82fb 8abc
00000330: 56d9 8b3b c49b 88bd eba7 e1bc 3bee 0f3d
00000340: d00b 2fbd a879 18bd 3c46 ea3b 8be9 abbd
00000350: d964 87bd 10f6 7cbd 71bf 69bc 3fb9 b53d
00000360: ef1b 3abc 787f bc3c 8a19 25ba f659 643d
00000370: cd36 3b3d 56d6 183c 0171 373d bafd f6bb
00000380: 310c 8bbc 0d1d 18be 9c98 9a3d 9282 843e
00000390: ea55 a03e aeec ae3e 5e69 1c3f 31c8 163f
000003a0: 6aa4 0c3f 9779 de3e 4563 c83e 2d68 323f
000003b0: beb3 e73e 2b4b 9d3e 7f8c 8b3d b3c5 48be
000003c0: 4bc3 983d 752d 2a3e 2cda d33c b6f4 07be
000003d0: 6446 ccbd 2df3 f33c d15e d9bd e151 bbbe
000003e0: b803 a2be 2488 42be 0f1a 163d 7c13 263d
000003f0: 8bff c33d d8ef b53d 511f 813d e7e4 57bd

conv2.bias f4 [20]
0.0971892 -0.043486055 0.033788756 0.036837574 0.045292087 0.012607723 -0.00937205 0.04138665
0.044928115 0.063226074 -0.018007552 -0.012261434 0.016434794 0.060931228 0.08078876 0.07273777
-0.009094922 -0.06315156 0.025462741 -0.09149956
00000000: 220b c73d 6f1e 32bd 1466 0a3d ffe2 163d
00000010: 3284 393d 9f90 4e3c 3a8d 19bc 0c85 293d
00000020: 8b06 383d ac7c 813d 9384 93bc 2fe4 48bc
00000030: 43a2 863c 0693 793d 9474 a53d 8af7 943d
00000040: de02 15bc 9b55 81bd 3d97 d03c 1f64 bbbd

fc1.weight f4 [50, 720]
-0.031779584 0.009663877 0.003140783 -0.030345567 -0.013144391 0.010984144 0.0005072327 0.010036743
0.0202339 0.017629582 -0.01615412 0.012178582 0.0057621817 0.027588487 -0.03246462 -0.03123594
0.012448856 -0.0015010654 0.025468787 0.012080793 -0.013487479 0.0016253073 0.013845992 0.032485396
-0.027206967 -0.019089617 -0.034163754 0.007514322 0.029445264 0.031468775 0.034229673 0.012409912
-0.039855707 -0.01712819 0.028339904 -0.015569428 -0.0057685855 -0.03247342 0.015063589 -0.0060922615
0.009160873 0.0262656 -0.035918992 0.010094868 -0.00024966552 -0.041630685 0.011923726 -0.024503158
0.016431266 -0.010515372 0.008587551 -0.0315525 -0.035416327 0.02807956 0.01833759 -0.03895049
0.006344202 -0.04208638 0.029188571 -0.03945441 -0.030599698 0.021461207 -0.005533642 -0.017910043
0.028043179 -0.025156818 -0.022719158 0.002192057 0.021200648 -0.006933892 0.014041072 -0.014680792
-0.015299409 -0.032985225 -0.019572832 0.03228204 0.032353733 -0.03515125 0.012972295 -0.012394058
-0.029035624 0.0060002184 0.0035702507 0.0020949836 0.02500044 -0.02412803 0.014582032 0.013374539
-0.00086188264 0.025750171 0.019123219 -0.0020443108 -0.008229957 -0.016625863 -0.0318015 -0.025683664
-0.0137491 -0.0075097345 0.009127244 -0.021107124 -0.03071223 -0.012632985 -0.016749011 0.0083453655
-0.006411822 0.027368011 0.012728122 -0.0016713956 -0.039273597 -0.01902534 -0.0037670808 -0.005305094
-0.02325417 0.022249298 -0.016447248 0.024560614 0.0035045755 -0.0072718 -0.020624712 -0.0365056
0.02843581 -0.027512377 -0.02898297 0.014550108 0.019645648 -0.004394931 -0.022916418 -0.009718472
-0.015334736 -0.021607183 -0.0017092044 0.026790772 0.010890704 -0.03930063 -0.041746337 -0.0013585244
-0.02029399 -0.033244103 -0.029470894 -0.040782493 -0.008717716 0.008692255 0.011203266 -0.012109792
-0.031991042 -0.0284366 -0.03630947 0.011324185 -0.010703363 -0.028430536 -0.014517671 -0.038847886
-0.02474371 -0.017291792 0.031698342 0.0015901931 -0.020530203 -0.018015692 0.03346937 -0.0017362384
-0.04066206 0.027107473 -0.02492095 0.026675476 -0.031222418 -0.005782925 0.021511987 -0.024222849
-0.022104176 -0.012380349 -0.026805269 0.026034689 -0.01695807 -0.018029992 -0.036773372 0.01738005
-0.036196455 0.010408023 0.024947405 0.031030817 0.032297097 -0.038094234 0.006238243 -0.02847609
-0.0041758223 0.012017457 -0.022369705 -0.007541308 0.0068315524 0.004447092 -0.027469603 -0.029990444
-0.0019363617 0.0041844794 -0.03918588 -0.01889268 -0.011108658 0.0076643466 -0.04022074 -0.032648996
-0.03238008 -0.0101946285 -0.003022232 0.015148715 -0.035662156 0.014000789 0.027488269 -0.027572207
-0.00867305 -0.006785921 0.008174755 0.033924498 0.029905442 0.02348225 0.0211764 0.027610403
-0.03819589 0.027072899 0.013253084 0.008975159 -0.012088452 -0.01909931 -0.03141943 0.014025324
-0.00073419046 -0.031938307 -0.031105116 -0.042105895 0.022532277 -0.02786232 -0.04055941 -0.029525425
-0.02836214 0.02006427 0.021055067 -0.041996326 0.029710107 -0.018366287 -0.012274343 0.009716037
-0.009500343 0.02827552 -0.024655411 -0.027163107 0.012173045 -0.035193454 0.0012346061 -0.039304268
0.0019015265 0.03139286 -0.022398012 -0.0004985708 -0.02103084 0.02872888 -0.010071451 -0.014816079
00000000: 4f2b 02bd 3d55 1e3c 98d5 4d3b 4497 f8bc
00000010: 925b 57bc d7f6 333c cff7 043a 2771 243c
00000020: 90c1 a53c ea6b 903c a555 84bc ad88 473c
00000030: afd0 bc3b 4001 e23c 9ff9 04bd 84e2 ffbc
00000040: 49f6 4b3c 66bf c4ba eba3 d03c 85ee 453c
00000050: 96fa 5cbc 4308 d53a 4dda 623c 680f 053d
00000060: 25e1 debc d461 9cbc 4bef 0bbd b43a f63b
00000070: 3237 f13c 67e5 003d 6a34 0c3d f252 4b3c
00000080: bd3f 23bd 6b50 8cbc 1629 e83c ea16 7fbc
00000090: 6706 bdbb d902 05bd 46cd 763c 98a1 c7bb
000000a0: 7c17 163c f52a d73c cb1f 13bd f264 253c
000000b0: 8ae5 82b9 f084 2abd bb5b 433c d9ba c8bc
000000c0: dd9a 863c ab48 2cbc cdb2 0c3c 323d 01bd
000000d0: b610 11bd 1b07 e63c b738 963c 8d8a 1fbd
000000e0: 06e3 cf3b c562 2cbd df1c ef3c f39a 21bd
000000f0: 38ac fabc 6acf af3c 8e53 b5bb 15b8 92bc
00000100: cfba e53c ac15 cebc 871d babc 9da8 0f3b
00000110: fbac ad3c b435 e3bb 860c 663c b487 70bc
00000120: 5faa 7abc 841b 07bd 3457 a0bc 2c3a 043d
00000130: 5985 043d c2fa 0fbd c089 543c 7210 4bbc
00000140: 1edc edbc 7b9d c43b defa 693b fe4b 093b
00000150: b9cd cc3c 25a8 c5bc 7ae9 6e3c e220 5b3c
00000160: f7ef 61ba 06f2 d23c 4ca8 9c3c d8f9 05bb
00000170: f1d6 06bc f632 88bc 4a42 02bd 8c66 d2bc
00000180: e843 61bc 3814 f6bb 708a 153c d9e8 acbc
00000190: 3798 fbbc 94fa 4ebc 3935 89bc 00bb 083c
000001a0: 431a d2bb e132 e03c 9d89 503c bb12 dbba
000001b0: 5add 20bd 08db 9bbc 21e1 76bb 5bd6 adbb
000001c0: 877f bebc 2944 b63c 61bc 86bc 5733 c93c
000001d0: 05ad 653b 4848 eebb 28f5 a8bc e586 15bd
000001e0: 37f2 e83c a361 e1bc b26d edbc 9463 6e3c
000001f0: e9ef a03c 5a03 90bb 36bb bbbc 3a3a 1fbc
00000200: 8b3e 7bbc 8c01 b1bc 6207 e0ba 5278 db3c
00000210: ec6e 323c b3f9 20bd 35fe 2abd 8410 b2ba
00000220: 953f a6bc f82a 08bd f26c f1bc 8b0b 27bd
00000230: c0d4 0ebc f669 0e3c e78d 373c 2668 46bc
00000240: 0a09 03bd dff3 e8bc 3db9 14bd 1389 393c
00000250: 295d 2fbc 28e7 e8bc 87db 6dbc f61e 1fbd
00000260: 52b3 cabc 84a7 8dbc 1fd6 013d 076e d03a
00000270: f52e a8bc a595 93bc 2e17 093d 7e92 e3ba
00000280: 438d 26bd 7e10 de3c 0527 ccbc 8786 da3c
00000290: 28c6 ffbc b17e bdbb e839 b03c ff6e c6bc
000002a0: d113 b5bc f3d6 4abc b996 dbbc b346 d53c
000002b0: a7eb 8abc a2b3 93bc ad9f 16bd 9b60 8e3c
000002c0: bc42 14bd 6a86 2a3c 805e cc3c 5734 fe3c
000002d0: f649 043d b308 1cbd 2d6a cc3b b046 e9bc
000002e0: 56d5 88bb dee4 443c ac40 b7bc 141d f7bb
000002f0: 37db df3b e9b8 913b ef07 e1bc 85ae f5bc
00000300: 84cd fdba f51d 893b 6081 20bd d2c4 9abc
00000310: 1701 36bc 3325 fb3b 81be 24bd f4ba 05bd
00000320: faa0 04bd 5f07 27bc a410 46bb 5132 783c
00000330: 7b12 12bd 9163 653c 142f e13c 1cdf e1bc
00000340: 6919 0ebc 6e5c debb 68ef 053c 6af4 0a3d
00000350: 42fc f43c d95d c03c 217a ad3c 362f e23c
00000360: 4b73 1cbd fcc7 dd3c 7723 593c 8c0c 133c
00000370: a40e 46bc 2876 9cbc a9b1 00bd 79ca 653c
00000380: b076 40ba bed1 02bd 28d0 febc 3b77 2cbd
00000390: 9c95 b83c 853f e4bc a021 26bd 4edf f1bc
000003a0: b857 e8bc d35d a43c ad7b ac3c 5704 2cbd
000003b0: 9c62 f33c e574 96bc 531a 49bc 0330 1f3c
000003c0: 54a7 1bbc 10a2 e73c 25fa c9bc 2a85 debc
000003d0: 7471 473c 0327 10bd 82d2 a13a 83fd 20bd
000003e0: a43c f93a cd95 003d 097c b7bc 85b2 02ba
000003f0: de48 acbc d458 eb3c ba02 25bc 24bf 72bc

fc1.bias f4 [50]
0.011575667 0.097423226 -0.042260237 -0.047766823 -0.07270377 -0.011019033 0.019645624 -0.057112303
-0.0007332904 0.044295892 0.033074573 -0.03911499 0.036603447 0.00978593 -0.0019666485 -0.004188038
-0.029937176 -0.040075082 -0.04791677 -0.035397056 0.036965426 -0.037531022 0.087636925 0.01814348
-0.030718936 0.013893829 -0.0062580644 0.016283747 0.02063664 0.049153335 -0.018861597 0.002407123
-0.114262715 0.012104001 -0.0575926 0.043767158 0.06767614 0.04364797 -0.041922122 0.027197262
0.08482632 0.04650666 -0.035451323 0.004526561 0.013278744 0.048863783 0.042317536 0.007692598
-0.045595936 -0.039241437
00000000: dea7 3d3c d485 c73d 1219 2dbd 25a7 43bd
00000010: b7e5 94bd 2d89 34bc dcef a03c 97ee 69bd
00000020: 493a 40ba 9c6f 353d 3479 073d 0a37 20bd
00000030: 7fed 153d 2a55 203c e3e2 00bb cf3b 89bb
00000040: cf3e f5bc c525 24bd 6044 44bd 81fc 10bd
00000050: 0f69 173d 21ba 19bd fd7a b33d a3a1 943c
00000060: 47a6 fbbc f1a2 633c 7310 cdbb 7e65 853c
00000070: 2c0e a93c 0255 493d a383 9abc d3c0 1d3b
00000080: 9202 eabd dc4f 463c 38e6 6bbd 3145 333d
00000090: ca99 8a3d 37c8 323d 88b6 2bbd cbcc de3c
000000a0: 6cb9 ad3d c47d 3e3d 6835 11bd 8c53 943b
000000b0: 178f 593c 6425 483d 2755 2d3d 3012 fc3b
000000c0: cec2 3abd a1bb 20bd

fc2.weight f4 [32, 50]
-0.06465395 -0.21032205 0.035725597 -0.15797344 0.21877487 0.15561326 -0.02005235 -0.27859402
0.19318072 0.04746285 -0.21652253 0.15353113 -0.20939279 -0.011236326 -0.11325682 -0.28573605
-0.018513968 -0.12154547 0.15685013 0.19442692 0.10406882 0.08137178 0.11870472 -0.27504385
-0.14279579 -0.09577373 0.20694827 -0.22645992 -0.12373721 -0.13069807 -0.09542334 -0.25743562
-0.23333223 -0.07193317 -0.18798059 -0.43624353 -0.31159672 -0.28369954 -0.27759108 -0.11391737
0.070984006 -0.2700881 -0.05129835 -0.1281446 -0.20823973 -0.2468533 0.14199392 -0.03303592
-0.23901172 -0.1722531 0.12500034 0.11281107 0.0430717 0.10849276 0.17967407 0.07876946
0.04955743 0.1568334 0.092812836 0.17931314 -0.017089272 -0.24550943 -0.3197752 0.087944105
0.0051435092 0.01257791 -0.07775786 -0.017597737 -0.18782096 0.072851256 -0.13621956 -0.103586
-0.113731414 -0.23342662 0.14416923 -0.09799114 -0.21785243 -0.30094787 0.11220681 -0.19867428
-0.078129336 -0.18208551 -0.1530285 0.20692669 0.17261256 -0.23773144 -0.21253984 0.1421812
0.060246114 0.20198573 -0.34255138 -0.18108791 0.07116009 0.12269389 0.21693231 -0.14239371
-0.12110563 0.0063539357 0.22787502 -0.46801734 0.09850736 0.09778157 0.112967655 0.07787434
0.08946146 0.032128446 0.09734914 0.094503686 0.07904395 0.02639317 -0.28097075 -0.32886657
-0.119338155 -0.20175949 -0.33506083 -0.15565954 -0.12169222 -0.11271832 -0.32135808 -0.03737314
-0.40186003 -0.058245458 -0.27421686 -0.10705553 0.007043505 -0.17547536 -0.26321098 -0.37007296
0.044813268 -0.29061362 -0.04199112 -0.20268749 -0.39316502 0.184511 0.19150229 -0.16655609
-0.08573806 0.07931129 -0.31604493 0.123334184 -0.17930877 -0.32504848 -0.1263618 0.056094736
0.1775185 -0.5559187 -0.37118468 0.091553554 0.13793172 -0.2837856 0.043489892 -0.216615
-0.029232513 0.18455367 -0.25957975 -0.45869297 -0.13607499 -0.5424288 -0.35916317 0.09507627
0.16560133 -0.12624817 -0.37714812 0.20706668 0.15670992 -0.35338828 -0.050234873 0.10837408
-0.22708863 -0.42596602 0.07191229 -0.11460501 -0.3360065 -0.49065775 -0.26630616 -0.3882147
0.15864147 0.13396986 0.167332 -0.35089433 -0.08731379 -0.5076491 -0.2820887 -0.394261
-0.43270102 -0.64338475 -0.21124922 -0.18144953 0.19509314 -0.24135724 -0.53293085 -0.183329
0.049258903 0.014690954 0.13432026 0.112745404 0.1699136 0.099792495 -0.55457 -0.6738319
-0.1356726 0.049920198 0.07057785 -0.10091205 -0.15975143 0.14156382 -0.06525109 0.18197645
-0.15727563 -0.066496365 0.10876234 0.18157312 -0.14725041 -0.015811594 -0.113895714 -0.08160431
-0.04896626 0.12030835 0.20081861 -0.18331455 -0.128881 -0.1070537 0.14187354 0.17562671
-0.19184867 -0.12407828 -0.039325707 -0.22153415 -0.084022306 -0.16525246 -0.047325857 -0.19563727
-0.15848352 -0.1763965 -0.16761088 0.16614386 -0.023024535 -0.17360872 0.13599494 0.23532926
-0.15339325 0.14655152 -0.06757991 0.07059838 -0.07654268 -0.2360579 0.096290894 -0.10739714
-0.16005592 -0.12066965 -0.02181374 0.26772156 -0.07664118 -0.2567694 -0.19758905 0.088636346
00000000: 4a69 84bd aa5e 57be 0155 123d cac3 21be
00000010: 8506 603e 1559 1f3e d344 a4bc e0a3 8ebe
00000020: 2bd1 453e 6868 423d 15b8 5dbe 4437 1d3e
00000030: 106b 56be 9118 38bc 31f3 e7bd ff4b 92be
00000040: 9baa 97bc d5ec f8bd 529d 203e da17 473e
00000050: 0922 d53d 3fa6 a63d 761b f33d 8cd2 8cbe
00000060: 0f39 12be 0425 c4bd 3fea 533e 1ce5 67be
00000070: ef69 fdbd b7d5 05be 506d c3bd 9ace 83be
00000080: a5ee 6ebe b351 93bd fc7d 40be 505b dfbe
00000090: 9b89 9fbe 1141 91be 6b20 8ebe 834d e9bd
000000a0: 1060 913d fd48 8abe 381e 52bd 5738 03be
000000b0: cc3c 55be 1dc7 7cbe db66 113e ac50 07bd
000000c0: 7dbf 74be 1e63 30be 1700 003e 7e09 e73d
000000d0: f36b 303d 7431 de3d 7bfc 373e e251 a13d
000000e0: bbfc 4a3d ef98 203e a814 be3d dd9d 373e
000000f0: cdfe 8bbc d366 7bbe 93b9 a3be 0a1c b43d
00000100: e28a a83b 9413 4e3c 833f 9fbd 2129 90bc
00000110: 2354 40be 0a33 953d 247d 0bbe e624 d4bd
00000120: 04ec e8bd 6307 6fbe 19a1 133e 94af c8bd
00000130: b514 5fbe d715 9abe afcc e53d 4571 4bbe
00000140: 4602 a0bd a074 3abe 81b3 1cbe 97e4 533e
00000150: 59c1 303e df6f 73be 0ba4 59be f397 113e
00000160: a1c4 763d 59d5 4e3e e562 afbe 1c6f 39be
00000170: 62bc 913d ef46 fb3d 8123 5e3e a8cf 11be
00000180: 3b06 f8bd ad34 d03b 1258 693e f89f efbe
00000190: 3abe c93d b441 c83d 965b e73d 957c 9f3d
000001a0: 9237 b73d 1e99 033d fc5e c73d 268b c13d
000001b0: cbe1 a13d 7d36 d83c 66db 8fbe 3361 a8be
000001c0: 9067 f4bd 0a9a 4ebe 188d abbe 3765 1fbe
000001d0: c539 f9bd ddd8 e6bd 0c89 a4be 9414 19bd
000001e0: 99c0 cdbe ca92 6ebd 2766 8cbe ee3f dbbd
000001f0: 34cd e63b d0af 33be 97c3 86be 347a bdbe
00000200: 1e8e 373d 4fcb 94be e1fe 2bbd 4f8d 4fbe
00000210: ed4c c9be 74f0 3c3e 2d19 443e ae8d 2abe
00000220: 7097 afbd f56d a23d a4d0 a1be a296 fc3d
00000230: b89c 37be c16c a6be fd64 01be 98c3 653d
00000240: 69c7 353e b050 0ebf eb0b bebe 6e80 bb3d
00000250: f93d 0d3e 594c 91be 7522 323d 53d0 5dbe
00000260: 0679 efbc a3fb 3c3e a3e7 84be ced9 eabe
00000270: 3e57 0bbe 9ddc 0abf 3ce4 b7be 59b7 c23d
00000280: 6593 293e 3347 01be 8f19 c1be 4a09 543e
00000290: 9178 203e 4fef b4be 15c3 4dbd 3bf3 dd3d
000002a0: ec89 68be 3818 dabe c046 933d 08b6 eabd
000002b0: 0b09 acbe 7e37 fbbe 4859 88be 14c4 c6be
000002c0: e972 223e 652f 093e 1459 2b3e 6ca8 b3be
000002d0: 93d1 b2bd 4bf5 01bf ee6d 90be 94dc c9be
000002e0: fd8a ddbe ddb4 24bf b751 58be e8cd 39be
000002f0: 7fc6 473e 5a26 77be 286e 08bf 99ba 3bbe
00000300: b4c3 493d 54b2 703c 408b 093e 10e7 e63d
00000310: d5fd 2d3e 0260 cc3d 4df8 0dbf 3f80 2cbf
00000320: c2ed 0abe 1f79 4c3d 1f8b 903d faaa cebd
00000330: e195 23be 1bf6 103e 5da2 85bd 0958 3a3e
00000340: dd0c 21be 3f2f 88bd cabe de3d 4eee 393e
00000350: d0c8 16be 5187 81bc 2842 e9bd 2920 a7bd
00000360: d890 48bd 3964 f63d 65a3 4d3e cfb6 3bbe
00000370: 62f9 03be f83e dbbd 4c47 113e 7dd7 333e
00000380: fa73 44be c11c febd fe13 21bd d9d9 62be
00000390: e313 acbd f137 29be c2d8 41bd 2355 48be
000003a0: 8149 22be 49a1 34be 30a2 2bbe 9e21 2a3e
000003b0: f39d bcbc 7cc6 31be 4242 0b3e 27fa 703e
000003c0: 1f13 1dbe 9a11 163e 5667 8abd e295 903d
000003d0: 69c2 9cbd 2ab9 71be 2934 c53d 08f3 dbbd
000003e0: b3e5 23be a621 f7bd bab2 b2bc cd12 893e
000003f0: 0df6 9cbd 4777 83be c954 4abe f986 b53d

fc2.bias f4 [32]
-0.014680661 -0.20922063 -1.2261187 0.35515565 -0.2789707 0.49127862 -0.45153803 0.13450973
0.13320746 -0.46380225 0.03978177 -0.18946436 0.17497039 0.63402283 -0.36704043 -0.42728102
0.30434993 0.37877133 -0.17520837 0.318202 0.3999983 -0.47464535 -0.37150666 -0.3010419
-0.16934375 0.4135568 -0.06484431 -0.1616024 -0.8125842 0.28224874 0.12698063 0.082199894
00000000: 2887 70bc ef3d 56be 75f1 9cbf f6d6 b53e
00000010: 3fd5 8ebe df88 fb3e fe2f e7be ebbc 093e
00000020: 8967 083e 7d77 edbe 36f2 223d f202 42be
00000030: 702b 333e 524f 223f b9ec bbbe 94c4 dabe
00000040: c1d3 9b3e 51ee c13e d369 33be 5feb a23e
00000050: 94cc cc3e b704 f3be 1f36 bebe 2a22 9abe
00000060: 7368 2dbe b8bd d33e 18cd 84bd 197b 25be
00000070: 8505 50bf e882 903e 3607 023e 6b58 a83d
