checkpoints/model-50.pt (torch, 177999 bytes, 8 tensors)

conv1.weight f4 [10, 1, 5, 5]
000000 5d fe 80 3e a8 f3 7c 3e e1 2d 83 3e a8 87 7d 3e
       0.25194064 0.24702322 0.2562094 0.2475878
000010 4a 4d c1 3d 69 7b 61 3e b0 ef 8e 3e f0 10 c7 3d
       0.0943857 0.22019733 0.27917242 0.097200274
000020 44 49 06 3e 9e f7 fb 3c 01 3d 51 3e da e5 91 bd
       0.13113886 0.030757722 0.20433427 -0.07123919
000030 04 b5 6f 3e 00 48 94 3d cf 3f 8f be 09 45 78 be
       0.23408896 0.072402954 -0.2797837 -0.24245085
000040 e6 19 a3 bd d4 6a 35 be 61 c8 d6 3c 69 3c b9 be
       -0.07963924 -0.17716533 0.026218595 -0.36178902
000050 1c 36 85 be be b9 5e bc 37 f2 96 be df f9 3f be
       -0.26017845 -0.013594089 -0.2948167 -0.18747662
000060 37 8d c4 be e2 13 eb be f6 48 72 bd 45 b7 78 3e
       -0.38388988 -0.45913607 -0.059151612 0.24288662
000070 02 ed 91 3e d4 b8 e4 3c cb 90 e6 be f8 77 67 be
       0.28501135 0.027920164 -0.45032343 -0.22604358
000080 fd 16 25 3d 10 93 e5 3d 3f 46 8f 3e bc 52 d4 bd
       0.040305126 0.112096906 0.2798328 -0.10367343
000090 fd 60 fa 3b 8a 19 70 bd ea 71 cc 3d e5 0d 03 3e
       0.0076409564 -0.058618106 0.09982665 0.12798269
0000a0 db 4c 8a be 10 a3 92 3c 82 61 01 3e 61 1e c7 3d
       -0.2701176 0.01790002 0.12634853 0.09722591
0000b0 7b cd cb bd 79 7f 81 be 4d de 5a bd 27 cb 83 3e
       -0.09951302 -0.25292566 -0.05343466 0.2574093
0000c0 ea 74 e6 3b de 44 6c 3e 97 e1 82 3e 63 f3 39 3e
       0.00703298 0.23073146 0.25562736 0.18159251
0000d0 8c 73 3e 3e 8b b3 bc 3d 46 e1 67 3e 48 33 e4 bc
       0.18598765 0.092139326 0.22644529 -0.027856484
0000e0 a4 80 ad 3c 0f 94 e9 3d d8 6e ca 3d 13 d5 13 3c
       0.021179505 0.11405193 0.09884423 0.009022969
0000f0 73 2c 75 be b4 31 20 3c ca 34 e9 3d 87 89 4e 3e
       -0.23942737 0.009777475 0.11387022 0.2016965
000100 06 8f a8 3d d3 6d 40 bc a5 b7 42 be 61 eb 16 bc
       0.082304046 -0.011744934 -0.19015367 -0.009211392
000110 9d 63 68 bd 61 4a 4e 3e 9b cc 23 be dd dc 11 bd
       -0.056735624 0.20145561 -0.1599602 -0.035611022
000120 7f 9c 02 bc cc 20 f2 bd 3b f0 73 3d 11 13 c9 3e
       -0.007971882 -0.11822662 0.059555274 0.3927236
000130 78 49 b6 3e 6b 3a 3c 3e 73 43 bd 3e 2e ec ba 3e
       0.35602927 0.1838166 0.36965522 0.36508316
000140 f2 77 f0 3d 44 ae bb 3d 32 55 e6 bd d6 c4 16 3e
       0.11741628 0.09164098 -0.112467185 0.14723524
000150 84 e4 32 3e 47 b5 50 3e 5c 47 30 be 97 91 60 3e
       0.17469984 0.20381652 -0.17214721 0.21930538
000160 35 03 36 3e 37 aa 24 be a8 95 ba 3d c4 6a 1b 3e
       0.17774661 -0.16080557 0.09110576 0.15177447
000170 e8 fa 3e bc f7 c1 02 be 52 f6 43 be cd 88 d1 bd
       -0.0116565 -0.12769304 -0.19136932 -0.10231171
000180 b9 8c c1 bd 9a 2e 54 be eb 6a 58 bd 2b 84 9b be
       -0.09450669 -0.20720902 -0.05283634 -0.30374274
000190 55 22 a4 3e 92 f9 6a 3e 3d 30 14 3e 94 7a 56 be
       0.32057443 0.22946766 0.14471526 -0.20945197
0001a0 01 08 6c be 20 48 28 3e 14 b7 b7 3d b2 bc 67 3e
       -0.23049928 0.16433764 0.08970466 0.22630575
0001b0 b9 7f 3d be 68 d0 b3 be e2 81 be 3e 4d 20 bd 3d
       -0.18505754 -0.3511994 0.37208468 0.092346765
0001c0 63 79 85 3d 57 5a a8 3d da 7b dc be b2 eb 84 3e
       0.06517293 0.08220356 -0.4306324 0.2596107
0001d0 19 05 6f 3e 39 ce 7d 3c 4f 42 20 3d 3a 9d ec be
       0.23341788 0.015491062 0.039125737 -0.46213704
0001e0 e3 d2 37 3e c9 70 b2 bd 7a 8f d1 3d a4 51 57 be
       0.1795154 -0.08712918 0.10232444 -0.21027237
0001f0 30 10 cc be 60 73 a0 3d 82 dd 33 bd 72 1b 26 be
       -0.398561 0.07834506 -0.04391242 -0.16221407
000200 b1 bf c2 bd af 00 94 bd ac 57 1a 3e 51 c9 a4 3d
       -0.095092185 -0.07226693 0.15072507 0.080462106
000210 c1 3f 9f 3c 03 ba a1 bd 9a f6 45 bd 89 96 58 3e
       0.01943958 -0.07896807 -0.04833088 0.21151175
000220 e9 85 e0 bd 82 ae 81 bd dc 00 a4 bc e4 c7 df 3c
       -0.10963041 -0.06332113 -0.020019941 0.027316995
000230 fc 49 c6 3d 79 ec 63 3d cb 0c 5b 3d 98 71 ea 3c
       0.0968208 0.05564544 0.053478997 0.028618619
000240 80 7f 76 3d 23 af 2c 3e d0 14 e1 3c 33 7b e0 3d
       0.060180187 0.16863684 0.027475744 0.109609984
000250 11 00 e7 bd 7b 5f c2 3c 41 f1 af 3d 3c 9d d7 3d
       -0.112793095 0.02372717 0.085909374 0.10528037
000260 ad 75 29 3e 74 63 d0 3d 6c 71 ee 3d be dc c4 3c
       0.16548796 0.10175219 0.11642727 0.02403104
000270 68 d5 f0 3d 96 84 dc 3d 0e 6f 44 3e ee a8 98 3d
       0.11759454 0.10767476 0.19182989 0.07454096
000280 f6 e5 7d bd 7d ab fc bd 3f 4a 2d bd e7 9f 56 3d
       -0.061986886 -0.12337396 -0.042307135 0.05239859
000290 86 89 8e 3e f6 39 c3 bc ed e1 ec 3c 67 1f 4d bc
       0.27839297 -0.023831349 0.028916324 -0.012519694
0002a0 7e 14 42 3d 2a 4d a7 bd f6 c4 c6 3d 75 6f 26 3d
       0.047382824 -0.08169015 0.09705536 0.040633637
0002b0 d8 46 f8 bd 11 22 0a 3e 7d 74 10 be c5 91 4e 3e
       -0.121228874 0.13489558 -0.14106937 0.20172794
0002c0 1b 32 12 3e 27 dc 44 bc df 0e 4d 3e ad 93 c6 3d
       0.14276926 -0.012015379 0.20025204 0.09696136
0002d0 5f 7b 09 bd 92 7a 82 bb fd cf c1 3e 23 a1 a8 3d
       -0.03356492 -0.0039818967 0.37853995 0.082338594
0002e0 f0 bf c1 bd 2d b5 69 3d d5 61 6a 3e 7e c2 87 3e
       -0.09460437 0.05705755 0.22888882 0.26515573
0002f0 6f f2 9e bd 5e 1c 4d be e2 7e f4 3d 26 fe c8 bd
       -0.07761084 -0.20030352 0.119382635 -0.098141
000300 4e 23 ed bd a3 b4 5b be 7a fa 09 be fc 47 e6 be
       -0.115789995 -0.21455626 -0.13474455 -0.44976795
000310 4a e9 58 be 98 58 b6 be 14 c3 f8 bd 90 a3 15 3e
       -0.21182743 -0.35614467 -0.12146583 0.14613175
000320 ee f1 bb bc ee 93 a7 3e cd 45 5e 3d 04 f5 af 3e
       -0.02294251 0.3273005 0.054265786 0.3436662
000330 d0 14 8c 3e 66 69 e8 3b dd e6 dd 3d a6 d6 b6 bd
       0.2735963 0.0070926426 0.10835049 -0.0892766
000340 74 1e 05 3e 1e d4 06 3e 6b b9 c7 bd 6c a1 36 3d
       0.12999898 0.13166854 -0.097521625 0.044587538
000350 2a e3 4f 3e 21 99 20 bc d0 94 06 3e 7e 47 19 bd
       0.203015 -0.009802134 0.13142705 -0.037421696
000360 69 13 cd bd cc 2a 31 3e d2 96 09 be 7e 1e 69 3e
       -0.10013468 0.17301482 -0.1343644 0.22765538
000370 1e 0c 10 3d f3 62 33 be 88 f5 c4 bd 99 ba 23 bd
       0.035167806 -0.17518215 -0.09617144 -0.039972875
000380 f9 29 1e 3e 8c 99 b8 bd 38 d8 6a 3e 7b 4a 29 3e
       0.15445699 -0.09013662 0.22934043 0.16532318
000390 33 f4 fa 3d 32 98 8d 3e 03 98 02 3c a4 7d 34 be
       0.122536086 0.27655178 0.007970813 -0.17626053
0003a0 32 49 39 3e fb a1 f6 3c c5 5b 35 3e a8 b4 57 be
       0.18094328 0.030106535 0.17710789 -0.21065009
0003b0 6b 13 90 be ca ce 94 be 95 72 a6 bd 7b 7c 90 3c
       -0.28139815 -0.29064018 -0.081273235 0.017637482
0003c0 d4 40 4a bd 48 b6 db bd 15 c9 61 be b0 8f 91 be
       -0.04937823 -0.10728127 -0.22049363 -0.28429937
0003d0 6d 67 af bc e8 62 86 3e 23 6e 76 3e bb e1 ba bb
       -0.021411622 0.26247334 0.24065451 -0.0057031787
0003e0 6b 2e 10 3e 37 65 0d bd
       0.14080207 -0.034520354

conv1.bias f4 [10]
000000 e8 7a cf 3b b1 0b 86 3d cc ff ff be 79 b9 87 be
       0.0063317902 0.06545199 -0.49999845 -0.26508692
000010 92 7a a4 3c 52 66 cb bd a8 93 f7 be ea 86 4e 3e
       0.020077977 -0.099316254 -0.4835484 0.20168653
000020 54 38 a8 be 90 4e bc bc
       -0.32855475 -0.02298668

conv2.weight f4 [20, 10, 5, 5]
000000 3c d3 bb 3d b1 15 d8 3d a2 7c 5a 3d aa a6 0f 3d
       0.09171149 0.10551012 0.053341515 0.035071053
000010 dc 24 0c 3e 3f 0f 10 3e f7 eb 13 3e f9 07 f1 3d
       0.13685936 0.14068316 0.14445482 0.11769099
000020 4e 5c db 3c da 7d d2 3d d1 cc a1 be 67 db 09 be
       0.026777413 0.102779105 -0.31601575 -0.13462602
000030 f3 50 2a bd 5b d1 8e 3c 56 58 54 3d e5 04 23 be
       -0.041581105 0.017433813 0.051842056 -0.15919836
000040 45 27 61 bc 26 8d 5d bc 80 e7 82 3a 0f b7 54 3d
       -0.013742273 -0.013522422 0.0009987205 0.05193239
000050 bd f1 c7 3d 3d bb 16 3e d3 7c 35 3e 52 da 1b bc
       0.09762905 0.14719863 0.17723398 -0.009512501
000060 83 14 c5 3d 16 5a 65 3e 07 5a 5d 3d 32 98 b2 bd
       0.09623053 0.22397646 0.054040935 -0.08720435
000070 64 63 1f bd 04 b1 a5 3d a4 d0 bd 3d 82 7a 94 bd
       -0.038913146 0.08090404 0.09268311 -0.07249929
000080 8e 6d a4 be 98 ad 8f be 3a c9 a7 bd 6a 88 25 be
       -0.32114834 -0.2806213 -0.08192678 -0.16165319
000090 19 ce 06 bf 3e 89 01 bf 17 e8 cc bd dd de 02 3d
       -0.5265823 -0.5060004 -0.10005205 0.03195082
0000a0 17 5e ce be d7 21 0e bf ea 08 a6 be 62 65 bb 3c
       -0.4030616 -0.55520386 -0.32428676 0.022875492
0000b0 a3 73 39 3e 44 b7 a2 be 9f 52 3e be 91 0e ff 3c
       0.18110518 -0.31780446 -0.18586205 0.031134875
0000c0 c7 0c 19 3e 9c 2b a4 3e e6 4a a9 bd b6 d5 18 be
       0.1494628 0.3206452 -0.08266239 -0.14925274
0000d0 f7 80 86 bd 35 26 27 bd d4 b5 42 bc de cf 90 bd
       -0.06567567 -0.04080792 -0.0118841715 -0.070708975
0000e0 3f 65 fe bd f5 e1 ac bd 62 84 ab 39 43 31 89 bd
       -0.12421655 -0.084415354 0.00032714295 -0.06698849
0000f0 60 fa 8e bd c5 0c ad bd 49 ae 92 bc ab 79 cb bd
       -0.06981349 -0.08449701 -0.017905371 -0.09935316
000100 23 b7 96 bd 29 12 86 3d b1 1c 3c 3c 6c a7 a0 3b
       -0.07359149 0.065464325 0.01148145 0.0049027707
000110 14 f1 fe 3c 8e 6d 9b 3c ab a3 bb 3d 34 e6 24 3d
       0.031120814 0.018973138 0.091620766 0.0402586
000120 29 df c9 3c d1 75 93 bd 64 f2 81 bc d3 a4 ac bd
       0.024642544 -0.07200206 -0.015862651 -0.08429875
000130 ec c7 93 bd e3 a4 a4 bd 80 3f 18 bd 67 af 52 3d
       -0.072158664 -0.08039262 -0.037169933 0.051436808
000140 95 23 16 bd 44 be 84 3c 90 b3 ec bb 41 62 84 bc
       -0.036655027 0.016204007 -0.007223554 -0.016160132
000150 28 8a d8 bc 4b e7 c5 bd 49 c5 03 bd 8e 52 a0 bd
       -0.026433066 -0.09663256 -0.032170568 -0.07828246
000160 51 3d 77 3d e1 73 24 3d cb 04 62 3c ec bd 1c bb
       0.06036121 0.040149573 0.013795088 -0.0023916913
000170 d9 ec 76 3d 01 4c 69 bc 20 da 32 3d 18 66 12 3d
       0.06028447 -0.014239312 0.04366505 0.035741895
000180 6a 14 77 3d ef 6d c3 3d c2 81 fb bc 5b 69 04 3d
       0.060322203 0.095424525 -0.030701522 0.032327037
000190 23 67 69 3d 7d 15 28 be 51 b7 1e be 3a 93 1f bd
       0.056983124 -0.16414447 -0.15499617 -0.038958766
0001a0 c5 e0 a9 3d 70 64 0e be da 29 9d be 6a a1 2f be
       0.082948245 -0.13905501 -0.30695993 -0.17151418
0001b0 cb 50 b3 bd 51 27 53 3d db 19 15 be b6 6d f7 bd
       -0.087556444 0.051551167 -0.14560644 -0.120814726
0001c0 12 39 d1 39 7c d1 31 3d 40 32 89 3d ab 6b 8b bc
       0.00039906107 0.04341267 0.066990376 -0.017019114
0001d0 2a 5d aa 3d 7e d2 8a 3d 37 26 a4 3d 3d c2 9f 3d
       0.08318551 0.067784294 0.080151014 0.0780072
0001e0 31 ac 94 3c 29 b1 9d 3d ab da c7 3d 3e f2 9e 3d
       0.018148514 0.07699806 0.097585045 0.07761048
0001f0 71 ed 1e bd 60 14 fd 3c 7b 69 40 3d 6a fe 1e 3c
       -0.03880066 0.030893505 0.046975594 0.009704212
000200 11 b1 44 3d 4d 26 1a 3d 46 a0 45 3d 6d 8d 57 3b
       0.048020426 0.037634183 0.04824855 0.0032890693
000210 fa 63 8b bd f5 58 b4 3c c0 76 3b bd 2b f9 9c 3d
       -0.068061784 0.022015074 -0.045767546 0.076647125
000220 c4 62 65 3d 42 b7 24 bc ac dd 0d bd 6b 60 83 bd
       0.056002393 -0.010053458 -0.03463523 -0.06414875
000230 f1 35 81 3d 6c 7d 16 3d c4 81 12 3d 70 25 77 bd
       0.06309117 0.036740705 0.035768285 -0.060338438
000240 ff a1 32 3b 5f 94 15 3d 00 d6 c2 3d 45 d4 c3 3d
       0.0027257202 0.03651845 0.095134735 0.095619716
000250 7b 70 55 3d 39 0f 1b 3d 1b dd c5 bd 9e fd f4 bd
       0.052109223 0.037856314 -0.09661313 -0.11962436
000260 38 11 07 be 18 32 e2 bc 35 ff 1a 3d b5 0d 1c bc
       -0.13190162 -0.027611777 0.03784104 -0.009524752
000270 74 c3 a9 3c b3 f3 95 39 27 0e 6c bd 2a fd c8 bc
       0.020723082 0.00028601065 -0.057630684 -0.02453478
000280 3e 27 22 3c b2 f2 20 3d 00 e5 44 3d 96 1d 7d 3d
       0.009897051 0.039293952 0.048069954 0.061795793
000290 7a 1b 2c bd 6f c6 d4 3c e1 01 21 3d 7f ce b2 3d
       -0.04201839 0.025973527 0.039308432 0.08730792
0002a0 3f 1f 64 bd 89 b3 50 bd 61 9f 6a 3d 34 ce e2 3d
       -0.05569386 -0.050952468 0.0572809 0.110744864
0002b0 be 07 b8 bb 81 13 2a 3d bf ab 9e 39 4a 2d 7e 3d
       -0.0056161573 0.041522507 0.0003026407 0.06205491
0002c0 49 0a 5f 3d 9d c4 a7 3d 56 92 2a 3d 7e e9 0f 3e
       0.054453168 0.08191798 0.041643463 0.14053914
0002d0 9a e2 8a 3d 25 ad 7d 3e b6 81 a5 3d ee 89 46 3d
       0.06781502 0.2477308 0.08081381 0.048471384
0002e0 95 0c cd 3d 0a a2 eb be db f6 bb bc 1b eb 93 3d
       0.100121655 -0.46022063 -0.022944858 0.07222577
0002f0 2e c1 1b 3d 0d 5e 7c 3d d4 e5 c5 be 82 09 29 be
       0.038026027 0.06161313 -0.38651907 -0.16507533
000300 a3 bd 95 bd 97 f1 a0 bd f7 d9 36 be 5a 22 14 3e
       -0.07311561 -0.078585796 -0.17856584 0.14466229
000310 d6 05 10 3e 39 9d 87 3d 85 7f 37 3b d5 e8 1d 3d
       0.14064726 0.06621785 0.0027999592 0.038552124
000320 21 0d 2d bd 9d ff 2c bd 11 8b 1b bc 3f bf 26 bd
       -0.04224885 -0.04223596 -0.009493605 -0.04070973
000330 92 84 a6 3a b0 1e 9c bd f6 84 25 bd 0b 47 e6 3c
       0.0012704304 -0.07623041 -0.040410005 0.028110048
000340 31 37 4d bd 10 ac 97 bc d3 18 7a bb 6c f0 b9 bd
       -0.050101463 -0.018514663 -0.003816177 -0.0907906
000350 2e 39 8c bd 59 80 7b bd fd 99 9e 3c d2 14 b6 3d
       -0.06846844 -0.0614017 0.019360537 0.0889069
000360 2e 60 01 bc 58 dc 04 3d 13 1d 02 3c 5c 0a a4 3d
       -0.007896466 0.0324367 0.007941502 0.080097884
000370 de 28 89 3d f1 58 c5 3c da ba 6a 3d 92 1c 27 3c
       0.06697248 0.024090262 0.0573071 0.010199683
000380 3c ce 9a 3c 5e cf 52 be 45 5e cb 3d 66 51 96 3e
       0.018897168 -0.20586917 0.0993009 0.29358977
000390 ea f7 95 3e fb 8f 8e 3e bc ff 19 3f 55 22 18 3f
       0.29290706 0.27844223 0.60155845 0.59427387
0003a0 89 fe 0b 3f 54 4f b2 3e ca 72 83 3e 90 0e 4f 3f
       0.54685265 0.34826148 0.25673515 0.80881596
0003b0 48 a6 e4 3e 1b 29 29 3e b6 a8 2e be dc 7c c4 be
       0.44658113 0.16519587 -0.17056546 -0.3837651
0003c0 16 14 bf 3e 9a ec c8 3e d5 20 a1 bb e0 0a 9b be
       0.37320012 0.39243013 -0.004917244 -0.30281734
0003d0 f0 c2 58 be da 4d 0f 3d d0 c0 5d be 25 f3 09 bf
       -0.21168113 0.034986354 -0.21655583 -0.53886634
0003e0 4b 49 fa be b0 fc 9e be f0 f1 c7 3c 74 12 23 3c
       -0.48884043 -0.3105216 0.024407357 0.00995313
0003f0 43 dc b6 3d 60 0c c9 3d 38 cd 90 3d f9 32 bf bd
       0.0892873 0.098168135 0.07070392 -0.09335894

conv2.bias f4 [20]
000000 ba 82 04 3e 08 40 4b bd 4c b6 0e 3d a5 c7 23 3d
       0.12940493 -0.04962161 0.03484182 0.039985318
000010 e7 15 3f 3d 39 ab 7f 3b ec 73 e0 bb 8a 3c 0b 3d
       0.046651747 0.0039011969 -0.0068497565 0.03399328
000020 6f 18 80 3d 8e 41 73 3d 49 cb 26 bc 1f df c9 bc
       0.0625466 0.05938869 -0.010180303 -0.024642525
000030 6d cf 98 3c 8b 40 98 3d 40 3b 91 3d 89 c2 54 3d
       0.018653596 0.074341856 0.07091379 0.051943336
000040 67 0d 10 bc 3c 17 9d bd 7f dc c7 3c ac ed cc bd
       -0.008792258 -0.07670447 0.024397133 -0.1000627

fc1.weight f4 [50, 720]
000000 4f 2b 02 bd 3d 55 1e 3c 98 d5 4d 3b 44 97 f8 bc
       -0.031779584 0.009663877 0.003140783 -0.030345567
000010 92 5b 57 bc d7 f6 33 3c cf f7 04 3a 27 71 24 3c
       -0.013144391 0.010984144 0.0005072327 0.010036743
000020 90 c1 a5 3c ea 6b 90 3c a5 55 84 bc ad 88 47 3c
       0.0202339 0.017629582 -0.01615412 0.012178582
000030 af d0 bc 3b 40 01 e2 3c 9f f9 04 bd 84 e2 ff bc
       0.0057621817 0.027588487 -0.03246462 -0.03123594
000040 49 f6 4b 3c 66 bf c4 ba eb a3 d0 3c 85 ee 45 3c
       0.012448856 -0.0015010654 0.025468787 0.012080793
000050 96 fa 5c bc 43 08 d5 3a 4d da 62 3c 68 0f 05 3d
       -0.013487479 0.0016253073 0.013845992 0.032485396
000060 25 e1 de bc d4 61 9c bc 4b ef 0b bd b4 3a f6 3b
       -0.027206967 -0.019089617 -0.034163754 0.007514322
000070 32 37 f1 3c 67 e5 00 3d 6a 34 0c 3d f2 52 4b 3c
       0.029445264 0.031468775 0.034229673 0.012409912
000080 bd 3f 23 bd 6b 50 8c bc 16 29 e8 3c ea 16 7f bc
       -0.039855707 -0.01712819 0.028339904 -0.015569428
000090 67 06 bd bb d9 02 05 bd 46 cd 76 3c 98 a1 c7 bb
       -0.0057685855 -0.03247342 0.015063589 -0.0060922615
0000a0 7c 17 16 3c f5 2a d7 3c cb 1f 13 bd f2 64 25 3c
       0.009160873 0.0262656 -0.035918992 0.010094868
0000b0 8a e5 82 b9 f0 84 2a bd bb 5b 43 3c d9 ba c8 bc
       -0.00024966552 -0.041630685 0.011923726 -0.024503158
0000c0 dd 9a 86 3c ab 48 2c bc cd b2 0c 3c 32 3d 01 bd
       0.016431266 -0.010515372 0.008587551 -0.0315525
0000d0 b6 10 11 bd 1b 07 e6 3c b7 38 96 3c 8d 8a 1f bd
       -0.035416327 0.02807956 0.01833759 -0.03895049
0000e0 06 e3 cf 3b c5 62 2c bd df 1c ef 3c f3 9a 21 bd
       0.006344202 -0.04208638 0.029188571 -0.03945441
0000f0 38 ac fa bc 6a cf af 3c 8e 53 b5 bb 15 b8 92 bc
       -0.030599698 0.021461207 -0.005533642 -0.017910043
000100 cf ba e5 3c ac 15 ce bc 87 1d ba bc 9d a8 0f 3b
       0.028043179 -0.025156818 -0.022719158 0.002192057
000110 fb ac ad 3c b4 35 e3 bb 86 0c 66 3c b4 87 70 bc
       0.021200648 -0.006933892 0.014041072 -0.014680792
000120 5f aa 7a bc 84 1b 07 bd 34 57 a0 bc 2c 3a 04 3d
       -0.015299409 -0.032985225 -0.019572832 0.03228204
000130 59 85 04 3d c2 fa 0f bd c0 89 54 3c 72 10 4b bc
       0.032353733 -0.03515125 0.012972295 -0.012394058
000140 1e dc ed bc 7b 9d c4 3b de fa 69 3b fe 4b 09 3b
       -0.029035624 0.0060002184 0.0035702507 0.0020949836
000150 b9 cd cc 3c 25 a8 c5 bc 7a e9 6e 3c e2 20 5b 3c
       0.02500044 -0.02412803 0.014582032 0.013374539
000160 f7 ef 61 ba 06 f2 d2 3c 4c a8 9c 3c d8 f9 05 bb
       -0.00086188264 0.025750171 0.019123219 -0.0020443108
000170 f1 d6 06 bc f6 32 88 bc 4a 42 02 bd 8c 66 d2 bc
       -0.008229957 -0.016625863 -0.0318015 -0.025683664
000180 e8 43 61 bc 38 14 f6 bb 70 8a 15 3c d9 e8 ac bc
       -0.0137491 -0.0075097345 0.009127244 -0.021107124
000190 37 98 fb bc 94 fa 4e bc 39 35 89 bc 00 bb 08 3c
       -0.03071223 -0.012632985 -0.016749011 0.0083453655
0001a0 43 1a d2 bb e1 32 e0 3c 9d 89 50 3c bb 12 db ba
       -0.006411822 0.027368011 0.012728122 -0.0016713956
0001b0 5a dd 20 bd 08 db 9b bc 21 e1 76 bb 5b d6 ad bb
       -0.039273597 -0.01902534 -0.0037670808 -0.005305094
0001c0 87 7f be bc 29 44 b6 3c 61 bc 86 bc 57 33 c9 3c
       -0.02325417 0.022249298 -0.016447248 0.024560614
0001d0 05 ad 65 3b 48 48 ee bb 28 f5 a8 bc e5 86 15 bd
       0.0035045755 -0.0072718 -0.020624712 -0.0365056
0001e0 37 f2 e8 3c a3 61 e1 bc b2 6d ed bc 94 63 6e 3c
       0.02843581 -0.027512377 -0.02898297 0.014550108
0001f0 e9 ef a0 3c 5a 03 90 bb 36 bb bb bc 3a 3a 1f bc
       0.019645648 -0.004394931 -0.022916418 -0.009718472
000200 8b 3e 7b bc 8c 01 b1 bc 62 07 e0 ba 52 78 db 3c
       -0.015334736 -0.021607183 -0.0017092044 0.026790772
000210 ec 6e 32 3c b3 f9 20 bd 35 fe 2a bd 84 10 b2 ba
       0.010890704 -0.03930063 -0.041746337 -0.0013585244
000220 95 3f a6 bc f8 2a 08 bd f2 6c f1 bc 8b 0b 27 bd
       -0.02029399 -0.033244103 -0.029470894 -0.040782493
000230 c0 d4 0e bc f6 69 0e 3c e7 8d 37 3c 26 68 46 bc
       -0.008717716 0.008692255 0.011203266 -0.012109792
000240 0a 09 03 bd df f3 e8 bc 3d b9 14 bd 13 89 39 3c
       -0.031991042 -0.0284366 -0.03630947 0.011324185
000250 29 5d 2f bc 28 e7 e8 bc 87 db 6d bc f6 1e 1f bd
       -0.010703363 -0.028430536 -0.014517671 -0.038847886
000260 52 b3 ca bc 84 a7 8d bc 1f d6 01 3d 07 6e d0 3a
       -0.02474371 -0.017291792 0.031698342 0.0015901931
000270 f5 2e a8 bc a5 95 93 bc 2e 17 09 3d 7e 92 e3 ba
       -0.020530203 -0.018015692 0.03346937 -0.0017362384
000280 43 8d 26 bd 7e 10 de 3c 05 27 cc bc 87 86 da 3c
       -0.04066206 0.027107473 -0.02492095 0.026675476
000290 28 c6 ff bc b1 7e bd bb e8 39 b0 3c ff 6e c6 bc
       -0.031222418 -0.005782925 0.021511987 -0.024222849
0002a0 d1 13 b5 bc f3 d6 4a bc b9 96 db bc b3 46 d5 3c
       -0.022104176 -0.012380349 -0.026805269 0.026034689
0002b0 a7 eb 8a bc a2 b3 93 bc ad 9f 16 bd 9b 60 8e 3c
       -0.01695807 -0.018029992 -0.036773372 0.01738005
0002c0 bc 42 14 bd 6a 86 2a 3c 80 5e cc 3c 57 34 fe 3c
       -0.036196455 0.010408023 0.024947405 0.031030817
0002d0 f6 49 04 3d b3 08 1c bd 2d 6a cc 3b b0 46 e9 bc
       0.032297097 -0.038094234 0.006238243 -0.02847609
0002e0 56 d5 88 bb de e4 44 3c ac 40 b7 bc 14 1d f7 bb
       -0.0041758223 0.012017457 -0.022369705 -0.007541308
0002f0 37 db df 3b e9 b8 91 3b ef 07 e1 bc 85 ae f5 bc
       0.0068315524 0.004447092 -0.027469603 -0.029990444
000300 84 cd fd ba f5 1d 89 3b 60 81 20 bd d2 c4 9a bc
       -0.0019363617 0.0041844794 -0.03918588 -0.01889268
000310 17 01 36 bc 33 25 fb 3b 81 be 24 bd f4 ba 05 bd
       -0.011108658 0.0076643466 -0.04022074 -0.032648996
000320 fa a0 04 bd 5f 07 27 bc a4 10 46 bb 51 32 78 3c
       -0.03238008 -0.0101946285 -0.003022232 0.015148715
000330 7b 12 12 bd 91 63 65 3c 14 2f e1 3c 1c df e1 bc
       -0.035662156 0.014000789 0.027488269 -0.027572207
000340 69 19 0e bc 6e 5c de bb 68 ef 05 3c 6a f4 0a 3d
       -0.00867305 -0.006785921 0.008174755 0.033924498
000350 42 fc f4 3c d9 5d c0 3c 21 7a ad 3c 36 2f e2 3c
       0.029905442 0.02348225 0.0211764 0.027610403
000360 4b 73 1c bd fc c7 dd 3c 77 23 59 3c 8c 0c 13 3c
       -0.03819589 0.027072899 0.013253084 0.008975159
000370 a4 0e 46 bc 28 76 9c bc a9 b1 00 bd 79 ca 65 3c
       -0.012088452 -0.01909931 -0.03141943 0.014025324
000380 b0 76 40 ba be d1 02 bd 28 d0 fe bc 3b 77 2c bd
       -0.00073419046 -0.031938307 -0.031105116 -0.042105895
000390 9c 95 b8 3c 85 3f e4 bc a0 21 26 bd 4e df f1 bc
       0.022532277 -0.02786232 -0.04055941 -0.029525425
0003a0 b8 57 e8 bc d3 5d a4 3c ad 7b ac 3c 57 04 2c bd
       -0.02836214 0.02006427 0.021055067 -0.041996326
0003b0 9c 62 f3 3c e5 74 96 bc 53 1a 49 bc 03 30 1f 3c
       0.029710107 -0.018366287 -0.012274343 0.009716037
0003c0 54 a7 1b bc 10 a2 e7 3c 25 fa c9 bc 2a 85 de bc
       -0.009500343 0.02827552 -0.024655411 -0.027163107
0003d0 74 71 47 3c 03 27 10 bd 82 d2 a1 3a 83 fd 20 bd
       0.012173045 -0.035193454 0.0012346061 -0.039304268
0003e0 a4 3c f9 3a cd 95 00 3d 09 7c b7 bc 85 b2 02 ba
       0.0019015265 0.03139286 -0.022398012 -0.0004985708
0003f0 de 48 ac bc d4 58 eb 3c ba 02 25 bc 24 bf 72 bc
       -0.02103084 0.02872888 -0.010071451 -0.014816079

fc1.bias f4 [50]
000000 de a7 3d 3c 54 f7 01 3e 12 19 2d bd 90 bc 9d bd
       0.011575667 0.12692004 -0.042260237 -0.07701981
000010 c2 ff d6 bd e5 2e c6 39 dc ef a0 3c fe 44 98 bd
       -0.10498001 0.00037800442 0.019645624 -0.07435034
000020 ce e3 3b bc 2f 9e 98 3d ad 33 55 3d 50 53 01 bd
       -0.011467887 0.07452046 0.052051235 -0.031573594
000030 c0 ef 49 3d dd dc 33 3d bf 72 b4 3a 46 a5 8f bc
       0.04930091 0.043911804 0.0013767107 -0.017534863
000040 cf 3e f5 bc c5 25 24 bd 9e a2 65 bd 15 2c fa bc
       -0.029937176 -0.040075082 -0.056063287 -0.030538598
000050 91 31 9d 3d 21 ba 19 bd e9 95 e9 3d 32 7f 86 3d
       0.0767547 -0.037531022 0.11405546 0.06567229
000060 83 f7 2b bd 2b 2b c1 3c e6 85 5d 3c 75 ce b0 3c
       -0.041984092 0.023580154 0.013520693 0.021582821
000070 32 de 14 3d 21 8b 72 3d a3 83 9a bc 42 51 c2 3c
       0.036344714 0.059214715 -0.018861597 0.023720387
000080 52 2c 1e be 2b 92 81 3c 95 8c a3 bd 87 47 6d 3d
       -0.15446594 0.015816769 -0.07985798 0.057929542
000090 f2 e8 95 3d 24 f4 5d 3d b6 65 48 bd 9e d0 f0 3c
       0.073198214 0.05418791 -0.048925124 0.029396351
0000a0 b1 64 fd 3d a6 64 59 3d 68 35 11 bd 8c 53 94 3b
       0.12372721 0.0530745 -0.035451323 0.004526561
0000b0 2b 95 65 3c bd f8 86 3d d0 2e 60 3d 30 12 fc 3b
       0.014012615 0.06590412 0.054732144 0.007692598
0000c0 0a 2c 61 bd 28 07 59 bd
       -0.05497364 -0.05298534

fc2.weight f4 [32, 50]
000000 4a 69 84 bd 21 a1 6a be 01 55 12 3d da 46 6c be
       -0.06465395 -0.22913028 0.035725597 -0.23073903
000010 b3 32 85 3e 53 51 3f 3e d3 44 a4 bc 17 f1 9c be
       0.26015243 0.18683366 -0.02005235 -0.30652687
000020 dd 8f 3b 3e 9a 37 85 3c 4d 88 a7 be 64 60 36 3e
       0.18316598 0.016261864 -0.32721177 0.17810208
000030 8e 58 60 be f3 b1 41 be 14 3e 20 be 98 ff 9d be
       -0.21908781 -0.18915538 -0.15648681 -0.30859065
000040 9b aa 97 bc d5 ec f8 bd af d5 ff 3d d0 68 6f 3e
       -0.018513968 -0.12154547 0.12491929 0.23379827
000050 1d 12 05 3e 3f a6 a6 3d 4f 2d 01 3e 4f c2 aa be
       0.12995191 0.08137178 0.1261494 -0.3335137
000060 8c b9 17 be 81 de 27 be 95 a4 66 3e a4 27 93 be
       -0.14816874 -0.16393472 0.2252372 -0.2874118
000070 13 28 17 be c1 22 a0 bd 50 6d c3 bd 42 47 a0 be
       -0.14761381 -0.07819129 -0.09542334 -0.31304365
000080 5a 41 7d be 51 7d b3 bd 32 92 21 be 47 cd e3 be
       -0.24731961 -0.087641366 -0.15778425 -0.44492552
000090 38 61 9a be a2 00 b6 be 86 f3 9b be ce d3 41 be
       -0.30152297 -0.35547358 -0.3045923 -0.18928453
0000a0 aa cd d6 bb 13 55 86 be 38 1e 52 bd 57 38 03 be
       -0.006555279 -0.2623678 -0.05129835 -0.1281446
0000b0 b6 7c 6a be a4 16 94 be 62 8b 29 3e ac 50 07 bd
       -0.22899136 -0.28923523 0.16557077 -0.03303592
0000c0 00 26 9a be cb f8 5e be 17 00 00 3e f1 0f 25 3e
       -0.30107117 -0.21774594 0.12500034 0.16119362
0000d0 f3 6b 30 3d f2 86 0c 3e d5 52 56 3e 9d 82 ba 3d
       0.0430717 0.13723353 0.20930035 0.09106944
0000e0 bb fc 4a 3d 6b 09 1d 3e 2b cf 9b 3d 52 c6 46 3e
       0.04955743 0.15335624 0.076078735 0.1941159
0000f0 6e 2d f3 bd f4 94 8d be da d0 ad be 23 d7 c6 3d
       -0.118738994 -0.27652705 -0.33948404 0.09709003
000100 80 82 6a 3a 0e 9b 60 3d 83 3f 9f bd 21 29 90 bc
       0.00089458376 0.05483537 -0.07775786 -0.017597737
000110 0c ec 50 be 26 66 a1 3d ef 56 10 be e6 24 d4 bd
       -0.20402545 0.078808114 -0.14095663 -0.103586
000120 5f 53 ea bd 97 44 7d be 47 07 2a 3e 78 4c 14 be
       -0.11441683 -0.24733196 0.16604339 -0.14482296
000130 91 31 78 be c3 b5 8f be 8d ba e6 3d 0b be 84 be
       -0.24237658 -0.2806836 0.112660505 -0.2592624
000140 46 02 a0 bd 37 88 29 be 51 c8 42 be 7e fe 73 3e
       -0.078129336 -0.16555868 -0.19021727 0.2382755
000150 a2 2c 39 3e 19 aa 76 be a3 3f 57 be ca 3c 19 3e
       0.18083432 -0.24088325 -0.21020369 0.14964595
000160 11 5e 85 3d da 4d 51 3e 3d 71 b9 be 10 41 1d be
       0.06512082 0.20439854 -0.36219206 -0.1535685
000170 62 bc 91 3d ef 46 fb 3d 38 93 74 3e 69 b2 0a be
       0.07116009 0.12269389 0.23884284 -0.1354462
000180 c3 87 9a ba ad 34 d0 3b e9 e0 76 3e e3 b4 e0 be
       -0.0011789728 0.0063539357 0.24109234 -0.43888006
000190 3a be c9 3d 73 e4 d0 3d 96 5b e7 3d cc 34 f8 3d
       0.09850736 0.10199823 0.112967655 0.12119445
0001a0 a0 9d 97 3d a6 7c 5f 3d fc 5e c7 3d 12 26 a1 3d
       0.074031115 0.054562233 0.09734914 0.078685895
0001b0 af dc e3 3d c6 d1 b0 bb 84 ec c5 be c6 96 cd be
       0.111260764 -0.0053961007 -0.3865701 -0.40154094
0001c0 99 a6 3a bc 11 f6 55 be c4 9d c7 be 18 59 17 be
       -0.011392259 -0.20894648 -0.38987553 -0.1478008
0001d0 c5 39 f9 bd dd d8 e6 bd 84 45 bc be c8 c4 86 b9
       -0.12169222 -0.11271832 -0.36771786 -0.00025705085
0001e0 b9 c7 e1 be ca 92 6e bd 1d bc 82 be bf 02 3d be
       -0.4409769 -0.058245458 -0.25534144 -0.18458079
0001f0 63 02 ff 3d d8 f6 73 be cd 85 b4 be a7 d4 b8 be
       0.12451627 -0.23824632 -0.35258332 -0.3609974
000200 97 8e a0 3c e6 db 93 be e1 fe 2b bd 2d 24 4d be
       0.019599242 -0.28878707 -0.04199112 -0.20033331
000210 b7 ad d8 be e2 ed 60 3e 71 e3 3c 3e b4 b9 fc bd
       -0.42320034 0.21965745 0.18446137 -0.123401076
000220 13 09 85 bc fa d6 d7 3d 46 38 ad be 49 08 2f 3e
       -0.016239678 0.105390504 -0.33831996 0.17093004
000230 6d f4 58 be 47 60 a4 be fd 64 01 be 98 c3 65 3d
       -0.21186991 -0.32104704 -0.1263618 0.056094736
000240 f1 e3 53 3e 5b 4e 22 bf 42 e0 d8 be 6e 80 bb 3d
       0.20692421 -0.6340081 -0.42358595 0.091553554
000250 dc bc 39 3e 0a a5 cf be 75 22 32 3d 31 cd a7 be
       0.1813845 -0.40555602 0.043489892 -0.32773736
000260 06 79 ef bc 04 62 5d 3e 2a ed aa be ba 64 1f bf
       -0.029232513 0.21619421 -0.33384067 -0.6226307
000270 3e 57 0b be ed 2e 39 bf e4 18 c2 be 78 2b ee 3d
       -0.13607499 -0.7233723 -0.37909615 0.11629385
000280 ce c9 d9 3d 10 dd f8 bd 8d 50 0b bf 1c f1 60 3e
       0.10634194 -0.12151539 -0.54419786 0.21966976
000290 b8 6d 21 3e 4a 7b e5 be 15 c3 4d bd 3b f3 dd 3d
       0.1576451 -0.44820625 -0.050234873 0.10837408
0002a0 e0 81 90 be 70 f4 32 bf c6 54 9f 3d 08 b6 ea bd
       -0.28224087 -0.6990423 0.07779841 -0.11460501
0002b0 08 e1 dc be 06 0c 12 bf a5 88 bd be 5b 58 ea be
       -0.43140435 -0.57049596 -0.37018314 -0.45770535
0002c0 4f 09 1e 3e 3c 24 18 3e 06 4c 39 3e dc de 02 bf
       0.15433238 0.14857572 0.18095407 -0.51121306
0002d0 93 d1 b2 bd 2e 7b 32 bf 1f a4 d5 be 8e 3e 1d bf
       -0.08731379 -0.6971921 -0.41726777 -0.61423576
0002e0 70 77 07 bf 5e 80 43 bf c4 61 a5 be 34 33 77 be
       -0.5291662 -0.7636775 -0.32301152 -0.24140626
0002f0 5e 24 3c 3e b3 07 a1 be 94 8d 08 bf 48 98 bd be
       0.18373248 -0.31451187 -0.5334103 -0.37030244
000300 b4 c3 49 3d 54 b2 70 3c f7 9a 92 3d d4 19 bc 3d
       0.049258903 0.014690954 0.071584634 0.09184614
000310 05 e7 42 3e 02 60 cc 3d 7a e0 42 bf d4 6d 32 bf
       0.1903344 0.099792495 -0.76123774 -0.69698834
000320 c2 ed 0a be b5 54 f6 bb 1f 8b 90 3d 39 10 d2 bd
       -0.1356726 -0.007517422 0.07057785 -0.102570005
000330 2a b7 3c be a7 63 24 3e 5d a2 85 bd a9 a8 57 3e
       -0.18429247 0.1605364 -0.06525109 0.21060432
000340 4f 85 43 be b4 94 b9 bd a3 03 0b 3e ab c0 37 3e
       -0.19093822 -0.09061566 0.13575606 0.17944591
000350 aa 40 37 be 3f e8 87 bd 99 06 eb bd 1c f9 14 be
       -0.17895761 -0.06636094 -0.11475868 -0.14548153
000360 d8 90 48 bd 39 64 f6 3d 8c 16 55 3e 1a 92 30 be
       -0.04896626 0.12030835 0.20809382 -0.17243233
000370 d0 4a 36 be f8 3e db bd c6 33 1e 3e b8 e0 39 3e
       -0.17801976 -0.1070537 0.15449437 0.1815213
000380 b6 9e 62 be 95 fe 27 be 3e 05 90 3d 4d d8 4c be
       -0.22130856 -0.16405709 0.0703225 -0.20004387
000390 44 2f ee bd 45 5f 49 be c2 d8 41 bd 01 03 8e be
       -0.11630109 -0.19665249 -0.047325857 -0.27736667
0003a0 59 ec 25 be 00 a9 53 be ce 39 36 be 79 40 36 3e
       -0.1620344 -0.20669937 -0.17795488 0.17798032
0003b0 44 84 9d 3d a6 b1 31 be eb df 0d 3e 13 63 64 3e
       0.07691243 -0.17352924 0.13854949 0.22303419
0003c0 c2 fe 53 be 7a a5 18 3e 56 67 8a bd e2 95 90 3d
       -0.20702651 0.14906874 -0.06757991 0.07059838
0003d0 dd 22 9d bd 03 14 80 be b0 76 94 3d 08 f3 db bd
       -0.07672665 -0.25015268 0.072492 -0.10739714
0003e0 d6 8d 0b be 64 99 f3 bd ba b2 b2 bc 94 61 8a 3e
       -0.13628325 -0.11894491 -0.02181374 0.2702757
0003f0 0d f6 9c bd a4 09 9d be 7e 3e 56 be 3c 7c ad 3d
       -0.07664118 -0.30671418 -0.20922276 0.084709615

fc2.bias f4 [32]
000000 3c ac d7 3d e6 ed df be 68 0c d2 bf df 13 2e 3f
       0.10530898 -0.4373619 -1.6410036 0.6799907
000010 5b 98 c8 be d1 26 1b 3f 55 d3 1f bf 7e dd c6 3d
       -0.39178738 0.60606104 -0.6243184 0.09710215
000020 e1 f9 8f 3e c0 52 18 bf 98 6a 65 3d cc b2 08 be
       0.2812033 -0.59501266 0.05600986 -0.13349456
000030 49 d1 ca 3e fb 36 64 3f 1d 6b bf be 44 21 12 bf
       0.39612797 0.89146394 -0.37386408 -0.5708201
000040 92 74 bd 3e b0 13 dd 3e ac 0c a2 be d8 5b de 3e
       0.37003 0.43179083 -0.31650293 0.43429446
000050 72 b5 04 3f 86 54 16 bf be e7 12 bf 53 af b7 be
       0.51839364 -0.5872272 -0.5738486 -0.3587595
000060 1e cd 3b be 6a ea d7 3e e6 e6 38 be 6d e4 81 be
       -0.18339965 0.4217103 -0.18056831 -0.25369588
000070 19 99 73 bf 75 0e 4b 3e 48 1a 5d 3e 33 64 f5 3d
       -0.95155483 0.19829734 0.21592057 0.11982002
