checkpoints/model-10.pt (torch, 175183 bytes, 8 tensors)

conv1.weight f4 [10, 1, 5, 5]
0	0x3e66c07c	0.22534364
1	0x3e6b6c5f	0.22990559
2	0x3e6e51a3	0.2327333
3	0x3e684488	0.22682393
4	0x3dd40a5a	0.10353537
5	0x3e48d1e9	0.19611324
6	0x3e832773	0.25616035
7	0x3d854427	0.0650714
8	0x3dd2bbae	0.10289703
9	0x3d2ba3bd	0.0419042
10	0x3e5f5eb0	0.21813464
11	0xbd9a9226	-0.07547407
12	0x3e549e01	0.20763399
13	0x3d74ff72	0.059813924
14	0xbe6ec1a7	-0.2331606
15	0xbe34faa5	-0.17673738
16	0xbd5d6a43	-0.054056417
17	0xbe3bb8bf	-0.18332194
18	0x3d492fdc	0.049117908
19	0xbe8b3337	-0.2718751
20	0xbe4e42e9	-0.20142712
21	0xbb6a9656	-0.0035795174
22	0xbea349dc	-0.31892288
23	0xbe403578	-0.18770397
24	0xbea35fcf	-0.31909034
25	0xbea4801b	-0.32128987
26	0xbc84e9a0	-0.016224682
27	0x3e69a144	0.22815424
28	0x3e81e513	0.25370082
29	0x3ce69f0d	0.028152013
30	0xbeabe586	-0.3357355
31	0xbe628d79	-0.2212428
32	0xbc8a3e79	-0.016875492
33	0x3d73af0a	0.059493102
34	0x3e8eba4f	0.27876517
35	0xbcd445f4	-0.025912262
36	0xbca24584	-0.019808538
37	0xbe004459	-0.12526073
38	0x3d68cbe6	0.056835078
39	0x3e0f54b8	0.13997161
40	0xbe5dc56c	-0.21657342
41	0xbced2a18	-0.028950736
42	0x3d6fe6d5	0.058569748
43	0x3d7a76ef	0.06114858
44	0xbdb8a35b	-0.090155326
45	0xbe440bd9	-0.19145145
46	0xbd9e1e3f	-0.07720613
47	0x3e67daea	0.22642103
48	0x3bbb562e	0.0057170605
49	0x3e8359f7	0.25654575
50	0x3e61776c	0.22018212
51	0x3e125c2d	0.14292975
52	0x3df0f519	0.11765499
53	0x3d119a0a	0.035547294
54	0x3e39bd0c	0.18138522
55	0x3df6744c	0.120339006
56	0x3df33258	0.11874837
57	0x3e36153b	0.17781536
58	0x3e074aea	0.13212171
59	0xbc9276f0	-0.01787898
60	0xbd9f0e3d	-0.077663876
61	0x3ddac7c0	0.106826305
62	0x3e3c45e3	0.18386035
63	0x3e6212bc	0.22077459
64	0x3cc5a11b	0.024124673
65	0x3e1bcd5d	0.15215059
66	0xbd9477cb	-0.07249411
67	0x3da63dd0	0.081172585
68	0xbceeed2d	-0.029165829
69	0x3e36cfa0	0.1785264
70	0x3ba7fd19	0.005126607
71	0x3e16042f	0.14650033
72	0x3e31251d	0.17299314
73	0xbcd34d0f	-0.02579358
74	0x3d91322e	0.07089649
75	0x3ede70f6	0.43445557
76	0x3ecc7ed3	0.3994051
77	0x3e2dc864	0.16970974
78	0x3ebadf95	0.36498705
79	0x3ea69af4	0.32540095
80	0x3e84d844	0.25946248
81	0x3e591a36	0.21201405
82	0xbd148229	-0.036256943
83	0x3e63ffaa	0.22265497
84	0x3e5517d4	0.20809871
85	0x3eb011be	0.34388536
86	0xbd5b4d08	-0.05354026
87	0x3ea2488a	0.31695968
88	0x3e84e9dd	0.25959674
89	0xbded22dd	-0.11578915
90	0x3e5dbb1d	0.2165341
91	0x3e8e5958	0.2780254
92	0x3ddce543	0.10785916
93	0xbd0cd160	-0.034379363
94	0xbe1860fb	-0.14880745
95	0x3baaacf3	0.0052086054
96	0x3d2e1702	0.04250241
97	0xbd93b0df	-0.0721147
98	0x3d11df36	0.03561326
99	0xbe9733e7	-0.29531786
100	0x3e9a259b	0.30106816
101	0x3e83104e	0.25598377
102	0x3e5f27ed	0.21792574
103	0xbdda8da7	-0.10671549
104	0xbdde595f	-0.1085689
105	0x3de751fe	0.11294936
106	0x3d6e6c9a	0.05820904
107	0x3e75613f	0.23962878
108	0xbde54e13	-0.11196532
109	0xbe4a8234	-0.19776231
110	0x3e9e021b	0.3086098
111	0x3d207216	0.0391713
112	0x3d70f101	0.05882359
113	0x3e215460	0.15754843
114	0xbe7a2dac	-0.24431485
115	0x3e4c6994	0.1996215
116	0x3e443e44	0.19164377
117	0x3cb69b3e	0.022290822
118	0x3defafdb	0.11703464
119	0xbe9964f4	-0.29959834
120	0x3decdb8c	0.11565313
121	0xbdd9c0c7	-0.106324725
122	0x3e120928	0.14261305
123	0xbdf7205a	-0.120667174
124	0xbe8acbfd	-0.27108756
125	0x3e22a986	0.1588498
126	0x3e043e7b	0.1291446
127	0xbc012494	-0.007882256
128	0xb9aea5c3	-0.00033311368
129	0xbc947c29	-0.01812561
130	0x3e547739	0.20748605
131	0x3e4eb418	0.20185888
132	0x3de2ea7b	0.1107988
133	0xbca16f9d	-0.019706542
134	0x3c910f4a	0.017707486
135	0x3e80c99b	0.25153813
136	0xbcc87134	-0.024468042
137	0x3cf8803e	0.030334588
138	0x3db9b2c0	0.09067297
139	0x3e21bf12	0.15795544
140	0x3e0393ec	0.12849396
141	0x3e288007	0.16455089
142	0x3e3d82e5	0.18506964
143	0x3e0fd6f9	0.1404685
144	0x3e2d10b3	0.16900901
145	0x3e5efc80	0.21776009
146	0x3e05744c	0.13032645
147	0x3e4bd2f3	0.1990469
148	0xbdafe5a2	-0.08588721
149	0x3d4705c6	0.04858949
150	0x3dd12576	0.10212223
151	0x3e08fb08	0.13377011
152	0x3e2be9a6	0.16788349
153	0x3da71c3b	0.081596814
154	0x3d6749a9	0.056466732
155	0x3e005cd7	0.12535416
156	0x3e5533a4	0.2082048
157	0x3e36502a	0.17804018
158	0x3e83a03a	0.2570818
159	0x3da01e3b	0.07818266
160	0x3cb9027d	0.022584194
161	0xbd8cec6e	-0.06881033
162	0xbba9e49b	-0.0051847226
163	0x3dd5c698	0.104382694
164	0x3e938630	0.28813314
165	0x3ddd5340	0.10806894
166	0x3e28688f	0.16446136
167	0x3da95cbf	0.08269643
168	0x3e03bd62	0.12865213
169	0xbd443a8b	-0.047907393
170	0x3e68dfa6	0.22741565
171	0x3e32b697	0.17452465
172	0xbce01469	-0.027353482
173	0x3e6a7c06	0.22898874
174	0xbdcc949a	-0.09989281
175	0x3e535ec1	0.20641614
176	0x3df3fef5	0.119138636
177	0xbd40a50c	-0.0470324
178	0x3e3da32b	0.18519275
179	0x3df86ca6	0.12130098
180	0xbd2340ad	-0.0398566
181	0xbd8eaac6	-0.06966166
182	0x3e9696e8	0.29412007
183	0x3d41ca7c	0.047312245
184	0xbcfd4784	-0.03091789
185	0x3d052131	0.032502357
186	0x3e1478e7	0.14499246
187	0x3e3aa01b	0.18225138
188	0xbd894453	-0.06702485
189	0xbda7366a	-0.081646755
190	0x3dfca7fd	0.12336729
191	0xbdf621e8	-0.12018186
192	0xbdee5609	-0.11637504
193	0xbe22c03d	-0.15893646
194	0xbd8a04d1	-0.067392
195	0xbea7c2f2	-0.3276592
196	0xbe0b8747	-0.13625823
197	0xbeac2587	-0.3362238
198	0xbe1fb3d7	-0.15595947
199	0x3db69bcd	0.089164354
200	0xbd1ebce5	-0.038754363
201	0x3eb29cd1	0.34885266
202	0x3d422685	0.047400016
203	0x3eb77dd5	0.3583819
204	0x3e93215c	0.2873639
205	0x3e0c606e	0.1370866
206	0x3e5997bd	0.2124929
207	0xbd1e510c	-0.03865151
208	0x3e34c8b9	0.17654695
209	0x3e2b91df	0.16754864
210	0x3d6e3942	0.058160074
211	0x3e2c6e89	0.16839041
212	0x3e963946	0.2934057
213	0x3d46fb73	0.048579644
214	0x3e39052e	0.18068382
215	0x3e09009e	0.13379142
216	0x3d259501	0.040425304
217	0x3e940e79	0.28917292
218	0xbd3726aa	-0.044714607
219	0x3ea6ba83	0.32564172
220	0x3e34261a	0.1759266
221	0xbd9aad90	-0.07552636
222	0xbbb07349	-0.005384837
223	0x3d3c2c07	0.045940425
224	0x3e75729a	0.23969498
225	0xbd7fb7cd	-0.062431145
226	0x3e75dadb	0.24009268
227	0x3df8c503	0.12146952
228	0x3d800bf6	0.06252281
229	0x3e79d3d9	0.2439722
230	0x3d014c72	0.031567045
231	0xbe2f2245	-0.17102917
232	0x3e229abc	0.15879339
233	0xbca69385	-0.020334015
234	0x3e1448ad	0.14480849
235	0xbe3da5f1	-0.18520333
236	0xbe5fc3d2	-0.21852043
237	0xbe6457bf	-0.22299097
238	0xbd95e853	-0.07319703
239	0xbc0c5f50	-0.008567646
240	0xbd77e1b9	-0.060518
241	0xbd7ba81a	-0.06143961
242	0xbe1b31f3	-0.15155773
243	0xbe85299b	-0.26008305
244	0xbd7d20d7	-0.061798897
245	0x3e67c3c3	0.22633271
246	0x3e6c0037	0.23046957
247	0xbc35e8b0	-0.01110284
248	0x3e0e6430	0.13905406
249	0xbda8bbd1	-0.08238948

conv1.bias f4 [10]
0	0x3b365689	0.0027822575
1	0x3cc6d3ea	0.02427097
2	0xbe890768	-0.26763463
3	0xbceb8f5e	-0.028754886
4	0x3d6543ec	0.05597298
5	0x3d4992b8	0.049212188
6	0xbe903eb6	-0.28172845
7	0x3e543c22	0.20726064
8	0xbe4ab510	-0.19795632
9	0x3d475412	0.04866416

conv2.weight f4 [20, 10, 5, 5]
0	0x3d4b7214	0.04966934
1	0x3e090231	0.13379742
2	0x3de6c951	0.11268867
3	0x3df7d1d3	0.12100568
4	0x3dfa1385	0.12210754
5	0x3d8fcc32	0.07021369
6	0x3d99d34f	0.07511007
7	0x3db61a00	0.08891678
8	0x3d4729c9	0.048623834
9	0x3d9b6ca4	0.07589081
10	0xbe4fa3c3	-0.20277314
11	0xbe2d1da2	-0.16905835
12	0xbdd3ab9d	-0.10335467
13	0xbd9e3575	-0.0772504
14	0xbdae2942	-0.08503963
15	0x3c13fa57	0.009031854
16	0x3d200e23	0.03907598
17	0xbd476ab2	-0.048685737
18	0xbd85ab5e	-0.06526826
19	0x3d8d09f3	0.06886663
20	0x3e05dc96	0.13072428
21	0x3e4a5383	0.1975842
22	0x3e5120f2	0.20422724
23	0x3d999a83	0.07500174
24	0x3e11e0b9	0.14245881
25	0x3e33ff64	0.17577893
26	0x3c34efc3	0.011043492
27	0xbddadf33	-0.10687103
28	0xbde0e782	-0.109816566
29	0xbdfea73d	-0.12434242
30	0x3ddad6d5	0.10685507
31	0x3d8b3d83	0.06798842
32	0xbe141392	-0.1446059
33	0xbe7250d4	-0.23663646
34	0xbe45ea70	-0.19327712
35	0xbd9877ff	-0.074447624
36	0xbdf41da3	-0.11919715
37	0xbe4b3149	-0.1984302
38	0xbe044086	-0.12915239
39	0xbdfbe26b	-0.12299045
40	0xbe8d3db0	-0.27586126
41	0xbeb6b8d9	-0.35687903
42	0xbeab7912	-0.33490807
43	0xbe555efb	-0.20837013
44	0xbd73436a	-0.059390463
45	0xbe6aaca2	-0.22917417
46	0xbe85e7e2	-0.26153475
47	0xbe9bbe6f	-0.30418727
48	0xbe21c442	-0.15797523
49	0x3d1f450a	0.0388842
50	0x3c7b43ab	0.0153359575
51	0xbd2eb799	-0.04265556
52	0x3c30fef1	0.01080297
53	0x3c97f317	0.018548531
54	0x3c93f67e	0.018061873
55	0xbd65c34a	-0.056094445
56	0xbda8996f	-0.0823239
57	0xbd806c17	-0.062706165
58	0x3c84f091	0.016227992
59	0xbd87912b	-0.066194855
60	0xbd67c84c	-0.056587502
61	0xbd725800	-0.059165955
62	0xbb86aea2	-0.0041101733
63	0xbda41d7f	-0.080134384
64	0xbd8f3188	-0.06991869
65	0x3d907408	0.07053381
66	0x3bcc614d	0.006237185
67	0xbc6bc4ff	-0.014390229
68	0x3d62e333	0.055392455
69	0x3c97ac97	0.018514914
70	0x3d55a660	0.05216062
71	0x3ce850ae	0.028358784
72	0x3d37ab1c	0.044840917
73	0xbcf444b3	-0.029817915
74	0xbd061924	-0.03273882
75	0xbd565e8e	-0.052336268
76	0xbc0430d3	-0.008068281
77	0xbc555f43	-0.0130232
78	0x3c48cbbb	0.012255604
79	0x3d69142b	0.056904
80	0xbd44a862	-0.048012145
81	0x3d27414e	0.040833764
82	0x3c9c4055	0.019073645
83	0xbbadf51d	-0.005308761
84	0xbd2b0ecb	-0.041762155
85	0xbd9e7f54	-0.0773913
86	0xbc60d8a8	-0.01372353
87	0xbda685aa	-0.08130963
88	0x3d012e47	0.031538274
89	0xbc38481e	-0.011247663
90	0x3c46d0be	0.012134729
91	0xbc6531d4	-0.013988931
92	0x3d0e109e	0.034683816
93	0xbd2493ca	-0.040180005
94	0x3d1c3cfb	0.038144093
95	0x3ce68bed	0.028142894
96	0x3d7fd1b5	0.06245585
97	0x3dd25ed5	0.10271994
98	0x3b3a7ef8	0.0028457027
99	0x3cc1cdf7	0.023657782
100	0xbda1e6a5	-0.0790532
101	0x3b4744d1	0.0030406008
102	0xbcc07b5c	-0.023496322
103	0x3d599f5b	0.05313049
104	0x3db1924e	0.086704835
105	0xbd882e9d	-0.06649516
106	0xbdd12dc2	-0.10213806
107	0xbd993932	-0.07481612
108	0xbd709788	-0.05873826
109	0x3c1f0a3e	0.009707032
110	0xbd610d79	-0.05494449
111	0xbd169910	-0.036767066
112	0xbcc2f9bd	-0.023800725
113	0xbcdf97b6	-0.027294021
114	0xbd6288be	-0.05530619
115	0x3c2276d7	0.009916029
116	0x3d89ee78	0.067349374
117	0xbc7cc1ff	-0.015427112
118	0xbd2a54a0	-0.04158461
119	0x3c9d20ca	0.019180674
120	0x3da61657	0.0810973
121	0x3d2385e5	0.039922614
122	0xbb9ef1d5	-0.004850606
123	0xbc9c33dd	-0.0190677
124	0xbd156ca6	-0.03648057
125	0xbd6a9ef2	-0.05728049
126	0x3cdc2af1	0.026875945
127	0x3cda0756	0.026614826
128	0x3d5bead3	0.053690743
129	0x3d32cd73	0.043652963
130	0x3bbd8fbd	0.005784957
131	0xbc1abf74	-0.00944506
132	0xbd5bc7a2	-0.05365718
133	0x3c49458e	0.01228465
134	0xbd76bf8b	-0.060241263
135	0x3d5a83df	0.05334842
136	0x3d660cf4	0.056164697
137	0x3bfc5b90	0.007701345
138	0xbc935cac	-0.017988525
139	0xbd18167b	-0.037130814
140	0x3cc7237a	0.024308909
141	0x3d036042	0.03207422
142	0x3d50f6fb	0.05101679
143	0xbd1a3717	-0.037650194
144	0xbaffc8f7	-0.0019514848
145	0xbc6650b4	-0.014057327
146	0x3d1c4f0d	0.038161326
147	0x3cbf3912	0.023342643
148	0xbd100485	-0.03516056
149	0xbd2fd7da	-0.04293046
150	0xbd1e37fa	-0.038627602
151	0xbd3217b1	-0.043479625
152	0xbd8c5a58	-0.06853169
153	0x3c7606e3	0.01501629
154	0x3d18ac92	0.03727395
155	0xbb6b5ee3	-0.0035914711
156	0x3d131f27	0.03591838
157	0xbbe70793	-0.0070504635
158	0xbd9b228a	-0.07574947
159	0xbd80d3ee	-0.062904224
160	0x3c89d1f8	0.016823754
161	0x3d670f99	0.05641136
162	0x3d3d77b9	0.046256755
163	0x3d447be0	0.0479697
164	0xbd871561	-0.065958746
165	0x3d0b2d5c	0.033978805
166	0x3d356b64	0.04429187
167	0x3da1b61e	0.07896064
168	0xbd291a89	-0.04128507
169	0xbd8f64e9	-0.07001669
170	0x3d082ff3	0.033248853
171	0x3dc2b5b8	0.09507316
172	0xbc917be9	-0.01775928
173	0x3cfac7cc	0.030612849
174	0xbd8cab5c	-0.06868622
175	0x3e0405ab	0.12892787
176	0x3d91f544	0.07126859
177	0x3e1019ae	0.14072296
178	0x3e1057de	0.14096019
179	0x3e31688e	0.1732504
180	0x3dc112a8	0.094273865
181	0x3e4e6945	0.20157345
182	0x3db9c8ea	0.090715244
183	0x3e0dc0e7	0.13843118
184	0x3e1dc256	0.15406165
185	0xbe711344	-0.23542506
186	0xbe3fbbc5	-0.18723972
187	0xbd1f522d	-0.03889673
188	0xbdaf2c4b	-0.0855337
189	0xbdafaade	-0.08577512
190	0xbe2a7da1	-0.16649486
191	0xbd79b33a	-0.06096194
192	0xbd312cc2	-0.043255575
193	0xbd859fbd	-0.06524608
194	0xbcf70893	-0.030155456
195	0x3dfa2042	0.12213184
196	0x3e834b0a	0.25643188
197	0x3e327148	0.17426026
198	0x3dd8829d	0.105717875
199	0x3dc6878c	0.09693822
200	0x3c0b8379	0.008515232
201	0x3c909a78	0.017651781
202	0x3d225111	0.039628092
203	0xbbf59822	-0.0074949423
204	0xbb26d512	-0.002545659
205	0xbd5eaee3	-0.054366004
206	0xbc2f0de8	-0.010684468
207	0x3d1cfcd9	0.03832707
208	0xbd5038e2	-0.050835498
209	0xbd41977b	-0.047263604
210	0x3cbd5f4a	0.023116726
211	0xbd990de5	-0.07473353
212	0xbd8627d3	-0.065505646
213	0xbd90f230	-0.070774436
214	0xbcd84ddc	-0.026404314
215	0x3dbc7926	0.09202795
216	0xbc3db61e	-0.011579065
217	0x3cdc8a99	0.026921557
218	0x3bbec46c	0.005821755
219	0x3d28f470	0.04124874
220	0x3d108148	0.035279542
221	0xbb8ef459	-0.0043626246
222	0x3d300a91	0.042978827
223	0xbc9b48ca	-0.018955607
224	0xbd7f55e3	-0.062337767
225	0x3daaf943	0.08348324
226	0x3e3e046d	0.18556376
227	0x3e6fffc4	0.2343741
228	0x3e627125	0.22113474
229	0x3e89141b	0.26773152
230	0x3f0c9cd6	0.5492681
231	0x3f0bd96c	0.54628634
232	0x3ef8ddcb	0.48606715
233	0x3ee94b85	0.4556543
234	0x3ef04e31	0.46934655
235	0x3ef4623a	0.4773119
236	0x3ec7398a	0.38911086
237	0x3ec9e0aa	0.39429218
238	0x3ea5ad22	0.32358652
239	0x3e1232ca	0.14277187
240	0xbdf235e6	-0.118266866
241	0xbd86147d	-0.065468766
242	0x3d003195	0.031297285
243	0xbd06f20f	-0.03294569
244	0xbc985760	-0.018596351
245	0x3a1eda4d	0.0006059751
246	0x3c2781d8	0.010223828
247	0xbd5f6e1e	-0.054548375
248	0xbb8e4273	-0.0043414175
249	0xbc462839	-0.012094551
250	0xbb6606c6	-0.0035099252
251	0x3d40b771	0.047049943
252	0x3dd235c4	0.10264161
253	0x3d8422d5	0.06451956
254	0x3c79684f	0.015222623
255	0xbca2e113	-0.019882714

conv2.bias f4 [20]
0	0x3d9cbe01	0.07653428
1	0xbd02d93d	-0.031945456
2	0x3d1f65ea	0.038915552
3	0x3d1a5d1c	0.037686452
4	0x3d418991	0.047250334
5	0x3ca43c6b	0.02004834
6	0xbc9d83e9	-0.019227939
7	0x3d41fc5a	0.0473598
8	0x3d0e73cf	0.034778412
9	0x3d69db99	0.05709419
10	0xbd0bba3b	-0.03411315
11	0xba4b6a31	-0.0007759659
12	0x3bbda931	0.0057879915
13	0x3d52d228	0.051469952
14	0x3daaf365	0.08347205
15	0x3dc31be7	0.09526806
16	0xbc356ff5	-0.011074056
17	0xbd77f742	-0.060538538
18	0x3c395f6d	0.011314255
19	0xbda513f2	-0.08060445

fc1.weight f4 [50, 720]
0	0xbd022b4f	-0.031779584
1	0x3c1e553d	0.009663877
2	0x3b4dd598	0.003140783
3	0xbcf89744	-0.030345567
4	0xbc575b92	-0.013144391
5	0x3c33f6d7	0.010984144
6	0x3a04f7cf	0.0005072327
7	0x3c247127	0.010036743
8	0x3ca5c190	0.0202339
9	0x3c906bea	0.017629582
10	0xbc8455a5	-0.01615412
11	0x3c4788ad	0.012178582
12	0x3bbcd0af	0.0057621817
13	0x3ce20140	0.027588487
14	0xbd04f99f	-0.03246462
15	0xbcffe284	-0.03123594
16	0x3c4bf649	0.012448856
17	0xbac4bf66	-0.0015010654
18	0x3cd0a3eb	0.025468787
19	0x3c45ee85	0.012080793
20	0xbc5cfa96	-0.013487479
21	0x3ad50843	0.0016253073
22	0x3c62da4d	0.013845992
23	0x3d050f68	0.032485396
24	0xbcdee125	-0.027206967
25	0xbc9c61d4	-0.019089617
26	0xbd0bef4b	-0.034163754
27	0x3bf63ab4	0.007514322
28	0x3cf13732	0.029445264
29	0x3d00e567	0.031468775
30	0x3d0c346a	0.034229673
31	0x3c4b52f2	0.012409912
32	0xbd233fbd	-0.039855707
33	0xbc8c506b	-0.01712819
34	0x3ce82916	0.028339904
35	0xbc7f16ea	-0.015569428
36	0xbbbd0667	-0.0057685855
37	0xbd0502d9	-0.03247342
38	0x3c76cd46	0.015063589
39	0xbbc7a198	-0.0060922615
40	0x3c16177c	0.009160873
41	0x3cd72af5	0.0262656
42	0xbd131fcb	-0.035918992
43	0x3c2564f2	0.010094868
44	0xb982e58a	-0.00024966552
45	0xbd2a84f0	-0.041630685
46	0x3c435bbb	0.011923726
47	0xbcc8bad9	-0.024503158
48	0x3c869add	0.016431266
49	0xbc2c48ab	-0.010515372
50	0x3c0cb2cd	0.008587551
51	0xbd013d32	-0.0315525
52	0xbd1110b6	-0.035416327
53	0x3ce6071b	0.02807956
54	0x3c9638b7	0.01833759
55	0xbd1f8a8d	-0.03895049
56	0x3bcfe306	0.006344202
57	0xbd2c62c5	-0.04208638
58	0x3cef1cdf	0.029188571
59	0xbd219af3	-0.03945441
60	0xbcfaac38	-0.030599698
61	0x3cafcf6a	0.021461207
62	0xbbb5538e	-0.005533642
63	0xbc92b815	-0.017910043
64	0x3ce5bacf	0.028043179
65	0xbcce15ac	-0.025156818
66	0xbcba1d87	-0.022719158
67	0x3b0fa89d	0.002192057
68	0x3cadacfb	0.021200648
69	0xbbe335b4	-0.006933892
70	0x3c660c86	0.014041072
71	0xbc7087b4	-0.014680792
72	0xbc7aaa5f	-0.015299409
73	0xbd071b84	-0.032985225
74	0xbca05734	-0.019572832
75	0x3d043a2c	0.03228204
76	0x3d048559	0.032353733
77	0xbd0ffac2	-0.03515125
78	0x3c5489c0	0.012972295
79	0xbc4b1072	-0.012394058
80	0xbceddc1e	-0.029035624
81	0x3bc49d7b	0.0060002184
82	0x3b69fade	0.0035702507
83	0x3b094bfe	0.0020949836
84	0x3ccccdb9	0.02500044
85	0xbcc5a825	-0.02412803
86	0x3c6ee97a	0.014582032
87	0x3c5b20e2	0.013374539
88	0xba61eff7	-0.00086188264
89	0x3cd2f206	0.025750171
90	0x3c9ca84c	0.019123219
91	0xbb05f9d8	-0.0020443108
92	0xbc06d6f1	-0.008229957
93	0xbc8832f6	-0.016625863
94	0xbd02424a	-0.0318015
95	0xbcd2668c	-0.025683664
96	0xbc6143e8	-0.0137491
97	0xbbf61438	-0.0075097345
98	0x3c158a70	0.009127244
99	0xbcace8d9	-0.021107124
100	0xbcfb9837	-0.03071223
101	0xbc4efa94	-0.012632985
102	0xbc893539	-0.016749011
103	0x3c08bb00	0.0083453655
104	0xbbd21a43	-0.006411822
105	0x3ce032e1	0.027368011
106	0x3c50899d	0.012728122
107	0xbadb12bb	-0.0016713956
108	0xbd20dd5a	-0.039273597
109	0xbc9bdb08	-0.01902534
110	0xbb76e121	-0.0037670808
111	0xbbadd65b	-0.005305094
112	0xbcbe7f87	-0.02325417
113	0x3cb64429	0.022249298
114	0xbc86bc61	-0.016447248
115	0x3cc93357	0.024560614
116	0x3b65ad05	0.0035045755
117	0xbbee4848	-0.0072718
118	0xbca8f528	-0.020624712
119	0xbd1586e5	-0.0365056
120	0x3ce8f237	0.02843581
121	0xbce161a3	-0.027512377
122	0xbced6db2	-0.02898297
123	0x3c6e6394	0.014550108
124	0x3ca0efe9	0.019645648
125	0xbb90035a	-0.004394931
126	0xbcbbbb36	-0.022916418
127	0xbc1f3a3a	-0.009718472
128	0xbc7b3e8b	-0.015334736
129	0xbcb1018c	-0.021607183
130	0xbae00762	-0.0017092044
131	0x3cdb7852	0.026790772
132	0x3c326eec	0.010890704
133	0xbd20f9b3	-0.03930063
134	0xbd2afe35	-0.041746337
135	0xbab21084	-0.0013585244
136	0xbca63f95	-0.02029399
137	0xbd082af8	-0.033244103
138	0xbcf16cf2	-0.029470894
139	0xbd270b8b	-0.040782493
140	0xbc0ed4c0	-0.008717716
141	0x3c0e69f6	0.008692255
142	0x3c378de7	0.011203266
143	0xbc466826	-0.012109792
144	0xbd03090a	-0.031991042
145	0xbce8f3df	-0.0284366
146	0xbd14b93d	-0.03630947
147	0x3c398913	0.011324185
148	0xbc2f5d29	-0.010703363
149	0xbce8e728	-0.028430536
150	0xbc6ddb87	-0.014517671
151	0xbd1f1ef6	-0.038847886
152	0xbccab352	-0.02474371
153	0xbc8da784	-0.017291792
154	0x3d01d61f	0.031698342
155	0x3ad06e07	0.0015901931
156	0xbca82ef5	-0.020530203
157	0xbc9395a5	-0.018015692
158	0x3d09172e	0.03346937
159	0xbae3927e	-0.0017362384
160	0xbd268d43	-0.04066206
161	0x3cde107e	0.027107473
162	0xbccc2705	-0.02492095
163	0x3cda8687	0.026675476
164	0xbcffc628	-0.031222418
165	0xbbbd7eb1	-0.005782925
166	0x3cb039e8	0.021511987
167	0xbcc66eff	-0.024222849
168	0xbcb513d1	-0.022104176
169	0xbc4ad6f3	-0.012380349
170	0xbcdb96b9	-0.026805269
171	0x3cd546b3	0.026034689
172	0xbc8aeba7	-0.01695807
173	0xbc93b3a2	-0.018029992
174	0xbd169fad	-0.036773372
175	0x3c8e609b	0.01738005
176	0xbd1442bc	-0.036196455
177	0x3c2a866a	0.010408023
178	0x3ccc5e80	0.024947405
179	0x3cfe3457	0.031030817
180	0x3d0449f6	0.032297097
181	0xbd1c08b3	-0.038094234
182	0x3bcc6a2d	0.006238243
183	0xbce946b0	-0.02847609
184	0xbb88d556	-0.0041758223
185	0x3c44e4de	0.012017457
186	0xbcb740ac	-0.022369705
187	0xbbf71d14	-0.007541308
188	0x3bdfdb37	0.0068315524
189	0x3b91b8e9	0.004447092
190	0xbce107ef	-0.027469603
191	0xbcf5ae85	-0.029990444
192	0xbafdcd84	-0.0019363617
193	0x3b891df5	0.0041844794
194	0xbd208160	-0.03918588
195	0xbc9ac4d2	-0.01889268
196	0xbc360117	-0.011108658
197	0x3bfb2533	0.0076643466
198	0xbd24be81	-0.04022074
199	0xbd05baf4	-0.032648996
200	0xbd04a0fa	-0.03238008
201	0xbc27075f	-0.0101946285
202	0xbb4610a4	-0.003022232
203	0x3c783251	0.015148715
204	0xbd12127b	-0.035662156
205	0x3c656391	0.014000789
206	0x3ce12f14	0.027488269
207	0xbce1df1c	-0.027572207
208	0xbc0e1969	-0.00867305
209	0xbbde5c6e	-0.006785921
210	0x3c05ef68	0.008174755
211	0x3d0af46a	0.033924498
212	0x3cf4fc42	0.029905442
213	0x3cc05dd9	0.02348225
214	0x3cad7a21	0.0211764
215	0x3ce22f36	0.027610403
216	0xbd1c734b	-0.03819589
217	0x3cddc7fc	0.027072899
218	0x3c592377	0.013253084
219	0x3c130c8c	0.008975159
220	0xbc460ea4	-0.012088452
221	0xbc9c7628	-0.01909931
222	0xbd00b1a9	-0.03141943
223	0x3c65ca79	0.014025324
224	0xba4076b0	-0.00073419046
225	0xbd02d1be	-0.031938307
226	0xbcfed028	-0.031105116
227	0xbd2c773b	-0.042105895
228	0x3cb8959c	0.022532277
229	0xbce43f85	-0.02786232
230	0xbd2621a0	-0.04055941
231	0xbcf1df4e	-0.029525425
232	0xbce857b8	-0.02836214
233	0x3ca45dd3	0.02006427
234	0x3cac7bad	0.021055067
235	0xbd2c0457	-0.041996326
236	0x3cf3629c	0.029710107
237	0xbc9674e5	-0.018366287
238	0xbc491a53	-0.012274343
239	0x3c1f3003	0.009716037
240	0xbc1ba754	-0.009500343
241	0x3ce7a210	0.02827552
242	0xbcc9fa25	-0.024655411
243	0xbcde852a	-0.027163107
244	0x3c477174	0.012173045
245	0xbd102703	-0.035193454
246	0x3aa1d282	0.0012346061
247	0xbd20fd83	-0.039304268
248	0x3af93ca4	0.0019015265
249	0x3d0095cd	0.03139286
250	0xbcb77c09	-0.022398012
251	0xba02b285	-0.0004985708
252	0xbcac48de	-0.02103084
253	0x3ceb58d4	0.02872888
254	0xbc2502ba	-0.010071451
255	0xbc72bf24	-0.014816079

fc1.bias f4 [50]
0	0x3c3da7de	0.011575667
1	0x3d39df9d	0.04537927
2	0xbd2016fc	-0.03908442
3	0xbccce50a	-0.025011558
4	0xbd2b2937	-0.041787352
5	0xbc588d2d	-0.013217253
6	0x3ca0efdc	0.019645624
7	0xbc8e1cad	-0.017347658
8	0x3cb21f5d	0.02174347
9	0x3c81142c	0.015756689
10	0x3cc71b83	0.02430511
11	0xbce71e70	-0.028212756
12	0x3cbcee1f	0.023062764
13	0xbca86476	-0.020555716
14	0xbbda364d	-0.006659305
15	0x3cbce192	0.023056779
16	0xbcdb3ea4	-0.026763268
17	0xbd2425c5	-0.040075082
18	0xbd1cd787	-0.03829148
19	0xbcd0f95d	-0.02550953
20	0x3ba3f4d8	0.005003553
21	0xbd0cbfa1	-0.03436244
22	0x3d51b789	0.051200423
23	0xbc8e432e	-0.017366018
24	0xbc9ebbb8	-0.01937662
25	0xbba7dec6	-0.005122992
26	0xbb9ff34b	-0.0048812977
27	0x3baf6932	0.0053531164
28	0x3ca32566	0.019915294
29	0x3cf6a806	0.030109417
30	0xbc807ebd	-0.015685434
31	0xbc6201a6	-0.013794338
32	0xbd85fdcd	-0.06542549
33	0xbad04ca4	-0.0015891981
34	0xbc68914f	-0.0141948005
35	0x3c62198d	0.013800037
36	0x3d78fb0a	0.060786285
37	0x3cf8f78b	0.030391475
38	0xbd0cc35c	-0.034365997
39	0x3d01d092	0.03169305
40	0x3d27ba72	0.040949292
41	0x3cf5f4ae	0.030023899
42	0xbd0432ed	-0.03227513
43	0x3b94538c	0.004526561
44	0x3c4b41ab	0.012405793
45	0x3d30ec67	0.0431942
46	0x3ce19520	0.027536929
47	0x3bfc1230	0.007692598
48	0xbcfe9170	-0.03107521
49	0xbc05adbe	-0.008159099

fc2.weight f4 [32, 50]
0	0xbd84694a	-0.06465395
1	0xbd46383f	-0.048393484
2	0x3d1455b2	0.036214538
3	0xbdda159b	-0.10648652
4	0x3e480e24	0.19536644
5	0x3de688be	0.1125655
6	0xbca444d3	-0.02005235
7	0xbe762711	-0.2403834
8	0x3e3925f4	0.18080884
9	0xbda19ec3	-0.078916095
10	0xbdabd864	-0.083908826
11	0x3db90d64	0.09035757
12	0xbe49ce15	-0.1970752
13	0x3dd01bec	0.10161576
14	0xbe07a4d9	-0.13246478
15	0xbe3e5f49	-0.18591036
16	0xbc900e3f	-0.017584918
17	0xbdf8ecd5	-0.12154547
18	0x3e235f4c	0.15954322
19	0x3e0f4a70	0.1399324
20	0x3d90dd34	0.07073441
21	0x3da6ca5a	0.08144064
22	0x3dc71a5e	0.09721826
23	0xbe5ba207	-0.21448527
24	0xbe190d15	-0.14946397
25	0xbcd9481e	-0.026523646
26	0x3dceb43e	0.10092972
27	0xbdce1ed0	-0.10064471
28	0xbdd37cc8	-0.103265345
29	0xbe4d4558	-0.20045984
30	0xbdbe746a	-0.09299548
31	0xbd1e07bb	-0.03858159
32	0xbe2ef1a3	-0.17084365
33	0x3d636485	0.055515785
34	0xbe2cd1bc	-0.16876882
35	0xbea8a704	-0.32939923
36	0xbe43a02d	-0.19104071
37	0xbe06cb98	-0.13163602
38	0xbe446251	-0.1917813
39	0xbd065b0b	-0.03280167
40	0x3dbc19cf	0.0918461
41	0xbe7867ac	-0.24258298
42	0xbd45500f	-0.048172053
43	0xbe033857	-0.1281446
44	0xbe31b60d	-0.17354603
45	0xbe2e9b29	-0.17051376
46	0x3dd7c09c	0.10534784
47	0xbd0750ac	-0.03303592
48	0xbe431847	-0.1905223
49	0xbdec0646	-0.11524634
50	0x3e000017	0.12500034
51	0x3d4842be	0.048891775
52	0x3d3d141f	0.046161767
53	0x3e20648f	0.1566336
54	0x3e1fddd3	0.15611963
55	0x3cd200c4	0.02563513
56	0x3d4afcbb	0.04955743
57	0x3e0aca1f	0.13553666
58	0x3e17c0c3	0.14819627
59	0x3e2dd0f9	0.16974248
60	0x3c9eba5e	0.019375976
61	0xbdd50ab8	-0.10402435
62	0xbe983ac1	-0.29732326
63	0xbcfc7d6c	-0.030821525
64	0x3be71949	0.007052575
65	0x3c04a7a9	0.008096614
66	0xbda5bdc0	-0.080928326
67	0xbc902921	-0.017597737
68	0xbe0d21d7	-0.1378244
69	0xbc21559d	-0.009847072
70	0xbdf04d78	-0.11733526
71	0xbdd424b8	-0.10358566
72	0xbdea67e1	-0.114455946
73	0xbe4bb979	-0.19894971
74	0x3d66517f	0.056230064
75	0xbcaeff8e	-0.021362092
76	0xbd6802f5	-0.056643445
77	0xbe8bf219	-0.27333143
78	0x3e15b282	0.14618877
79	0xbe125371	-0.14289643
80	0xbd9a426f	-0.075322025
81	0xbe1499fe	-0.14511868
82	0xbdc37104	-0.095430404
83	0x3e0aa868	0.13540804
84	0x3e1ec498	0.15504682
85	0xbe8a19f8	-0.26972938
86	0xbe35baae	-0.17746994
87	0x3e1dd60f	0.15413688
88	0x3cfbf6f6	0.030757409
89	0x3e221542	0.15828422
90	0xbe7245a2	-0.23659375
91	0xbe418d2b	-0.18901508
92	0x3d9833bf	0.07431745
93	0x3dfb46ef	0.12269389
94	0x3e4dc2aa	0.2009379
95	0xbe2b3305	-0.16718681
96	0xbe2de8c7	-0.16983329
97	0x3bd034ad	0.0063539357
98	0x3e4e8549	0.20168032
99	0xbebf0695	-0.3730971
100	0x3dc9be3a	0.09850736
101	0x3d2000a6	0.03906312
102	0x3de80e00	0.11330795
103	0x3d5d165f	0.053976413
104	0x3c8bcbe4	0.017064996
105	0xbcc65e12	-0.024214778
106	0x3dc75efc	0.09734914
107	0x3d25c2fd	0.04046916
108	0x3dc487ce	0.09596215
109	0x3d37c99b	0.04487
110	0xbe24f3df	-0.16108654
111	0xbe2e1a6b	-0.17002265
112	0xbe29a6d2	-0.16567543
113	0xbe95d260	-0.29262066
114	0xbe81b829	-0.25335816
115	0xbd13b2a3	-0.036059033
116	0xbdf2cd55	-0.1185557
117	0xbde6d8dd	-0.11271832
118	0xbe0ca9aa	-0.13736597
119	0xbe640008	-0.22265637
120	0xbe934eed	-0.28771153
121	0xbd6e823f	-0.05822968
122	0xbe98f17c	-0.29871738
123	0xbdaba7a4	-0.08381584
124	0xbda84b81	-0.08217526
125	0xbde8e5db	-0.113719665
126	0x3c010026	0.007873571
127	0xbea4d459	-0.32193258
128	0x3dc841c3	0.09778168
129	0xbe8c4509	-0.2739642
130	0xbd26b854	-0.040703133
131	0xbe03a218	-0.12854803
132	0xbe4d7786	-0.20065126
133	0x3ded9dbe	0.116023526
134	0x3db6bc05	0.08922581
135	0xbe49267f	-0.19643591
136	0xbe2842bc	-0.16431707
137	0xbc7c7601	-0.015408994
138	0xbe65219f	-0.22376107
139	0x3d8559e4	0.06511286
140	0xbd8471a6	-0.06466989
141	0xbe93f8ed	-0.28900853
142	0xbdfc6a1d	-0.12324927
143	0x3d65c398	0.056094736
144	0x3db6727e	0.089085564
145	0xbec01799	-0.37518004
146	0xbe842bee	-0.25814766
147	0x3dbb806e	0.091553554
148	0xbb8a5085	-0.0042210245
149	0xbd93bda4	-0.072139055
150	0x3d322275	0.043489892
151	0xbdfeb029	-0.12435944
152	0xbce7faf1	-0.0283179
153	0x3deed27f	0.11661243
154	0xbdfa85d2	-0.122325554
155	0xbe8ac3d2	-0.27102524
156	0xbe0b573e	-0.13607499
157	0xbe99eba2	-0.30062586
158	0xbe78d896	-0.24301371
159	0x3d7024be	0.05862879
160	0x3e3dffb2	0.18554571
161	0xbdebac95	-0.11507527
162	0xbe48e092	-0.19616917
163	0x3e2f0e2b	0.17095248
164	0x3e105771	0.14095856
165	0xbe7ac4a9	-0.24489082
166	0xbd4d6aa0	-0.050150514
167	0x3dddf33b	0.10837408
168	0xbe4aceb2	-0.1980541
169	0xbe902978	-0.28156638
170	0x3d9a3579	0.0752973
171	0xbdeab5e2	-0.11460473
172	0xbe5e2780	-0.21694756
173	0xbeafd355	-0.3434092
174	0xbe3f9f87	-0.18713199
175	0xbe4ac5cb	-0.19802015
176	0x3dae0a30	0.08498037
177	0x3df9fecb	0.12206801
178	0x3e01c49a	0.12672654
179	0xbd2f5c88	-0.042812854
180	0xbdaec07c	-0.08532807
181	0xbe6172dc	-0.22016472
182	0xbe54d74a	-0.20785251
183	0xbdc75177	-0.09732335
184	0xbe2d1050	-0.16900754
185	0xbec3233a	-0.38112813
186	0xbd9d2e29	-0.0767482
187	0xbd97367d	-0.0738344
188	0x3e39be3e	0.18138978
189	0xbcbc0dcc	-0.022955798
190	0xbea28d43	-0.317484
191	0x3c17b845	0.009260242
192	0x3d567365	0.052356143
193	0x3c70b254	0.014690954
194	0x3e1c8b7d	0.15287586
195	0x3e110eda	0.14165822
196	0x3e12b8d4	0.14328319
197	0x3dcc6002	0.099792495
198	0xbe5c5e29	-0.21520294
199	0xbed67109	-0.41883114
200	0xbe0aedc2	-0.1356726
201	0x3d628e42	0.05531145
202	0x3d93ef3c	0.07223365
203	0xbe0342e3	-0.12818484
204	0xbe022f01	-0.12713243
205	0x3e051091	0.12994601
206	0xbd85a25d	-0.06525109
207	0x3dd7565b	0.10514518
208	0xbe114b4c	-0.1418888
209	0xbda4ca49	-0.08046395
210	0x3d6d4f0d	0.057936717
211	0x3e14e31f	0.14539765
212	0xbdbe847d	-0.09302614
213	0x3db3c4f1	0.08777798
214	0xbe318992	-0.17337635
215	0xbd3f486b	-0.046699923
216	0xbd3e66ea	-0.046484865
217	0x3df66439	0.12030835
218	0x3e2d92d4	0.16950542
219	0xbe335517	-0.17512928
220	0xbd2918a8	-0.04128328
221	0xbdd76ba6	-0.10518579
222	0x3da558ff	0.08073615
223	0x3dcbe326	0.099554345
224	0xbe3c1fca	-0.18371502
225	0xbdb0c493	-0.086312436
226	0xbd5eecf6	-0.054425202
227	0xbe6ba29b	-0.23011248
228	0xbdb5468f	-0.088513486
229	0xbe5a08a3	-0.21292357
230	0xbd362271	-0.04446644
231	0xbd94148a	-0.0723048
232	0xbd9b93b8	-0.075965345
233	0xbda78bb5	-0.08180944
234	0xbe38aeec	-0.18035477
235	0x3e0487b6	0.12942395
236	0xbdf4f043	-0.11959889
237	0xbe0618ad	-0.1309535
238	0x3e0002ff	0.12501143
239	0x3e642590	0.22279954
240	0xbda46815	-0.080276646
241	0x3df9176c	0.121626705
242	0xbd83fec7	-0.06445079
243	0x3d9095e2	0.07059838
244	0xbe057197	-0.13031612
245	0xbe83e9c2	-0.2576428
246	0x3ddb0bc2	0.10695602
247	0xbddbf308	-0.10739714
248	0xbe204491	-0.15651156
249	0xbe2bc6a0	-0.16774988
250	0xbcb2b2ba	-0.02181374
251	0x3e447cb2	0.19188192
252	0xbd9979d4	-0.0749394
253	0xbe45d6a1	-0.19320156
254	0xbddb8a3f	-0.10719728
255	0x3d8b41c4	0.06799653

fc2.bias f4 [32]
0	0xbcd8cbf9	-0.02646445
1	0x3d2803bf	0.041019198
2	0xbf1aa99c	-0.60415053
3	0x3c6a566d	0.014302832
4	0xbdcd9680	-0.10038471
5	0x3ddd5e0f	0.10808956
6	0xbe68a9b4	-0.22720987
7	0x3deb38f6	0.11485474
8	0x3b0452ad	0.002019088
9	0xbe8a96de	-0.27068228
10	0x3d763c4a	0.06011609
11	0xbe48c0a6	-0.1960474
12	0xbdbcc64a	-0.09217508
13	0x3e8a68c6	0.2703306
14	0xbdbfb738	-0.09361118
15	0xbe4037e6	-0.18771324
16	0x3d7dfb63	0.06200732
17	0x3e8c1a03	0.27363595
18	0xbd50f2ab	-0.051012676
19	0x3df285c6	0.118419215
20	0x3e665878	0.22494686
21	0xbe82d7af	-0.2555518
22	0xbe081040	-0.13287449
23	0xbe831926	-0.25605124
24	0xbd6f9a70	-0.058496892
25	0x3e89bf70	0.26903868
26	0x3d415135	0.047196586
27	0xbdc57c33	-0.0964283
28	0xbefc4c7e	-0.4927711
29	0x3eabb23c	0.3353442
30	0x3d897e9c	0.06713602
31	0x3d1107ad	0.03540771
