checkpoints/model-60.pt (torch, 178767 bytes, 8 tensors)

conv1.weight f4 [10, 1, 5, 5]
0	0x3e81b432	0.2533279
1	0x3e7a6348	0.24451935
2	0x3e8159d6	0.25263852
3	0x3e7c1ed0	0.24621129
4	0x3dbf7c3d	0.093498684
5	0x3e65852c	0.22414082
6	0x3e8ea6fc	0.27861774
7	0x3dc23cfe	0.094842896
8	0x3e06e2cf	0.13172458
9	0x3d05a696	0.03262957
10	0x3e4ee880	0.20205879
11	0xbd98a676	-0.07453625
12	0x3e6cb496	0.23115763
13	0x3d91364b	0.07090434
14	0xbe90fb02	-0.28316504
15	0xbe82f054	-0.2557398
16	0xbdb092f1	-0.08621777
17	0xbe37efb2	-0.1796253
18	0x3cacab31	0.021077724
19	0xbebfa825	-0.37432972
20	0xbe88d6a9	-0.26726273
21	0xbc2936a3	-0.010327968
22	0xbe92c775	-0.286678
23	0xbe3d2fdf	-0.18475293
24	0xbec99145	-0.39368644
25	0xbef2f937	-0.4745576
26	0xbd743a00	-0.059625626
27	0x3e7aecd5	0.24504407
28	0x3e92f930	0.2870574
29	0x3cb7f9c7	0.02245797
30	0xbeea4cfe	-0.45761865
31	0xbe5ffd71	-0.21874024
32	0x3d4b823a	0.04968474
33	0x3decbb9b	0.115592204
34	0x3e8b2a0a	0.2718051
35	0xbdd6cc56	-0.10488193
36	0x3c92a7fc	0.017902367
37	0xbd4b3d49	-0.049618993
38	0x3dcd50d3	0.100251816
39	0x3df0cf06	0.117582366
40	0xbe88f80b	-0.26751742
41	0x3cf318e1	0.02967495
42	0x3e08d37f	0.1336193
43	0x3dc58f6d	0.09646497
44	0xbddd1a44	-0.107960254
45	0xbe822aab	-0.25423178
46	0xbd42dceb	-0.047573965
47	0x3e837e71	0.25682405
48	0xb972054b	-0.0002308089
49	0x3e616ef2	0.22014979
50	0x3e7b973f	0.24569415
51	0x3e3b12ff	0.18268965
52	0x3e47096e	0.19437191
53	0x3dc1863c	0.09449431
54	0x3e63d41a	0.22248879
55	0xbd61faad	-0.055170704
56	0x3c8023f1	0.015642138
57	0x3df2fa79	0.1186418
58	0x3dd5529e	0.104161486
59	0x3c8d404c	0.017242573
60	0xbe87678d	-0.2644619
61	0x3ad256c1	0.0016047583
62	0x3de8efef	0.11373889
63	0x3e53d511	0.20686747
64	0x3dc37b96	0.095450565
65	0xbd026e91	-0.031843726
66	0xbe50f2b6	-0.20405087
67	0xbc93ceee	-0.018043008
68	0xbd667cf7	-0.05627152
69	0x3e5706a6	0.2099863
70	0xbe329f17	-0.174435
71	0xbd6e85c2	-0.05823303
72	0xbd07b1f0	-0.03312868
73	0xbe04a242	-0.12952521
74	0x3d7ce0cd	0.061737824
75	0x3ec24932	0.3794647
76	0x3eb06c17	0.34457466
77	0x3e3a3741	0.1818514
78	0x3eb9f2ca	0.36318046
79	0x3eb8c265	0.3608581
80	0x3dcf90fa	0.10135074
81	0x3daace77	0.08340161
82	0xbded0c28	-0.11574584
83	0x3e0bd945	0.136571
84	0x3e280155	0.16406758
85	0x3e4c1cd7	0.19932877
86	0xbe2f7c11	-0.17137171
87	0x3e5d2ff2	0.21600321
88	0x3e29501d	0.16534467
89	0xbe325896	-0.17416605
90	0x3dc3ccd1	0.0956055
91	0x3e1d4048	0.15356553
92	0xbc931c30	-0.017957777
93	0xbe0e3911	-0.13888957
94	0xbe4c1769	-0.19930805
95	0xbdc7ffce	-0.09765588
96	0xbdc71041	-0.09719897
97	0xbe5cf0f1	-0.21576287
98	0xbd754795	-0.05988272
99	0xbe9ac592	-0.3022886
100	0x3ea4f92a	0.32221347
101	0x3e676bac	0.22599667
102	0x3e0bf7b6	0.13668713
103	0xbe5ea86c	-0.21743935
104	0xbe743fd7	-0.23852478
105	0x3e31c0e8	0.17358744
106	0x3dc4fc1a	0.09618397
107	0x3e68e2a0	0.227427
108	0xbe414f92	-0.1887801
109	0xbeb9e817	-0.36309883
110	0x3ec44238	0.3833177
111	0x3dcf8f2c	0.1013473
112	0x3d8c2a0d	0.06843958
113	0x3da2093c	0.079119176
114	0xbee3ad34	-0.4446808
115	0x3e88e6d8	0.2673862
116	0x3e74af98	0.23895109
117	0x3c8599bc	0.016308658
118	0x3d1604df	0.03662574
119	0xbef15b47	-0.47139952
120	0x3e3f9f03	0.18713002
121	0xbdaaa420	-0.083320856
122	0x3dce7431	0.100807555
123	0xbe5adde3	-0.21373706
124	0xbecf4b65	-0.4048721
125	0x3d676a70	0.05649799
126	0xbd9bf385	-0.07614807
127	0xbe4a7cf2	-0.19774225
128	0xbdfccac1	-0.1234336
129	0xbdb91344	-0.09036878
130	0x3e1c40f9	0.1525916
131	0x3d9e6f1a	0.07736035
132	0x3c63162d	0.013860268
133	0xbdaf06e6	-0.08546238
134	0xbd57780a	-0.052604713
135	0x3e626896	0.22110209
136	0xbdd22a3d	-0.102619626
137	0xbd806430	-0.06269109
138	0xbce63b7c	-0.028104536
139	0x3c9cacd3	0.019125378
140	0x3ddf1967	0.10893517
141	0x3d7c6532	0.061619945
142	0x3d53eb4a	0.05173806
143	0x3cbc462f	0.022982685
144	0x3d683e7a	0.056700207
145	0x3e30fd2d	0.17284079
146	0x3cfb594f	0.030682234
147	0x3de363b7	0.111030035
148	0xbdda6095	-0.10662953
149	0x3d021c68	0.03176537
150	0x3da00228	0.07812911
151	0x3dcd2b87	0.10018068
152	0x3e29d8a1	0.16586544
153	0x3dccdab6	0.10002653
154	0x3df338ba	0.11876054
155	0x3b7d04a4	0.0038607502
156	0x3ddd8a6d	0.10817418
157	0x3dd98bb9	0.10622353
158	0x3e3fa9aa	0.18717065
159	0x3d994268	0.07483369
160	0xbd981ed7	-0.07427757
161	0xbdfe5e2b	-0.12420305
162	0xbd22bbe9	-0.039729986
163	0x3d443c2e	0.047908954
164	0x3e8d94d5	0.27652612
165	0xbccd09bc	-0.025029056
166	0x3cdd5d82	0.027022127
167	0xbc84e4de	-0.016222414
168	0x3d1dc85e	0.038521163
169	0xbdb05874	-0.08610621
170	0x3dddb31e	0.108251795
171	0x3d362d65	0.044476885
172	0xbe016e7b	-0.12639801
173	0x3dfb82aa	0.122807816
174	0xbe127eb1	-0.14306141
175	0x3e46ce86	0.1941472
176	0x3e0cf8fa	0.13766852
177	0xbc837136	-0.016045194
178	0x3e493bdb	0.1965174
179	0x3dbffcdb	0.093744
180	0xbd0fa687	-0.035070922
181	0x3a338c74	0.0006849237
182	0x3ec3e047	0.38257048
183	0x3da4d929	0.080492325
184	0xbdd5f0cc	-0.10446319
185	0x3d850e12	0.06496824
186	0x3e77b954	0.24191791
187	0x3e8aff36	0.27147835
188	0xbdafea4d	-0.08589611
189	0xbe5d582f	-0.2161567
190	0x3e03d8fc	0.12875742
191	0xbdb4342f	-0.08799016
192	0xbdedfa9f	-0.11620068
193	0xbe65d27d	-0.22443576
194	0xbe0bd3af	-0.1365497
195	0xbeebfc11	-0.4609075
196	0xbe5c9347	-0.21540557
197	0xbeb4adf3	-0.35288963
198	0xbde0107f	-0.109406464
199	0x3e28f9a8	0.16501486
200	0xbca47abd	-0.020078057
201	0x3ea6efac	0.3260473
202	0x3d6a2ea1	0.057173375
203	0x3eac343e	0.33633608
204	0x3e858262	0.26076037
205	0xbc63e762	-0.013910146
206	0x3dcd0bb1	0.100119956
207	0xbdb20efc	-0.08694264
208	0x3e03f14d	0.12885018
209	0x3e03d25a	0.12873212
210	0xbdfaa09a	-0.122376636
211	0x3cf0ed89	0.02941014
212	0x3e46b785	0.19405945
213	0xbc673075	-0.014110674
214	0x3e0185e4	0.12648731
215	0xbd5e7c9e	-0.054318063
216	0xbded237b	-0.11579033
217	0x3e22c2a3	0.1589456
218	0xbe130e8b	-0.14361016
219	0x3e5ba33e	0.2144899
220	0x3d1a5a15	0.037683565
221	0xbe3206a0	-0.1738534
222	0xbdc9958e	-0.098429784
223	0xbd313989	-0.04326776
224	0x3e1ae9b6	0.15128216
225	0xbdc6344b	-0.09677943
226	0x3e655901	0.22397234
227	0x3e2d162d	0.1690299
228	0x3e04da45	0.12973888
229	0x3e8de1c2	0.27711302
230	0x3bafc8e6	0.005364525
231	0xbe336f29	-0.17522873
232	0x3e3ed47b	0.18635742
233	0x3d25ea6e	0.040506773
234	0x3e380a54	0.1797269
235	0xbe55839d	-0.20850988
236	0xbe9215f7	-0.28532383
237	0xbe976055	-0.29565683
238	0xbd9706c6	-0.07374339
239	0x3ccb636c	0.024827681
240	0xbd36d9f0	-0.044641435
241	0xbde741f3	-0.11291876
242	0xbe6ddf49	-0.23229708
243	0xbe924fbc	-0.28576458
244	0xbc498e28	-0.012301959
245	0x3e87c31c	0.26516044
246	0x3e7387ee	0.23782322
247	0xbc540021	-0.012939484
248	0x3e074221	0.1320882
249	0xbcfcae0c	-0.03084471

conv1.bias f4 [10]
0	0x3bd21225	0.0064108544
1	0x3d9e8675	0.077404894
2	0xbf06e4b3	-0.5269272
3	0xbe958b3a	-0.29207784
4	0x3ca1cee5	0.019751975
5	0xbdc14f1d	-0.09438918
6	0xbf02ea95	-0.51139194
7	0x3e4ae842	0.19815162
8	0xbeb01b73	-0.34395942
9	0xbd03ffd5	-0.032226402

conv2.weight f4 [20, 10, 5, 5]
0	0x3de6e7c2	0.11274673
1	0x3df0366d	0.11729131
2	0x3d5e9e3a	0.054350115
3	0x3cb45b53	0.022016203
4	0x3e066fce	0.13128588
5	0x3e231730	0.15926814
6	0x3e236095	0.15954812
7	0x3e00e2e7	0.12586556
8	0x3cbb0ebf	0.02283418
9	0x3dc93ebc	0.09826419
10	0xbe8a2100	-0.26978302
11	0xbddccc3e	-0.107811436
12	0xbd29b911	-0.04143626
13	0x3cb204a1	0.021730723
14	0x3d9e32f8	0.07724565
15	0xbe4bbfab	-0.19897334
16	0xbc898d05	-0.016790876
17	0xbca46674	-0.020068385
18	0x3c2abd64	0.010421131
19	0x3d5a70a2	0.05333007
20	0x3daee5ae	0.08539902
21	0x3e079100	0.13238907
22	0x3e2134c4	0.15742785
23	0xbc9a2248	-0.018815175
24	0x3d9cd2b6	0.076573774
25	0x3e6246b4	0.22097284
26	0x3da4cac8	0.0804649
27	0xbdb2fe14	-0.08739868
28	0xbd28b386	-0.041186832
29	0x3dcfeeff	0.10153007
30	0x3dbaf6e0	0.09129119
31	0xbd85a707	-0.065259986
32	0xbea59d85	-0.3234674
33	0xbe8c24cf	-0.27371833
34	0xbd4a5a6a	-0.04940263
35	0xbe2ffdf6	-0.17186722
36	0xbf13f0a9	-0.57789093
37	0xbefb86f7	-0.49126408
38	0xbd9ab8df	-0.075547926
39	0x3d6c688d	0.057716895
40	0xbec8aacf	-0.39192817
41	0xbf1574bb	-0.5838124
42	0xbe8a6797	-0.27032158
43	0x3d4f269d	0.050573934
44	0x3e43c6be	0.19118783
45	0xbea6ed7a	-0.32603055
46	0xbe45e25c	-0.1932463
47	0x3de3e395	0.11127392
48	0x3e372653	0.17885713
49	0x3ea39459	0.31949118
50	0xbdd808cd	-0.105485536
51	0xbe2cb435	-0.16865619
52	0xbda4376c	-0.080183834
53	0xbd61788a	-0.055046596
54	0xbcfbf1a1	-0.030754866
55	0xbd910454	-0.07080904
56	0xbe0a29e6	-0.13492545
57	0xbdc08014	-0.09399429
58	0xbc69090c	-0.014223348
59	0xbda367f7	-0.07978814
60	0xbd72505b	-0.059158664
61	0xbdc3062b	-0.09522661
62	0xbce2ae0e	-0.027670886
63	0xbdf760ca	-0.12079008
64	0xbdadcba6	-0.084861085
65	0x3d8d71c0	0.06906462
66	0x3c94da56	0.018170517
67	0x3c88091b	0.016605904
68	0x3c94df4f	0.018172888
69	0xbae1edc9	-0.0017237003
70	0x3dd19e21	0.10235239
71	0x3d077eeb	0.033080023
72	0x3c892d63	0.016745275
73	0xbda83b15	-0.08214394
74	0xbcec8f58	-0.028876945
75	0xbdaa9a0b	-0.083301626
76	0xbd9fcb6f	-0.07802474
77	0xbdb11a89	-0.08647639
78	0xbd3d54a2	-0.04622329
79	0x3d3dadb4	0.046308234
80	0xbd083e9a	-0.033262827
81	0x3c3e3796	0.011609932
82	0xbc5c0826	-0.013429677
83	0xbcbe0535	-0.023195842
84	0xbd01de17	-0.031705942
85	0xbdc8d08e	-0.09805404
86	0xbd0bbc28	-0.034114987
87	0xbda5eaa8	-0.08101398
88	0x3d7bc24b	0.06146459
89	0x3d64b5fd	0.05583762
90	0x3c99f251	0.018792303
91	0x3c0e6fa7	0.008693612
92	0x3d8a4e1f	0.06753182
93	0xbba1e497	-0.00494058
94	0x3d4e8515	0.050419886
95	0x3d18c77e	0.037299626
96	0x3d78d7a8	0.06075254
97	0x3dc164c1	0.094430454
98	0xbcf38fa4	-0.02973158
99	0x3d16c489	0.036808524
100	0x3da6754f	0.081278436
101	0xbe302b18	-0.17203939
102	0xbe276ef1	-0.16350915
103	0xbd7023e3	-0.058627974
104	0x3d82668c	0.063672155
105	0xbe285af0	-0.1644094
106	0xbea46794	-0.32110274
107	0xbe30c998	-0.17264402
108	0xbdc0b386	-0.094092414
109	0x3d129490	0.03578621
110	0xbe3096aa	-0.17244974
111	0xbdf0904d	-0.11746273
112	0x3b7e34b8	0.0038788747
113	0x3d65131b	0.055926424
114	0x3d996c88	0.07491404
115	0xbce5156a	-0.027964313
116	0x3dcc684d	0.09980831
117	0x3d905113	0.07046714
118	0x3dcef064	0.101044446
119	0x3da5ff32	0.08105315
120	0x3b626887	0.0034547166
121	0x3db707ab	0.089370094
122	0x3dcef582	0.10105421
123	0x3dc2a258	0.09503621
124	0xbd0a2596	-0.03372725
125	0x3da99610	0.08280575
126	0x3d93c96d	0.07216153
127	0x3c97a421	0.01851088
128	0x3d492ab3	0.049112987
129	0x3d05d9ca	0.032678403
130	0x3d8ee4b6	0.06977217
131	0x3a9d1040	0.0011982992
132	0xbd9c43f5	-0.07630149
133	0x3c87fde0	0.01660055
134	0xbd4e5c91	-0.050381247
135	0x3db200da	0.08691569
136	0x3d86b055	0.065766014
137	0xbc5610fb	-0.013065572
138	0xbd206f1d	-0.039168466
139	0xbd98c0c4	-0.07458642
140	0x3da8a8f8	0.08235353
141	0x3d36ae2a	0.04459969
142	0x3d195193	0.03743131
143	0xbd6bf7e8	-0.05760947
144	0x3beb6abf	0.007184356
145	0x3d7bdcdc	0.061489925
146	0x3dfd5001	0.12368775
147	0x3df936d9	0.121686645
148	0x3da25f8b	0.079283796
149	0x3d89faa3	0.06737258
150	0xbde23dd0	-0.11046946
151	0xbe0b29d6	-0.13590178
152	0xbe1532b4	-0.14570123
153	0xbd2d8022	-0.042358525
154	0x3cf4562b	0.029826244
155	0xbc3b685c	-0.011438455
156	0x3c9918bd	0.018688554
157	0xba76973c	-0.0009406691
158	0xbd82d208	-0.063877165
159	0xbcbbbe0d	-0.022917772
160	0x3c2c700d	0.010524762
161	0x3cfc5002	0.03079987
162	0x3d3a6060	0.045502067
163	0x3d6dfe2b	0.05810372
164	0xbcd894fe	-0.026438233
165	0x3cf031d9	0.029320644
166	0x3d3a15c4	0.045430914
167	0x3dc95f1c	0.09832594
168	0xbd698e04	-0.057020202
169	0xbd4b1346	-0.049578927
170	0x3d7fedb1	0.06248254
171	0x3de0698c	0.109576315
172	0xba62365b	-0.00086293154
173	0x3d51e448	0.051243097
174	0x3bf8f527	0.007597584
175	0x3d7e34d5	0.062062103
176	0x3d716cb6	0.058941565
177	0x3d9ed95c	0.07756302
178	0x3cd50f5b	0.026008299
179	0x3e06e938	0.13174903
180	0x3d855135	0.0650963
181	0x3e7e2c9a	0.24821702
182	0x3d955a75	0.07292644
183	0x3cf06cff	0.029348848
184	0x3db01e8e	0.08599578
185	0xbee60a04	-0.44929516
186	0x3c981911	0.01856664
187	0x3d9fc5ce	0.078014
188	0x3d23ebed	0.04001992
189	0x3da0325d	0.07822106
190	0xbee29883	-0.44256982
191	0xbe3a7f72	-0.18212679
192	0xbd9d82ec	-0.07690987
193	0xbd8e805f	-0.069580786
194	0xbe30e6c1	-0.17275526
195	0x3e0a5cbc	0.13511938
196	0x3dffeb9a	0.12496109
197	0x3d2ae2c7	0.041720178
198	0xbc2d08fb	-0.010561223
199	0x3d15da82	0.03658534
200	0xbd510341	-0.051028494
201	0xbd5620a6	-0.05227723
202	0xbc9b5bee	-0.018964734
203	0xbd56ac26	-0.052410267
204	0xba653338	-0.0008743289
205	0xbda459f8	-0.08024973
206	0xbd3c1dab	-0.04592673
207	0x3cc4b386	0.024011385
208	0xbd69921a	-0.0570241
209	0xbc455882	-0.012045028
210	0xbbad9cfd	-0.0052982555
211	0xbdbe5496	-0.09293477
212	0xbd8a9b41	-0.067678936
213	0xbd7c4857	-0.061592426
214	0x3d1f7651	0.038931195
215	0x3dc1903f	0.09451341
216	0xbac08e68	-0.0014690878
217	0x3d3025d6	0.043004833
218	0x3c3f0d91	0.011660949
219	0x3dbbcf99	0.091704555
220	0x3d9a8a56	0.07545917
221	0x3cd35e5d	0.025801832
222	0x3d83415d	0.064089514
223	0x3c7d1478	0.015446775
224	0x3cfa0395	0.030519286
225	0xbe460e31	-0.19341351
226	0x3e01a26e	0.12659618
227	0x3e9e9682	0.30974203
228	0x3e99c02d	0.3002943
229	0x3e83e74f	0.25762412
230	0x3f1990ef	0.59986776
231	0x3f1b437d	0.60649854
232	0x3f0df9de	0.5545939
233	0x3ea6aa16	0.3255164
234	0x3e5aa222	0.21350911
235	0x3f551b22	0.83244526
236	0x3ed86c17	0.42269966
237	0x3deaf8e2	0.11473252
238	0xbe735e06	-0.23766336
239	0xbed0e852	-0.40802246
240	0x3f01b537	0.50667137
241	0x3ee6888e	0.45026058
242	0xbd067647	-0.03282764
243	0xbec15160	-0.37757397
244	0xbe7c08ef	-0.24612783
245	0x3d124229	0.035707626
246	0xbe7d3346	-0.2472659
247	0xbf0d87f9	-0.552856
248	0xbf014616	-0.5049757
249	0xbea1ee9b	-0.31627354
250	0x3bb8c77d	0.005639015
251	0xbc6b0f85	-0.014346962
252	0x3da3b001	0.079925545
253	0x3dcdf87a	0.10057159
254	0x3d9ef509	0.077615805
255	0xbdefcabc	-0.117085904

conv2.bias f4 [20]
0	0x3e14a09a	0.1451439
1	0xbd57ccc3	-0.05268551
2	0x3d148128	0.036255985
3	0x3d292461	0.04129446
4	0x3d45d46f	0.048298296
5	0xbb2aee59	-0.0026082008
6	0xbbd903ab	-0.0066227517
7	0x3ce47dba	0.027891982
8	0x3d919c44	0.071098834
9	0x3d6178ca	0.055046834
10	0xbc119b10	-0.008887067
11	0xbd006c84	-0.03135349
12	0x3c7a1a98	0.0152651295
13	0x3daa253c	0.08307883
14	0x3d88692c	0.06660685
15	0x3d2f3554	0.042775467
16	0xbbbe5b17	-0.0058091986
17	0xbdb87aa0	-0.09007764
18	0x3cb87c12	0.022520099
19	0xbdd89051	-0.10574401

fc1.weight f4 [50, 720]
0	0xbd022b4f	-0.031779584
1	0x3c1e553d	0.009663877
2	0x3b4dd598	0.003140783
3	0xbcf89744	-0.030345567
4	0xbc575b92	-0.013144391
5	0x3c33f6d7	0.010984144
6	0x3a04f7cf	0.0005072327
7	0x3c247127	0.010036743
8	0x3ca5c190	0.0202339
9	0x3c906bea	0.017629582
10	0xbc8455a5	-0.01615412
11	0x3c4788ad	0.012178582
12	0x3bbcd0af	0.0057621817
13	0x3ce20140	0.027588487
14	0xbd04f99f	-0.03246462
15	0xbcffe284	-0.03123594
16	0x3c4bf649	0.012448856
17	0xbac4bf66	-0.0015010654
18	0x3cd0a3eb	0.025468787
19	0x3c45ee85	0.012080793
20	0xbc5cfa96	-0.013487479
21	0x3ad50843	0.0016253073
22	0x3c62da4d	0.013845992
23	0x3d050f68	0.032485396
24	0xbcdee125	-0.027206967
25	0xbc9c61d4	-0.019089617
26	0xbd0bef4b	-0.034163754
27	0x3bf63ab4	0.007514322
28	0x3cf13732	0.029445264
29	0x3d00e567	0.031468775
30	0x3d0c346a	0.034229673
31	0x3c4b52f2	0.012409912
32	0xbd233fbd	-0.039855707
33	0xbc8c506b	-0.01712819
34	0x3ce82916	0.028339904
35	0xbc7f16ea	-0.015569428
36	0xbbbd0667	-0.0057685855
37	0xbd0502d9	-0.03247342
38	0x3c76cd46	0.015063589
39	0xbbc7a198	-0.0060922615
40	0x3c16177c	0.009160873
41	0x3cd72af5	0.0262656
42	0xbd131fcb	-0.035918992
43	0x3c2564f2	0.010094868
44	0xb982e58a	-0.00024966552
45	0xbd2a84f0	-0.041630685
46	0x3c435bbb	0.011923726
47	0xbcc8bad9	-0.024503158
48	0x3c869add	0.016431266
49	0xbc2c48ab	-0.010515372
50	0x3c0cb2cd	0.008587551
51	0xbd013d32	-0.0315525
52	0xbd1110b6	-0.035416327
53	0x3ce6071b	0.02807956
54	0x3c9638b7	0.01833759
55	0xbd1f8a8d	-0.03895049
56	0x3bcfe306	0.006344202
57	0xbd2c62c5	-0.04208638
58	0x3cef1cdf	0.029188571
59	0xbd219af3	-0.03945441
60	0xbcfaac38	-0.030599698
61	0x3cafcf6a	0.021461207
62	0xbbb5538e	-0.005533642
63	0xbc92b815	-0.017910043
64	0x3ce5bacf	0.028043179
65	0xbcce15ac	-0.025156818
66	0xbcba1d87	-0.022719158
67	0x3b0fa89d	0.002192057
68	0x3cadacfb	0.021200648
69	0xbbe335b4	-0.006933892
70	0x3c660c86	0.014041072
71	0xbc7087b4	-0.014680792
72	0xbc7aaa5f	-0.015299409
73	0xbd071b84	-0.032985225
74	0xbca05734	-0.019572832
75	0x3d043a2c	0.03228204
76	0x3d048559	0.032353733
77	0xbd0ffac2	-0.03515125
78	0x3c5489c0	0.012972295
79	0xbc4b1072	-0.012394058
80	0xbceddc1e	-0.029035624
81	0x3bc49d7b	0.0060002184
82	0x3b69fade	0.0035702507
83	0x3b094bfe	0.0020949836
84	0x3ccccdb9	0.02500044
85	0xbcc5a825	-0.02412803
86	0x3c6ee97a	0.014582032
87	0x3c5b20e2	0.013374539
88	0xba61eff7	-0.00086188264
89	0x3cd2f206	0.025750171
90	0x3c9ca84c	0.019123219
91	0xbb05f9d8	-0.0020443108
92	0xbc06d6f1	-0.008229957
93	0xbc8832f6	-0.016625863
94	0xbd02424a	-0.0318015
95	0xbcd2668c	-0.025683664
96	0xbc6143e8	-0.0137491
97	0xbbf61438	-0.0075097345
98	0x3c158a70	0.009127244
99	0xbcace8d9	-0.021107124
100	0xbcfb9837	-0.03071223
101	0xbc4efa94	-0.012632985
102	0xbc893539	-0.016749011
103	0x3c08bb00	0.0083453655
104	0xbbd21a43	-0.006411822
105	0x3ce032e1	0.027368011
106	0x3c50899d	0.012728122
107	0xbadb12bb	-0.0016713956
108	0xbd20dd5a	-0.039273597
109	0xbc9bdb08	-0.01902534
110	0xbb76e121	-0.0037670808
111	0xbbadd65b	-0.005305094
112	0xbcbe7f87	-0.02325417
113	0x3cb64429	0.022249298
114	0xbc86bc61	-0.016447248
115	0x3cc93357	0.024560614
116	0x3b65ad05	0.0035045755
117	0xbbee4848	-0.0072718
118	0xbca8f528	-0.020624712
119	0xbd1586e5	-0.0365056
120	0x3ce8f237	0.02843581
121	0xbce161a3	-0.027512377
122	0xbced6db2	-0.02898297
123	0x3c6e6394	0.014550108
124	0x3ca0efe9	0.019645648
125	0xbb90035a	-0.004394931
126	0xbcbbbb36	-0.022916418
127	0xbc1f3a3a	-0.009718472
128	0xbc7b3e8b	-0.015334736
129	0xbcb1018c	-0.021607183
130	0xbae00762	-0.0017092044
131	0x3cdb7852	0.026790772
132	0x3c326eec	0.010890704
133	0xbd20f9b3	-0.03930063
134	0xbd2afe35	-0.041746337
135	0xbab21084	-0.0013585244
136	0xbca63f95	-0.02029399
137	0xbd082af8	-0.033244103
138	0xbcf16cf2	-0.029470894
139	0xbd270b8b	-0.040782493
140	0xbc0ed4c0	-0.008717716
141	0x3c0e69f6	0.008692255
142	0x3c378de7	0.011203266
143	0xbc466826	-0.012109792
144	0xbd03090a	-0.031991042
145	0xbce8f3df	-0.0284366
146	0xbd14b93d	-0.03630947
147	0x3c398913	0.011324185
148	0xbc2f5d29	-0.010703363
149	0xbce8e728	-0.028430536
150	0xbc6ddb87	-0.014517671
151	0xbd1f1ef6	-0.038847886
152	0xbccab352	-0.02474371
153	0xbc8da784	-0.017291792
154	0x3d01d61f	0.031698342
155	0x3ad06e07	0.0015901931
156	0xbca82ef5	-0.020530203
157	0xbc9395a5	-0.018015692
158	0x3d09172e	0.03346937
159	0xbae3927e	-0.0017362384
160	0xbd268d43	-0.04066206
161	0x3cde107e	0.027107473
162	0xbccc2705	-0.02492095
163	0x3cda8687	0.026675476
164	0xbcffc628	-0.031222418
165	0xbbbd7eb1	-0.005782925
166	0x3cb039e8	0.021511987
167	0xbcc66eff	-0.024222849
168	0xbcb513d1	-0.022104176
169	0xbc4ad6f3	-0.012380349
170	0xbcdb96b9	-0.026805269
171	0x3cd546b3	0.026034689
172	0xbc8aeba7	-0.01695807
173	0xbc93b3a2	-0.018029992
174	0xbd169fad	-0.036773372
175	0x3c8e609b	0.01738005
176	0xbd1442bc	-0.036196455
177	0x3c2a866a	0.010408023
178	0x3ccc5e80	0.024947405
179	0x3cfe3457	0.031030817
180	0x3d0449f6	0.032297097
181	0xbd1c08b3	-0.038094234
182	0x3bcc6a2d	0.006238243
183	0xbce946b0	-0.02847609
184	0xbb88d556	-0.0041758223
185	0x3c44e4de	0.012017457
186	0xbcb740ac	-0.022369705
187	0xbbf71d14	-0.007541308
188	0x3bdfdb37	0.0068315524
189	0x3b91b8e9	0.004447092
190	0xbce107ef	-0.027469603
191	0xbcf5ae85	-0.029990444
192	0xbafdcd84	-0.0019363617
193	0x3b891df5	0.0041844794
194	0xbd208160	-0.03918588
195	0xbc9ac4d2	-0.01889268
196	0xbc360117	-0.011108658
197	0x3bfb2533	0.0076643466
198	0xbd24be81	-0.04022074
199	0xbd05baf4	-0.032648996
200	0xbd04a0fa	-0.03238008
201	0xbc27075f	-0.0101946285
202	0xbb4610a4	-0.003022232
203	0x3c783251	0.015148715
204	0xbd12127b	-0.035662156
205	0x3c656391	0.014000789
206	0x3ce12f14	0.027488269
207	0xbce1df1c	-0.027572207
208	0xbc0e1969	-0.00867305
209	0xbbde5c6e	-0.006785921
210	0x3c05ef68	0.008174755
211	0x3d0af46a	0.033924498
212	0x3cf4fc42	0.029905442
213	0x3cc05dd9	0.02348225
214	0x3cad7a21	0.0211764
215	0x3ce22f36	0.027610403
216	0xbd1c734b	-0.03819589
217	0x3cddc7fc	0.027072899
218	0x3c592377	0.013253084
219	0x3c130c8c	0.008975159
220	0xbc460ea4	-0.012088452
221	0xbc9c7628	-0.01909931
222	0xbd00b1a9	-0.03141943
223	0x3c65ca79	0.014025324
224	0xba4076b0	-0.00073419046
225	0xbd02d1be	-0.031938307
226	0xbcfed028	-0.031105116
227	0xbd2c773b	-0.042105895
228	0x3cb8959c	0.022532277
229	0xbce43f85	-0.02786232
230	0xbd2621a0	-0.04055941
231	0xbcf1df4e	-0.029525425
232	0xbce857b8	-0.02836214
233	0x3ca45dd3	0.02006427
234	0x3cac7bad	0.021055067
235	0xbd2c0457	-0.041996326
236	0x3cf3629c	0.029710107
237	0xbc9674e5	-0.018366287
238	0xbc491a53	-0.012274343
239	0x3c1f3003	0.009716037
240	0xbc1ba754	-0.009500343
241	0x3ce7a210	0.02827552
242	0xbcc9fa25	-0.024655411
243	0xbcde852a	-0.027163107
244	0x3c477174	0.012173045
245	0xbd102703	-0.035193454
246	0x3aa1d282	0.0012346061
247	0xbd20fd83	-0.039304268
248	0x3af93ca4	0.0019015265
249	0x3d0095cd	0.03139286
250	0xbcb77c09	-0.022398012
251	0xba02b285	-0.0004985708
252	0xbcac48de	-0.02103084
253	0x3ceb58d4	0.02872888
254	0xbc2502ba	-0.010071451
255	0xbc72bf24	-0.014816079

fc1.bias f4 [50]
0	0x3c3da7de	0.011575667
1	0x3e0a81ae	0.13526031
2	0xbd2d1912	-0.042260237
3	0xbdb7e8f0	-0.08979976
4	0xbdf722f1	-0.120672114
5	0x3bd7d3fc	0.00658655
6	0x3ca0efdc	0.019645624
7	0xbdaf39d9	-0.085559554
8	0xbc8da74b	-0.017291686
9	0x3db28aaf	0.08717858
10	0x3d7765ee	0.060399942
11	0xbcc7e1ef	-0.024399726
12	0x3d634f00	0.055495262
13	0x3d73e142	0.059540994
14	0x3b1d9e24	0.0024050558
15	0xbccd5459	-0.025064634
16	0xbcf53ecf	-0.029937176
17	0xbd2425c5	-0.040075082
18	0xbd770f3e	-0.06031727
19	0xbcd88119	-0.026428746
20	0x3dc20d10	0.09475148
21	0xbd19ba21	-0.037531022
22	0x3e044a05	0.12918861
23	0x3dbc03f2	0.0918044
24	0xbd4fda84	-0.050745502
25	0x3ceaa9ad	0.02864536
26	0x3cccb7be	0.024989959
27	0x3cd09b3c	0.025464647
28	0x3d36088c	0.044441745
29	0x3d8162f3	0.06317701
30	0xbc9a83a3	-0.018861597
31	0x3d07db30	0.033168018
32	0xbe31cd81	-0.1736355
33	0x3ca9f0ae	0.020744648
34	0xbdba6128	-0.09100562
35	0x3d91ebc9	0.071250506
36	0x3da01311	0.07816137
37	0x3d66b627	0.056326058
38	0xbd5bf3f8	-0.053699464
39	0x3ce7f473	0.028314805
40	0x3e13cf90	0.14434648
41	0x3d6fa5c9	0.058507714
42	0xbd113568	-0.035451323
43	0x3b94538c	0.004526561
44	0x3c92e1a7	0.017929865
45	0x3d9ca8c1	0.07649375
46	0x3d74d5a4	0.059774056
47	0x3bfc1230	0.007692598
48	0xbd72a0ee	-0.059235506
49	0xbd622e7e	-0.05522012

fc2.weight f4 [32, 50]
0	0xbd84694a	-0.06465395
1	0xbe7aeaa3	-0.2450357
2	0x3d125501	0.035725597
3	0xbe7a3791	-0.2443526
4	0x3e882f2f	0.26598498
5	0x3e4e54a6	0.20149478
6	0xbca444d3	-0.02005235
7	0xbe9d2211	-0.30690053
8	0x3e396dc2	0.18108276
9	0xbaaa7dff	-0.001300752
10	0xbea90d46	-0.3301794
11	0x3e468307	0.1938592
12	0xbe7b8218	-0.24561346
13	0xbe73abf3	-0.23796062
14	0xbe2f9184	-0.17145354
15	0xbeaf06ce	-0.3418488
16	0xbc97aa9b	-0.018513968
17	0xbdf8ecd5	-0.12154547
18	0x3dd62091	0.1045543
19	0x3e78a6fc	0.2428245
20	0x3e11db41	0.14243795
21	0x3da6a63f	0.08137178
22	0x3e02eceb	0.1278569
23	0xbeb11ca7	-0.34592173
24	0xbe249abe	-0.16074654
25	0xbe3c7916	-0.18405566
26	0x3e710555	0.2353719
27	0xbea3f9ec	-0.32026613
28	0xbe117a34	-0.14206773
29	0xbd86402c	-0.065552086
30	0xbdc36d50	-0.09542334
31	0xbea22948	-0.3167212
32	0xbe872f82	-0.26403433
33	0xbdb43409	-0.087989874
34	0xbe1fc72b	-0.1560332
35	0xbee7b55d	-0.45255557
36	0xbe96ec27	-0.29477045
37	0xbeb6254f	-0.3557534
38	0xbe97c0b8	-0.2963922
39	0xbe51bc7c	-0.20482057
40	0xbd1ac868	-0.03778878
41	0xbe87a892	-0.26495796
42	0xbd521e38	-0.05129835
43	0xbe033857	-0.1281446
44	0xbe8094ad	-0.2511343
45	0xbea707f5	-0.32623258
46	0x3e36992e	0.17831871
47	0xbd0750ac	-0.03303592
48	0xbeabec5c	-0.33578765
49	0xbe7f70c0	-0.24945354
50	0x3e000017	0.12500034
51	0x3e35759d	0.17720647
52	0x3d306bf3	0.0430717
53	0x3e19446f	0.14967512
54	0x3e5a2b40	0.21305561
55	0x3dbe0845	0.09278921
56	0x3d4afcbb	0.04955743
57	0x3e1ba9ad	0.15201445
58	0x3d8c2ad5	0.06844107
59	0x3e47c480	0.19508553
60	0xbe2a0bf9	-0.1660613
61	0xbe9163fc	-0.28396595
62	0xbeb13122	-0.34607798
63	0x3dbd6ecb	0.09249648
64	0x3a99a9b7	0.0011723553
65	0x3d7b9f26	0.061431073
66	0xbd9f3f83	-0.07775786
67	0xbc902921	-0.017597737
68	0xbe4ede10	-0.20201898
69	0x3d970d53	0.07375588
70	0xbe1d96a1	-0.15389492
71	0xbdd424e6	-0.103586
72	0xbdef02f1	-0.11670483
73	0xbe7e0a4d	-0.24808617
74	0x3e2c9081	0.16851999
75	0xbe170be3	-0.14750628
76	0xbe80da8d	-0.2516674
77	0xbe8dc975	-0.27692762
78	0x3dd640bc	0.10461566
79	0xbe8b3b35	-0.2719361
80	0xbda00246	-0.078129336
81	0xbe1c9ef6	-0.15295014
82	0xbe422490	-0.1895926
83	0x3e70e165	0.23523481
84	0x3e3de734	0.18545228
85	0xbe80d10f	-0.251595
86	0xbe5f0e6b	-0.21782844
87	0x3e15305e	0.14569232
88	0x3d6e6a5d	0.058206905
89	0x3e47a904	0.19498068
90	0xbec4f753	-0.38469943
91	0xbe1bf8ce	-0.1523163
92	0x3d91bc62	0.07116009
93	0x3dfb46ef	0.12269389
94	0x3e82d053	0.25549564
95	0xbe0d0514	-0.13771468
96	0x3d02d304	0.03193952
97	0x3bd034ad	0.0063539357
98	0x3e808491	0.2510114
99	0xbee6da82	-0.45088583
100	0x3dc9be3a	0.09850736
101	0x3df21a4e	0.118214235
102	0x3de75b96	0.112967655
103	0x3e0e5e5b	0.13903181
104	0x3d9ab3a3	0.07553794
105	0x3d734726	0.059394024
106	0x3dc75efc	0.09734914
107	0x3d89ecd5	0.06734625
108	0x3e0b5692	0.13607243
109	0x3ba8e2a0	0.005153969
110	0xbedfbc9c	-0.43698585
111	0xbee8ab63	-0.45443258
112	0x3cb1f5d3	0.021723663
113	0xbe68285d	-0.22671647
114	0xbed19ca8	-0.40939832
115	0xbe159fc2	-0.14611724
116	0xbdf939c5	-0.12169222
117	0xbde6d8dd	-0.11271832
118	0xbec6c259	-0.3882015
119	0x3b11b005	0.002223016
120	0xbef5a2d5	-0.47975793
121	0xbd6e92ca	-0.058245458
122	0xbe865532	-0.26236874
123	0xbe44489e	-0.19168326
124	0x3e17f75a	0.14840451
125	0xbe84d547	-0.25943968
126	0xbec97f63	-0.39355
127	0xbeb67a9f	-0.35640427
128	0x3cb9e724	0.022693224
129	0xbe9d29e5	-0.30696025
130	0xbd2bfee1	-0.04199112
131	0xbe4f115a	-0.20221463
132	0xbee1d2e5	-0.44106212
133	0x3e7b3980	0.24533653
134	0x3e3587df	0.17727612
135	0xbdd9f432	-0.1064228
136	0x3c72274f	0.01477988
137	0x3def79e4	0.11693171
138	0xbeb7a7ed	-0.35870305
139	0x3e24be72	0.16088274
140	0xbe7eb9b0	-0.24875522
141	0xbea885f0	-0.32914686
142	0xbe0164fd	-0.1263618
143	0x3d65c398	0.056094736
144	0x3e60c98e	0.21951887
145	0xbf2bb2c2	-0.6706964
146	0xbece6a1e	-0.40315336
147	0x3dbb806e	0.091553554
148	0x3e58bed4	0.21166545
149	0xbee79119	-0.45227888
150	0x3d322275	0.043489892
151	0xbebdebba	-0.37093908
152	0xbcef7906	-0.029232513
153	0x3e5b1472	0.21394518
154	0xbeccce16	-0.4000098
155	0xbf32f20e	-0.69900596
156	0xbe0b573e	-0.13607499
157	0xbf590ab9	-0.84781986
158	0xbecf9b77	-0.40548298
159	0x3df85999	0.121264644
160	0x3da9aab8	0.08284515
161	0xbe06929a	-0.13141862
162	0xbf1c62e9	-0.61088425
163	0x3e61f4ff	0.22066115
164	0x3e1c716f	0.15277646
165	0xbeed30db	-0.46326336
166	0xbd4dc315	-0.050234873
167	0x3dddf33b	0.10837408
168	0xbea2da39	-0.31807116
169	0xbf4b316e	-0.793723
170	0x3da78504	0.081796676
171	0xbdeab608	-0.11460501
172	0xbeebd4d5	-0.46060815
173	0xbf19614e	-0.599141
174	0xbed2e329	-0.41188934
175	0xbef16263	-0.47145376
176	0x3e275c09	0.16343702
177	0x3e24755d	0.16060396
178	0x3e40856e	0.188009
179	0xbf0f477c	-0.5596845
180	0xbdb2d193	-0.08731379
181	0xbf47752f	-0.7791318
182	0xbef55669	-0.47917488
183	0xbf3b199e	-0.73085964
184	0xbf0f7f43	-0.5605356
185	0xbf522ea4	-0.8210242
186	0xbeb5ef3f	-0.35534093
187	0xbe8b1c80	-0.2717018
188	0x3e404aac	0.18778485
189	0xbea3d9d8	-0.3200214
190	0xbf0899b1	-0.53359514
191	0xbee19722	-0.44060618
192	0x3d49c3b4	0.049258903
193	0x3c70b254	0.014690954
194	0x3d3ff89b	0.046867948
195	0x3d9f1b45	0.07768873
196	0x3e44bbea	0.19212309
197	0x3dcc6002	0.099792495
198	0xbf532940	-0.8248482
199	0xbf37edb8	-0.71847105
200	0xbe0aedc2	-0.1356726
201	0xba43a561	-0.0007463303
202	0x3d908b1f	0.07057785
203	0xbde402ea	-0.11133368
204	0xbe3f1e8b	-0.18663995
205	0x3e288bfd	0.16459651
206	0xbd85a25d	-0.06525109
207	0x3e5ab1c1	0.2135687
208	0xbe4a4942	-0.19754508
209	0xbdc7804c	-0.097412676
210	0x3e120e06	0.14263162
211	0x3e32f669	0.1747681
212	0xbe301b3c	-0.17197889
213	0xbdbe4685	-0.09290794
214	0xbdfa88a6	-0.12233095
215	0xbe29257a	-0.16518202
216	0xbd4890d8	-0.04896626
217	0x3df66439	0.12030835
218	0x3e58f987	0.21188937
219	0xbe3a153e	-0.18172166
220	0xbe3d5b37	-0.18491827
221	0xbddb3ef8	-0.1070537
222	0x3e1c106c	0.1524064
223	0x3e311d80	0.1729641
224	0xbe6f7d27	-0.23387586
225	0xbe3a57f9	-0.18197621
226	0x3dd6c188	0.10486132
227	0xbe57c05c	-0.21069473
228	0xbde8ed2d	-0.11373363
229	0xbe6a484c	-0.22879142
230	0xbd41d8c2	-0.047325857
231	0xbe9d6fed	-0.30749455
232	0xbe33cf22	-0.17559484
233	0xbe5a6971	-0.21329285
234	0xbe3b7701	-0.18307115
235	0x3e387eea	0.18017164
236	0x3dd5244f	0.10407316
237	0xbe385ef8	-0.18004978
238	0x3e0e7576	0.13911995
239	0x3e5995ef	0.21248601
240	0xbe61e952	-0.22061661
241	0x3e1b18c8	0.15146172
242	0xbd8a6756	-0.06757991
243	0x3d9095e2	0.07059838
244	0xbdb8e56b	-0.09028133
245	0xbe84dc07	-0.25949118
246	0x3d82a3c7	0.06378894
247	0xbddbf308	-0.10739714
248	0xbe103d0e	-0.1408579
249	0xbdecf0b1	-0.11569346
250	0xbcb2b2ba	-0.02181374
251	0x3e87399a	0.26411134
252	0xbd9cf60d	-0.07664118
253	0xbeae2f34	-0.34020388
254	0xbe64c849	-0.22342028
255	0x3d95b07a	0.07309051

fc2.bias f4 [32]
0	0x3e298760	0.16555548
1	0xbf09078c	-0.5352714
2	0xbfe670a9	-1.8003131
3	0x3f57a429	0.84234864
4	0xbed25014	-0.4107672
5	0x3f1ec6af	0.6202192
6	0xbf2fe84a	-0.6871382
7	0x3d903efd	0.07043264
8	0x3eb6c389	0.35696056
9	0xbf25a14f	-0.6469926
10	0x3d384d01	0.04499531
11	0xbdf853a0	-0.12125325
12	0x3ef48171	0.47755006
13	0x3f7bafba	0.9831501
14	0xbeb7b372	-0.35879093
15	0xbf226a5d	-0.6344355
16	0x3ecc2abb	0.3987635
17	0x3ee842e9	0.45363548
18	0xbebc1ea1	-0.36742118
19	0x3ef0ea72	0.47053868
20	0x3f106864	0.5640929
21	0xbf1de958	-0.6168418
22	0xbf2b0df3	-0.6681816
23	0xbeca0bd1	-0.3946214
24	0xbe4344a5	-0.19069155
25	0x3ed0682b	0.40704474
26	0xbe6ae2cf	-0.22938083
27	0xbe946c57	-0.28988907
28	0xbf81673f	-1.0109633
29	0x3e2fe23c	0.17176145
30	0x3e884409	0.26614407
31	0x3e114e6d	0.14190073
