checkpoints/model-90.pt (torch, 181135 bytes, 8 tensors)

conv1.weight f4 [10, 1, 5, 5]
00000000: 3ef8 853e fb7d 753e ae8a 763e a23e 783e
00000010: 6ffa c93d 4ee8 7b3e fa92 903e 9eb3 b53d
00000020: 75e3 123e 8436 883d ea20 4e3e d623 a9bd
00000030: d673 633e 7cd1 a83d ecd0 83be 9508 9ebe
00000040: 29f7 ecbd 43d3 43be ee5b 6e3c cbf6 cabe
00000050: 9a99 8fbe b2f8 263c 9ed3 7bbe e86c 26be
00000060: 64db d5be 8bc5 fcbe 4043 3fbd 3666 803e
00000070: c652 943e 6e3c db3b 72c9 ecbe 9677 43be
00000080: 1452 913d 1918 ed3d 0bc5 793e eac9 dbbd
00000090: 6e90 333d 3ea4 00bd 15d1 c13d a11e b33d
000000a0: 96f7 87be 40f3 5b3d 4e1c 143e a842 b53d
000000b0: f9e9 04be 4299 84be 8119 0abd 4d2b 803e
000000c0: 895b b1bc 106b 493e fbd2 5a3e 8a95 443e
000000d0: 74a2 673e 7681 eb3d 9f40 613e b998 e5bd
000000e0: c929 823c b6aa 123e e8e4 013e c92c 173d
000000f0: 1d09 9fbe 6289 e8bb 07f7 fc3d 347f 683e
00000100: a237 fd3d 2e9b 8ebd 094d 6ebe 3714 12bd
00000110: bf8c 3dbd 5c3b 713e 4ab8 4fbe 342b e3bd
00000120: af2a bbbd 3e09 17be 04ca a43d 8cec a93e
00000130: e720 993e f2d5 1c3e 75a1 a73e 6cfe a63e
00000140: 4f79 813d b2ea 623d b1b3 0ebe 59b0 c63d
00000150: 47b3 f03d e498 423e 2e48 37be 09a0 463e
00000160: afee fc3d e4e2 64be 4547 d83d cdbd 173e
00000170: 8b3e 33bd f4ec 31be 1375 69be 4a05 bebd
00000180: 5173 e8bd faf8 7cbe 9a70 b4bd 9d06 a1be
00000190: d560 a43e 189e 573e 3886 ea3d 7b3c 6fbe
000001a0: 2a3b 86be 257d 483e 1752 e13d d1c3 6c3e
000001b0: c277 45be 13cf ccbe fcb7 d23e 0872 f73d
000001c0: e1bb 973d 13ad 983d e99a f8be efb8 903e
000001d0: 92c4 7c3e c9c3 583c b302 103d 4005 fbbe
000001e0: 6655 543e d636 97bd cc43 c33d 6e7c 5cbe
000001f0: d460 d2be f310 25bd ff3d 50be 1b78 aebe
00000200: c758 77be 88c0 42be a803 433e 71eb dd3d
00000210: 1f98 193d 9e91 88bd 252f 50bd fde4 943e
00000220: 1244 39bd 5975 d9bc b6e2 9bbc 9c8f c13b
00000230: 051a 263e 5998 b53d c9d8 5a3d de2e 273c
00000240: f021 033d 1df4 533e 3fd2 2a3d 278c de3d
00000250: 065c cfbd 2ff0 053d c897 543d 0028 a93d
00000260: e677 213e 7a26 b03d cc01 ec3d b53d 06bd
00000270: ac7b b83d ab60 d03d e795 363e 3e33 a13d
00000280: 4aa8 adbd bf04 00be 24e2 21bd 007d 1a3d
00000290: bc63 8d3e 53fb ebbb 445b e83c 9c92 cdbc
000002a0: ef7a a03c 429f c1bd 4ac9 1c3e efbd 7f3d
000002b0: c461 0abe cd82 c93d b971 16be 7cc0 273e
000002c0: a847 ea3d 53a8 0dbd e236 3a3e 4880 b53d
000002d0: 81c9 2ebd a245 ab3b dfd1 c43e 145f 943d
000002e0: 7f35 eebd ecbb a93d 3d51 8a3e 15f1 8f3e
000002f0: bbba dbbd a09a 72be 00a9 1c3e b052 7ebd
00000300: 19ac f3bd 0f99 7ebe 8292 f5bd a594 f9be
00000310: 4568 63be 3448 b0be 9efc a7bd 93ca 633e
00000320: 6709 f6bc ca54 9d3e ceb2 593d 9545 9c3e
00000330: 0291 543e 2c23 60bd 73d4 b13d 7c42 95bd
00000340: cb1e 063e 5d5f ff3d 8fe2 17be f34f 043c
00000350: c4a9 3a3e e0e6 47bc ef62 043e 247d 56bd
00000360: 6caf 09be 7f2e 093e e321 1dbe e3a5 493e
00000370: cd04 903d 3599 25be 128a c9bd a503 41bd
00000380: c7bb 193e 1d8f e3bd c80b 593e f203 273e
00000390: 4173 023e 219c 853e 64a3 d43b 8aad 23be
000003a0: 82ac 4c3e d8df 793d 2241 323e 4ed7 4abe
000003b0: 7012 8dbe cb65 97be c993 3dbd d4e6 fa3c
000003c0: e461 18bd 940d e2bd a247 7cbe 3917 8ebe
000003d0: 6dd8 e5ba cc2c 863e 0cb8 713e a7f3 c6bc
000003e0: 411c ec3d 9c26 04bd
0.26165956 0.23973839 0.2407634 0.24242643 0.098622195 0.24600336 0.28237134 0.0887215
0.1434458 0.06651023 0.20129743 -0.08258788 0.22212157 0.08243081 -0.25745332 -0.30865923
-0.115705796 -0.19123559 0.014548285 -0.39641413 -0.28046876 0.0101911295 -0.24592444 -0.16252482
-0.41768944 -0.49369463 -0.046694994 0.2507798 0.289694 0.0066905534 -0.4624744 -0.19088587
0.07095733 0.11576862 0.24391572 -0.107318714 0.04383891 -0.031406634 0.09463707 0.087460764
-0.2655608 0.05369878 0.14463922 0.08850604 -0.12979878 -0.25898176 -0.03371573 0.25033036
-0.021650093 0.19669747 0.21369545 0.1919767 0.22620565 0.11499302 0.21997307 -0.1121077
0.015889065 0.14322934 0.12684977 0.036907945 -0.3106164 -0.0070964554 0.12351804 0.22704774
0.12364127 -0.06963192 -0.23271574 -0.03566381 -0.046276804 0.235578 -0.20285144 -0.11092225
-0.091390006 -0.1474962 0.08046344 0.33188283 0.29907915 0.15315989 0.3274037 0.32615983
0.06321966 0.055399604 -0.13935734 0.097016044 0.117529444 0.19003636 -0.17898628 0.19396986
0.12350213 -0.22352177 0.105604686 0.14818497 -0.043760817 -0.17375547 -0.22798567 -0.092783526
-0.1135012 -0.24704352 -0.088105395 -0.31450358 0.32105127 0.21056402 0.114513814 -0.23362915
-0.26217014 0.19578989 0.110019855 0.23121573 -0.19283965 -0.40001735 0.41155994 0.120822966
0.07408882 0.07454886 -0.48555687 0.28266093 0.2468436 0.013230273 0.035158824 -0.49027443
0.20735702 -0.07383506 0.095344156 -0.21531841 -0.410895 -0.040299367 -0.2033615 -0.34076008
-0.2415496 -0.19018757 0.19044363 0.108359225 0.03749859 -0.06668399 -0.05082621 0.29080954
-0.045230933 -0.026545214 -0.019029003 0.005907012 0.16220863 0.08866949 0.0534294 0.010204045
0.032014787 0.2069859 0.041704413 0.10866576 -0.10124974 0.03269976 0.051902562 0.082595825
0.15768394 0.08601089 0.1152378 -0.032773692 0.090079635 0.10174688 0.1783062 0.07871102
-0.08479364 -0.1250181 -0.039522305 0.037716866 0.27615154 -0.007201591 0.028363831 -0.025094323
0.01958987 -0.09454204 0.1531116 0.062436994 -0.13513857 0.098394014 -0.14691819 0.1638202
0.114394486 -0.034584355 0.18184999 0.08862358 -0.042672638 0.0052268067 0.3844137 0.07244697
-0.11631297 0.082877964 0.27015105 0.28113618 -0.107289754 -0.23691797 0.15298843 -0.062090576
-0.118980594 -0.24863075 -0.11990835 -0.4874622 -0.22207744 -0.34430087 -0.0820248 0.22245245
-0.03003378 0.3072875 0.053149037 0.30521837 0.20758441 -0.054721043 0.086830996 -0.072880715
0.13097684 0.12469361 -0.14832519 0.008075702 0.18228823 -0.012201041 0.12928365 -0.052365437
-0.13445824 0.13396643 -0.15344958 0.19692187 0.07032166 -0.16171725 -0.09840788 -0.047122616
0.15013038 -0.11111281 0.211959 0.16310099 0.12739278 0.2609568 0.0064892042 -0.15984169
0.19987682 0.06100449 0.17407659 -0.19808695 -0.2755313 -0.2956985 -0.046283517 0.030627646
-0.03720273 -0.11037746 -0.24636701 -0.27752092 -0.0017535813 0.26206052 0.23605365 -0.024286104
0.115288265 -0.032263383

conv1.bias f4 [10]
00000000: 2f76 9a3b 43ae ce3d 61ec 11bf 343a bbbe
00000010: a15c b33c 9424 89bd f854 12bf 5dfb 3f3e
00000020: 7e52 bfbe aeff 72bd
0.0047137956 0.100918315 -0.5700131 -0.36567843 0.021894755 -0.0669643 -0.571609 0.18748231
-0.37367624 -0.059325866

conv2.weight f4 [20, 10, 5, 5]
00000000: 645d 333e 0d23 1d3e 6cd9 3f3d c730 b2ba
00000010: 5f69 f53d 02ad 573e 0396 463e 7134 193e
00000020: ba82 893c 54ff ab3d be35 96bd 2162 53bd
00000030: 9833 70bd 5654 563c 0cf7 a73d 4b55 43be
00000040: 35c4 e3bc c258 6abd 0807 0cbc 6636 273d
00000050: a11d 7f3d 1d87 c93d 036c db3d c211 3fbd
00000060: 84f4 213c d195 473e 7870 0f3e c390 cebd
00000070: 1d7c 8dbd 713a 943d a3bf b43d 1485 283c
00000080: 9b3c b4be 4052 89be 288e 183c 1b3d 32be
00000090: d4b7 1ebf 4bb4 f8be 3245 7ebd 9e26 fe3d
000000a0: b863 bbbe c377 1dbf 3a3a 67be 1833 a53d
000000b0: 3523 623e cde8 adbe b4db 79be 1422 693e
000000c0: 9c7d 663e 16cd a03e 4ca2 17be 7de6 49be
000000d0: 2633 fabd 5d1b a9bd b628 d9bd eda5 76bd
000000e0: a72d 2abe 38c5 04be 8f8b 8bbd 2d41 ffbd
000000f0: 6c89 a6bc 353b 27be 72d8 a7bd 7ead 28be
00000100: 835d f9bd e339 bd3d 7de5 9a3c d452 6e3b
00000110: 01ac 1bbd 658b 8ebd 8d2c 063e e6f9 acbc
00000120: 386d a6bc 6d56 e4bd fb7b 76bd a1c7 7cbd
00000130: 9b65 9ebd f6e8 aebd e8ec 67bd 0264 3f3d
00000140: df7f 36bd f169 1dbc 5a96 1ebd 017c 2abd
00000150: c1aa 46bd 3b76 dabd c620 4cbd 9e4c c5bd
00000160: d40c 723d 071b 913d 3f66 2a3d ef45 143d
00000170: bd93 993d dd86 1a3c de68 8f3d c46d f13c
00000180: fd3f 613d aedf a53d 4fa6 b6bc 201e 173d
00000190: 8c58 ce3d 7dd6 1abe 9b32 3dbe ba36 d6bd
000001a0: f0f6 953c 93d1 8ebe 463c adbe 6c21 29be
000001b0: aa82 dcbd f49f 373b bf91 70be 3cdd ddbd
000001c0: 198c 0d3c e1ca 963d 96ec 8f3d 1ac0 28bd
000001d0: 8d6e 003e dd29 8a3d be79 f03d 5544 7e3d
000001e0: c902 6ebd 1160 cd3d f21e cd3d 901f e93d
000001f0: 7a8e 59bd e658 6f3e 5fb9 4a3e 1971 e73d
00000200: d2a2 a03d ebb2 823d ed66 3f3e 3384 cc3b
00000210: 626b 78bd ef46 f23c 38da 79bc d576 3c3e
00000220: 50a6 0d3e a6bb 283c 18ba 1cbc bb0b 84bd
00000230: 9e72 153e 6049 3f3d a2d6 8d3a 1516 8fbd
00000240: 8d7e 1bbd b6af 2d3e 86a9 2f3e 0622 0d3e
00000250: 953a 023e 6294 b83d 198f 10be a4d9 3abe
00000260: a3e8 2ebe e9e8 8ebd 2445 8abb 4771 06bd
00000270: e573 8a3b 2ca4 0abc 099a a7bd 1212 19bd
00000280: 299b 2bbc 5a6b dfbb c757 0a3d f465 3c3d
00000290: 7844 76bb 3247 1c3d acb5 6d3d be5c f73d
000002a0: ec61 60bd fb39 63bd b414 863d 9b60 bf3d
000002b0: bfb8 a63c 3f59 9c3d a6d4 a93c e4c4 933d
000002c0: 3c75 633d d962 4d3d b272 7a39 e8ac 033e
000002d0: 557c 043d 4432 723e a743 643d 99fc 87bb
000002e0: f56c 793d 9288 d5be 502e c63d fe7f ab3d
000002f0: 6c4a 0f3d 69a8 a83d 99bf f9be 4613 4dbe
00000300: be9c ccbd 4b90 9ebd a1e3 0ebe 7b06 063e
00000310: 6e4d bb3d 3130 98bc baf6 8bbc fdb4 713d
00000320: 5132 7bbd 557d 95bd dfab 1ebd f60c 9bbd
00000330: 1e73 69bc 2482 d1bd 536f 8bbd d616 073c
00000340: fef1 9bbd 087c 96bb 6e7f 84bc a91d dabd
00000350: 43aa 84bd a7ad 58bd 6d63 b23d 82f5 ea3d
00000360: c888 8d3c 1595 8c3d 7bc4 bd3c 1e79 023e
00000370: 0b4e ad3d f64c 813c e8cf 9b3d 7b58 ed3c
00000380: a0c4 793d d959 03be 6d7c 0c3e 6479 a43e
00000390: 61b8 a43e 1a88 4e3e b99e 103f 4da8 213f
000003a0: 4357 0e3f 3569 8c3e 988f ed3d ad89 4e3f
000003b0: e721 ae3e 0026 0a3d 8f3a a7be 8524 d5be
000003c0: 2cfb 2f3f 76de fe3e 2eb6 e3bd f9e8 00bf
000003d0: 6257 8abe 2600 dc3d f3eb 87be d6ec 0cbf
000003e0: 8f47 f0be 7b4b 7fbe 3c19 94bc 125f a7bd
000003f0: 8de4 603d d578 ae3d be39 673d d5c6 27be
0.17516094 0.15345402 0.04683821 -0.0013594859 0.119829886 0.21062091 0.19393162 0.14961411
0.016785968 0.08398309 -0.07334469 -0.051607255 -0.058642954 0.013081631 0.08201417 -0.19075505
-0.02780352 -0.057213552 -0.008546598 0.040823363 0.062284116 0.09840224 0.10713961 -0.046647795
0.009884957 0.19490744 0.14007747 -0.10086205 -0.06908438 0.07237709 0.08825614 0.010285635
-0.35202488 -0.26820564 0.009311236 -0.17406122 -0.6199925 -0.48575053 -0.06207771 0.124097094
-0.36599517 -0.61510867 -0.22580805 0.08066386 0.22083743 -0.33966675 -0.24400216 0.22766906
0.22508854 0.31406468 -0.14808005 -0.1971683 -0.12216787 -0.08257172 -0.10603468 -0.060216833
-0.16618977 -0.12965858 -0.06813728 -0.12463603 -0.0203292 -0.1633118 -0.081955805 -0.16472432
-0.12176039 0.09239557 0.018908257 0.0036365287 -0.038005833 -0.06960181 0.13102932 -0.021115255
-0.020315751 -0.11149297 -0.06017683 -0.06171382 -0.077342235 -0.085405275 -0.056622416 0.046726234
-0.04455554 -0.009607778 -0.038717605 -0.041622166 -0.048502687 -0.10667082 -0.049835943 -0.09633754
0.059094265 0.07085233 0.041601416 0.036199506 0.07498882 0.009431568 0.07002424 0.029471286
0.054992665 0.08099304 -0.022296099 0.036893964 0.10075483 -0.15120883 -0.18476336 -0.10459657
0.018306226 -0.27894267 -0.33835047 -0.16516656 -0.1076711 0.0028018923 -0.23493098 -0.10833213
0.008639359 0.07362915 0.07027547 -0.041198827 0.12542172 0.06746266 0.117419705 0.062076885
-0.058108125 0.10028089 0.10015668 0.11382973 -0.053114392 0.23373756 0.19797276 0.113008685
0.078435555 0.06381782 0.18691607 0.0062413453 -0.060649283 0.02957484 -0.015249781 0.18404706
0.13832974 0.010298645 -0.009565853 -0.0644755 0.14594504 0.046700835 0.0010821412 -0.06986634
-0.037962485 0.1696156 0.17154512 0.1378251 0.1271766 0.09012677 -0.14117087 -0.18247086
-0.17080931 -0.06978018 -0.004219668 -0.032822873 0.0042252415 -0.008461993 -0.08183677 -0.03737075
-0.010474005 -0.006818217 0.033775117 0.045995668 -0.0037577432 0.038153835 0.058034584 0.12078236
-0.054780886 -0.055475216 0.065469176 0.09344598 0.020351766 0.0763421 0.020731281 0.07215288
0.055531725 0.050143097 0.00023884585 0.12858927 0.032345135 0.23651987 0.05572858 -0.004149985
0.060894925 -0.41705757 0.09676802 0.08374022 0.034983084 0.08235247 -0.4877899 -0.20026883
-0.09990834 -0.077423654 -0.13954021 0.1308841 0.09145628 -0.018577667 -0.017085422 0.059010495
-0.061327282 -0.07299296 -0.038738128 -0.075708315 -0.0142486375 -0.102299005 -0.06808343 0.008245191
-0.07614516 -0.0045924224 -0.016174044 -0.106501885 -0.06477787 -0.052899983 0.0871037 0.11472608
0.017277136 0.06864373 0.023164978 0.12741515 0.08462151 0.015783768 0.07608014 0.028972855
0.06097853 -0.12827243 0.1371934 0.32123864 0.3217192 0.20169106 0.5649219 0.6314743
0.556019 0.27424017 0.11599654 0.80678827 0.3401024 0.033727646 -0.32661864 -0.41629425
0.6874263 0.497791 -0.111187324 -0.5035549 -0.27019793 0.10742216 -0.26547202 -0.5504888
-0.46929595 -0.24931137 -0.018078439 -0.0817243 0.054905463 0.08519141 0.05645155 -0.16384442

conv2.bias f4 [20]
00000000: e318 2e3e fd9d 4fbd b6eb 073d a374 093d
00000010: bcb6 253d 8a78 02bc cbdc f5ba 38f5 7e3c
00000020: d544 c43d 8f94 453d f2b5 86bb 0e68 05bd
00000030: f3a3 fcbb 9119 c93d d186 483d c9ee 843c
00000040: 4900 dd3b 0e99 f9bd 5479 1c3c 9358 ffbd
0.17001681 -0.05068778 0.033183776 0.0335585 0.040457472 -0.007963309 -0.0018757818 0.015561394
0.09583441 0.04823738 -0.004111045 -0.032569937 -0.007709974 0.098193295 0.048956696 0.016227143
0.0067444188 -0.12187396 0.009550411 -0.12468066

fc1.weight f4 [50, 720]
00000000: 4f2b 02bd 3d55 1e3c 98d5 4d3b 4497 f8bc
00000010: 925b 57bc d7f6 333c cff7 043a 2771 243c
00000020: 90c1 a53c ea6b 903c a555 84bc ad88 473c
00000030: afd0 bc3b 4001 e23c 9ff9 04bd 84e2 ffbc
00000040: 49f6 4b3c 66bf c4ba eba3 d03c 85ee 453c
00000050: 96fa 5cbc 4308 d53a 4dda 623c 680f 053d
00000060: 25e1 debc d461 9cbc 4bef 0bbd b43a f63b
00000070: 3237 f13c 67e5 003d 6a34 0c3d f252 4b3c
00000080: bd3f 23bd 6b50 8cbc 1629 e83c ea16 7fbc
00000090: 6706 bdbb d902 05bd 46cd 763c 98a1 c7bb
000000a0: 7c17 163c f52a d73c cb1f 13bd f264 253c
000000b0: 8ae5 82b9 f084 2abd bb5b 433c d9ba c8bc
000000c0: dd9a 863c ab48 2cbc cdb2 0c3c 323d 01bd
000000d0: b610 11bd 1b07 e63c b738 963c 8d8a 1fbd
000000e0: 06e3 cf3b c562 2cbd df1c ef3c f39a 21bd
000000f0: 38ac fabc 6acf af3c 8e53 b5bb 15b8 92bc
00000100: cfba e53c ac15 cebc 871d babc 9da8 0f3b
00000110: fbac ad3c b435 e3bb 860c 663c b487 70bc
00000120: 5faa 7abc 841b 07bd 3457 a0bc 2c3a 043d
00000130: 5985 043d c2fa 0fbd c089 543c 7210 4bbc
00000140: 1edc edbc 7b9d c43b defa 693b fe4b 093b
00000150: b9cd cc3c 25a8 c5bc 7ae9 6e3c e220 5b3c
00000160: f7ef 61ba 06f2 d23c 4ca8 9c3c d8f9 05bb
00000170: f1d6 06bc f632 88bc 4a42 02bd 8c66 d2bc
00000180: e843 61bc 3814 f6bb 708a 153c d9e8 acbc
00000190: 3798 fbbc 94fa 4ebc 3935 89bc 00bb 083c
000001a0: 431a d2bb e132 e03c 9d89 503c bb12 dbba
000001b0: 5add 20bd 08db 9bbc 21e1 76bb 5bd6 adbb
000001c0: 877f bebc 2944 b63c 61bc 86bc 5733 c93c
000001d0: 05ad 653b 4848 eebb 28f5 a8bc e586 15bd
000001e0: 37f2 e83c a361 e1bc b26d edbc 9463 6e3c
000001f0: e9ef a03c 5a03 90bb 36bb bbbc 3a3a 1fbc
00000200: 8b3e 7bbc 8c01 b1bc 6207 e0ba 5278 db3c
00000210: ec6e 323c b3f9 20bd 35fe 2abd 8410 b2ba
00000220: 953f a6bc f82a 08bd f26c f1bc 8b0b 27bd
00000230: c0d4 0ebc f669 0e3c e78d 373c 2668 46bc
00000240: 0a09 03bd dff3 e8bc 3db9 14bd 1389 393c
00000250: 295d 2fbc 28e7 e8bc 87db 6dbc f61e 1fbd
00000260: 52b3 cabc 84a7 8dbc 1fd6 013d 076e d03a
00000270: f52e a8bc a595 93bc 2e17 093d 7e92 e3ba
00000280: 438d 26bd 7e10 de3c 0527 ccbc 8786 da3c
00000290: 28c6 ffbc b17e bdbb e839 b03c ff6e c6bc
000002a0: d113 b5bc f3d6 4abc b996 dbbc b346 d53c
000002b0: a7eb 8abc a2b3 93bc ad9f 16bd 9b60 8e3c
000002c0: bc42 14bd 6a86 2a3c 805e cc3c 5734 fe3c
000002d0: f649 043d b308 1cbd 2d6a cc3b b046 e9bc
000002e0: 56d5 88bb dee4 443c ac40 b7bc 141d f7bb
000002f0: 37db df3b e9b8 913b ef07 e1bc 85ae f5bc
00000300: 84cd fdba f51d 893b 6081 20bd d2c4 9abc
00000310: 1701 36bc 3325 fb3b 81be 24bd f4ba 05bd
00000320: faa0 04bd 5f07 27bc a410 46bb 5132 783c
00000330: 7b12 12bd 9163 653c 142f e13c 1cdf e1bc
00000340: 6919 0ebc 6e5c debb 68ef 053c 6af4 0a3d
00000350: 42fc f43c d95d c03c 217a ad3c 362f e23c
00000360: 4b73 1cbd fcc7 dd3c 7723 593c 8c0c 133c
00000370: a40e 46bc 2876 9cbc a9b1 00bd 79ca 653c
00000380: b076 40ba bed1 02bd 28d0 febc 3b77 2cbd
00000390: 9c95 b83c 853f e4bc a021 26bd 4edf f1bc
000003a0: b857 e8bc d35d a43c ad7b ac3c 5704 2cbd
000003b0: 9c62 f33c e574 96bc 531a 49bc 0330 1f3c
000003c0: 54a7 1bbc 10a2 e73c 25fa c9bc 2a85 debc
000003d0: 7471 473c 0327 10bd 82d2 a13a 83fd 20bd
000003e0: a43c f93a cd95 003d 097c b7bc 85b2 02ba
000003f0: de48 acbc d458 eb3c ba02 25bc 24bf 72bc
-0.031779584 0.009663877 0.003140783 -0.030345567 -0.013144391 0.010984144 0.0005072327 0.010036743
0.0202339 0.017629582 -0.01615412 0.012178582 0.0057621817 0.027588487 -0.03246462 -0.03123594
0.012448856 -0.0015010654 0.025468787 0.012080793 -0.013487479 0.0016253073 0.013845992 0.032485396
-0.027206967 -0.019089617 -0.034163754 0.007514322 0.029445264 0.031468775 0.034229673 0.012409912
-0.039855707 -0.01712819 0.028339904 -0.015569428 -0.0057685855 -0.03247342 0.015063589 -0.0060922615
0.009160873 0.0262656 -0.035918992 0.010094868 -0.00024966552 -0.041630685 0.011923726 -0.024503158
0.016431266 -0.010515372 0.008587551 -0.0315525 -0.035416327 0.02807956 0.01833759 -0.03895049
0.006344202 -0.04208638 0.029188571 -0.03945441 -0.030599698 0.021461207 -0.005533642 -0.017910043
0.028043179 -0.025156818 -0.022719158 0.002192057 0.021200648 -0.006933892 0.014041072 -0.014680792
-0.015299409 -0.032985225 -0.019572832 0.03228204 0.032353733 -0.03515125 0.012972295 -0.012394058
-0.029035624 0.0060002184 0.0035702507 0.0020949836 0.02500044 -0.02412803 0.014582032 0.013374539
-0.00086188264 0.025750171 0.019123219 -0.0020443108 -0.008229957 -0.016625863 -0.0318015 -0.025683664
-0.0137491 -0.0075097345 0.009127244 -0.021107124 -0.03071223 -0.012632985 -0.016749011 0.0083453655
-0.006411822 0.027368011 0.012728122 -0.0016713956 -0.039273597 -0.01902534 -0.0037670808 -0.005305094
-0.02325417 0.022249298 -0.016447248 0.024560614 0.0035045755 -0.0072718 -0.020624712 -0.0365056
0.02843581 -0.027512377 -0.02898297 0.014550108 0.019645648 -0.004394931 -0.022916418 -0.009718472
-0.015334736 -0.021607183 -0.0017092044 0.026790772 0.010890704 -0.03930063 -0.041746337 -0.0013585244
-0.02029399 -0.033244103 -0.029470894 -0.040782493 -0.008717716 0.008692255 0.011203266 -0.012109792
-0.031991042 -0.0284366 -0.03630947 0.011324185 -0.010703363 -0.028430536 -0.014517671 -0.038847886
-0.02474371 -0.017291792 0.031698342 0.0015901931 -0.020530203 -0.018015692 0.03346937 -0.0017362384
-0.04066206 0.027107473 -0.02492095 0.026675476 -0.031222418 -0.005782925 0.021511987 -0.024222849
-0.022104176 -0.012380349 -0.026805269 0.026034689 -0.01695807 -0.018029992 -0.036773372 0.01738005
-0.036196455 0.010408023 0.024947405 0.031030817 0.032297097 -0.038094234 0.006238243 -0.02847609
-0.0041758223 0.012017457 -0.022369705 -0.007541308 0.0068315524 0.004447092 -0.027469603 -0.029990444
-0.0019363617 0.0041844794 -0.03918588 -0.01889268 -0.011108658 0.0076643466 -0.04022074 -0.032648996
-0.03238008 -0.0101946285 -0.003022232 0.015148715 -0.035662156 0.014000789 0.027488269 -0.027572207
-0.00867305 -0.006785921 0.008174755 0.033924498 0.029905442 0.02348225 0.0211764 0.027610403
-0.03819589 0.027072899 0.013253084 0.008975159 -0.012088452 -0.01909931 -0.03141943 0.014025324
-0.00073419046 -0.031938307 -0.031105116 -0.042105895 0.022532277 -0.02786232 -0.04055941 -0.029525425
-0.02836214 0.02006427 0.021055067 -0.041996326 0.029710107 -0.018366287 -0.012274343 0.009716037
-0.009500343 0.02827552 -0.024655411 -0.027163107 0.012173045 -0.035193454 0.0012346061 -0.039304268
0.0019015265 0.03139286 -0.022398012 -0.0004985708 -0.02103084 0.02872888 -0.010071451 -0.014816079

fc1.bias f4 [50]
00000000: dea7 3d3c ed78 203e 1219 2dbd 7077 00be
00000010: ec03 1dbe 7a8e e23c dcef a03c c3f8 fabd
00000020: 7267 c5bc d9a3 063e 89fc 843d d8d0 78bb
00000030: a571 a63d 176a a73d 6a1a 9e3b 17da 24bd
00000040: cf3e f5bc c525 24bd 20e3 8fbd 083e 4dbc
00000050: 316c 1a3e 21ba 19bd 3396 3a3e 7775 233e
00000060: 5095 91bd efa5 573d a8bc 463d 6275 173d
00000070: 03b8 b93d fc3c 9a3d a383 9abc 3951 8e3d
00000080: c5c7 66be fe99 e93c e5ff dcbd bc28 ec3d
00000090: bd3f e33d 3ce5 603d 5dd1 b4bd 573f 2e3d
000000a0: 857f 5e3e 2e12 c33d 6835 11bd 8c53 943b
000000b0: 609a cc3c 5239 f83d b791 a43d 9cfd 933b
000000c0: 313a 8bbd 938f 87bd
0.011575667 0.1567113 -0.042260237 -0.12545562 -0.15333527 0.027655829 0.019645624 -0.12254479
-0.024097178 0.1314844 0.0649348 -0.0037966277 0.08127145 0.08174532 0.004824926 -0.04024705
-0.029937176 -0.040075082 -0.070257425 -0.012526996 0.15080334 -0.037531022 0.18221359 0.15962778
-0.07108557 0.05264848 0.04851976 0.03697718 0.090683006 0.07531163 -0.018861597 0.06949086
-0.22537144 0.028515812 -0.107909955 0.11531207 0.110961415 0.054906115 -0.088289954 0.042540874
0.21728332 0.09524952 -0.035451323 0.004526561 0.024975955 0.12120308 0.080356054 0.0045163166
-0.067982085 -0.066191815

fc2.weight f4 [32, 50]
00000000: 4a69 84bd 06d1 8dbe 0155 123d 10f0 8fbe
00000010: 17b9 903e 991f 653e d344 a4bc 06a8 9fbe
00000020: 39a8 2d3e 92b8 3dbd 3106 bfbe 80e1 503e
00000030: 3c14 80be f54b a8be 21f3 61be 54e8 d5be
00000040: 9baa 97bc d5ec f8bd 6241 1abb f701 7f3e
00000050: fb39 1b3e 3fa6 a63d fdad fa3d 976d c1be
00000060: f96e 54be 1a0d 43be 3550 823e 4369 c2be
00000070: 1088 31be 472d dcbd 506d c3bd 1118 abbe
00000080: 4b46 aabe 9c48 13be e4c6 14be e7be efbe
00000090: 2fd4 acbe cad9 bfbe 79d9 a3be f295 8abe
000000a0: e37f 0ebe eb47 89be 381e 52bd 5738 03be
000000b0: 3458 abbe fa12 debe 0d8d 443e 2a14 12bd
000000c0: 5024 ebbe f745 a7be 1700 003e b258 463e
000000d0: f36b 303d 80a0 2f3e 637c 613e 262e de3d
000000e0: bbfc 4a3d daf3 1b3e 825e 903d 499b 5e3e
000000f0: 5d63 57be 257e 96be 4be3 abbe bded a03d
00000100: a26a 63bc 9300 ac3d 833f 9fbd 2129 90bc
00000110: 48a4 37be 019a b03d 0ad1 27be e624 d4bd
00000120: a082 02be 30ca 82be 2508 363e fb50 4dbe
00000130: 7786 8ebe 16e3 8bbe 01e3 e33d 75b7 9abe
00000140: 4602 a0bd 6c35 17be d16e 45be 3a45 833e
00000150: da9f 403e 1295 85be 5d33 57be e0cb 183e
00000160: a41c 403d 7eb0 493e 47b4 d6be f0ec 2dbe
00000170: 62bc 913d ef46 fb3d 7ffc 883e db64 f6bd
00000180: b884 b33d aedf 853b f701 873e c644 01bf
00000190: 3abe c93d be33 0a3e 965b e73d deda 1c3e
000001a0: 3ebd 943d 788a 943d fc5e c73d 110d 8f3d
000001b0: a507 1c3e d7fb 2f3c daf8 f9be e9c6 03bf
000001c0: f80f 933d d71a 8abe d2b2 e7be 04e5 eabd
000001d0: c539 f9bd ddd8 e6bd b0f0 d5be f40d 04bc
000001e0: e81e 04bf ca92 6ebd 0df4 9ebe dfaf 86be
000001f0: e992 2b3e 4886 a5be 8185 e8be 57f0 c3be
00000200: 25c1 1c3d a7e5 a4be e1fe 2bbd 7023 86be
00000210: 3346 d6be b190 853e 84c6 2b3e 7c64 0ebd
00000220: c62e af3d 2dd6 f73d a03e c8be fb3f 283e
00000230: ba9c 8fbe 8497 86be fd64 01be 98c3 653d
00000240: d639 863e a456 2dbf dc07 9abe 636a b93d
00000250: 8da1 883e 4860 21bf 7522 323d 38bc f8be
00000260: 0679 efbc 7fdc 713e 5ef8 00bf 6f58 5fbf
00000270: 3e57 0bbe e117 9abf c600 05bf 64a9 f93d
00000280: 131e 91bb 6896 24be 753a 41bf 6378 543e
00000290: d7e8 173e a2f8 fbbe 15c3 4dbd 3bf3 dd3d
000002a0: 1624 d8be 239d 81bf f754 923d 08b6 eabd
000002b0: b031 05bf dca6 2fbf b212 1bbf 260b 0cbf
000002c0: ce26 0d3e 553f 093e 3c76 633e f84f 35bf
000002d0: 93d1 b2bd b155 80bf 67a7 1dbf ca80 80bf
000002e0: 89a6 34bf c8b6 6cbf a144 e5be 13db c1be
000002f0: 56d0 4a3e ca0f b4be f739 16bf dab9 2abf
00000300: b4c3 493d 54b2 703c c34d 7dbd eb8b f53c
00000310: e741 4b3e c1b5 c63d e16f 6cbf 8413 4abf
00000320: c2ed 0abe 5265 35bb 1f8b 903d d6c1 f1bd
00000330: 03b0 50be 5abd 4b3e 5da2 85bd 221d 633e
00000340: 5896 66be 0db0 d8bd 9ad0 1a3e 40b9 233e
00000350: 6d68 31be 798d 02be ffcc eebd c078 3bbe
00000360: d890 48bd 3964 f63d 35ad 6b3e d8d5 4cbe
00000370: eb4d 58be f83e dbbd 4e46 253e 9c0d 3c3e
00000380: 0aa2 8bbe cb8d 61be 6205 1d3e 5b54 51be
00000390: 2417 1abe 70d0 75be c2d8 41bd eb7a c7be
000003a0: 8a7b 46be a776 84be 23a2 52be 76b3 3e3e
000003b0: 3930 f13d 11c1 3ebe 1058 163e 95f4 3a3e
000003c0: 10d2 6ebe 1816 3a3e 5667 8abd e295 903d
000003d0: b168 d1bd f65f 94be 3cc6 183d 578f e0bd
000003e0: 670b 1dbe 39df 1dbe bab2 b2bc b924 813e
000003f0: 0df6 9cbd 6c1e d0be 332c 89be 2c0b 6f3d
-0.06465395 -0.27698535 0.035725597 -0.2811284 0.28266212 0.22375335 -0.02005235 -0.3118288
0.16958703 -0.046318598 -0.3730941 0.20398521 -0.25015438 -0.3287045 -0.22065403 -0.41778815
-0.018513968 -0.12154547 -0.0023537506 0.24903093 0.15158837 0.08137178 0.12240217 -0.37778923
-0.20745458 -0.19047967 0.25451818 -0.37970933 -0.1733706 -0.107508235 -0.09542334 -0.334168
-0.33256754 -0.14383167 -0.14528996 -0.46825334 -0.33755633 -0.37470847 -0.32001856 -0.27067524
-0.13915972 -0.26812682 -0.05129835 -0.1281446 -0.3346573 -0.43373853 0.19194432 -0.03566376
-0.45926142 -0.32670566 0.12500034 0.19369772 0.0430717 0.1715107 0.22020106 0.10848646
0.04955743 0.1522974 0.07049276 0.21738924 -0.21033998 -0.29393116 -0.33571848 0.07857845
-0.013880404 0.08398547 -0.07775786 -0.017597737 -0.17933762 0.08623124 -0.16388336 -0.103586
-0.12745142 -0.25544882 0.17776544 -0.20050423 -0.27836964 -0.2732169 0.11127282 -0.30218092
-0.078129336 -0.14766473 -0.19280554 0.25638753 0.18810979 -0.26090294 -0.21015687 0.14921522
0.046902314 0.19696233 -0.41934416 -0.16984916 0.07116009 0.12269389 0.2675514 -0.120309554
0.087655485 0.0040855026 0.26368687 -0.50495565 0.09850736 0.134963 0.112967655 0.15317866
0.072626576 0.07252973 0.09734914 0.06984914 0.15237291 0.010741196 -0.4882267 -0.5147539
0.0718078 -0.26973602 -0.45253617 -0.114694625 -0.12169222 -0.11271832 -0.41785192 -0.008059967
-0.5160966 -0.058245458 -0.3104557 -0.26306054 0.1675526 -0.3232901 -0.45414355 -0.38269302
0.038270134 -0.3220646 -0.04199112 -0.26198912 -0.41850433 0.26086953 0.16774946 -0.034763798
0.08553843 0.12101398 -0.3911028 0.16430657 -0.2804926 -0.26287472 -0.1263618 0.056094736
0.26216 -0.6771033 -0.3008412 0.09053495 0.26685753 -0.6303754 0.043489892 -0.485811
-0.029232513 0.23619269 -0.5037898 -0.87244314 -0.13607499 -1.2038537 -0.51954305 0.12190512
-0.004428634 -0.16073 -0.75479823 0.20749049 0.14834915 -0.4921313 -0.050234873 0.10837408
-0.4221503 -1.0126079 0.07145112 -0.11460501 -0.5202894 -0.6861398 -0.605754 -0.5470451
0.13784334 0.13403066 0.22213072 -0.7082515 -0.08731379 -1.0026151 -0.6158356 -1.0039303
-0.7056661 -0.924664 -0.44778922 -0.37862453 0.19806036 -0.35168296 -0.586822 -0.66689837
0.049258903 0.014690954 -0.061841737 0.029973945 0.19849358 0.097026356 -0.92358214 -0.7893603
-0.1356726 -0.00276788 0.07057785 -0.118045494 -0.20379643 0.1989645 -0.06525109 0.22179082
-0.22518289 -0.10580454 0.15118638 0.15988636 -0.17324992 -0.1274928 -0.11660194 -0.18307781
-0.04896626 0.12030835 0.23015292 -0.2000345 -0.21123473 -0.1070537 0.161401 0.18364567
-0.27272063 -0.22026746 0.15334085 -0.20442335 -0.1504789 -0.24005294 -0.047325857 -0.38960966
-0.19383064 -0.25871775 -0.20569663 0.18623146 0.11776776 -0.18628336 0.1468203 0.18257363
-0.2332232 0.1817249 -0.06757991 0.07059838 -0.102250464 -0.28979462 0.037298426 -0.1096484
-0.15336381 -0.15417184 -0.02181374 0.2522333 -0.07664118 -0.4064821 -0.26791534 0.058360264

fc2.bias f4 [32]
00000000: e0a4 9b3e a514 33bf 149c 0cc0 467d 9f3f
00000010: ff08 e5be 8b60 2e3f bd2f 53bf 8f9d dbbb
00000020: 43be 013f 9ccb 49bf 2a6f e1bc a0ba 7dbd
00000030: af80 213f 2c69 973f 2e63 99be 634d 4dbf
00000040: e896 f63e 5bcb 123f 6359 02bf bbbd 0a3f
00000050: e032 223f c912 31bf ea5f 66bf bc73 01bf
00000060: 31da 4ebe c8cc af3e de1d a1be b1be c9be
00000070: 3ea3 98bf 27fa 133e 381f c83e e185 3b3e
0.30399227 -0.69953376 -2.1970263 1.2460105 -0.44733426 0.6811606 -0.8249472 -0.006702132
0.5068094 -0.7882631 -0.027518827 -0.061945558 0.6308698 1.1828971 -0.2995848 -0.8019621
0.48162007 0.57341546 -0.50917643 0.54195756 0.6335888 -0.6916929 -0.89990103 -0.5056722
-0.20200421 0.34335923 -0.314681 -0.39403298 -1.1924818 0.14450894 0.39086318 0.1831279
